autoencoder.pth (torch, 193010 bytes, 12 tensors)

encoder.0.weight f4 [16, 3, 3, 3]
000000 03 28 1b be 42 ea 3e 3e 6d df 5f bc c0 10 a9 3c
       -0.15151982 0.1864405 -0.013664109 0.02063787
000010 dd 00 42 bc 70 15 6d bd 77 76 2f 3e 5b db 21 3e
       -0.011841026 -0.057881773 0.17135035 0.15806334
000020 ec 23 15 bd a8 79 34 3e d1 1c 2d be 49 d7 92 3d
       -0.03641121 0.17624533 -0.16905524 0.07169969
000030 a4 76 08 3e ab ae 26 3e 37 6d 94 3d 2b 18 e9 3d
       0.13326508 0.16277568 0.072473936 0.11381563
000040 34 f0 4c be 54 ac 86 bd e0 6c 56 bd be 4a fd bd
       -0.20013505 -0.06575838 -0.052349925 -0.123677716
000050 87 14 9f 3d 8f 8f ce 3d c0 cc fa bd 59 41 10 3e
       0.07767587 0.100859754 -0.12246084 0.14087428
000060 8c 12 e7 bd 51 10 73 bd b7 5c 1c 3e bd 97 9f bd
       -0.112828344 -0.059341732 0.15269743 -0.07792614
000070 d9 e3 d8 3d c7 20 04 bb da a2 8d bd e2 89 05 3d
       0.105903335 -0.0020161138 -0.06915827 0.0326022
000080 aa 3a 8f 3d 36 4d bb bd 85 3c bd bd 2b ba f0 bd
       0.06993611 -0.09145586 -0.09240059 -0.11754259
000090 9e 30 26 be a2 59 bb 3d f0 27 73 bd b3 97 8d 3d
       -0.16229483 0.091479555 -0.05936426 0.069137
0000a0 9c 08 94 bd 64 b3 6b bd 7b 63 02 3e 3d bd 32 bd
       -0.072282046 -0.057544127 0.12733261 -0.043637503
0000b0 53 1f 39 bd 1f 56 30 3e a6 bb 25 3e 4c 2c 38 3e
       -0.04519589 0.17220353 0.16184863 0.17985648
0000c0 8c fa 91 bd df 9b 3a 3e 6e 51 2a be 4b 1e 0a bc
       -0.07127866 0.18223523 -0.16632625 -0.008430074
0000d0 6f e5 0f 3e 39 aa b5 bc 81 f1 3a be 60 87 7c 3c
       0.14052366 -0.022175895 -0.18256189 0.015413135
0000e0 85 fd de bd 87 8e 37 be 7a cf 01 be af 7d e2 3c
       -0.10888199 -0.17925464 -0.12676802 0.027647821
0000f0 ae 0a b0 3d cd 9e 3e 3e 3c 9c 19 be 63 94 eb bd
       0.08595787 0.18615265 -0.15001005 -0.11502912
000100 14 81 4e 3d 7e 3b 04 be a0 2d 17 be 31 54 c3 bd
       0.050416067 -0.1291332 -0.14763498 -0.095375426
000110 7f e2 0c 3e 80 fd c7 3c a4 35 22 bd 68 a9 d3 3d
       0.13758276 0.02441287 -0.039601937 0.10335046
000120 dc 31 1a be bc c1 08 be f8 bd 55 3d 52 3a ee 3d
       -0.15058082 -0.13355154 0.05218312 0.116322175
000130 28 83 96 bd b4 87 04 3d 4e b7 28 be de eb 44 be
       -0.07349235 0.03235598 -0.16476175 -0.19230601
000140 5b af b4 bd 8f 06 0a be ff 3c 24 bd 7d a1 e2 3d
       -0.08822509 -0.13479064 -0.040097233 0.11065958
000150 50 ad 50 bc bb 4e 02 3e 01 d3 c6 3d e4 cb 5f bd
       -0.012736633 0.12725346 0.097082146 -0.054637805
000160 0f d0 fe bd 1b a1 5d bd de 63 12 be aa cf dc bd
       -0.12442028 -0.05410872 -0.14295909 -0.10781796
000170 be bd 49 be 05 92 e6 3c 9b 86 a7 3b 11 b5 2b be
       -0.19701287 0.0281458 0.005112482 -0.1676829
000180 78 65 48 3e fb 63 8a bb b7 5e 06 3d 63 a5 aa bd
       0.19569957 -0.0042233444 0.03280517 -0.08332326
000190 b9 76 bf bd d4 2e 8c bc 47 28 d0 3d fe 02 35 3e
       -0.093488164 -0.017112173 0.10163932 0.17676923
0001a0 27 02 0d 3e 23 84 1a 3e 74 23 6f bd 88 60 2a 3e
       0.13770352 0.15089469 -0.05838342 0.16638386
0001b0 b1 a9 ff bd e0 f7 61 3c 18 f8 0f 3d 90 10 9a bc
       -0.12483538 0.013792008 0.03514871 -0.018806726
0001c0 38 83 c4 bc 00 13 82 bc f0 a0 11 be e4 0e 3a bd
       -0.023988351 -0.0158782 -0.14221549 -0.045424357
0001d0 c5 91 aa bd 35 3e 04 3e 50 0f 37 3d 80 4e 79 bb
       -0.083285846 0.12914355 0.044692338 -0.0038041174
0001e0 cc 04 4a bd 31 4f 1d be 5b e8 a0 bd fc 57 47 bd
       -0.04932098 -0.1536224 -0.07856818 -0.048667893
0001f0 a8 9c 30 be 22 30 e9 3d 00 c1 e0 3c 8d d6 25 be
       -0.1724726 0.11386134 0.02743578 -0.16195126
000200 c4 32 5c 3d 16 b5 a4 3d 7a 24 d3 3d 94 48 ea bd
       0.05375935 0.08042352 0.10309692 -0.114396244
000210 b0 04 3f 3c 69 49 ec bd cb 55 b2 bd f3 30 f5 3d
       0.011658832 -0.115374394 -0.0870777 0.11972227
000220 30 06 dc bc 0d e4 80 bd 3a 11 be bd 63 9a 96 3b
       -0.02685842 -0.06293497 -0.092806295 0.004596041
000230 41 0e f5 3d 9f 4c ff bc af 72 9e bc c4 cd 0c 3e
       0.11965609 -0.031164465 -0.019341795 0.13750368
000240 99 6c b1 3c 5d ca 2a 3e 90 ec 4c 3d b5 c4 9d bc
       0.021658229 0.16678758 0.05003029 -0.019258836
000250 fe 5b 8f bd 4f 8a 00 3e ce 21 6f 3d 47 ad ee bb
       -0.06999968 0.1255276 0.058381848 -0.00728384
000260 75 2f 9f 3d 9c de 32 3e 94 eb da 3d 1b 7f 42 3e
       0.077727236 0.17467731 0.10689464 0.189938
000270 c4 15 05 bd 36 7f 5a 3e 64 c6 ea bd 88 ca ea bc
       -0.03249146 0.2133759 -0.11463621 -0.028661028
000280 81 48 1a 3e 82 a5 b4 3d 9e 85 fb bc 34 c5 28 bd
       0.1506672 0.088206306 -0.030703362 -0.041203693
000290 de a2 06 be b8 6c 33 3e ab 2b f9 3d 9a 8e 31 3e
       -0.13148066 0.17521942 0.12166532 0.17339554
0002a0 04 bf 36 be 01 d4 65 bc 6b 73 95 3d a4 97 1a be
       -0.17846304 -0.014027596 0.07297405 -0.15096909
0002b0 c9 fd bc 3d 9e 2d 1e 3c a0 65 92 bc a9 f5 1f 3d
       0.09228093 0.009654431 -0.017870724 0.03905264
0002c0 bf 47 0f 3e 6e 7b 3c be af 8a f0 3d ed 1f 1a 3e
       0.13992213 -0.1840646 0.11745202 0.15051241
0002d0 c1 74 99 3b 50 6d 10 3e 1c 80 06 3e 90 6d d2 bc
       0.0046831076 0.141042 0.13134807 -0.02568701
0002e0 3e 52 14 bb 2d b3 47 be f6 57 33 3e 0f 1d f2 3d
       -0.0022632028 -0.19501944 0.17514023 0.11821949
0002f0 86 f7 04 be 1b ef 2d be e0 df c3 3d e1 df 06 3e
       -0.12985048 -0.16985743 0.09564185 0.1317134
000300 39 f2 06 3d 9e 79 e5 bd fd b9 c5 bd 73 2e 2c 3e
       0.032945845 -0.11204837 -0.09654615 0.16814594
000310 f2 0c 2a be 89 65 36 3d f1 79 22 3e 02 e4 ec 3b
       -0.166065 0.044530425 0.1586683 0.007229329
000320 4c bc c5 bd 84 e9 a8 bc 09 c7 ad 3d ae 53 d6 bc
       -0.096550554 -0.020619161 0.084852286 -0.026162948
000330 32 70 b8 3d d5 27 a6 bd 77 28 79 bd 76 0d d5 3d
       0.090057746 -0.08113066 -0.060829606 0.10402958
000340 a8 27 bb 3d 8b fa 8e bd 95 ab c3 3c e9 f2 8c 3d
       0.09138423 -0.06981381 0.023885528 0.06882269
000350 43 e3 7d 3c 7c 9b a7 bd 26 de 08 be 24 7c c1 3d
       0.015496078 -0.08183953 -0.13365993 0.09447506
000360 3b 78 46 3d 0c cf 1c 3e 43 6d d0 3c c0 fa d3 bd
       0.048454504 0.15313357 0.025442725 -0.10350561
000370 ac ae 6e bd 2d 18 c6 bd 56 08 df 3d e5 13 c6 bc
       -0.05827205 -0.0967258 0.10890262 -0.024179408
000380 ec 8c 21 3e f3 90 88 bd 3d b0 38 bd ba 45 01 bd
       0.15776414 -0.06668272 -0.04508995 -0.031560637
000390 15 24 23 be 97 2f bc bd e2 82 e8 bd 3c 40 43 bd
       -0.15931733 -0.091887645 -0.11353089 -0.04766868
0003a0 76 77 10 be d9 a6 fd 3d 86 67 ed bd b5 fc 2f be
       -0.1410807 0.12385339 -0.11592011 -0.17186244
0003b0 6e c5 80 bd a9 c6 f7 3d 71 27 22 3d 94 00 18 bd
       -0.06287657 0.12098438 0.039588396 -0.037109926
0003c0 b5 6d 21 be c1 03 0d be c3 a1 0a 3e d0 2d 2a be
       -0.15764506 -0.13770963 0.1353827 -0.16619039
0003d0 5b e2 37 be c5 c3 1d 3e 2a c8 cf 3d 90 da 4e 3c
       -0.17957442 0.15406711 0.101456 0.012625352
0003e0 36 e1 d3 3d da c1 e4 bd 6e 78 cc bd 90 da 15 3d
       0.1034569 -0.11169787 -0.09983908 0.03658539
0003f0 16 1a cf bd b3 8e 2c 3e 00 99 41 bc 2c a4 3f be
       -0.101123974 0.1685131 -0.011816263 -0.1871497

encoder.0.bias f4 [16]
000000 63 15 93 3b 6e 1d 23 3e 0a b5 66 3c 14 cf 8b bd
       0.0044886335 0.15929195 0.014081249 -0.068266064
000010 d7 aa 35 be 25 62 60 bd 69 34 77 3e 46 59 67 3d
       -0.17740951 -0.054781098 0.24141087 0.056481622
000020 39 0b bf 3d 80 1b 08 bd aa b5 2b bd 5c 0f 8b bd
       0.093283124 -0.03322935 -0.041921295 -0.06790039
000030 98 64 0a 3e df 94 88 3d 5c 00 07 bd c5 68 0d be
       0.13514936 0.0666902 -0.032959327 -0.13809498

encoder.2.weight f4 [32, 16, 3, 3]
000000 fa 5c c3 bd 0e 92 3e bd 85 80 03 bc 1f 13 4b 3d
       -0.09539218 -0.046526007 -0.008026247 0.049578782
000010 a6 24 65 bd 4f 97 79 bd 32 17 ac bd 51 6c c7 bd
       -0.055943154 -0.060935315 -0.08402862 -0.097374566
000020 84 3d 13 39 ec 27 8e 3d 91 af af 3d 64 95 b6 3d
       0.00014041929 0.06941208 0.085784085 0.08915213
000030 d3 0f 0e 3e 09 4a 0f 3e 95 76 b9 3c a1 81 11 bc
       0.13873224 0.13993086 0.022639552 -0.008881004
000040 c1 3c 0d 3e e3 2b d8 3d 9d c2 a1 3d e8 fb 54 3c
       0.13792707 0.10555246 0.07898448 0.012999512
000050 a0 f2 1f bc 6b 2b 81 bd 0d a6 d8 bc 7a cb 0b 3d
       -0.009762436 -0.063071094 -0.026446367 0.034129597
000060 7d 85 8d 3d de 33 6a bd 60 22 0b bd a1 c4 04 3d
       0.069102265 -0.05717837 -0.03396833 0.032414082
000070 b1 08 a1 bd b8 e4 97 bc 5f 96 9d 3a 75 57 e8 bd
       -0.07862986 -0.018541679 0.0012022963 -0.11344806
000080 61 22 da bd 67 aa fd 3b bd 57 76 3d 5f 7d b2 3c
       -0.106510885 0.007741261 0.060142267 0.021788297
000090 3e b0 65 bd 53 e9 76 bd ce 0b 23 3d 30 d4 d0 3c
       -0.05607628 -0.06028111 0.03980618 0.025491804
0000a0 4b 18 6a bd e6 06 bc bc 93 c4 2a bd 10 82 e7 bc
       -0.057152074 -0.022952508 -0.041691374 -0.02826026
0000b0 ac d5 f4 3c c6 a7 7b 3c 30 0f 7b bc 77 54 7c bd
       0.029887043 0.0153598245 -0.015323445 -0.06160399
0000c0 52 92 76 bd bd 60 a4 3c f3 32 30 bd ca c5 bf bc
       -0.060198136 0.02006566 -0.04301734 -0.023409743
0000d0 70 b6 e9 3c 10 29 a7 bd 02 84 40 bd 8b 23 87 3d
       0.028529376 -0.08162129 -0.047000892 0.06598576
0000e0 1e 6a 23 bd f6 38 79 bd b4 4b a6 3d f2 bc cb 3d
       -0.039896123 -0.060845338 0.08119908 0.09948148
0000f0 7b 0c 80 3d aa 81 b3 3c 9c 1d 49 3d df ed e0 bc
       0.062523805 0.021912415 0.049100503 -0.027457176
000100 ef 9b 94 bc 5e f1 88 3d 35 26 82 3d 35 74 a4 bd
       -0.018140761 0.06686662 0.06354944 -0.08029977
000110 a8 45 50 3d a0 01 74 3d c3 e9 39 bd 51 9d 00 3d
       0.05084768 0.059571862 -0.04538895 0.03140003
000120 08 05 e5 3c 45 7d fb 3c 5f d9 11 bd 6d c2 b2 3d
       0.0279565 0.030699382 -0.03560769 0.0872849
000130 b8 1f b0 3d cd b3 b9 3d 53 9e 11 3d a1 79 62 3c
       0.085998 0.090674974 0.03555138 0.013822944
000140 77 3a bc 3d f4 a3 95 3c e2 a7 32 3d f0 1b 2d bd
       0.09190839 0.018266656 0.043617137 -0.04226297
000150 16 d0 67 bd 9c ac 8f bc 44 fa c1 3c 7c e5 cc bc
       -0.05659493 -0.017538361 0.023678906 -0.02501177
000160 ee fd 60 bd 80 34 36 3c d9 ff d8 3c 7b 25 8e 3c
       -0.054929666 0.011120915 0.026489185 0.017351856
000170 ee 5a 20 3d 64 28 eb bc 9e 2e 70 3d 2e b2 79 3c
       0.039149217 -0.028705783 0.058638208 0.015240235
000180 71 2f a4 bd 76 f8 a7 bd 12 c7 9d bd 8c ea cd 3c
       -0.08016861 -0.08201687 -0.07703985 0.025136255
000190 d6 3a 3d bd 90 83 c4 3b 8c 8c dc 3c 30 bb dc bb
       -0.04619869 0.005997129 0.026922487 -0.0067361817
0001a0 68 e7 0d bc f8 ae 6c 3c c0 c7 7e bd 82 6d a0 bd
       -0.008661129 0.014446013 -0.062202215 -0.07833387
0001b0 e8 5f c9 3c 85 90 97 bc c9 4e cd 3c f1 79 4d 3d
       0.024581864 -0.01850153 0.025061982 0.05016512
0001c0 45 ce ce bc d0 75 a3 3d 2f db 2a 3c af 80 25 bd
       -0.025244841 0.07981455 0.010428234 -0.040405925
0001d0 b2 93 83 3d 6a 78 c1 bc 30 f2 a7 3d d1 3a ad bc
       0.06424655 -0.023616988 0.082004905 -0.02114621
0001e0 e7 1b 40 3d 66 94 7a bb 7b 6f a1 3d 0e 8c c9 3d
       0.04690161 -0.0038235425 0.07882591 0.098411664
0001f0 ac 8d f7 3d ca f3 3b 3b c2 98 72 3d 9b 5b 83 bd
       0.12087569 0.0028679245 0.059227712 -0.06413957
000200 00 c4 9f bc 90 fe c0 bc d6 92 4c bd 00 7c bd 3a
       -0.01950264 -0.023558885 -0.04994472 0.001445651
000210 ba 13 9c bd b0 c7 83 3b 56 4b 13 bd e6 29 b5 3c
       -0.0762095 0.0040216073 -0.035960518 0.022114705
000220 66 62 8d 3a c3 21 97 3b 36 d5 b0 3b d3 38 8c bd
       0.0010786771 0.004612179 0.0053965105 -0.06846776
000230 bc 3f f9 3c d2 2c ea bd 91 c3 b1 bb 88 13 dd bd
       0.030425899 -0.1143433 -0.0054249247 -0.10794741
000240 73 76 85 bd d0 da 4f 3b ff f1 ad 3c 24 ec 90 3b
       -0.06516733 0.0031716116 0.021233557 0.0044226814
000250 ea 61 c0 bd c1 8c 85 3c da d9 c4 bc 76 ba b8 bc
       -0.093936756 0.016302468 -0.024029661 -0.022549849
000260 56 ea 17 3c c5 65 89 3d 3d 19 b2 3d da 92 1b 3e
       0.009272179 0.06708864 0.0869622 0.15192738
000270 2a 1b 12 3e 6c f2 00 3e 73 c7 0e bb 06 21 fa bb
       0.14268175 0.12592477 -0.0021786361 -0.007633331
000280 66 a8 06 3e 0a 4e 99 3d 0e f1 31 3d 00 2c 72 ba
       0.13150176 0.07485588 0.04344278 -0.0009238124
000290 8a 5f 10 3d be f6 32 3d a4 ab 3c bd 0a 8d 51 3d
       0.035247363 0.043692343 -0.046062127 0.051159896
0002a0 9c a8 eb 3c 30 5b f1 3c 7c 78 ec 3c 73 cb bc 3b
       0.028766923 0.029462427 0.028866045 0.0057615577
0002b0 15 2a d5 3b 6c e7 db 3a 4c 8e 69 3c 12 16 cc bd
       0.0065052607 0.0016777343 0.014255118 -0.09965147
0002c0 7c 48 d6 bc d5 8d e7 bc 60 99 53 bb b0 3e 91 3b
       -0.02615761 -0.028265873 -0.0032287464 0.0044325218
0002d0 40 4b f8 3c 60 f9 08 bb ea de 5a 3d 0a d7 59 3d
       0.03030932 -0.0020900592 0.053435244 0.053183593
0002e0 18 8d 26 3d 53 28 8d bd c3 47 9a 3d b0 8c ec bc
       0.0406619 -0.06892457 0.07533219 -0.028875679
0002f0 98 07 51 bc 80 b8 d7 3b b0 ad 55 bc 95 67 ec 3c
       -0.012758158 0.0065832734 -0.013041899 0.028857986
000300 50 cd f1 3b 76 d9 3f 3b ee fb f5 bd e3 07 26 bd
       0.0073792115 0.0029273904 -0.120109424 -0.040534865
000310 ed ca 46 bc 5f 14 25 bc 76 a5 23 3d 7f 81 d4 bc
       -0.012133342 -0.010075658 0.039952718 -0.025940655
000320 d5 d4 70 bd 4f a2 a0 3d 0c 4f cb 3d 20 ec 3d 3d
       -0.058796722 0.07843458 0.09927186 0.046367764
000330 ab e3 d1 3d bb de 42 3d c2 0f cb 3b bf 83 ae bd
       0.10248502 0.047575694 0.006196947 -0.08521222
000340 6d cf a6 bd f9 93 75 3d ad ca 62 3b bc 1c 31 bd
       -0.08145032 0.05995557 0.0034605667 -0.043240294
000350 3c 14 ad bd 14 39 91 bd 9b af fd 3c 70 e9 52 3d
       -0.08451125 -0.07090965 0.030967524 0.051492155
000360 83 d4 a2 3c 90 0c 12 bc 69 cb 58 bd 8a 47 dc 3c
       0.019876724 -0.008914128 -0.052928362 0.026889581
000370 bc 23 65 3d e1 b0 86 3d 8e e9 bd ba 7a d8 9b 3d
       0.055942282 0.06576706 -0.001448916 0.07609649
000380 74 ea 76 3d f0 42 91 3c 84 56 bb 3c d7 e8 a1 3d
       0.060282186 0.017732114 0.022868402 0.07905739
000390 b4 53 f5 3c 90 84 a8 3b c0 25 53 bd c0 7e 48 3c
       0.02994714 0.005142756 -0.051549673 0.012237251
0003a0 2a 61 43 3d 88 3a a0 bd 0f 33 07 bc b3 c4 24 3d
       0.047700085 -0.07823664 -0.008251919 0.04022665
0003b0 e1 5b a9 bd 7e c6 65 bd 57 0d bb bc 28 ae a9 bd
       -0.08269478 -0.0560975 -0.02283351 -0.08285171
0003c0 1d 60 2f bd d6 4c 6a bd 0c 8d 43 3d 20 8b 69 3c
       -0.04281627 -0.057202183 0.047741935 0.014254361
0003d0 40 a3 d7 bb 4d 4f 9c 3d 16 63 57 3d f8 8d 3c bc
       -0.00658074 0.07632313 0.05258473 -0.011508457
0003e0 70 79 c9 bb 7e 3c 49 3d 5c 0f ca 3c 00 0c cf ba
       -0.0061485097 0.049129955 0.024665527 -0.0015796423
0003f0 08 78 c3 3d da 1e b7 3d 48 2b 5a 3d 10 69 cc bc
       0.095443785 0.08941431 0.053263932 -0.024952441

encoder.2.bias f4 [32]
000000 1f 09 0c 3e 8c a9 91 3d 1b a2 09 3e 5b ee fc bc
       0.13675354 0.071124166 0.13440745 -0.030875375
000010 1b c8 fe bc 0f 68 b3 3d f2 73 92 bc 1e f8 0d bc
       -0.031101277 0.08760082 -0.017877553 -0.008665113
000020 00 91 12 3d 00 f9 0e 3b f6 01 cc 3d fa d6 86 3d
       0.035782814 0.0021815896 0.099613115 0.06583972
000030 c1 04 e1 3d ce e0 f2 3d 3c 89 ad 3d d6 42 00 bd
       0.10987235 0.11859284 0.08473441 -0.03131374
000040 19 63 31 bc e2 f1 ab 3d 39 60 f6 3d a7 73 a1 3a
       -0.010826849 0.08395745 0.12030072 0.0012317792
000050 03 0e 10 3e b6 c0 67 bc db 5e a7 bc 50 de 83 3c
       0.14067845 -0.014145067 -0.020430973 0.016097218
000060 29 b9 bf 3d eb 11 a5 bd ed 76 4f bc a4 d5 e6 3d
       0.09361488 -0.08060058 -0.012662631 0.112712175
000070 81 a5 9d 3d 4d a0 23 bd 43 a8 11 3e 60 7b ea 3d
       0.07697583 -0.039947797 0.14224343 0.11449313

encoder.4.weight f4 [64, 32, 3, 3]
000000 32 31 da bc 45 b4 97 3c 26 a0 27 bd f1 66 ff bb
       -0.026634786 0.018518576 -0.040924214 -0.007794254
000010 15 46 c0 bb 79 c7 14 3d f1 aa 72 bc b8 cf cd 3b
       -0.0058677294 0.036323044 -0.014811263 0.0062808655
000020 89 08 a3 bc 90 36 cd bc fd 6b 17 bd 22 d7 a5 3c
       -0.01990153 -0.025050431 -0.03696822 0.020244185
000030 fe cc f6 3c b4 8e 60 bd a8 e2 1b bd ea 99 d7 bb
       0.030127045 -0.054823592 -0.038057953 -0.0065796273
000040 a1 8a 6b bd ad 82 34 bd 35 7c 08 3c c6 68 e2 ba
       -0.057505254 -0.044069935 0.0083303945 -0.0017273657
000050 58 73 47 3d a2 39 08 3c 9a 11 63 bd 2a 09 46 bc
       0.048693985 0.008314522 -0.055436708 -0.012087146
000060 7b 77 76 bc 18 93 53 3d 58 6b 15 bd 53 01 6f 3d
       -0.015043135 0.05165395 -0.036479324 0.058350872
000070 e6 34 ba bc 40 49 b6 ba 4a e0 fc 3c 30 86 bb bc
       -0.022730302 -0.0013907328 0.030868668 -0.022891134
000080 c8 db 3f bc 11 6e 22 3d 10 3a 50 bc a0 2f 5b bd
       -0.011710115 0.03965575 -0.012709156 -0.053512216
000090 39 d5 34 3d 7e 8a 98 3c 52 51 da bc d7 5d 22 3d
       0.044148657 0.018620726 -0.026650105 0.039640274
0000a0 12 0c a4 3c d6 d7 bd 3c df 9f 15 bd 69 92 3c 3d
       0.020025287 0.023174208 -0.036529418 0.046038065
0000b0 c3 ad 1b 3d 47 09 2e bd ef d6 de 3c 50 df ce bc
       0.03800751 -0.042489316 0.027202098 -0.025252968
0000c0 f6 f1 34 3c 8c c9 1b 3d d7 10 57 3d 84 33 42 3d
       0.011044016 0.038034007 0.052506294 0.04741241
0000d0 07 c3 3d b9 e9 8d 12 bd 56 e0 ce 3c 2f b1 68 3d
       -0.00018097098 -0.035779867 0.025253456 0.0568096
0000e0 a1 b6 6e bd d0 13 bb bb 7c 1e 3d bc 34 48 29 3c
       -0.058279637 -0.005709149 -0.011542913 0.010332156
0000f0 af 14 66 3d 94 f1 91 bc 0f c8 5a 3d b8 fd f6 bb
       0.05617207 -0.017815389 0.053413447 -0.00753757
000100 62 ba f2 3c 5d bd 68 bd 24 df e8 bc e8 d2 6e bc
       0.02962989 -0.056821216 -0.028426714 -0.014576651
000110 15 a6 59 3d 60 f5 05 3b a5 b4 f7 bc a4 dd 16 3c
       0.053136904 0.0020440444 -0.030237505 0.009208117
000120 f2 6e 50 bb 42 0f fb 3c 0e ff a1 3c 8b 7f 1e bd
       -0.003180441 0.030646924 0.01977494 -0.038695853
000130 f0 2c 1d bd 57 b1 89 3a 85 22 01 bd 00 b6 e5 3a
       -0.038372934 0.0010505122 -0.03152706 0.0017525554
000140 85 13 96 3a 38 66 1c bd 24 28 2a bd eb 38 52 3d
       0.0011449909 -0.03818342 -0.041542187 0.051323812
000150 ad 03 3d 3d e5 b0 21 3d e8 25 25 bd 16 a4 8e bc
       0.046146084 0.03947534 -0.040319353 -0.017412227
000160 34 05 b6 bc 03 14 12 3d 09 3e c2 3c a5 d3 67 3d
       -0.022219278 0.035663616 0.023711221 0.056598324
000170 65 5e 13 3d df d9 27 bb cc c7 29 3d 50 d4 53 bc
       0.035978694 -0.002561204 0.041450307 -0.012929037
000180 6b 2c 82 bb d0 46 61 3c 3f 93 4c bd 24 12 3a 3d
       -0.00397258 0.013749793 -0.049945112 0.045427456
000190 f5 09 49 3c 07 d4 14 3d 4b 40 59 3d f7 b1 f0 bc
       0.01227044 0.036335018 0.05303983 -0.029381735
0001a0 d0 cd 46 bd 91 e8 44 bc 66 00 6a bd 26 a0 e2 3b
       -0.04853612 -0.012018339 -0.057129286 0.006916064
0001b0 13 00 54 3d 12 9e 05 3c 08 28 d7 3b b0 ce 51 3d
       0.051757883 0.008155363 0.0065660514 0.051222503
0001c0 b4 29 03 3a 75 b4 05 3b 8f 74 13 bd b1 29 e4 bb
       0.00050034677 0.002040175 -0.03599983 -0.006962978
0001d0 d3 bc a4 3c ff 6d 8c bb ea 77 a0 3c 34 37 ae 3c
       0.02010957 -0.0042855735 0.01958843 0.021266557
0001e0 85 89 db bc 7d 07 60 bc 28 ff 87 b8 66 72 4e bd
       -0.026798973 -0.01367366 -6.484828e-05 -0.050402068
0001f0 07 21 3b bd e9 91 18 3d c1 8d 91 ba 3e 73 bb bc
       -0.045685794 0.037248526 -0.0011104868 -0.0228821
000200 1c 15 c9 3c 34 b3 66 3d 55 9f 5f 3d 7a c0 6b bc
       0.024546199 0.056323245 0.05459531 -0.014389152
000210 4a 91 6c 3d c1 ed 83 3c f3 8b 4f 3c be 64 a5 bc
       0.057755746 0.01610458 0.012667644 -0.02018964
000220 63 18 0e 3d 4d 4e 41 3d 3c 0e 7d 3c 6a 7b 25 bd
       0.034691226 0.047193814 0.015445288 -0.0404009
000230 f7 87 28 3d 2c b9 19 3c c0 36 3b bb 79 3b 4c 3d
       0.04114529 0.009382527 -0.002856657 0.049861405
000240 c2 ca c4 3c c0 1e 84 3a 20 6a df 3a 90 fb eb bb
       0.024022464 0.0010079965 0.0017045178 -0.0072016194
000250 ce 49 fd 3c f0 11 70 bb 18 c8 dd bb 44 67 f9 bc
       0.030918982 -0.0036631785 -0.006768238 -0.030444749
000260 bf f2 34 3d 80 d6 9d 3c d0 41 db bc 91 f5 9e bc
       0.044176813 0.01926732 -0.02676478 -0.019404205
000270 40 51 85 3b 0b e4 01 3c 20 8c 17 bd 40 e9 90 ba
       0.0040685236 0.007927905 -0.036998868 -0.0011055842
000280 83 dc 77 bc a1 e6 02 3d 24 74 01 3d 03 9a 45 3d
       -0.015128258 0.031958226 0.0316049 0.04824258
000290 ae ba 1d bd 51 1d 38 bc f6 d2 60 bd 26 7d d0 ba
       -0.03850811 -0.011237458 -0.054888688 -0.0015906438
0002a0 5a e9 09 bd e5 97 db 3b b8 a7 ff 3c 07 f5 4f 3d
       -0.033669807 0.006701457 0.031207904 0.050770786
0002b0 7d ac 4d bd 80 40 82 39 c1 69 2d 3d 20 07 91 bc
       -0.050213326 0.00024843588 0.042337183 -0.017703593
0002c0 08 f3 b4 3b 3c 5c 8b bc 9e 8d 1f bd ba 7a a7 3c
       0.0055221356 -0.017011754 -0.038953416 0.020444263
0002d0 be b7 67 bd 04 56 1e bd a4 aa e6 bb 57 15 c1 bb
       -0.056571715 -0.03865625 -0.007039385 -0.0058924365
0002e0 12 a7 94 bb ff 2a 4a bd 5a 0d 55 bd ab 18 23 bc
       -0.004536518 -0.04935741 -0.052014686 -0.009954612
0002f0 3f 7a 13 bd f2 cd d1 3b cd 02 57 3c 5f 42 49 3c
       -0.036005255 0.0064027244 0.013123226 0.0122838905
000300 02 7c d7 3c 76 9c 12 3d af 07 94 bc 38 2a 1b bd
       0.026304249 0.035793744 -0.01807007 -0.03788206
000310 8f 43 d1 bc 4e ca 0b 3d 15 ca 09 bb b6 7b 89 bc
       -0.02554491 0.03412848 -0.0021024991 -0.016782623
000320 10 d7 93 bc dc 2a 81 3c 33 53 56 bc 84 cd aa bc
       -0.018046886 0.015767507 -0.01308136 -0.02084995
000330 0d 0b 18 3d 43 49 c1 3c 3b 5d 47 39 ba b2 6f bd
       0.037119914 0.023594504 0.0001901285 -0.058520056
000340 ae 6a 1c 3c 27 6c 64 ba d7 df 00 bd f9 6f 96 bc
       0.009546919 -0.0008713626 -0.03146347 -0.01836394
000350 b9 12 aa bc 8f fd df bb e6 31 1e 3d e8 45 6f bd
       -0.02076088 -0.0068356465 0.038621806 -0.058416277
000360 fb 5f 2f bd 3c 3f bb bc bc 73 9a 3c 3a 69 d9 bc
       -0.042816143 -0.022857301 0.018854015 -0.026539434
000370 57 4d 53 3c e2 1d 06 3d 19 29 90 bc de 4b 68 bd
       0.012896857 0.032743342 -0.017597722 -0.056712978
000380 ff 94 02 bd c3 76 18 bd 15 3b 40 bd 52 95 85 3c
       -0.031880375 -0.037222635 -0.046931345 0.016306553
000390 bd 55 24 bd 1d 3e 1c 3d 81 3b 52 3d 12 77 33 bd
       -0.04012083 0.038145173 0.05132628 -0.043814726
0003a0 20 3f 77 bc 54 b9 6f bd 2e 19 de ba 05 b7 45 3d
       -0.015090734 -0.058526352 -0.001694476 0.048270244
0003b0 12 62 bd bc df 8b 4a bd b6 b5 04 bd 6f 1a 04 3d
       -0.023118053 -0.049449798 -0.032399856 0.03225177
0003c0 2f 0b ad 3c cc d0 6c bd 3e 6b 5e 3d 9c e4 63 bc
       0.021123497 -0.05781631 0.054301493 -0.013909485
0003d0 61 37 d2 bc 34 1c e2 3b 92 66 43 3d 7c 09 49 3d
       -0.025661172 0.0069003347 0.04770524 0.04908131
0003e0 90 85 df bb d8 fa a2 bc 81 0a bf bc a3 a1 41 3d
       -0.006821342 -0.019895002 -0.023320438 0.04727329
0003f0 80 02 50 bb e6 28 6b bd 9e cf 38 3d 5b c7 43 3c
       -0.0031739771 -0.05741205 0.045119874 0.0119493855

encoder.4.bias f4 [64]
000000 ce 60 5b bd 5b 64 3d 3d d6 27 f8 3c 6b e4 24 bd
       -0.053559117 0.046238285 0.030292433 -0.0402569
000010 36 96 c1 3d bb 34 ce 3c 7a 6f 94 3c 16 a8 9e 3d
       0.094524786 0.025171628 0.018119562 0.077469036
000020 4f d9 87 bd 62 e2 07 3d 81 c9 b7 3d 40 2c 25 bd
       -0.06633245 0.03317488 0.08973981 -0.040325403
000030 ba 8f 41 bd 67 38 d9 3d 52 4e 9f 3d 0e a3 4d 3d
       -0.04725621 0.10606461 0.0777861 0.05020433
000040 cd 77 60 bb ba b3 a8 3d e5 a4 98 3d 54 d7 b9 3b
       -0.0034251094 0.08237405 0.07453326 0.005671421
000050 7e 53 4b 3b 43 6a a8 3d f7 27 8d 3d 2d 23 6b 3d
       0.0031025107 0.08223393 0.06892388 0.057406593
000060 c9 5d cd 3c 70 51 18 bd 65 05 4e 3d b6 63 b3 3d
       0.025069134 -0.03718704 0.050298113 0.08759253
000070 9d 55 c0 3d d2 6a 91 3d fd 03 1b 3d 5f 41 d7 bc
       0.093913294 0.071004525 0.0378456 -0.026276289
000080 50 16 03 3d af 9c aa 3c d5 bd 7d 3d 4a a6 8f 3d
       0.0320037 0.020826666 0.061948616 0.07014139
000090 91 1d 20 b9 7a 4f 32 3d 68 22 4a 3d e4 8e 62 bd
       -0.00015269803 0.043532826 0.04934922 -0.055312052
0000a0 23 96 b3 3d 34 26 b2 bc a4 4a 4d 3d c9 a7 47 3d
       0.08768871 -0.021746732 0.05012001 0.048743997
0000b0 24 31 5b 3d 68 a9 ef 3c a3 9f b2 3d 4d 5e aa 3d
       0.05351366 0.029255584 0.087218545 0.08318768
0000c0 3d a1 4f bd e5 b9 a9 ba ed 29 ae 3c a2 f8 d8 3c
       -0.05069088 -0.0012949078 0.021260226 0.026485745
0000d0 99 07 29 bd 64 97 0f 3d 7d 63 89 3d 04 22 c1 ba
       -0.04126701 0.035056487 0.06708429 -0.0014734869
0000e0 c7 d3 1a 3d 53 88 02 3d 38 14 67 3d 36 96 4a bc
       0.037799623 0.03186829 0.056415766 -0.012364915
0000f0 58 57 d6 3b bb d4 c8 3d 8d 02 06 bd a4 0e c9 3c
       0.006541174 0.098062 -0.032717276 0.024543114

decoder.0.weight f4 [64, 32, 3, 3]
000000 bc d6 0e 3c b8 48 87 bc 73 23 29 3d 8a 45 eb 3c
       0.008718189 -0.016514167 0.041293573 0.028719682
000010 2e 92 54 bd 2b fd 53 3d 7c 5f a4 bc 1e 77 4d bd
       -0.05189722 0.05175511 -0.020065062 -0.050162427
000020 e1 c2 40 3d 04 e6 98 bb 71 eb 6b 3d 21 0e f8 3c
       0.04706085 -0.004666092 0.05759758 0.030280175
000030 55 ef 13 3d 6b 11 5a bd 9a 30 ab bc d1 d0 56 bd
       0.036116917 -0.053239267 -0.020897198 -0.052445237
000040 68 fd e9 3b 90 6f 33 3d ab 20 97 bc 23 7e fb bc
       0.007140804 0.043807566 -0.018448194 -0.030699795
000050 9e b5 3a 3b 06 9a de bb 1a 1c 10 3d 8f d1 33 bc
       0.00284896 -0.0067932634 0.03518305 -0.010975256
000060 f1 e6 30 bd 2e 0f 33 3d 71 9b 69 3c 50 79 9a bc
       -0.043188993 0.04371565 0.0142582515 -0.018856674
000070 64 8e f1 b9 56 18 a8 bc d6 11 8a bc ce 5b d5 3c
       -0.0004607319 -0.020519417 -0.016854208 0.026044752
000080 93 cc 4a 3d a0 d3 80 bb d9 d5 57 bd f8 04 fe 3b
       0.049511503 -0.0039314777 -0.052694175 0.007752057
000090 34 a9 29 3c d1 1d 50 3d c2 4a bb 3c 84 45 19 3a
       0.010355283 0.050809685 0.022862796 0.00058468455
0000a0 f8 29 62 bd 54 49 4d bd 85 71 61 bd da 73 c6 3c
       -0.055215806 -0.05011876 -0.0550399 0.024225164
0000b0 7d f9 60 bd 14 d4 6c bd 3c a0 52 bd 09 85 4e bb
       -0.05492543 -0.05781944 -0.051422343 -0.00315124
0000c0 c2 d5 29 bc bc 05 45 bd 9b cd 37 bc 31 80 e4 3c
       -0.010365905 -0.04810117 -0.011218454 0.027893158
0000d0 88 a3 21 3d ad 17 1f 3d b4 bd 3f bc 00 46 8c b8
       0.039462596 0.03884094 -0.011702944 -6.688759e-05
0000e0 bc ed 08 3c 0d 00 2f 3d 04 0a cb 3a bc f8 4b bd
       0.008357462 0.042724658 0.0015490656 -0.04979776
0000f0 42 52 03 bd 17 df 6f 3d ea 04 bd 3c a9 7c 63 3d
       -0.03206087 0.058562364 0.023073632 0.055538807
000100 28 71 44 3d 20 4b ec ba 80 3a df b9 d8 49 81 3b
       0.047959477 -0.001802776 -0.0004257746 0.0039455704
000110 80 c4 f1 b9 ed bb 47 3d 5a 36 44 3c 7c 86 2e 3c
       -0.00046113506 0.048763204 0.011975849 0.010652181
000120 b5 45 13 3d 76 e3 8f 3c fc dd d8 bc 39 86 4d bd
       0.03595515 0.017564517 -0.026473038 -0.050176833
000130 c0 7a 85 3a 3b b2 5a 3d 4a 7a ca bc e9 00 5f 3d
       0.0010183677 0.05339263 -0.024716515 0.054444227
000140 f2 df 85 3c 88 37 b5 3b b1 d7 2f bd eb df 3e 3d
       0.016342137 0.0055303015 -0.04293031 0.046600264
000150 34 06 4e 3c 31 d9 34 bd 8b 17 18 3d 1a 7b bf bc
       0.012574721 -0.044152442 0.037131827 -0.02337413
000160 98 71 d4 bb e5 32 42 3d 38 c6 eb 3b ae 4e 5f 3b
       -0.006483268 0.047411818 0.0071952604 0.0034073996
000170 47 0b 48 bd ef 0b 41 bc 7a 19 98 3c db de 13 3d
       -0.04883888 -0.01178263 0.018566836 0.036101203
000180 6c fe 07 3d bb 8f e1 3c 3b c6 16 bd 9b bc 07 3d
       0.03320162 0.027534356 -0.03681014 0.033138853
000190 94 d1 46 bc 6e 13 ec 3c f9 39 b6 3c 84 64 99 3c
       -0.012134928 0.028817859 0.02224444 0.018724687
0001a0 0b c0 62 3c 70 5f de 3c 39 e9 4d 3d c5 95 15 3d
       0.013839732 0.027145118 0.050271247 0.036519784
0001b0 5c 33 03 bd a9 a4 63 bd 58 ea fc 3b a8 57 31 bb
       -0.032031402 -0.055576954 0.0077183656 -0.0027060304
0001c0 56 10 95 bc 8f e6 49 bd f0 d1 0c bb 36 5d cd bc
       -0.018196266 -0.049292143 -0.0021487437 -0.02506886
0001d0 ab a0 17 3d 34 59 62 3c 5f 9c 66 3d 18 6a cc bb
       0.03701846 0.013815213 0.05630147 -0.0062382333
0001e0 80 22 3e bb da bb d9 3c 11 e9 08 3d 55 99 3e 3d
       -0.0029012263 0.026578832 0.033425394 0.046532948
0001f0 d9 79 e7 bc 69 7d 69 3d 55 1d 1f bd 4e f7 0c bd
       -0.028256344 0.057004366 -0.038846333 -0.034415536
000200 92 c0 6a bc ce d7 ef bc 5a 78 5e bd 12 45 3d 3d
       -0.014328139 -0.029277708 -0.054313995 0.04620845
000210 4c 28 38 3d 42 ec 1a 3d 50 f9 f0 3c 10 2f 28 bc
       0.044960305 0.03782297 0.029415756 -0.010265127
000220 4d 8e 6d bd e6 c7 41 bd 0a ec 51 bd 30 ea 68 bc
       -0.057997037 -0.04730978 -0.051250495 -0.014215991
000230 2f 9e c6 bc 73 24 10 3d e0 67 3c bc f8 ce 6c 3d
       -0.02424535 0.03519101 -0.011499375 0.05781457
000240 ab cb 68 bd 64 e1 84 bc 7a 11 cc bc 26 5d c9 3c
       -0.056834858 -0.016220756 -0.024910677 0.02458055
000250 34 d1 5c bd d0 fe 80 bc f1 3b 43 bd da 76 c0 3c
       -0.05391045 -0.015746504 -0.047664586 0.023494173
000260 c2 ca 22 bd b5 26 ee bb a7 8b 15 bd 10 eb 41 bd
       -0.039744146 -0.007267798 -0.036510136 -0.047343314
000270 bc ba 27 bc ca 3f 85 bc c0 6b 92 3a ba 97 e5 3c
       -0.010237392 -0.016265769 0.0011171028 0.02802645
000280 40 35 68 bd d3 9c e1 3c 14 47 43 3d 3e e4 c2 3c
       -0.05669141 0.0275406 0.047675207 0.023790475
000290 6c 6d 01 3d fb 9e 44 3d 21 00 29 3d 74 06 4d bc
       0.031598493 0.048003178 0.04125989 -0.012513746
0002a0 01 b9 5c bc e9 a5 0e 3d 88 8a 5b 3b 94 1b 6a bd
       -0.013471843 0.034826193 0.003349932 -0.057155207
0002b0 00 08 1b b8 6d b6 5c bd 70 91 1a bc dc af 52 bc
       -3.696233e-05 -0.053884912 -0.009434089 -0.012859311
0002c0 c0 33 1e bc 7a 17 aa bb 96 5a 25 bd 9a 24 db 3b
       -0.009655893 -0.005190787 -0.040369593 0.006687713
0002d0 17 4a 92 bc d7 bc 23 3d 13 36 d3 3c c6 96 5e bb
       -0.017857594 0.039975014 0.02578262 -0.003396438
0002e0 40 01 e7 ba e7 15 b2 3b 5a ea 98 bc 39 0d 10 3c
       -0.0017624274 0.00543474 -0.018666435 0.008792215
0002f0 10 58 bd bc 18 65 1f bc 68 14 09 bd b1 8c 32 3d
       -0.02311328 -0.0097286925 -0.033466727 0.043591205
000300 aa b6 a3 bc c8 78 03 bc 56 c9 cb 3c 3a 28 d9 3c
       -0.019984562 -0.008024402 0.024876278 0.02650844
000310 2d c1 6b 3d cb 23 5b 3d fb 37 6a 3d a0 f2 99 ba
       0.057557274 0.05350093 0.057182293 -0.0011745282
000320 7c ec 37 3c 9c 9f 06 bd db 89 4c 3d 4c 9c 47 bd
       0.011225816 -0.03286706 0.049936157 -0.04873304
000330 7c b2 42 bd c9 3f 27 3d 7a 01 34 bd 60 4d 2e bb
       -0.047533497 0.040832315 -0.04394672 -0.0026596412
000340 f0 67 4e 3d f4 46 4a bd 63 c7 6e bd c0 e4 0a 3a
       0.05039209 -0.049384072 -0.05829562 0.00052983686
000350 b4 d1 39 3c 64 44 4d 3c 57 c0 f7 bc 2e e1 5d bd
       0.011341501 0.012528513 -0.030243082 -0.054169826
000360 86 a1 fa 3c 06 31 09 bd 00 64 e8 b9 fe 18 82 3c
       0.030594599 -0.033494018 -0.00044324994 0.015881058
000370 94 1e de bc 69 5f fe bc a2 04 f9 3c 89 8f 2e bd
       -0.02711419 -0.031051354 0.030397717 -0.042617355
000380 5b dd 6f 3d 5b 70 0b bd 4c 10 0f 3c ac 41 fd bc
       0.05856071 -0.034042697 0.008731913 -0.030915104
000390 a4 fb 34 bd 17 ec 33 bd 5f 7c d6 bb 93 4a 02 bd
       -0.044185296 -0.043926325 -0.006545588 -0.0318094
0003a0 30 9d 4b bc 7d 7d 33 bc f7 b7 39 3d 8b b1 29 3d
       -0.012427613 -0.010955212 0.04534146 0.041429084
0003b0 35 f4 4c bd 42 0b 96 3c b0 d1 8c 3c fc 0b a9 bc
       -0.05003758 0.018315915 0.01718983 -0.020635597
0003c0 76 83 80 3c 48 8d 09 bd 12 31 38 bd e7 a5 60 bd
       0.015687685 -0.033582002 -0.044968672 -0.054845717
0003d0 78 fd 48 3d cb b0 3a 3d 77 5e 30 ba 78 c4 05 bd
       0.04906985 0.04557876 -0.00067279435 -0.03265807
0003e0 d2 7b d7 3c b2 0c 86 3c 84 f8 45 3d 80 c9 17 3a
       0.02630416 0.016363475 0.048332706 0.0005790219
0003f0 3f e8 fe 3c c2 59 8c 3c 74 aa 63 3d 8f 0e 20 3d
       0.031116603 0.017132644 0.05558248 0.039076384

decoder.0.bias f4 [32]
000000 fc 82 4d bb 71 2c 84 ba 31 73 30 3d b8 c1 17 bd
       -0.003135859 -0.0010084045 0.043078605 -0.03704998
000010 1b 0c 85 3c 45 07 f5 3b fc 8b ea bc 41 03 2a 3d
       0.016241124 0.0074776732 -0.028631203 0.04150701
000020 0b 70 29 3d 50 64 c4 bc 17 c5 98 3d cd 12 0b 3d
       0.041366618 -0.023973614 0.07459467 0.033953477
000030 c2 d3 57 3d 45 0e 6a bc 0e fc 9b 3d 19 59 8e 3c
       0.052692182 -0.014285629 0.07616435 0.01737647
000040 77 fb cf bc 86 5a 53 3d bb aa 1a 3d 11 d1 c2 b9
       -0.025388462 0.0516 0.037760478 -0.0003715833
000050 40 87 97 3d bc 90 19 3d 0d cc 81 bc 4d dd 40 bd
       0.07398844 0.037491545 -0.01584437 -0.04708605
000060 67 df 72 3c 85 d9 80 3d 12 f4 d1 3c ef 4a b5 3c
       0.014823771 0.062914886 0.025629077 0.022130458
000070 13 16 35 3d 13 85 37 3d 3d 7f ca ba c2 68 e8 3c
       0.044210505 0.044804644 -0.0015449297 0.028370265

decoder.2.weight f4 [32, 16, 3, 3]
000000 81 52 0a 3d 03 d4 a8 bd 39 11 79 bd 31 fb 9f bd
       0.033770088 -0.08243563 -0.06080744 -0.07811583
000010 ef cc 1a be 85 2d 76 3d 08 b7 98 bd 1c 21 e6 bd
       -0.15117238 0.060102005 -0.074567854 -0.11236784
000020 d2 7c a3 bd 27 eb df 3c 1e 98 dc bc 5f 0b 0d 3d
       -0.07982792 0.027333809 -0.026928004 0.034434672
000030 2d 0f b0 bd f0 ab c2 bd 7b 73 ba bc 8c 60 a5 3c
       -0.085966446 -0.09505451 -0.022760144 0.020187639
000040 c4 82 91 bc 66 2b 56 3d fd 71 29 bd 6c 7e 99 bd
       -0.01776255 0.05228748 -0.041368473 -0.07494816
000050 23 8b 22 bc 5c 96 46 3d 4a 7e 25 be 26 87 a4 bd
       -0.009920868 0.048483238 -0.16161457 -0.0803359
000060 a9 52 fd bd 59 cc b9 bc d4 57 98 3d 44 c9 c6 3d
       -0.12369282 -0.022680448 0.07438627 0.09706357
000070 be 05 9d bc f4 28 c6 3d 42 14 42 3d 2b 2f c8 3d
       -0.019167777 0.0967578 0.0473826 0.097746216
000080 6f 05 dc 3d 74 f0 7b 3b 99 06 83 3d ce d1 98 3b
       0.10743224 0.0038442882 0.06397743 0.0046636825
000090 ae 6e 4b bd 6e 48 bf bd eb cf 5f 3d 0d 03 ba bd
       -0.0496661 -0.09339987 0.054641645 -0.09082613
0000a0 04 c8 2f bd a4 15 d8 bc c9 e0 bd 3c 7e 34 b3 3d
       -0.04291536 -0.026377507 0.023178475 0.087502465
0000b0 9d 68 a6 bd 34 e6 73 bd 6d 43 23 bd 78 1a 9a 3b
       -0.08125422 -0.05954571 -0.039859224 0.0047028624
0000c0 95 a4 b5 bd 28 8e 1e bd 0b e7 b0 bd 0b 82 8c 3d
       -0.08869282 -0.03870979 -0.08637818 0.06860741
0000d0 d8 41 9f bd e3 9f 8c 3d c9 d3 7a bd 5e 47 0e bc
       -0.077762306 0.068664335 -0.06123713 -0.008684007
0000e0 19 34 ba 39 87 75 b5 bc 80 58 86 3d a1 45 a5 3c
       0.000355155 -0.022150768 0.06559849 0.020174803
0000f0 8a 6a 65 bd e4 15 f9 3b 05 e0 6c bd 50 2f 94 3c
       -0.056009807 0.0076014865 -0.05783083 0.018088967
000100 40 09 94 bb 4f f8 27 3b af 51 c3 3d a6 02 6b bd
       -0.0045177042 0.0025630181 0.09537064 -0.057375573
000110 49 d7 79 3d 6b 1c 0a bd 88 47 23 3c aa 10 a2 3d
       0.060996328 -0.033718508 0.009965785 0.07913335
000120 eb 24 42 bd ae 00 1d 3e 56 a1 0f bc 58 1e 73 bd
       -0.04739849 0.1533229 -0.008766493 -0.05935511
000130 17 99 93 3d 3e 5a 8c bd b3 ac 68 bd 4d d5 83 3d
       0.07206934 -0.0685315 -0.056805324 0.06437168
000140 99 a4 31 3c c5 8f 8d 3c 42 f5 7c 3c e7 0e 9c 3d
       0.010842466 0.017280469 0.015439333 0.0762003
000150 30 b3 08 bd 9f f2 33 3e 22 d3 c7 3c 7d 66 86 3d
       -0.03337401 0.17573021 0.024392668 0.06562517
000160 4c 39 a0 3d 52 44 69 3d 75 1e 5c bc 4c db fd bd
       0.078234285 0.05694992 -0.013434996 -0.12395343
000170 a0 fd 27 bc 11 a4 24 be bd bf 3d be 6c 1e 3e 3b
       -0.01025334 -0.16078211 -0.18530174 0.0029009832
000180 e0 ab e3 3d ed 81 18 be d8 ce 8b 3d 8a 4b e7 bd
       0.11116767 -0.14893313 0.06826562 -0.11293705
000190 c6 78 0e 3e c0 58 1e 3d 07 04 16 bd 4b 6a cb bd
       0.13913259 0.038658857 -0.036624935 -0.09932383
0001a0 c4 90 56 3d 79 59 b7 bd 8a 67 1a 3d 6a a5 b2 bd
       0.052384153 -0.089526124 0.0376964 -0.087229565
0001b0 cd c5 13 be e9 8a cb bd 67 35 7c 3d 5d 9e 19 be
       -0.14430924 -0.099386044 0.061574366 -0.15001817
0001c0 7f 06 b8 bd 84 dc 89 3d 0f 71 48 bc d7 ba f0 bd
       -0.08985614 0.06731513 -0.0122339865 -0.11754387
0001d0 f7 3f 29 3d 71 0e 11 3d 94 1c af bd b6 9b a6 bb
       0.041320767 0.035414163 -0.08550373 -0.00508448
0001e0 fb 0d 39 3c f3 54 0d bd 82 79 1c bd 9b e5 77 bd
       0.011294837 -0.034504842 -0.038201816 -0.060521703
0001f0 76 f7 f3 3c ef a0 25 3d 74 a6 e8 3c 52 4d e0 3c
       0.029781085 0.04043668 0.028399684 0.02738062
000200 ce 0f 6d 3c bb e3 c5 bc b2 85 54 3d 97 fc b7 3c
       0.0144691 -0.024156442 0.051885314 0.022459311
000210 86 e2 19 bd 39 05 bf 3d be b5 0b 3d c1 87 f6 bd
       -0.037569545 0.09327168 0.03410887 -0.12037612
000220 17 42 5c be 53 a1 8c 3b a2 0e 29 be 09 c9 4d be
       -0.21509586 0.0042916923 -0.16509488 -0.2009622
000230 61 96 b5 bd 7c e8 84 bd 75 76 3c be 2e 4e 33 3d
       -0.08866573 -0.064896554 -0.18404563 0.04377573
000240 c4 be 06 3d 84 98 89 bc d7 7b 32 3d f5 94 ad 3d
       0.032896772 -0.016796358 0.043575134 0.08475677
000250 29 6a a2 bb a4 69 a4 bb 33 7e ed bc e3 e4 a2 3d
       -0.004956503 -0.005017476 -0.02899084 0.07953813
000260 c6 49 5d 3d 13 ec 3b 3d cf 9a cf 3c 01 5a 83 bd
       0.054025434 0.045879435 0.025342373 -0.06413651
000270 3b a5 8a 3d 19 12 80 bd ec 9c 12 3c 50 c4 1a bd
       0.067697965 -0.06253452 0.008948546 -0.037784874
000280 4d cd 7c 3d 19 b6 86 3d dc f7 e3 bc 9e 6e 96 bd
       0.061719228 0.06577701 -0.02782815 -0.07345317
000290 a1 04 a4 bc 7a e1 d4 bc 2f 9b a3 3d 41 35 73 3d
       -0.020021738 -0.025986422 0.07988583 0.05937696
0002a0 43 6f 72 bc 1f db 51 3d a9 18 a3 3c ba ec 06 3c
       -0.014797035 0.05123436 0.01990922 0.008235151
0002b0 94 e4 ed 3c 9e 27 a4 bd 48 ce 48 3d d8 bc 33 3d
       0.029039659 -0.08015369 0.04902485 0.043881267
0002c0 f7 f1 1c 3d 28 7d 3d bd 17 9c b5 3b d6 22 e3 3c
       0.038316693 -0.046261936 0.005542289 0.027726572
0002d0 34 e8 cf bc 73 00 19 bc 00 40 8c bc 84 1a 87 bd
       -0.025379278 -0.009338486 -0.017120361 -0.06596854
0002e0 a6 81 81 bd 2d 77 cc bc 6f 3f 8c 3d 7a b3 e6 3c
       -0.063235566 -0.024959171 0.068480365 0.028161753
0002f0 52 73 b2 3d b8 02 a6 3c da b7 8f 3d cb 1e 49 3c
       0.08713402 0.020264968 0.07017489 0.012275408
000300 0f 07 16 bb 59 ff 0d 3d e9 f5 c7 3d e1 03 3a 3c
       -0.002289239 0.034667347 0.097637005 0.011353464
000310 60 e1 4e 3d bf 4f dc 3c e3 23 1e bc e7 e7 c6 bc
       0.050507903 0.026893495 -0.009652111 -0.024280502
000320 d3 ee 05 3d 99 d7 7d bd a6 ac eb bb d9 3a d9 3c
       0.032698464 -0.061973188 -0.007192212 0.026517319
000330 47 46 75 bd 1b 89 dd bc 87 32 dd bd f6 41 9f bc
       -0.059881475 -0.027042916 -0.10800653 -0.019440632
000340 04 b5 31 3d 1e c7 af bd a0 d2 0f 3c 39 b6 45 bd
       0.04338552 -0.085829005 0.008778244 -0.048269484
000350 dc 46 c3 3c e5 3e 21 bd c2 eb cf 3c 2a 7d 0e 3d
       0.0238375 -0.03936662 0.025380973 0.034787335
000360 7a c6 08 bd 3d f9 51 bd a8 0f 8c 3d 65 fe 65 bd
       -0.033392407 -0.051263083 0.06838924 -0.056150813
000370 b3 2c 8e bd b3 8f 6e bd b9 66 3a bd 6a 1c d2 bd
       -0.069421194 -0.05824251 -0.04550812 -0.10259326
000380 cb ce 9e bd 33 c6 71 3d e2 ab 87 3c 4c 87 7c 3d
       -0.077542864 0.059026908 0.016561452 0.061652467
000390 50 23 38 3d 9f 15 23 bd 14 75 06 bd 39 b4 9f bd
       0.04495555 -0.03981554 -0.0328265 -0.077980466
0003a0 ed 93 1b 3c cd 49 53 bb 1d a1 92 bd 2d 03 28 3d
       0.0094957175 -0.0032240034 -0.07159636 0.041018654
0003b0 42 d6 d2 3c 3d 20 c8 3d 3f fe 63 3d 79 05 86 3d
       0.025736932 0.09771774 0.05566239 0.065440126
0003c0 af 5e 1b bb 71 ad 96 3c 0b ad 25 bd e0 47 83 bd
       -0.002370756 0.01839325 -0.04044823 -0.064101934
0003d0 d2 4f 25 bd 3c b7 1c ba 47 2d 29 3d 1a 3a 39 3d
       -0.040359326 -0.0005978232 0.041302945 0.045221426
0003e0 a6 ac 7d bd 75 a9 44 bd 9e 56 b6 3d 68 3d 3e 3d
       -0.06193223 -0.04801317 0.0890324 0.04644528
0003f0 4a ed 69 3c 21 ec f3 3c b7 9a b0 bc 82 e2 d0 3d
       0.0142777655 0.029775681 -0.021558149 0.10199453

decoder.2.bias f4 [16]
000000 03 26 4f 3d 31 4b f1 3d 27 ef d2 bc c3 63 62 bd
       0.05057336 0.1178192 -0.025748802 -0.05527092
000010 a3 5e 87 3d 78 1e cc 3d 04 5d 8e 3c a9 23 d3 bd
       0.066098474 0.09966749 0.017378338 -0.10309536
000020 ee 94 4b bd 36 11 6c 3c d8 40 8c 3b ea 90 e0 bc
       -0.049702577 0.0144084 0.004280191 -0.02741285
000030 4c 3e 05 3d 72 81 c5 3d 53 aa 27 bc 95 7c c2 3c
       0.032530114 0.0964383 -0.01023348 0.023741046

decoder.4.weight f4 [16, 3, 3, 3]
000000 f6 92 05 3d 30 7a 8f bd b0 e7 4d 3c b3 6d 31 be
       0.032610856 -0.07005727 0.012567446 -0.17327003
000010 99 2e 3e be 5f ea 98 3d 07 60 2a be db a1 92 3d
       -0.18572463 0.07466578 -0.16638194 0.07159778
000020 0e 28 01 3d 1b f7 94 bd 1d b7 32 3c 83 a0 33 be
       0.03153234 -0.07273694 0.010907915 -0.17541699
000030 ae 06 02 3e 1f cf e2 bd f6 c0 2a 3c 10 17 9e 3d
       0.1269786 -0.110746615 0.010421982 0.077192426
000040 b5 78 09 be 27 e8 02 be 40 01 96 bd ba 24 4e be
       -0.13424952 -0.12783872 -0.07324457 -0.20131198
000050 5a 4a 92 3d 30 f8 e3 bd 03 6e 96 3c 87 30 10 be
       0.07143088 -0.111313224 0.018363005 -0.14081012
000060 82 b4 ba bb 38 1b c7 bd 61 8b 36 be 4e 3a e4 3d
       -0.0056977877 -0.097219884 -0.17826606 0.11143933
000070 8e f0 14 bd 54 b5 1b be 78 cc 11 3d ca 5b c7 bd
       -0.036362223 -0.1520589 0.035595387 -0.09734304
000080 37 ff a4 bd 03 7a 4b be b7 ff d4 bd 3b ef 15 be
       -0.08056491 -0.19870763 -0.10400336 -0.1464204
000090 dc 90 00 be 6c ac c3 3d a9 2f e6 bc e4 dd 15 be
       -0.1255526 0.09554371 -0.028098898 -0.14635426
0000a0 c1 1f 82 3d 07 36 26 bd 67 98 4e 3e 7e f3 65 bd
       0.06353713 -0.04057887 0.20175324 -0.056140415
0000b0 21 06 42 be 21 35 8b 3c 6a 58 3e bd 23 f0 5a bd
       -0.1894765 0.016993107 -0.046471037 -0.05345167
0000c0 0f c5 4c be 45 19 0e be 83 4a 1a be 0c ed 33 3d
       -0.19997047 -0.13876827 -0.15067486 0.043927237
0000d0 c0 30 a8 bd 54 8e e9 bd f9 a2 b3 3d 28 37 b7 3d
       -0.08212423 -0.114041 0.08771319 0.08946067
0000e0 6c 2c bb 3d 8b 80 87 3e 03 dd 32 be 83 68 53 3d
       0.09139332 0.26465258 -0.17467122 0.051613342
0000f0 d9 80 fb bd ee 1c d2 3b 59 92 7e 3d f3 e0 12 3d
       -0.12280435 0.00641214 0.062151287 0.03585906
000100 1a 66 f6 bc fa ee b8 bd cc 0f cb 3d 1c 0c e9 bd
       -0.030077983 -0.09029956 0.099151224 -0.11379263
000110 4a 3d 03 be b2 9c 11 3e a8 65 3c be 49 4f 07 be
       -0.12816349 0.14219931 -0.18398154 -0.13213839
000120 f8 38 aa bd ca 9d e8 3b 80 69 a9 bc 6a f1 12 3e
       -0.08311647 0.007098888 -0.02068019 0.14349905
000130 b3 92 a1 3d 0d ba 08 3e 07 a0 74 bd 05 9f 38 be
       0.07889309 0.13352223 -0.059722926 -0.18029411
000140 44 4e ca bd 93 43 40 3e ae 67 1e 3e a1 c5 1e 3e
       -0.09878209 0.18775778 0.15469238 0.15505077
000150 35 e4 6e 3d 71 7b fc bc 86 0b 63 3d 05 a3 3d 3e
       0.058323104 -0.03082058 0.05543091 0.18519218
000160 7f 8d 87 bd 79 c3 3a 3e 88 fa 91 3d 26 21 33 3d
       -0.06618785 0.1823863 0.07127863 0.043732785
000170 61 4c 33 3e 14 41 e7 3d 1d 3a 47 3e a4 f6 7b 3d
       0.17509605 0.112917095 0.19455762 0.06151451
000180 22 80 b9 bd b0 48 b0 bc 4f d9 6e 3d 55 d0 34 bd
       -0.090576425 -0.021519035 0.05831271 -0.044143993
000190 bd a3 e0 bd a8 49 29 3e e9 a2 86 bc 5e 55 91 3d
       -0.109687306 0.16532004 -0.016435103 0.070963606
0001a0 a3 ec 3e 3e 9e 0f 47 bd 1b 79 5c 3d 39 0c e5 ba
       0.18644957 -0.048598878 0.053826433 -0.0017474956
0001b0 4a c7 22 be 2f b8 aa 3c 4e 27 7c 3b 7e 99 e7 bd
       -0.15896335 0.020839779 0.0038475576 -0.11308573
0001c0 52 c5 01 3d 93 3d 53 be 0c 37 1f be 04 81 00 be
       0.03168232 -0.20628957 -0.15548342 -0.12549216
0001d0 4d 5a ef 3d 76 8d 02 3e e0 5a 01 bd 59 e9 10 be
       0.116871454 0.12749276 -0.031580806 -0.14151515
0001e0 f3 45 02 3d 0f 8e af bd b2 f7 07 be 60 ab 7a bd
       0.03180499 -0.085720174 -0.13278082 -0.061198592
0001f0 78 c2 37 3d 4f 55 51 3c 78 33 2e 3e f0 a8 12 be
       0.044863194 0.012776687 0.17011821 -0.14322257
000200 aa 3e de 3b 74 db b7 bd fa 13 06 bd 6e 95 25 3c
       0.0067823725 -0.08977404 -0.032733895 0.010106428
000210 b2 4c 84 3d 7a 5c 1a bd 03 bb 3e 3d 4a cf d4 bd
       0.06459941 -0.03768585 0.046565067 -0.103911
000220 2c fc f7 bc a6 67 4c 3d 98 a0 90 bd ee f6 8c 3d
       -0.030271612 0.049903534 -0.07061881 0.068830356
000230 27 23 28 be 10 b2 a9 3d cf 63 e0 3d 5b c2 01 be
       -0.1641966 0.08285916 0.10956537 -0.12671797
000240 0e c2 a4 bd f1 fe f2 bc 8d 35 da 3a 54 97 fd bd
       -0.080448255 -0.029662581 0.001664804 -0.12382379
000250 21 10 fb bd aa 03 20 be d6 44 86 bd 51 7e 44 be
       -0.12258936 -0.15626398 -0.06556098 -0.19188811
000260 b9 47 72 bd 53 87 4b be 47 50 b2 bd 3f 2d 46 be
       -0.05915043 -0.19875841 -0.08706718 -0.19353198
000270 06 99 52 be ef d9 d6 3d 9b 87 24 be 1e d2 eb bd
       -0.20566186 0.10490786 -0.16067354 -0.11514686
000280 75 aa 48 be 2f 09 09 be 6a d1 06 3e 41 76 3c 3d
       -0.19596274 -0.1338241 0.13165823 0.046011213
000290 7d 60 01 be 60 38 67 be c7 b7 90 bd c7 42 07 be
       -0.12634464 -0.22580099 -0.07066303 -0.13209067
0002a0 5d 94 5e bd 16 0c d1 3d 95 29 40 bc 4e 4b ae bd
       -0.05434071 0.10207383 -0.011728664 -0.08510457
0002b0 b8 c9 9c 3c d7 36 cf 3c d8 18 52 be 1c a7 bc 3d
       0.019139156 0.025294704 -0.2051729 0.09211561
0002c0 84 ad bc 3d bd f1 44 be e4 35 02 3b 9d 10 c6 bb
       0.09212783 -0.19232841 0.0019868547 -0.006044461
0002d0 0a e8 44 be f1 d0 94 bd 30 d0 60 be a3 7f b1 3d
       -0.19229141 -0.07266415 -0.21954417 0.08666923
0002e0 a4 37 0a 3e 98 23 bd bd 35 cc 5d be 94 fe 9b bc
       0.13497788 -0.092353046 -0.2165993 -0.01904229
0002f0 75 e6 ff 3d 6c 9a df bd a8 98 ad 3d c9 30 44 3c
       0.12495128 -0.109181255 0.084763825 0.011974522
000300 2e df df 3d f3 c4 98 3d e4 5f 37 3d 3c 17 e5 bd
       0.1093124 0.0745944 0.044769183 -0.11186072
000310 e5 8b bc 3b d4 37 99 3d 2b 5c a5 3d f7 ff e2 bc
       0.0057539814 0.074813515 0.0807422 -0.027709944
000320 fc 19 2e 3e c7 0e 61 3d cb cc bc 3d 10 c7 96 bb
       0.170021 0.054945733 0.09218749 -0.004601367
000330 20 f1 1b bd 6b 27 07 3e dc 33 34 be 02 51 11 bd
       -0.03807175 0.1319863 -0.17597908 -0.035477646
000340 f8 d9 05 bd 9f d1 e9 bd 0b 14 b1 3d 85 ef 23 3e
       -0.032678574 -0.11416935 0.08646401 0.16009338
000350 d3 17 a2 3d ac 9c e0 3a fb a0 16 3d 57 ba 1f 3e
       0.079147 0.0017136536 0.036774617 0.15598427
000360 b2 ec 9f 3d 39 66 31 3e 4c e7 07 bd 9d 7d 7d 3e
       0.07808818 0.17324151 -0.033179566 0.24754949
000370 db 11 93 bd 51 09 01 bc e8 56 57 3e ba 13 55 3e
       -0.0718114 -0.007875756 0.21029246 0.20808306
000380 23 5f 26 3c fd 03 ba 3d a0 a4 d1 3d ff 67 1a 3e
       0.010154518 0.09082792 0.10236478 0.15078734
000390 b8 05 69 3e f4 17 50 3e 46 be 3f 3e da d3 12 3e
       0.22756088 0.20321637 0.18724927 0.14338627
0003a0 8a 5b 49 3d 7c b6 62 ba 54 73 a9 3d fc 09 39 bd
       0.049159564 -0.0008648408 0.0827395 -0.045175537
0003b0 95 f5 4f 3d c4 78 12 3d 1a 7b cd bc b3 4e 38 3e
       0.050771315 0.035759702 -0.025083113 0.17998771
0003c0 ba 35 cd bd d2 3a b8 bd ed 9a c8 3d c0 e6 3b be
       -0.10020013 -0.08995594 0.09795175 -0.18349743
0003d0 ca 7d 8d 3c f7 bd 57 be 80 9b 86 bd a7 61 01 bc
       0.017271895 -0.2106856 -0.06572628 -0.007896817
0003e0 cd 5e 45 be d3 e7 7c be 15 4a fc 3b 0c ed c7 bc
       -0.19274445 -0.24697809 0.007699261 -0.024405025
0003f0 78 ae 3a be ba f4 a5 3d 82 cb f6 3c 79 94 ef 3a
       -0.18230617 0.081033185 0.030126337 0.0018278501

decoder.4.bias f4 [3]
000000 a7 16 8a 3d 4b 45 93 3d f0 cd 0a 3e
       0.06742602 0.07190951 0.13555121
