candle_autoencoder.pth (torch, 193122 bytes, 12 tensors)

encoder.0.weight f4 [16, 3, 3, 3]
0.12747547 -0.14613585 -0.048589386 -0.16692714 -0.1930893 0.07317637 -0.00589738 0.15289451
-0.1320436 0.17241138 -0.025985617 -0.040328804 0.0048459275 0.16799146 0.12571779 0.1599201
-0.1181788 0.14000872 0.044553936 0.08635513 0.036127403 -0.08405292 -0.076395646 -0.054026347
-0.11468396 -0.1860404 0.16410622 0.19193847 -0.111129254 -0.18301913 0.056922853 0.08172719
0.027972594 0.15282731 -0.08290632 -0.11971437 -0.12832531 -0.018807739 -0.18640304 -0.104147986
0.0687526 -0.14924999 -0.19034055 0.042452008 0.02968128 0.08712958 -0.14554085 -0.14693582
0.12160058 -0.0013750643 0.022717655 0.01847598 -0.010021344 -0.18641342 0.20602082 -0.12590986
0.045173064 -0.1203639 0.13831103 -0.055377003 0.21868625 0.16732551 0.20628214 -0.07294442
0.03331112 0.023585688 0.21924283 0.062478106 0.039145753 0.03204123 0.22994521 -0.019534161
-0.024442999 0.20409423 0.19968687 0.23185116 0.17741628 0.0030702592 0.2080587 -0.097121395
-0.12162006 0.023987085 0.16589986 0.07277559 -0.012518048 -0.14259927 -0.14908579 -0.1283181
-0.01725559 -0.18554026 0.09836684 0.038044527 -0.17230496 -0.10822468 -0.033276454 -0.103620276
0.030124053 0.05225493 0.1374921 -0.14025861 0.12936725 -0.01759988 -0.07259146 -0.17377228
0.1880007 0.13677923 0.14780556 0.12651573 0.024527073 -0.055966526 -0.097289935 0.018766224
-0.04639131 0.05194968 -0.18485905 0.13107799 -0.17414533 -0.09854573 -0.136073 -0.12824312
0.06056042 0.1616757 -0.14461349 -0.13545433 -0.114552595 0.062215522 -0.13764969 0.15359242
-0.18305841 0.009366259 -0.008193523 -0.08660124 -0.058984295 0.12641017 -0.13347693 0.091748
-0.0045897802 0.08078182 -0.14329037 0.21316881 0.16271967 0.22829589 -0.08456735 -0.11731005
-0.08562072 -0.11054481 -0.042313192 -0.12997654 0.17106672 -0.073997095 0.16821691 0.18463218
0.015180517 -0.004262466 0.12009871 0.16716672 0.15211724 0.06483944 0.041908465 0.12599632
-0.065816045 -0.15696324 0.06682448 -0.1763243 -0.10934731 0.06530298 -0.17962085 0.1885123
-0.080836065 0.13607642 -0.15245122 0.19621246 -0.0938406 -0.073861785 0.18676792 0.14882195
0.108458675 -0.17117259 0.08381298 -0.17515594 -0.03060949 0.015972996 -0.04800764 -0.14892139
-0.13874938 -0.027865538 0.050943553 -0.017303126 -0.028586928 -0.103822485 -0.035848662 0.13564292
0.13819605 0.09304684 -0.13415459 -0.072836325 -0.13539112 0.026025096 0.15721998 -0.11597911
0.12089063 0.101294965 0.17518012 0.08022213 -0.015105032 0.18633536 -0.0234023 -0.172659
-0.03977492 0.116882116 0.013302107 -0.022782324 0.10957965 -0.113580845 -0.18172485 -0.11076979
-0.18214512 -0.0496872 0.02077274 0.027654245 -0.106263496 -0.14284873 0.16957131 0.05455645
-0.16497824 0.056979116 -0.010047823 0.07758412 -0.09758946 0.09164236 0.13476437 0.16547544
0.06372673 0.1065821 -0.15037233 -0.06469332 -0.11579835 -0.050693255 -0.06481343 -0.025128292
0.042881146 -0.18249945 0.11334392 -0.14246123 0.1688771 -0.09144621 -0.15589313 0.15919071
0.19631894 0.07385236 -0.16300276 0.025583457 0.21295995 0.046029296 0.20806055 0.09149354
00000000: ee88 023e a3a4 15be aa05 47bd f3ee 2abe
00000010: 34b9 45be 7edd 953d cf3e c1bb 6190 1c3e
00000020: 7036 07be 9c8c 303e cadf d4bc d12f 25bd
00000030: 96ca 9e3b f405 2c3e 2abc 003e 18c2 233e
00000040: ba07 f2bd 725e 0f3e 307e 363d f5da b03d
00000050: 54fa 133d f023 acbd 5275 9cbd bb4a 5dbd
00000060: 6ddf eabd 6081 3ebe 760b 283e 858b 443e
00000070: bc97 e3bd 5e69 3bbe f027 693d 9660 a73d
00000080: c826 e53c c37e 1c3e caca a9bd cf2c f5bd
00000090: b667 03be b012 9abc 70e0 3ebe 8a4b d5bd
000000a0: 2ace 8c3d fdd4 18be a2e8 42be 28e2 2d3d
000000b0: 2826 f33c fe70 b23d a908 15be 5876 16be
000000c0: ba09 f93d 803b b4ba 601a ba3c f05a 973c
000000d0: 9030 24bc 29e3 3ebe 1ff7 523e 84ee 00be
000000e0: 6407 393d 5981 f6bd 68a1 0d3e ffd2 62bd
000000f0: 4aef 5f3e 6157 2b3e a03b 533e e263 95bd
00000100: 3e71 083d c636 c13c 3181 603e 0be9 7f3d
00000110: 4c57 203d aa3d 033d c276 6b3e 1b06 a0bc
00000120: af3c c8bc 14fe 503e b77a 4c3e 646a 6d3e
00000130: 9dac 353e 6736 493b 570d 553e 95e7 c6bd
00000140: f013 f9bd 9080 c43c a7e1 293e 5e0b 953d
00000150: 8018 4dbc 8b05 12be f2a9 18be d265 03be
00000160: 985b 8dbc 44fe 3dbe 8e74 c93d 94d4 1b3d
00000170: b670 30be e7a4 ddbd e44c 08bd de36 d4bd
00000180: b8c6 f63c 4409 563d bbca 0c3e f49f 0fbe
00000190: d978 043e a02d 90bc d5aa 94bd 5cf1 31be
000001a0: 4183 403e db0f 0c3e 575a 173e 578d 013e
000001b0: 00ed c83c 283d 65bd f23f c7bd a0bb 993c
000001c0: d004 3ebd 30c9 543d b14b 3dbe 4f39 063e
000001d0: 2753 32be 58d2 c9bd b856 0bbe 2a52 03be
000001e0: 340e 783d 518e 253e 8f15 14be 8ab4 0abe
000001f0: 8d9a eabd b4d5 7e3d 0af4 0cbe 5547 1d3e
00000200: aa73 3bbe f074 193c 203e 06bc fe5b b1bd
00000210: 8499 71bd ab71 013e 2dae 08be 60e6 bb3d
00000220: de65 96bb f070 a53d b6ba 12be ed48 5a3e
00000230: fc9f 263e 66c6 693e a631 adbd 4040 f0bd
00000240: eb59 afbd 5165 e2bd 9950 2dbd 9218 05be
00000250: 1d2c 2f3e ca8b 97bd 0e41 2c3e 3810 3d3e
00000260: b4b7 783c 28ac 8bbb 50f6 f53d c12d 2b3e
00000270: 9fc4 1b3e 8aca 843d 36a8 2b3d 2e05 013e
00000280: 90ca 86bd f9ba 20be 46db 883d 5b8e 34be
00000290: 7cf1 dfbd 92bd 853d 87ee 37be 5e09 413e
000002a0: 618d a5bd 9e57 0b3e 2c1c 1cbe ebeb 483e
000002b0: 802f c0bd d944 97bd 1740 3f3e c864 183e
000002c0: 951f de3d de47 2fbe 24a6 ab3d 145c 33be
000002d0: c1c0 fabc cdd9 823c a9a3 44bd d97e 18be
000002e0: 5114 0ebe 4546 e4bc 30aa 503d 49bf 8dbc
000002f0: 222f eabc e2a0 d4bd 0cd6 12bd fae5 0a3e
00000300: 4483 0d3e 578f be3d d25f 09be 362b 95bd
00000310: f8a3 0abe 9532 d53c 46fe 203e 7586 edbd
00000320: 8295 f73d bc73 cf3d 6b62 333e 804b a43d
00000330: 197b 77bc b2ce 3e3e 2eb6 bfbc 85cd 30be
00000340: 07eb 22bd e45f ef3d 15f1 593c ffa1 babc
00000350: 4c6b e03d 139d e8bd 1416 3abe 46db e2bd
00000360: 4084 3abe ce84 4bbd 982b aa3c 288b e23c
00000370: ada0 d9bd f046 12be 1aa4 2d3e 9676 5f3d
00000380: 0ef0 28be ef62 693d a09f 24bc 6ce4 9e3d
00000390: fcdc c7bd fdae bb3d acff 093e 6572 293e
000003a0: 2983 823d b747 da3d 34fb 19be ee7d 84bd
000003b0: af27 edbd bba3 4fbd e7bc 84bd d9d9 cdbc
000003c0: 24a4 2f3d 23e1 3abe db20 e83d 5be1 11be
000003d0: 1eee 2c3e 2748 bbbd 73a2 1fbe e402 233e
000003e0: d507 493e e83f 973d 32ea 26be 6694 d13c
000003f0: 2c12 5a3e 3789 3c3d d30d 553e f760 bb3d

encoder.0.bias f4 [16]
-0.02007907 -0.15414608 0.049276162 -0.1397312 -0.113957345 0.18737172 0.091896355 0.22786461
0.07356721 -0.12741639 -0.16125399 -0.0646418 -0.122192636 0.16669975 -0.17351334 -0.13354199
00000000: dd7c a4bc 78d8 1dbe cdd5 493d b215 0fbe
00000010: 7862 e9bd 5fde 3f3e 2834 bc3d 5755 693e
00000020: 68aa 963d 7179 02be c41f 25be ec62 84bd
00000030: 2240 fabd 57b3 2a3e 7bad 31be 3bbf 08be

encoder.2.weight f4 [32, 16, 3, 3]
0.030359956 -0.016261993 -0.019014562 -0.012992156 0.009764811 -0.011808544 -0.044733997 -0.09608225
-0.03785257 0.057052948 0.05938331 0.0652178 -0.04033383 -0.008871518 0.0064973235 -0.01023826
-0.033046328 0.031724103 -0.04463399 0.10577167 -0.0070846025 0.044216134 0.025825042 0.014258969
0.040131304 0.0022700059 0.02417844 -0.068608165 0.0052123666 0.009364456 0.0823546 -0.027580641
0.0665878 0.039236672 -0.04539035 0.030995704 0.079369344 -0.07067149 0.046634965 -0.028163671
0.06564099 -0.03914083 -0.07954146 0.014938749 -0.04212015 -0.0066334214 0.017908633 0.032603104
0.03245868 -0.000119229066 0.078614704 0.06169551 0.022066489 0.078219704 0.007784422 0.048238847
-0.012233143 0.02930289 -0.10686594 -0.039307974 -0.044309717 0.037775747 -0.0758079 0.046381466
0.061432533 -0.07075311 -0.0740404 -0.036604647 -0.017208489 -0.028653907 0.0032065099 -0.06151044
-0.026413374 0.04443079 -0.027548667 0.02153529 -0.063598946 0.037479103 0.027203694 -0.0030995952
-0.034099855 0.061083592 -0.009635098 -0.01237542 -0.027513856 -0.022873152 -0.048782445 0.0496776
0.111525774 0.040697336 0.019718293 0.049517862 0.061550073 0.10323646 0.108256765 0.020965476
0.05705456 0.050331365 0.07297478 -0.08131704 0.030559707 0.02292132 0.035091463 -0.06133506
0.039763227 -0.0929868 0.053474244 -0.07174209 0.051041044 -0.005639411 -0.071593024 -0.062776044
0.04412144 -0.05240937 -0.072152525 -0.081430055 0.055415146 -0.0038100036 0.08302342 0.041829664
-0.051584937 0.041333377 0.018622661 -0.056017887 -0.056395996 0.08194907 -0.010298407 -0.03844133
-0.037014123 -0.00074533373 -0.013279418 0.05310025 -0.08005907 0.02768113 0.014710956 0.085634746
0.1327853 -0.012848615 0.118687764 0.012358083 0.11668831 0.12024728 0.09818471 0.01855522
-0.009582307 -0.07742702 -0.08090982 0.028993413 -0.04986054 -0.080540866 -0.052338842 0.0249775
-0.020308591 0.017800204 0.04417231 -0.021737278 0.06603707 -0.024187885 -0.017870992 0.019016601
0.06476421 -0.07458687 0.070457675 0.107868224 -0.02532709 -0.0046634427 0.114886135 -0.044268012
0.06851326 0.09888226 0.07977169 0.002372533 -0.030592602 0.0010859072 -0.08054499 -0.047301482
0.06651773 -0.076585226 -0.06993334 -0.025035243 -0.060349554 0.04585553 0.06933489 -0.07386787
-0.045327645 -0.027660917 0.033401847 0.07868842 -0.06977414 0.057166405 0.03617876 0.06237193
0.0733767 0.079736546 -0.01009344 -0.0016785489 -0.00038029187 -0.053948496 0.023922672 0.024902802
-0.087135315 0.006296027 0.028675867 -0.07146291 -0.049775995 -0.10777826 -0.0026293872 0.059750326
-0.06624314 0.030498283 0.057660036 -0.02515546 -0.029625366 0.046102464 0.012868263 -0.050259806
-0.03007586 -0.06802136 0.0040672678 -0.024290048 0.02007455 -0.10653253 0.001968401 -0.072269425
-0.06751619 -0.07297372 0.0034116798 -0.08679281 -0.057266515 0.04032151 -0.021889463 0.05879345
0.099970125 0.06247114 0.026360132 0.04938449 -0.03076605 0.07067966 0.033399645 0.107320234
-0.012322634 0.04935466 0.10388631 -0.09407984 -0.042639364 -0.11945288 -0.034163408 -0.08852178
-0.085794546 -0.06255736 -0.07795798 0.05298261 0.05556895 0.07274627 0.049612563 0.07860905
00000000: 71b5 f83c df37 85bc 6dc4 9bbc 0ddd 54bc
00000010: 96fc 1f3c a078 41bc ff3a 37bd c5c6 c4bd
00000020: 4c0b 1bbd 5ab0 693d ea3b 733d e990 853d
00000030: 1635 25bd d859 11bc 80e7 d43b 60be 27bc
00000040: 965b 07bd 22f1 013d 21d2 36bd d19e d83d
00000050: f425 e8bb fa1b 353d 0a8f d33c 739e 693c
00000060: b960 243d 61c4 143b dd11 c63c 7082 8cbd
00000070: 80cc aa3b 606d 193c 87a9 a83d ccf0 e1bc
00000080: 2f5f 883d a2b6 203d 3beb 39bd b4ea fd3c
00000090: 658c a23d 37bc 90bd 4e04 3f3d 80b7 e6bc
000000a0: c96e 863d 2352 20bd a2e6 a2bd a8c1 743c
000000b0: 2e86 2cbd 2c5d d9bb 20b5 923c d58a 053d
000000c0: 65f3 043d 9e0a fab8 bf00 a13d 6eb4 7c3d
000000d0: c8c4 b43c a731 a03d 7714 ff3b 1996 453d
000000e0: 856d 48bc 9d0c f03c 88dc dabd 6601 21bd
000000f0: 1b7e 35bd beba 1a3d 2c41 9bbd 7efa 3d3d
00000100: aea0 7b3d 02e7 90bd 7ea2 97bd c1ee 15bd
00000110: d1f8 8cbc 99bb eabc 4f24 523b 5ff2 7bbd
00000120: dc60 d8bc 0ffd 353d bead e1bc c76a b03c
00000130: 2a40 82bd b083 193d 48da de3c 9422 4bbb
00000140: 4aac 0bbd ca32 7a3d 88dc 1dbc 46c2 4abc
00000150: bd64 e1bc 7a60 bbbc 1ad0 47bd bd7a 4b3d
00000160: a067 e43d 40b2 263d 4288 a13c 3ed3 4a3d
00000170: ee1b 7c3d a36d d33d b9b5 dd3d cabf ab3c
00000180: 0bb2 693d 4328 4e3d cd73 953d 8c89 a6bd
00000190: 5a58 fa3c 7ec5 bb3c 11bc 0f3d 793a 7bbd
000001a0: c4de 223d dd6f bebd cf07 5b3d 84ed 92bd
000001b0: 6a10 513d cfca b8bb 5d9f 92bd ba90 80bd
000001c0: afb8 343d 35ab 56bd b4c4 93bd cdc4 a6bd
000001d0: fefa 623d 41b1 79bb 2f08 aa3d 9555 2b3d
000001e0: ba4a 53bd 304d 293d 8d8e 983c 0373 65bd
000001f0: 7dff 66bd ead4 a73d a6ba 28bc a874 1dbd
00000200: 1f9c 17bd 8062 43ba eb91 59bc a67f 593d
00000210: 02f6 a3bd 8ac3 e23c 3906 713c 4561 af3d
00000220: dff8 073e ff82 52bc 9212 f33d 8f79 4a3c
00000230: 48fa ee3d 3544 f63d 1115 c93d 1e01 983c
00000240: 1cff 1cbc 0f92 9ebd 0cb4 a5bd 9883 ed3c
00000250: 913a 4cbd 9cf2 a4bd 4161 56bd 9d9d cc3c
00000260: 345e a6bc bcd1 913c 06ee 343d 6012 b2bc
00000270: 713e 873d ac25 c6bc 3066 92bc b4c8 9b3c
00000280: 19a3 843d 00c1 98bd 1d4c 903d 04ea dc3d
00000290: c27a cfbc cbcf 98bb 6c49 eb3d 6052 35bd
000002a0: ae50 8c3d c882 ca3d 575f a33d 807c 1b3b
000002b0: 569d fabc 0055 8e3a c6f4 a4bd 33bf 41bd
000002c0: 733a 883d b7d8 9cbd 3639 8fbd b616 cdbc
000002d0: 1831 77bd 02d3 3b3d 73ff 8d3d 0a48 97bd
000002e0: 7ba9 39bd 2699 e2bc 60d0 083d 6527 a13d
000002f0: bfe5 8ebd 5227 6a3d 2e30 143d b579 7f3d
00000300: 8646 963d ea4c a33d f55e 25bc c102 dcba
00000310: e961 c7b9 19f9 5cbd 7bf9 c33c f600 cc3c
00000320: 0074 b2bd e74e ce3b a7e9 ea3c 255b 92bd
00000330: eae1 4bbd d9ba dcbd cc51 2cbb c2bc 743d
00000340: 7caa 87bd 89d7 f93c ee2c 6c3d d312 cebc
00000350: e5b0 f2bc f0d5 3c3d 68d5 523c 3add 4dbd
00000360: a661 f6bc c84e 8bbd b746 853b ecfb c6bc
00000370: 6273 a43c ba2d dabd 4a00 013b fe01 94bd
00000380: ee45 8abd 3f73 95bd 7d96 5f3b 6ec0 b1bd
00000390: 4b90 6abd 2b28 253d 8851 b3bc 67d1 703d
000003a0: 23bd cc3d bde1 7f3d 34f1 d73c 6447 4a3d
000003b0: 1509 fcbc 7fc0 903d 11ce 083d b6ca db3d
000003c0: e0e4 49bc 1d28 4a3d 58c2 d43d eeac c0bd
000003d0: 9da6 2ebd b6a3 f4bd eeee 0bbd e84a b5bd
000003e0: 0db5 afbd 131e 80bd 6fa8 9fbd 4b04 593d
000003f0: 449c 633d fffb 943d 8b36 4b3d c8fd a03d

encoder.2.bias f4 [32]
-0.041855395 -0.10985765 0.05807087 0.061645046 0.090909705 -0.03264269 0.12024959 0.11336675
-0.029656451 0.06726637 -0.030313538 -0.03443495 0.04462882 0.093311876 -0.10024922 -0.07308352
0.09541851 -0.0751648 0.029111084 0.032052945 0.048473533 -0.09454898 -0.10404441 -0.09914566
-0.0559824 0.040787704 -0.08549538 -0.08344412 0.010099424 0.114131294 -0.012215994 0.005001199
00000000: 9070 2bbd 0cfd e0bd b8db 6d3d 847f 7c3d
00000010: de2e ba3d 57b4 05bd 6b45 f63d d42c e83d
00000020: 16f2 f2bc f3c2 893d 1954 f8bc aa0b 0dbd
00000030: b6cc 363d 4c1a bf3d 774f cdbd d0ac 95bd
00000040: c86a c33d 01f0 99bd 5e7a ee3c f349 033d
00000050: 2f8c 463d e5a2 c1bd 3c15 d5bd e10c cbbd
00000060: cd4d 65bd 0211 273d 3418 afbd c0e4 aabd
00000070: 0e78 253c abbd e93d 9825 48bc 19e1 a33b

encoder.4.weight f4 [64, 32, 3, 3]
0.023781866 -0.04351424 -0.021708935 0.07888558 0.030185316 0.02263143 0.048002172 0.032201264
-0.034589358 -0.00093908806 -0.036167264 -0.002372285 0.0056785094 -0.00452466 -0.017200356 0.10298977
0.09657335 0.026507951 -0.0046392693 0.03113265 0.08390693 0.039489098 0.076607645 0.04542199
0.015257338 -0.011068416 0.05268326 -0.025595685 0.026201941 -0.009980783 0.10435021 0.055480268
0.10890377 -0.0125622805 0.010730101 0.11935536 -0.02872079 0.07351815 0.08503066 0.030114137
0.053317055 0.09161962 0.047876313 0.06408907 0.10978663 -0.052115995 -0.048123192 -0.053796258
0.042015903 -0.03354878 -0.04715449 0.033805728 0.09018556 0.023487851 -0.03127268 0.008231851
0.021222591 0.03814483 0.03663894 -0.0092791375 0.10032354 0.09939669 0.045656033 0.010836581
-0.0011876975 0.037083536 0.015157104 -0.012704501 0.057071548 0.074531935 -0.016783422 0.020073123
-0.019045621 0.057992857 -0.026270151 -0.050855666 -0.032918803 -0.043588474 -0.009655975 -0.010671582
0.032681447 0.06275034 0.045752995 0.050047755 0.059148006 0.101429805 0.08911291 0.035459165
0.06775062 0.06460818 0.0032536937 -0.053807687 -0.031763382 -0.015477326 0.01760887 0.012346911
0.0413764 0.10388233 0.004128154 -0.06123121 -0.10538014 -0.0366587 0.008893914 -0.07231725
-0.078328624 0.05870474 0.012706931 -0.03430387 -0.017315783 -0.001916347 0.034124997 0.045676224
0.073630944 0.09153457 0.05291982 0.0027374644 0.058736045 0.030090768 0.08890132 0.02676956
0.017987415 0.08091975 0.093486875 0.0048462674 0.08976733 0.0667125 -0.024711242 -0.09933769
-0.060448598 0.069171876 -0.0038320918 0.026461244 0.10490435 0.057245787 0.06098969 0.034809846
-0.020462204 -0.0189328 0.017547753 0.026751895 0.010168057 0.04750183 -0.0019689612 -0.03674686
-0.010358306 0.009872462 0.07869569 0.025921237 -0.001057756 0.051527407 0.063885264 0.09945665
0.0076781227 -0.04732701 -0.112655185 -1.4151068e-05 -0.012956585 -0.048408702 -0.058543365 0.05981346
0.07554107 -0.03498135 0.028782833 0.03090176 0.021645565 -0.008177444 -0.0071142046 0.020653335
-0.013327012 0.07912544 0.10847677 -0.04472845 -0.034644417 0.030267803 0.01645102 -0.04093664
-0.031968713 0.08593722 0.11836885 0.03450344 0.013003729 0.00016891786 0.02725598 0.053989492
0.062875554 0.06312118 0.07951851 0.08803014 0.03072573 -0.048048545 -0.07119484 -0.036669046
-0.004452929 -0.05956221 -0.0028054086 0.12442953 0.091163695 0.0145808635 0.036025923 0.005323599
-0.0130343 -0.007841163 -0.084349796 0.025894808 0.104214974 0.108725406 -0.005152208 -0.04568398
-0.0034798228 -0.012899184 0.037652727 -0.0690011 -0.028381605 0.022157606 0.05127019 0.027494334
-0.051310733 0.011204018 0.046525195 0.008298878 0.019487325 -0.031514373 0.07159175 0.05298366
0.081459194 0.009502203 -0.00229152 0.019667126 0.085113965 0.06284268 -0.055033218 0.056423556
0.08915027 0.050809234 -0.058262967 -0.026795546 0.06776715 0.0067400145 -0.038943782 -0.043434788
0.02996639 0.032234695 -0.049721044 0.002095752 -0.05681882 0.002643803 0.018430796 0.015126847
-0.016262537 0.120387115 0.1017327 0.069131106 0.02281765 -0.0199911 0.019612363 0.048000805
00000000: 30d2 c23c fd3b 32bd f0d6 b1bc c38e a13d
00000010: 3247 f73c 8c65 b93c ed9d 443d 79e5 033d
00000020: 92ad 0dbd 222d 76ba 2024 14bd 5678 1bbb
00000030: ca12 ba3b 9943 94bb c3e7 8cbc 4dec d23d
00000040: 40c8 c53d 3427 d93c 0305 98bb e609 ff3c
00000050: 66d7 ab3d 52bf 213d 78e4 9c3d 690c 3a3d
00000060: eaf9 793c 4d58 35bc 67ca 573d 0bae d1bc
00000070: 74a5 d63c 7086 23bc 90b5 d53d 473f 633d
00000080: f108 df3d 06d2 4dbc 4ecd 2f3c 9570 f43d
00000090: dd47 ebbc af90 963d 8e24 ae3d ecb1 f63c
000000a0: fc62 5a3d 11a3 bb3d f419 443d 2141 833d
000000b0: d0d7 e03d 9577 55bd d31c 45bd 7759 5cbd
000000c0: de18 2c3d 726a 09bd 1125 41bd e077 0a3d
000000d0: 35b3 b83d 9869 c03c c817 00bd e3de 063c
000000e0: 00db ad3c c13d 1c3d b712 163d 8607 18bc
000000f0: 6e76 cd3d 7e90 cb3d d201 3b3d ea8b 313c
00000100: 84ac 9bba e8e4 173d 8055 783c 8a26 50bc
00000110: dbc3 693d 33a4 983d 637d 89bc 6470 a43c
00000120: 9005 9cbc eb89 6d3d 8034 d7bc 084e 50bd
00000130: ded5 06bd d489 32bd 1834 1ebc dcd7 2ebc
00000140: fbdc 053d 4083 803d 7e67 3b3d e0fe 4c3d
00000150: 2e45 723d 6eba cf3d d480 b63d a13d 113d
00000160: d6c0 8a3d 4b51 843d ec3b 553b 7365 5cbd
00000170: 521a 02bd 9c94 7dbc 7a40 903c b34a 4a3c
00000180: 4d7a 293d 42c0 d43d 7745 873b 94cd 7abd
00000190: 8bd1 d7bd 6f27 16bd c7b7 113c 111b 94bd
000001a0: c26a a0bd 6274 703d bb30 503c 3782 0cbd
000001b0: d4d9 8dbc ef2d fbba a7c6 0b3d fe16 3b3d
000001c0: d2cb 963d 7a76 bb3d 74c2 583d 0867 333b
000001d0: 3595 703d ea80 f63c e511 b63d d64b db3c
000001e0: 585a 933c 41b9 a53d 0c76 bf3d 70cd 9e3b
000001f0: efd7 b73d 90a0 883d 3b6f cabc 8f71 cbbd
00000200: f398 77bd fca9 8d3d d523 7bbb 40c5 d83c
00000210: 18d8 d63d 8f7a 6a3d 53d0 793d c594 0e3d
00000220: 5aa0 a7bc f618 9bbc 4ec0 8f3c ca26 db3c
00000230: ec97 263c 4791 423d b009 01bb e083 16bd
00000240: e2b5 29bc 1bc0 213c 352b a13d c658 d43c
00000250: 67a4 8aba 670e 533d 47d6 823d eeaf cb3d
00000260: c398 fb3b f8d9 41bd c3b7 e6bd 606a 6db7
00000270: db47 54bc 3448 46bd 2bcb 6fbd f5fe 743d
00000280: 47b5 9a3d 9b48 0fbd fac9 eb3c b025 fd3c
00000290: 0a52 b13c b0fa 05bc 461e e9bb 2f31 a93c
000002a0: 8a59 5abc 850c a23d 1229 de3d 2e35 37bd
000002b0: 4ee7 0dbd 2ff4 f73c 4ac4 863c 2ead 27bd
000002c0: a0f1 02bd daff af3d 5e6b f23d 7b53 0d3d
000002d0: 980d 553c 8b1f 3139 ef47 df3c 1624 5d3d
000002e0: e6c4 803d ad45 813d 9ada a23d 2549 b43d
000002f0: 87b4 fb3c 8dce 44bd 9ace 91bd 4832 16bd
00000300: e0e9 91bb 81f7 73bd f2da 37bb e9d4 fe3d
00000310: 08b4 ba3d 93e4 6e3c eb8f 133d 9671 ae3b
00000320: d18d 55bc 3978 00bc 96bf acbd 5921 d43c
00000330: a96e d53d 6dab de3d dad3 a8bb 201f 3bbd
00000340: bd0d 64bb 1957 53bc bf39 1a3d 7350 8dbd
00000350: 8a80 e8bc de83 b53c b100 523d cc3b e13c
00000360: 342b 52bd 0f91 373c 3491 3e3d 04f8 073c
00000370: e2a3 9f3c 3715 01bd b29e 923d 6505 593d
00000380: 14d4 a63d 21af 1b3c 532d 16bb f41c a13c
00000390: 3b50 ae3d aab3 803d 836a 61bd 631c 673d
000003a0: 6b94 b63d 581d 503d 26a5 6ebd 5582 dbbc
000003b0: 81c9 8a3d 57db dc3b 8483 1fbd ade8 31bd
000003c0: 137c f53c 8708 043d 4ba8 4bbd e258 093b
000003d0: daba 68bd a743 2d3b 2efc 963c 98d6 773c
000003e0: 0339 85bc 858d f63d 3c59 d03d 9c94 8d3d
000003f0: 15ec ba3c 60c4 a3bc 1baa a03c 7e9c 443d

encoder.4.bias f4 [64]
-0.0012948795 0.0007287874 0.122841336 0.014059033 0.023816088 0.07733121 0.09123265 -0.0793002
0.003892205 0.024358684 -0.049583603 0.0006975455 0.07223184 0.08243659 -0.014165869 -0.008796614
0.0069692023 -0.08272333 -0.023545265 0.08689569 0.09572738 -0.056290418 0.064751625 -0.022429321
0.033204574 0.042999648 0.09646028 0.045926914 0.08928272 -0.025927931 -0.06443576 0.10055485
0.092663534 0.07506352 -0.04487777 0.079416856 0.043904856 0.10274988 -0.008720501 0.0047376826
-0.0655837 -0.056666117 0.021802843 0.060730975 0.067931734 -0.00025367644 -0.074019745 -0.008914157
0.10164744 -0.068197384 -0.073922455 0.047593094 -0.03391998 0.07330536 0.07495206 0.102582954
-0.014767341 0.10893569 -0.039062705 -0.025236543 0.06167416 0.07179546 0.022127466 0.0417571
00000000: f2b8 a9ba 180c 3f3a 3d94 fb3d dc57 663c
00000010: f519 c33c d35f 9e3d 2fd8 ba3d 2568 a2bd
00000020: 5d14 7f3b dd8b c73c 2d18 4bbd 7cdb 363a
00000030: 49ee 933d 84d4 a83d f617 68bc ac1f 10bc
00000040: e85d e43b d96a a9bd 00e2 c0bc 5ef6 b13d
00000050: b70c c43d c890 66bd 809c 843d b2bd b7bc
00000060: 8501 083d 6620 303d f88c c53d dc1d 3c3d
00000070: dcd9 b63d d066 d4bc e5f6 83bd b4ef cd3d
00000080: 61c6 bd3d e7ba 993d c1d1 37bd 4ea5 a23d
00000090: 94d5 333d 876e d23d 6fe0 0ebc 903e 9b3b
000000a0: bf50 86bd bb1a 68bd e09b b23c 0bc1 783d
000000b0: cb1f 8b3d e0ff 84b9 aa97 97bd af0c 12bc
000000c0: 882c d03d 12ab 8bbd a864 97bd faf0 423d
000000d0: adef 0abd 1f21 963d 7780 993d 0317 d23d
000000e0: b8f2 71bc ad19 df3d 3700 20bd debc cebc
000000f0: 0b9e 7c3d 8009 933d a944 b53c 7e09 2b3d

decoder.0.weight f4 [64, 32, 3, 3]
-0.011832511 -0.02760389 -0.08879578 -0.03014135 0.0054714046 -0.088729344 0.07466827 0.08773962
-0.041856397 -0.080323055 -0.03298574 -0.048141323 -0.052042533 -0.03232383 -0.07286304 0.018693104
0.009371474 -0.032590244 -0.005986003 0.1109012 0.050485607 0.056350004 0.10869509 0.093742944
-0.06501386 0.012980816 0.06470154 -0.031076916 -0.058109626 0.057153385 0.0044566616 0.02050293
0.046326913 -0.05305207 0.04591442 0.015095677 -0.04290214 -0.09344932 -0.039752305 0.026787728
0.006367387 -0.058843397 0.038933326 0.05823077 0.005497492 0.0030243103 0.033360995 0.080322444
-0.14653628 0.072257824 0.1042816 -0.09239794 0.019875487 0.06672687 -0.056006726 0.009560691
-0.07671422 -0.034375798 0.033229843 -0.026009873 -0.024590151 -0.041326728 0.00032863315 0.0009111996
-0.046879377 -0.04233835 -0.026878504 0.030334493 -0.061425358 0.08995097 -0.055540863 0.094394095
-0.033440955 -0.06579668 0.01927476 0.032401264 0.01792004 -0.026133908 0.055246916 -0.0006763581
-0.01124797 0.00082272757 0.040288683 0.044530004 -0.050730787 -0.022873376 -0.0068791066 0.005703443
-0.057964534 0.047840662 -0.08146746 0.027652893 0.012602661 -0.027412979 -0.09360544 -0.046403088
0.025164723 -0.0593347 -0.025994984 -0.07548436 0.017373584 -0.014232198 -0.023443429 0.032509856
0.07699763 -0.0590685 -0.06580707 0.01924146 -0.08177784 -0.034746833 0.0021254607 -0.007193923
0.047705445 0.018958624 -0.022600431 -0.043625318 0.022225779 -0.032543097 -0.018081343 -0.05040016
0.0022188425 -0.01582782 -0.044649936 -0.061145145 -0.039369516 -0.056861434 -0.0115867695 -0.11431263
-0.043887287 -0.024324363 0.013328389 -0.049443524 0.06794063 0.086171724 -0.02511615 -0.038223475
0.03917177 -0.0062205605 0.03654651 0.046589572 0.03802482 0.006714466 -0.03151153 -0.032598604
0.0050295205 0.0120648835 -0.0017880573 -0.032009453 0.005597485 0.048465855 -0.07063412 -0.017622532
-0.019907445 -0.021090977 -0.1469218 -0.029908156 -0.0018214546 -0.08493458 0.0025841915 -0.027337927
0.15895465 -0.046314303 -0.055718757 -0.03746991 0.04375669 0.038760215 0.0072048274 -0.06261492
0.025729682 -0.02210109 -0.04423215 -0.025559058 -0.12787388 -0.03593959 -0.03923505 -0.017884871
-0.050643954 0.02269962 0.12260562 0.04941279 0.020012718 0.04501833 0.009498616 -0.032324445
0.032530576 0.09792011 -0.0008912206 -0.05196569 0.054279916 -0.020726249 -0.023454743 -0.028344773
0.042867776 -0.06716804 -0.10540156 0.09742343 0.10366787 0.020802705 0.008453082 -0.038920604
-0.02847602 -0.01972304 0.010278653 0.035685044 0.025741372 -0.020754986 -0.05856615 -0.016231108
0.026845464 -0.018677596 -0.03885556 -0.035293467 0.05728626 0.033680897 -0.001107778 -0.03299134
-0.07417798 0.052601017 -0.05045975 -0.06573267 0.038557325 0.041067407 -0.022199102 -0.0617509
0.0077090454 -0.022657294 -0.045686428 -0.06496024 0.015634226 0.026265632 -0.04373661 0.009098407
0.003579176 -0.025845971 0.015056864 0.05755465 0.08370671 0.008995985 0.023100592 0.11189299
-0.027521748 -0.0393281 0.083123 -0.04767706 -0.021409037 0.009506574 0.06542635 0.088373736
0.08920554 -0.081425555 0.07620686 0.025284162 -0.02057869 0.035046417 0.050069515 0.012013507
00000000: 26dd 41bc 8e21 e2bc 90da b5bd feea f6bc
00000010: 7849 b33b bbb7 b5bd aeeb 983d d4b0 b33d
00000020: 9d71 2bbd 6a80 a4bd 0e1c 07bd d62f 45bd
00000030: 8d2a 55bd fe65 04bd 3839 95bd 4822 993c
00000040: d08a 193c 597d 05bd 3c26 c4bb 2b20 e33d
00000050: ffc9 4e3d 43cf 663d 889b de3d 4dfc bf3d
00000060: fd25 85bd 7dad 543c 3e82 843d 0495 febc
00000070: 5c04 6ebd ab19 6a3d 3009 923b c3f5 a73c
00000080: 4ac1 3d3d 214d 59bd c210 3c3d dc53 773c
00000090: 28ba 2fbd 5b62 bfbd 50d3 22bd f071 db3c
000000a0: 83a5 d03b c605 71bd 8d78 1f3d 6383 6e3d
000000b0: 4e24 b43b 8233 463b 8aa5 083d 1880 a43d
000000c0: 9b0d 16be e9fb 933d 9791 d53d 223b bdbd
000000d0: ebd1 a23c 19a8 883d 4f67 65bd 72a4 1c3c
000000e0: 581c 9dbd a3cd 0cbd 041c 083d a812 d5bc
000000f0: 4971 c9bc 3746 29bd 654c ac39 92dd 6e3a
00000100: 9704 40bd fa6a 2dbd 4f30 dcbc 0b80 f83c
00000110: 2899 7bbd 3738 b83d d17e 63bd b151 c13d
00000120: 62f9 08bd 69c0 86bd 1ae6 9d3c 30b7 043d
00000130: 0ccd 923c c716 d6bc 974a 623d a04d 31ba
00000140: 6849 38bc 50ac 573a bf05 253d 1865 363d
00000150: 16cb 4fbd f260 bbbc 216a e1bb f3e3 ba3b
00000160: 386c 6dbd 92f4 433d 69d8 a6bd 5288 e23c
00000170: 647b 4e3c 2f91 e0bc 35b4 bfbd 2a11 3ebd
00000180: 4026 ce3c f108 73bd 6ff3 d4bc 8b97 9abd
00000190: 0c53 8e3c 2a2e 69bc 6f0c c0bc 0e29 053d
000001a0: efb0 9d3d d0f1 71bd dbc5 86bd 44a0 9d3c
000001b0: 247b a7bd b252 0ebd 504b 0b3b 00bb ebbb
000001c0: c966 433d 1e4f 9b3c 8a24 b9bc 76b0 32bd
000001d0: d612 b63c e94b 05bd 531f 94bc 6670 4ebd
000001e0: 006a 113b 58a9 81bc dae2 36bd 5573 7abd
000001f0: ee41 21bd 89e7 68bd 6fd6 3dbc bd1c eabd
00000200: 28c3 33bd e343 c7bc 515f 5a3c 4b85 4abd
00000210: 7524 8b3d cd7a b03d 62c0 cdbc 3890 1cbd
00000220: 9472 203d d8d5 cbbb cbb1 153d b5d4 3e3d
00000230: eabf 1b3d 0605 dc3b 3c12 01bd 1d86 05bd
00000240: adce a43b caab 453c 3f5d eaba 581c 03bd
00000250: 1c6b b73b 2284 463d 9fa8 90bd 215d 90bc
00000260: f014 a3bc fcc6 acbc ab72 16be f301 f5bc
00000270: e0bd eeba 2ef2 adbd 8a5b 293b caf3 dfbc
00000280: 02c5 223e 11b4 3dbd 5a39 64bd 0c7a 19bd
00000290: 373a 333d 08c3 1e3d 7916 ec3b 403c 80bd
000002a0: 0ec7 d23c 580d b5bc c52c 35bd 3b61 d1bc
000002b0: 5ff1 02be 6435 13bd efb4 20bd 4b83 92bc
000002c0: 0970 4fbd 8ef4 b93c a818 fb3d 1165 4a3d
000002d0: b6f1 a33c 2465 383d 15a0 1b3c a366 04bd
000002e0: c83e 053d 578a c83d cda0 69ba fad9 54bd
000002f0: 9e54 5e3d 18ca a9bc 2924 c0bc 4c33 e8bc
00000300: 1f96 2f3d 668f 89bd c6dc d7bd ef85 c73d
00000310: d24f d43d 6f6a aa3c cc7e 0a3c 366b 1fbd
00000320: 8b46 e9bc 3692 a1bc cc67 283c 7b2a 123d
00000330: 92df d23c 5c06 aabc 0fe3 6fbd 1af7 84bc
00000340: 05eb db3c c201 99bc 0227 1fbd e28f 10bd
00000350: ffa4 6a3d fbf4 093d dd32 91ba ed21 07bd
00000360: a0ea 97bd 2a74 573d e2ae 4ebd da9e 86bd
00000370: 49ee 1d3d 4c36 283d e4da b5bc 83ee 7cbd
00000380: 299c fc3b ca9b b9bc b121 3bbd e009 85bd
00000390: 5913 803c 062b d73c 2925 33bd 7c11 153c
000003a0: 9c90 6a3b eeba d3bc 11b1 763c 6dbe 6b3d
000003b0: 6c6e ab3d e563 133c 743d bd3c 2728 e53d
000003c0: 4a75 e1bc 8016 21bd 643c aa3d 0549 43bd
000003d0: 0162 afbc 76c1 1b3c 40fe 853d 4afd b43d
000003e0: 65b1 b63d 71c2 a6bd 5812 9c3d bb20 cf3c
000003f0: a494 a8bc d58c 0f3d b115 4d3d 4dd4 443c

decoder.0.bias f4 [32]
0.01618448 0.011520557 0.06811237 -0.043118436 -0.050107636 0.084408894 -0.046291616 0.037622903
-0.034433283 0.02556928 -0.067979395 0.08040951 0.03794343 -0.066959664 -0.011319015 0.00020151795
0.034599844 -0.04907197 -0.034817338 -0.044911027 0.108823806 -0.036128946 -0.04190873 0.017440028
0.10147911 -0.05134136 0.09977106 0.010283016 -0.03743129 -0.06678281 -0.009622738 0.054838397
00000000: 5195 843c b8c0 3c3c 807e 8b3d f59c 30bd
00000010: aa3d 4dbd 92de ac3d 479c 3dbd 791a 1a3d
00000020: ea09 0dbd ab76 d13c c838 8bbd bead a43d
00000030: 926a 1b3d 2622 89bd 6473 39bc 904e 5339
00000040: 91b8 0d3d b1ff 48bd a09c 0ebd a0f4 37bd
00000050: 04df de3d f2fb 13bd 7da8 2bbd 64de 8e3c
00000060: 48d4 cf3d 514b 52bd c554 cc3d 187a 283c
00000070: 8d51 19bd 6dc5 88bd b0a8 1dbc 3a9e 603d

decoder.2.weight f4 [32, 16, 3, 3]
-0.010294284 0.07504388 0.06725289 0.020800447 0.108824365 0.05376089 -0.044195656 0.017775116
0.017464746 -0.07201779 0.062135663 -0.05828822 -0.10313149 0.005752509 -0.06857202 -0.0032376691
-0.0019907148 0.04460428 -0.010872833 0.09211749 0.0997088 0.06268807 -0.016592678 -0.030534225
0.038606957 0.0944756 -0.009646212 0.060227122 -0.03469624 0.006366562 -0.0071078967 -0.027143696
0.0454662 0.04083911 -0.05722707 0.019759955 0.06712907 -0.10326729 0.07206894 -0.00849838
0.03329062 -0.018670818 0.016581591 0.03349645 0.049888577 0.010112 -0.020616842 0.0716663
0.06412125 0.10137078 0.043752734 -0.013398847 -0.09503829 0.022765778 -0.07886227 0.04737706
-0.05560851 -0.08345096 -0.04852525 -0.010386944 0.048213255 -0.084027685 0.060943916 0.031948168
0.017581176 0.025755355 0.018142285 -0.018934924 -0.06401146 -0.04102173 -0.080177784 0.0156173855
0.010034512 -0.088757284 -0.038619816 -0.0020632308 -0.09910049 -0.006543062 0.034057725 -0.033123296
-0.0064224033 -0.021075523 0.081524365 0.033850644 0.01583792 -0.01899449 0.05406725 -0.048114426
-0.07735338 0.005732848 -0.035885844 -0.02180394 0.09998687 -0.06856336 -0.0021466545 -0.046041485
-0.022294568 0.0936536 -0.013370698 -0.06602742 -0.07922222 -0.0918014 -0.09581631 -0.07995833
-0.0020947633 -0.034872413 0.047305558 -0.028721336 0.0741532 -0.047282584 -0.06219719 -0.017185673
-0.05323896 0.06237481 0.04717795 -0.054053675 0.023837194 0.020480214 -0.03568446 -0.04651215
-0.04819068 -0.04872202 0.0017800621 -0.044567775 0.014611429 0.009398763 -0.011156625 0.031036053
0.07665849 -0.053200234 -0.05180465 0.030389732 -0.048911043 0.045192093 -0.023823557 0.031828023
0.043844443 -0.0072523057 -0.04932846 -0.03285874 -0.08266853 0.07098373 -0.009308696 0.07518729
-0.035098366 0.08423178 -0.009077323 0.03970536 0.12925823 0.04982783 0.07132823 0.07996169
0.063140474 -0.09390616 -0.03913251 -0.031257138 -0.07155008 0.03517724 -0.0013122135 -0.05274547
0.024095178 0.06273605 0.011723956 0.00884393 0.06549251 0.094319984 0.12786639 0.07469278
0.08656971 -0.015433002 0.020615222 -0.1000264 -0.00027068902 -0.0151393935 -0.04638448 -0.06643293
-0.046542 0.005280612 -0.034200884 -0.07223452 0.0123058995 -0.02137215 -0.0014926097 0.0032282115
-0.005102642 0.01169925 0.020101836 -0.10373141 0.08780117 0.019520456 -0.005850054 0.073195115
0.10514298 0.10143675 0.020141814 -0.016436297 -0.04764835 -0.050024252 0.017932067 -0.088915244
-0.021486115 0.06726308 0.048368413 0.03715935 -0.058998294 -0.0592191 -0.06178081 0.03299907
-0.088769935 0.040668864 -0.10852342 -0.04333772 -0.010162589 0.039949987 0.0022853466 -0.12355803
-0.0554952 -0.056569353 -0.054764457 0.021905255 -0.07969779 0.05631072 0.06062817 -0.0148670105
-0.08812859 0.014717067 0.03561893 0.054089207 0.10742244 0.06101592 0.018824082 0.04218066
0.08184925 -0.044537857 0.024432227 -0.062661 -0.088154264 0.010619255 -0.05858259 -0.033572175
-0.023525348 0.024175195 0.007892923 -0.03636912 -0.05281066 -0.10732348 -0.004813815 -0.0398264
-0.07470812 -0.07762877 -0.050216053 -0.05417124 0.01472805 -0.033658892 -0.052316435 -0.007148947
00000000: 5ba9 28bc 9bb0 993d e2bb 893d b365 aa3c
00000010: 4fdf de3d 6134 5c3d 8106 35bd 1f9d 913c
00000020: 3a12 8f3c 107e 93bd f781 7e3d a1bf 6ebd
00000030: 9a36 d3bd 8b7f bc3b 7d6f 8cbd 132f 54bb
00000040: a776 02bb fab2 363d f823 32bc 18a8 bc3d
00000050: 2134 cc3d 9a62 803d 5eed 87bc e922 fabc
00000060: 5422 1e3d 6c7c c13d 250b 1ebc b7b0 763d
00000070: a51d 0ebd 989e d03b 5ce9 e8bb 755c debc
00000080: c43a 3a3d e946 273d ef66 6abd a1df a13c
00000090: f77a 893d cd7d d3bd e198 933d ca3c 0bbc
000000a0: bf5b 083d 8bf3 98bc 1ed6 873c 9333 093d
000000b0: f757 4c3d cdac 253c a7e4 a8bc c8c5 923d
000000c0: 0052 833d 7c9b cf3d 1136 333d d686 5bbc
000000d0: 6fa3 c2bd 4c7f ba3c 8b82 a1bd 730e 423d
000000e0: c0c5 63bd 56e8 aabd 6ac2 46bd 002e 2abc
000000f0: 437b 453d b516 acbd 54a0 793d 15dc 023d
00000100: 6606 903c e5fc d23c 219f 943c 6a1d 9bbc
00000110: 7118 83bd 6706 28bd 4034 a4bd 10e0 7f3c
00000120: cb67 243c 61c6 b5bd d02f 1ebd 4537 07bb
00000130: 33f5 cabd 2f67 d6bb 1d80 0b3d 4bac 07bd
00000140: 0673 d2bb 93a6 acbc 3ff6 a63d f9a6 0a3d
00000150: 87be 813c 559a 9bbc 9f75 5d3d a213 45bd
00000160: 736b 9ebd 9dda bb3b 09fd 12bd 2d9e b2bc
00000170: ebc5 cc3d f26a 8cbd e3ae 0cbb ff95 3cbd
00000180: 19a3 b6bc 75cd bf3d c610 5bbc 6239 87bd
00000190: 423f a2bd 5f02 bcbd 573b c4bd 31c1 a3bd
000001a0: 4c48 09bb 60d6 0ebd 79c3 413d 0249 ebbc
000001b0: a2dd 973d 62ab 41bd 7bc2 7ebd f8c8 8cbc
000001c0: 1911 5abd bb7c 7f3d ab3d 413d 6367 5dbd
000001d0: 3846 c33c 1fc6 a73c de29 12bd 8683 3ebd
000001e0: 9763 45bd be90 47bd f950 e93a b38c 36bd
000001f0: c664 6f3c 45fd 193c 47ca 36bc 523f fe3c
00000200: 20ff 9c3d 7de8 59bd 1d31 54bd e3f3 f83c
00000210: f256 48bd 581b 393d 9f29 c3bc 1a5e 023d
00000220: 3b96 333d c0a4 edbb a40c 4abd e396 06bd
00000230: 1e4e a9bd eb5f 913d 8083 18bc cbfb 993d
00000240: 4ec3 0fbd b681 ac3d 0db9 14bc 16a2 223d
00000250: 455c 043e 4418 4c3d 8914 923d f4c2 a33d
00000260: cb4f 813d df51 c0bd 6949 20bd 7c07 00bd
00000270: d988 92bd 0216 103d 94fe abba a20b 58bd
00000280: 4063 c53c c27b 803d d615 403c 22e6 103c
00000290: f020 863d d62a c13d 68ef 023e 87f8 983d
000002a0: 764b b13d b4da 7cbc 41e1 a83c a4da ccbd
000002b0: 44eb 8db9 380b 78bc a7fd 3dbd fd0d 88bd
000002c0: d3a2 3ebd fc08 ad3b 3a16 0cbd b1ef 93bd
000002d0: af9e 493c a614 afbc aca3 c3ba 6790 533b
000002e0: 1034 a7bb 36ae 3f3c 9bac a43c 2271 d4bd
000002f0: 1ad1 b33d 5de9 9f3c cfb1 bfbb 52e7 953d
00000300: 3455 d73d 12be cf3d 7200 a53c 6aa5 86bc
00000310: eb2a 43bd 3be6 4cbd 45e6 923c 3219 b6bd
00000320: a603 b0bc 3ac1 893d f51d 463d 6734 183d
00000330: 32a8 71bd ba8f 72bd e00d 7dbd 082a 073d
00000340: 03cd b5bd 6594 263d 8741 debd e582 31bd
00000350: fd80 26bc 99a2 233d c1c5 153b fe0b fdbd
00000360: ef4e 63bd 44b5 67bd b250 60bd a672 b33c
00000370: 9838 a3bd 12a6 663d 3e55 783d c394 73bc
00000380: c37c b4bd da1f 713c 28e5 113d a58c 5d3d
00000390: 4c00 dc3d d4eb 793d f634 9a3c a1c5 2c3d
000003a0: 94a0 a73d 546d 36bd 1826 c83c 6954 80bd
000003b0: 398a b4bd 62fc 2d3c 4cf4 6fbd fa82 09bd
000003c0: 3bb8 c0bc 0f0b c63c 5251 013c c9f7 14bd
000003d0: fe4f 58bd 6acc dbbd 35bd 9dbb 0221 23bd
000003e0: 9200 99bd d5fb 9ebd 59af 4dbd aae2 5dbd
000003f0: eb4d 713c e8dd 09bd c249 56bd b741 eabb

decoder.2.bias f4 [16]
-0.060369853 -0.08147552 0.019004004 0.112563044 -0.080504276 -0.047062892 -0.029887522 0.11412919
-0.083822265 0.043046687 0.09636072 -0.017642356 0.017493386 0.004016954 -0.060277198 0.0573204
00000000: 6146 77bd a3dc a6bd 49ae 9b3c 7487 e63d
00000010: 6ddf a4bd 05c5 40bd add6 f4bc 91bc e93d
00000020: 02ab abbd b951 303d c558 c53d b486 90bc
00000030: 4a4e 8f3c a7a0 833b 39e5 76bd ccc8 6a3d

decoder.4.weight f4 [16, 3, 3, 3]
0.11849256 0.06470793 0.043561965 -0.084569 0.19319203 0.10858308 0.062154505 0.12878622
0.051062565 0.13531785 -0.0018127825 -0.057427954 0.11336508 0.02632562 0.01046771 0.03528924
0.16606188 0.054083306 0.052666232 0.03727104 -0.0060599134 -0.06713655 -0.13504137 0.022169236
0.16093808 -0.07210523 0.005177552 -0.1123984 -0.106697366 0.11967449 0.12917036 -0.1309797
-0.05609975 -0.014246573 -0.124672 0.032810025 0.13969325 0.19790666 -0.15618664 0.16667563
-0.08174074 0.16402958 -0.13782543 0.13109855 0.11164509 -0.031276897 -0.075418204 0.08006466
0.06995738 0.117227755 -0.10315874 0.11053972 0.20856294 -0.08424662 -0.09793029 0.19366792
-0.010459793 0.14649533 0.22212479 0.22684738 0.16049334 0.16852105 0.1219123 0.045023248
0.042394787 -0.06000141 0.0073668063 0.13221821 0.15358354 -0.030657168 -0.13189353 0.06427557
-0.049127027 0.15085565 0.021145059 -0.08864266 0.13914043 0.028236652 -0.019656125 -0.15583098
0.11257891 -0.12732016 0.025612006 -0.10803177 -0.09333311 -0.22295806 -0.08326118 -0.048265733
-0.17322913 -0.06706579 -0.21475668 0.009730581 0.046750236 0.13106056 -0.11968098 0.08515924
0.055880677 -0.0059465845 -0.1772257 -0.102441266 -0.0011126837 0.050345287 0.031098729 -0.0029800176
-0.17714693 -0.06605594 -0.065668374 -0.24025276 -0.097437315 0.1752161 0.136357 0.21418735
0.19832885 -0.056848597 -0.06178828 0.08941947 -0.020394161 0.036216855 -0.08872158 0.1341078
0.05749274 0.046157464 -0.10444311 0.09001801 0.08481603 -0.11105353 -0.02070711 -0.040524617
0.1375741 0.118707255 0.1059572 0.01756289 -0.11646968 0.13255595 -0.13046347 0.18948999
-0.017946823 0.10147339 0.1541023 0.23902117 0.05532119 0.0100312345 0.1011324 0.20699133
-0.07943867 -0.090133294 0.06846406 -0.06530392 0.09858406 0.051281903 -0.08498036 0.08835899
0.15199651 0.1263929 0.10534492 0.07851023 0.008709904 0.0918294 0.1661708 -0.14303045
0.08766848 -0.038051832 -0.10354083 -0.13272168 -0.12843058 0.04361316 -0.07659775 -0.18687104
-0.18644692 -0.13885935 0.11543656 0.036371153 0.08305652 -0.048706293 -0.12696335 -0.14373018
0.06988084 -0.10876688 -0.16958897 0.05950897 -0.048453838 -0.085364096 -0.14211544 0.10053295
-0.0769292 0.07358385 -0.05823338 -0.24046065 0.086354434 -0.03044029 -0.093833044 -0.09169343
0.052789725 -0.18169475 -0.24869537 0.010957397 -0.09266831 -0.0057136873 0.021732071 0.054618098
-0.0024081357 -0.13949639 -0.15598944 0.11994687 0.13158844 -0.20829685 0.07485613 0.045293618
-0.048589498 0.13732617 -0.035948444 -0.3006373 0.07418062 -0.19693299 -0.17607927 -0.096710846
0.13557936 -0.03705382 -0.02098205 -0.07619624 0.029299447 -0.021573426 -0.04265126 -0.051771533
0.12761922 -0.12812702 -0.09694283 -0.10808031 0.17161852 0.20395336 -0.12094796 0.0025321865
0.005200903 0.019616742 0.18310183 0.060551614 0.097938664 0.17809442 -0.17100978 0.096019134
0.18845508 0.17686361 -0.020192686 -0.10713476 0.062705934 0.02207194 0.16864954 0.020583002
0.007879452 0.13534412 0.13130443 0.07304136 -0.1079468 0.03434604 -0.13084932 -0.114641525
00000000: 3aac f23d 9785 843d 086e 323d 8332 adbd
00000010: 22d4 453e ce60 de3d b995 7e3d 89e0 033e
00000020: fb26 513d c390 0a3e e39a edba 9339 6bbd
00000030: f32b e83d d4a8 d73c c280 2b3c 738b 103d
00000040: 200c 2a3e 7586 5d3d 8cb8 573d 85a9 183d
00000050: 3d92 c6bb e37e 89bd 4948 0abe 429c b53c
00000060: f4cc 243e e8ab 93bd 74a8 a93b 2231 e6bd
00000070: 2684 dabd e617 f53d 3c45 043e 8b1f 06be
00000080: dac8 65bd 756a 69bc 0954 ffbd ce63 063d
00000090: bf0b 0f3e 0ba8 4a3e 64ef 1fbe 04ad 2a3e
000000a0: b067 a7bd 5ff7 273e 1c22 0dbe b33e 063e
000000b0: 2ea6 e43d 341c 00bd dc74 9abd f1f8 a33d
000000c0: d145 8f3d 1b15 f03d e444 d3bd a662 e23d
000000d0: 8691 553e 7e89 acbd ad8f c8bd e250 463e
000000e0: 8d5f 2bbc df02 163e ae74 633e ae4a 683e
000000f0: 5e58 243e c890 2c3e 28ad f93d 4c6a 383d
00000100: 28a6 2d3d 0ac4 75bd 4065 f13b 3664 073e
00000110: 0145 1d3e be24 fbbc 190f 07be e9a2 833d
00000120: 6c39 49bd e779 1a3e 6738 ad3c 488a b5bd
00000130: d47a 0e3e 8d50 e73c e205 a1bc 2892 1fbe
00000140: c68f e63d 3760 02be 45d0 d13c c33f ddbd
00000150: 6e25 bfbd 1e4f 64be d684 aabd 4ab2 45bd
00000160: fa62 31be ca59 89bd 2de9 5bbe 046d 1f3c
00000170: 2d7d 3f3d bd34 063e 4d1b f5bd f867 ae3d
00000180: 23e3 643d 91db c2bb a77a 35be bacc d1bd
00000190: 78d7 91ba dc36 4e3d c3c2 fe3c 664c 43bb
000001a0: 0166 35be 5648 87bd 247d 86bd d204 76be
000001b0: 378d c7bd d96b 333e 2ba1 0b3e ee53 5b3e
000001c0: b816 4b3e 13da 68bd b515 7dbd 8e21 b73d
000001d0: a811 a7bc 2058 143d a9b3 b5bd 8e53 093e
000001e0: 827d 6b3d 9c0f 3d3d 45e6 d5bd 5d5b b83d
000001f0: 07b4 ad3d 0870 e3bd f5a1 a9bc 24fd 25bd
00000200: 3ae0 0c3e ca1c f33d 1700 d93d 0de0 8f3c
00000210: a887 eebd bfbc 073e 3798 05be aa09 423e
00000220: 3705 93bc 48d1 cf3d fecc 1d3e f7c1 743e
00000230: 7998 623d 0c5a 243c 811e cf3d 89f5 533e
00000240: beb0 a2bd ce97 b8bd e336 8c3d 10be 85bd
00000250: 71e6 c93d f90c 523d 2f0a aebd 8ff5 b43d
00000260: f9a4 1b3e 246d 013e 14bf d73d f9c9 a03d
00000270: fcb3 0e3c 0d11 bc3d ae28 2a3e 9376 12be
00000280: 888b b33d 3ddc 1bbd 370d d4bd 31e8 07be
00000290: 4e83 03be b6a3 323d 48df 9cbd 1f5b 3fbe
000002a0: f1eb 3ebe 2531 0ebe 016a ec3d ebf9 143d
000002b0: 8919 aa3d 4080 47bd ae02 02be 012e 13be
000002c0: b01d 8f3d 2cc1 debd bba8 2dbe adbf 733d
000002d0: 8877 46bd 5fd3 aebd b686 11be 38e4 cd3d
000002e0: 0e8d 9dbd 21b3 963d 2086 6ebd 513b 76be
000002f0: 98da b03d ea5d f9bc 8a2b c0bd c4c9 bbbd
00000300: 0a3a 583d 300e 3abe 00aa 7ebe a786 333c
00000310: e2c8 bdbd e239 bbbb 7507 b23c 3ab7 5f3d
00000320: d0d1 1dbb 24d8 0ebe b2bb 1fbe b4a6 f53d
00000330: 1fbf 063e c54b 55be 2c4e 993d cd85 393d
00000340: c805 47bd 3b9f 0c3e ad3e 13bd 22ed 99be
00000350: 02ec 973d cda8 49be 204e 34be 5610 c6bd
00000360: 51d5 0a3e bfc5 17bd 8ce2 abbc c60c 9cbd
00000370: 6505 f03c c1ba b0bc 16b3 2ebd 630e 54bd
00000380: 9dae 023e bb33 03be f689 c6bd 3659 ddbd
00000390: c4bc 2f3e 26d9 503e 90b3 f7bd 0af3 253b
000003a0: 566c aa3b 4ab3 a03c 0c7f 3b3e f804 783d
000003b0: 1194 c83d 625e 363e 301d 2fbe aea5 c43d
000003c0: 5efa 403e bc1b 353e 226b a5bc 7869 dbbd
000003d0: f86b 803d 37d0 b43c 77b2 2c3e af9d a83c
000003e0: d118 013c a697 0a3e ab74 063e b596 953d
000003f0: 3613 ddbd 6fae 0c3d 5dfd 05be 2dc9 eabd

decoder.4.bias f4 [3]
-0.10434103 -0.14565365 -0.24458028
00000000: c0b0 d5bd 3b26 15be 4173 7abe
