capsules_autoencoder.pth (torch, 193154 bytes, 12 tensors)

encoder.0.weight f4 [16, 3, 3, 3]
00000000: bc5d 483e a19f 173e 692e 293e f222 99bd
00000010: 2abc 863d 90be fbbc f0d2 1bb9 4e95 843d
00000020: 4d55 d4bd b6e5 16be ee0f 14be a318 d53d
00000030: b9d3 443e 90a3 0cbc 91b5 73bd 82bb ff3d
00000040: c78a 22bd 8134 f9bd 9822 003e 19c8 36ba
00000050: 29e5 38bc feed c03d aa75 8e3c 1f48 3abe
00000060: 173e 1d3e 93e0 243e 01eb f8bd 97b1 263e
00000070: c0c5 17be 2633 0b3e b30f 463d 431f 2cbd
00000080: a896 c2bd 7ebd 653e 356e da3d ad31 263e
00000090: e920 81bd 3506 debd 3c13 29be 682d ae3c
000000a0: 310f 963b df21 e23d 88db b33d b10b dc3d
000000b0: 44a7 9c3d b1f5 623e 33c6 c8bc bb78 b53d
000000c0: 3bf6 d63a 40ec 00bd 9b9f 083d 90a3 d5ba
000000d0: 53fc 1bbe 11b6 2d3e 7ad8 f23d b754 df3d
000000e0: e302 4f3e 5fef 37bd 1078 debd 1043 a83c
000000f0: bbeb 8e3d 4440 87bd 7e3e f2bc 68a1 c4bd
00000100: 67e2 12be eeba f2bd f249 12bd 03a0 ea3c
00000110: db0f f33d 2757 843c 69e7 adba b8cb 543e
00000120: e5cc 253e 6d3b 303d 44a5 423e 1d46 073e
00000130: cc00 483e b4c8 463e 95d1 8d3c 8956 5ebd
00000140: 6b3b 0a3e 84e0 763d a213 263e 0f0d 3abe
00000150: dfe0 1bbd 8562 983d bc34 2cbe 16da cbbd
00000160: c391 97bd 9583 47be 4b5b 5b3e 52ab 1fbd
00000170: 0e46 483e ef2a 993c 6fe4 da3c 5c1e 4c3e
00000180: 997d 003e 57de 983d f5f9 963d 0f5c 8cbd
00000190: b203 23be 4c48 27be 45b2 0b3d 4ed5 a6bd
000001a0: a20a 5abe 2701 2c3e 2445 54be b8e5 bc3d
000001b0: e984 adbd b859 e4bd f592 2dbe 7e05 aa3d
000001c0: f393 3b3e a2de b6bd a3af debd 7807 713d
000001d0: 3e02 dcbd c917 303e 402b 4a3e dbaa 1a3e
000001e0: 30ac 1fbe f0a6 403e 3c7a a13d 898d acbd
000001f0: baf8 99bd 6cad 3fbc f49c 4bbd 5d41 46be
00000200: b0fb 2e3e 6d00 083d 929b 1c3d 7dea 283e
00000210: b806 92bd e01c 943c 38b7 aa3d 04cf 353e
00000220: 4a89 b6bd a0cf ff3a 39e6 76bd bba3 073e
00000230: 2091 03be 440e 36be e8ce 173e 6c7a ee3c
00000240: a0ff 1a3c 1131 213e 6ab6 723c 3807 6bbd
00000250: bf75 2d3e 849b dabd dc31 8f3d 551c f3bc
00000260: a66c 91bd 47f8 5bbe 9ba6 8ebc cff4 fc3d
00000270: c85a debd 812f fb3b a773 63be 10d4 2dbd
00000280: 0156 483c baea 063d 6bc1 353c 6629 7a3d
00000290: 5b60 3bbd 19b6 47bc 1232 9e3d d3d5 223c
000002a0: de8c 9a3d 25c1 7fbd f1a5 ccbd b750 313e
000002b0: a47d 353e 5de1 22bc 0cc4 333e c756 533d
000002c0: 8e4a 653e 6a01 9cbc 4e86 5b3b cd40 17be
000002d0: 74f4 143d 0c80 743d bb4d 083e 5aa8 393e
000002e0: 0695 303e 38df 62bd b23a 4b3e e29a 1b3d
000002f0: 73af a5bc 9308 3d3e d05e bebc 56d5 e63c
00000300: 2e6f 4ebd a1a2 163c 138f f63c d6e7 cd3d
00000310: 6fc9 e63d 34a5 893c dcb3 bb3d 541a 96bc
00000320: 3d11 223e 37ff 73bd bc53 c6bc 64c0 623e
00000330: 0a11 d93d cab1 803d dfa3 d33c 96f5 223e
00000340: 6d8e e7bd 55ce 1cbe 7a66 1f3e 3839 15bd
00000350: 722e 57be 5e3e 39be cfd3 0bbd 8748 c73c
00000360: 9216 f4bd cdf3 033e da35 85bd bca2 cbbd
00000370: 8125 20be 4177 1e3e 22a2 083e 5fd0 a13d
00000380: 19e6 c1bd 9b62 083e d27f 553d ff51 3f3e
00000390: e970 05be 229f 39be 7741 3ebe 6d95 e2bd
000003a0: a160 223c 3bae 42be f6e4 c63d 9832 1b3d
000003b0: a126 a23d bb0c 83bd f2f0 62bd 4174 e33d
000003c0: 6f54 0fbd 4d32 153d f95d b63d 0d18 10be
000003d0: e2cb e43d 2e93 523e 7183 083e c5c4 323d
000003e0: 0354 b63d 3beb 08be 77d0 643c 248d 2c3d
000003f0: 20fd 403e 8a06 59bc cc92 203e aa75 da3d
0.19567007 0.14806987 0.1652161 -0.074773684 0.06578858 -0.030730516 -0.00014860532 0.0647379
-0.10367832 -0.14736065 -0.14459202 0.1040509 0.19221391 -0.008583918 -0.059499327 0.12486936
-0.03968313 -0.121682175 0.12513196 -0.0006972566 -0.011285105 0.094203934 0.017390091 -0.18191575
0.15355717 0.16101293 -0.121541984 0.16278683 -0.1482153 0.1359373 0.048354816 -0.042022
-0.09501392 0.22435567 0.106655516 0.16229887 -0.06305105 -0.10841028 -0.16511244 0.021261886
0.0045794477 0.11041617 0.08782107 0.107444175 0.07649091 0.22164036 -0.024508571 0.08860918
0.0016400287 -0.031475306 0.033355337 -0.0016299356 -0.15232973 0.16963984 0.11857696 0.1090483
0.20215945 -0.044906016 -0.10862744 0.02053979 0.06978556 -0.066040546 -0.029570814 -0.09601098
-0.14344178 -0.1185206 -0.03571505 0.028640753 0.118682586 0.016154839 -0.0013267818 0.20780838
0.16191442 0.043025423 0.19008356 0.1321034 0.19531554 0.194125 0.01731185 -0.054281745
0.13499229 0.06027271 0.16218427 -0.18169044 -0.03805625 0.07440666 -0.16816992 -0.09953706
-0.07400849 -0.19483788 0.21421544 -0.038981743 0.19557974 0.01869723 0.026720254 0.19933456
0.12547912 0.07464283 0.07371894 -0.06853496 -0.15919378 -0.16336173 0.034105558 -0.081461534
-0.21293119 0.16797315 -0.207295 0.09223503 -0.08472616 -0.11149925 -0.16950591 0.08301829
0.18318157 -0.089291826 -0.10873344 0.058845013 -0.10742615 0.17196573 0.19743061 0.15104239
-0.15593028 0.18813682 0.078846425 -0.08425433 -0.07518144 -0.011699062 -0.04971023 -0.19360872
0.17088199 0.03320353 0.0382343 0.164957 -0.07130188 0.018080175 0.083357275 0.17754751
-0.089129046 0.0019516833 -0.06027815 0.13246052 -0.1284833 -0.1777888 0.14825022 0.02911111
0.00946036 0.15741374 0.014813999 -0.05737993 0.16939448 -0.106741935 0.06991932 -0.029676596
-0.07100801 -0.21481429 -0.017413428 0.12351381 -0.10857159 0.007665575 -0.22212087 -0.042438567
0.012227536 0.032938696 0.011093478 0.061074637 -0.04574619 -0.012189412 0.07724394 0.009938675
0.075463995 -0.062440056 -0.09992588 0.17315947 0.1772371 -0.009941426 0.17555255 0.05159643
0.22391722 -0.019043643 0.00334968 -0.14770813 0.03636594 0.059692428 0.13310902 0.18130627
0.17244348 -0.05538866 0.19846609 0.037989505 -0.020225262 0.18460302 -0.02323857 0.028177898
-0.050398998 0.009194047 0.03009752 0.10053985 0.11268889 0.016802408 0.09165165 -0.018323101
0.15826888 -0.059569564 -0.02420985 0.22143704 0.10598953 0.062839106 0.025834976 0.15913996
-0.113064624 -0.15313084 0.15566435 -0.03643152 -0.21013811 -0.18090197 -0.034137543 0.024326576
-0.119183674 0.12885971 -0.06504412 -0.099431485 -0.15639307 0.1547518 0.13343099 0.07901072
-0.09467716 0.13318865 0.052123852 0.18683623 -0.13031353 -0.1812711 -0.1857966 -0.11063657
0.009910733 -0.19011776 0.097116396 0.037890047 0.07917524 -0.063989125 -0.055405565 0.11106158
-0.03499263 0.036424924 0.089046426 -0.14071675 0.111717 0.20563957 0.13331391 0.043644685
0.08902743 -0.13370983 0.0139657175 0.04212679 0.1884656 -0.013246188 0.15680999 0.10666974

encoder.0.bias f4 [16]
00000000: d1ea ea3b a915 0fbe 9bb8 6d3d 2921 283e
00000010: a789 633e d90f 583e a057 0d3e 6ba1 1cbe
00000020: 933b 45be 7342 393e 2ada e33d c0e2 233e
00000030: 9b8f 11bd 0789 6e3e 7519 39be 1de5 3e3e
0.0071691056 -0.13973106 0.05803738 0.164189 0.22220479 0.21099795 0.13802958 -0.15295951
-0.19261007 0.18091755 0.11125596 0.16004467 -0.035537343 0.2329446 -0.18076117 0.18642087

encoder.2.weight f4 [32, 16, 3, 3]
00000000: 9f0b edbc f169 443d a40b bb3d ee16 0b3d
00000010: 762b ee3a 81a1 293d 12b7 073d b74c 1c3d
00000020: 0855 e83d 0372 943d 5fdf 0d3e 5e99 a13d
00000030: d27a c03d ce9b 7f3d cd19 fb3d 365b 8b3d
00000040: 310c 013e c867 e33d bfe9 dc3d b7a0 d33d
00000050: 6da4 783d 204c c93d 14a0 6f3d 452e d1bb
00000060: 0bda df3d 5947 8d3d 171f 41bd 794c 5d3d
00000070: ca12 6b3d 134d c9bb 1e87 583d 46fe 0fbc
00000080: 3e15 823d 2a8b bcbd 4efe 333d a0b5 523d
00000090: e43a 943d b92b 6ebd b39d 8cbd d1ed c5bb
000000a0: cbd0 983d e8f2 ad3d 1229 b9bc c44d 64bc
000000b0: 3bea debc 7429 c43c 9398 47bc 25e6 02bd
000000c0: c7e3 4cbd 3fc9 333d 177d 99bd fad0 2a3d
000000d0: 797f aebd 1676 d0bd a033 a9bc f23e ac3d
000000e0: 396c 4f3d dccb 42bd 4be2 65bc 489d 7e3d
000000f0: a2a9 1fbd 4fd6 653c 6922 35bd c878 a83d
00000100: 4e25 193e d0eb bc3d 3b03 43bb 2390 3b3d
00000110: 44e8 2d3e 1594 973d 49cb d03d 066b 0b3e
00000120: a0d2 18bd 04bd 283c cc3b 7d3d 5e58 3f3d
00000130: e6bc 8e3d 48d8 d13c 61bd 663d 28f0 1fbd
00000140: fa0f 9ebd 2509 b73d 696b 8c3d 27ec 6cbc
00000150: 85b2 8a3d 6845 163d b7e1 9c3d f4c8 29bd
00000160: e75e 953d f7a7 ad3d 33cf 45bd 207c 143c
00000170: 2e1d 4cbd 1db9 5d3d dd4b d93d ffce 9b3c
00000180: 30b2 913d 53db aa3d fca6 ca3d 5bca 7bbd
00000190: d50e 3a3c ec72 a7bc b30c 543d 7efc 7b3d
000001a0: 836e 60bd 61eb 1d3d 8d27 0f3c b619 87bd
000001b0: ddd1 913c 7213 5f3c eb33 823d 14f0 76bc
000001c0: ae4a 09bd dfcd c23d 9eab 92bc 33b8 993d
000001d0: cb55 e63d ab2d 633c 4a92 25bd 842f c63d
000001e0: 46ca 583c bd7c 33bd 7d55 a23d 9cc7 72bd
000001f0: 4e2c 8d3c 3e43 2bbd 6060 50bb 8e1a 9d3d
00000200: 02d8 843d c383 803d d007 c53d 03e1 223c
00000210: 7ea1 5abc 5b20 ae3d b798 a23d 6cf5 d3bc
00000220: 56d3 a2bd 711b f93c c807 343d 7274 ffbc
00000230: 2017 4d3c 53ad e0bc c88f 023d e78f 03bd
00000240: bb2e 4fbd 9b89 283d 9362 473d 8b17 64bd
00000250: 4e85 da3d 2607 7e3d 07fb 193d f7bf 9d3d
00000260: 89e8 893b a4c2 813c 3d3b 083e 5e27 273b
00000270: 9df9 fb3d 0927 d03d 42aa a63d 7e4d 5a3d
00000280: 77b1 9a3d d54e febc 3452 ec3c 4819 953d
00000290: 26f0 603d 2fb6 f73c f275 963c 0505 e53b
000002a0: c0f3 843d 2f03 5a3d 18f4 c53c cdec 7cba
000002b0: 203b 9bbd 0e5d 963b b676 c0bd 31bf b93c
000002c0: 016e 073d 559c c5bd 7d1c 76bb 10c3 c93d
000002d0: f052 fb3b 090e 8fbc 2ecb 883c 7584 37bd
000002e0: 7cda 933c 407e 53bd 7c56 80bc 0c1e 923d
000002f0: a062 ab3c 227a 14bd f4db cebd 974f ccbd
00000300: 43da e5bd 259e 03be 27cc debd a1de f7bc
00000310: 2ca1 d13c 2ce7 fbbc 080b a9bc 5dea b83d
00000320: d20f cc3d 3434 a93c 1618 c33d 5e26 8f3c
00000330: ad49 d23d 1a8d 063d a0bf 33bd cd8b de3d
00000340: 9e88 293e db20 0c3e 383a 013e 2590 b93d
00000350: e2ec b93d 6680 e63b e4b8 b83d 94c8 fc3d
00000360: ba6c 12bc 4184 4b3b f697 d23c d063 9d3d
00000370: 987a 89bd 8118 87bd c2a0 963d 32a3 65bc
00000380: 1d76 34bd d837 8dbc f9db d23d a112 3d3d
00000390: 7e2c 9dbc 7f2d 423d 8efe 1fbc eb84 f33c
000003a0: 8b95 d13d a7d4 dbbc 71e6 ca3c 7ff9 a63d
000003b0: 11d4 6c3c a3b2 ba3d 8100 e13d 34ba 243d
000003c0: 113e 863d ea85 fc3a 2b46 a33c 3df2 993d
000003d0: 6f72 96bd 4fec d53c 1754 74bd 6767 3cbc
000003e0: af57 a9bc f7ae 83bd d55c 933d 2938 4fbd
000003f0: eccd 4d3b 1a6e 493d b580 c83d d4f4 62bd
-0.028936205 0.047952596 0.0913308 0.033957414 0.0018170911 0.041413788 0.033133574 0.0381591
0.113443434 0.072483085 0.1385474 0.078905806 0.09398426 0.062404446 0.122607805 0.068045065
0.12602307 0.11103779 0.10786771 0.10333388 0.060703684 0.09828973 0.05850227 -0.0063836896
0.1093026 0.06898374 -0.04714879 0.054028008 0.057390966 -0.006143221 0.052863233 -0.008788651
0.06351708 -0.09206231 0.043943696 0.051442742 0.07237795 -0.058147166 -0.06866016 -0.006040313
0.07461699 0.08493596 -0.022602592 -0.013934556 -0.0272113 0.023945548 -0.012182373 -0.031957764
-0.050021913 0.043893095 -0.07494562 0.0417032 -0.08520407 -0.10178773 -0.0206545 0.08410443
0.05064032 -0.047557697 -0.014031003 0.062161714 -0.038980134 0.014028146 -0.04422227 0.08226162
0.14955637 0.09224665 -0.0029756564 0.045791756 0.16983134 0.07401291 0.101950236 0.13615045
-0.037310243 0.010298971 0.061824605 0.046715133 0.06969623 0.025615826 0.05633295 -0.03904739
-0.07717891 0.08937291 0.06856424 -0.0144606 0.06772331 0.036687285 0.07660239 -0.04145141
0.07293492 0.084793024 -0.048293304 0.009062797 -0.049832515 0.054131616 0.10610173 0.019019602
0.07114065 0.08342614 0.09895131 -0.061472278 0.011356075 -0.020440541 0.051769923 0.061520092
-0.054792892 0.038554553 0.008737457 -0.06596701 0.017800266 0.013615476 0.06357559 -0.0150718875
-0.033518486 0.09511923 -0.0179041 0.07505836 0.112468325 0.013865869 -0.040422715 0.09677032
0.0132318195 -0.04382013 0.07926462 -0.059272394 0.01723304 -0.041812174 -0.0031795725 0.076710805
0.06486513 0.062751316 0.09620631 0.009941342 -0.013344167 0.08502265 0.07939284 -0.025873862
-0.079504654 0.030408593 0.043952733 -0.031183455 0.01251772 -0.027426397 0.0318754 -0.032119658
-0.050581675 0.041146856 0.048677992 -0.055686515 0.10669957 0.062018536 0.037592914 0.0770263
0.0042086286 0.015839882 0.13303848 0.0025505642 0.12303469 0.10163695 0.08137943 0.05329656
0.0755338 -0.03104345 0.028847791 0.07280213 0.054916523 0.03023824 0.018366788 0.0069891238
0.06491804 0.053225692 0.024164245 -0.0009648323 -0.075796366 0.0045887297 -0.09397642 0.022674175
0.033063892 -0.096489586 -0.0037553601 0.09851658 0.007669799 -0.017462747 0.016698446 -0.044804055
0.018048517 -0.051634073 -0.015666239 0.07134637 0.020921052 -0.036249287 -0.101005465 -0.09976118
-0.11223271 -0.12853296 -0.10878783 -0.030257525 0.025589548 -0.03074988 -0.020635143 0.09029076
0.09963955 0.020654775 0.095260784 0.01747435 0.10267959 0.03284941 -0.04388392 0.10866509
0.16556022 0.13684408 0.12619865 0.090606965 0.09078385 0.0070343493 0.0901964 0.12342945
-0.008937055 0.0031054171 0.025707226 0.07685053 -0.06712836 -0.065964706 0.07354881 -0.01401596
-0.044057954 -0.017238542 0.10295863 0.046160344 -0.019186255 0.04740667 -0.00976528 0.029726466
0.10233601 -0.026834799 0.024768086 0.08153056 0.014454857 0.091161035 0.10986424 0.04021664
0.06554807 0.0019265984 0.01993092 0.075169064 -0.07346045 0.026113657 -0.059650507 -0.011499262
-0.020671694 -0.06429856 0.07195441 -0.050590668 0.0031403257 0.049177267 0.09790174 -0.055409268

encoder.2.bias f4 [32]
00000000: 61bc 9ebb b2c8 d8bc f0cf 8ebd 2510 843d
00000010: be53 94bd eb01 1dbc fd17 ffbc adc0 963d
00000020: 7d5b b93d c4a8 a93d 538b 27bd 6ecc b03d
00000030: 625c 60bc 3fa2 66bc 3e6b 75bd 0d75 013c
00000040: f81c 6abd 441f a13d 40c8 483c ddd0 a53d
00000050: 44f1 463d 0dd3 47bc 25dd f8bc 9e1f 5dbd
00000060: f264 003e 8256 b4bc ee69 97bd a799 273d
00000070: 1ece a3bd 17c9 80bd 43c3 babd 8f00 d8bd
-0.004844234 -0.026462886 -0.06973255 0.06448392 -0.07242535 -0.009582977 -0.031139368 0.07360969
0.09050653 0.082841426 -0.040904354 0.08632742 -0.013693901 -0.014076768 -0.059916727 0.007901442
-0.057156533 0.078672916 0.012254775 0.08096478 0.048569933 -0.0121963145 -0.030378887 -0.05398523
0.12538508 -0.022013906 -0.07393251 0.04091802 -0.07998298 -0.06288355 -0.091192745 -0.105469815

encoder.4.weight f4 [64, 32, 3, 3]
00000000: 2d04 3db9 2a7f 24bd 2cde 25bd 496f 3c3d
00000010: 3d28 a8bc 9e6b 443b 13aa 403d d57f 243c
00000020: 0cd9 323d 284e 283c e561 10bd a392 eebb
00000030: 2e38 f8bb 778d 79bc 8c98 eebc e399 f1bc
00000040: 5b3f 87bc 26b7 8d3c 3e06 9cbd 7238 a0bd
00000050: 0852 1dbd c2bb 193d 233c a0bb 084a d0bd
00000060: 4db9 27bd c057 90bd 6148 4cbd eb85 98bc
00000070: 2104 de3c b97d 50bb 5f39 73ba d854 dc3d
00000080: f06b f3bb 1db2 84ba 1699 aa3b f71e 593d
00000090: 9de0 44bd 1b68 e0bc c6c8 bf3c 9fda d8bc
000000a0: d5bf 2a3d 5159 d73c c05b 59ba 9e9f 27bd
000000b0: 3e49 be3c 4938 433d 5088 d73c fcd5 e03c
000000c0: 8090 38bd 7378 10bd 2fe5 373d 1d77 af3b
000000d0: 18fe b4bb 4053 123a 0b73 793d 65fb e1bc
000000e0: e516 63bc 3280 89bc eeae fabc c1e7 c5bc
000000f0: 5807 433d e5e4 ae3c 019f 27bd 5c55 83bc
00000100: f746 9b3d 1fec 913d 865b cabc 0a5e 9a3c
00000110: 3fca 803d b2dd 863d 77b9 083c ccc1 dabb
00000120: d598 743d 3e15 c33d ef70 813d 2c1e 133d
00000130: 0dfe 993d d82e 34bc 578c 5e3d cceb 3e3d
00000140: e253 3a3d 3c0e c73a f6a1 52bd 21cc 8d3c
00000150: e9a0 c0bc 10cc 0abd 8bb9 b43c ade4 933d
00000160: 77cc 693d 5006 d43c 6906 35bd 7ecf 0d3d
00000170: 38ce f7bb b130 f0ba 6e5e 813d f09f 06bc
00000180: dad0 24bc c8dd 203c ea5e 36bd b175 923d
00000190: 214b 9b3d 2ea0 283c 301a 9e3d c736 a43c
000001a0: 39c4 4c3c fcb5 b7bc f6fe 88bc 9e50 6b3d
000001b0: 1d8a 933d 679f 8d3c 954a 57bd fc00 863d
000001c0: 5591 a43c 66c8 20bc 59f5 9f3d ec26 ccbc
000001d0: bcce b6bc 1b9b f4ba 9e7d 54bc 19db be3b
000001e0: d4e6 723d dfe4 19bd 775d 15bc d0d9 623d
000001f0: b1c0 413d 381f 203d c52e e83c d294 9c3b
00000200: 6b28 343d e8df 203d 0e57 2e3c 29f1 a93b
00000210: cfa4 543d 1376 b2bc 0e15 c2bc 6692 493d
00000220: 3e96 02bd 5549 e53c 9003 c8bc 860d 603c
00000230: ab0a ef39 ef84 6cbc ccb2 c03a 5165 a2bc
00000240: e4c4 24bc 230b 583d 1630 c23c a2d1 dd3c
00000250: 70d6 55bc f6f6 b33c 4e8e 2dbd 12e9 b0bc
00000260: 2054 37bc 4046 893d e353 8a3c 6245 413b
00000270: 5ef1 b93d e364 9dbc 759e 063d f716 a43d
00000280: 83bf 453d cbeb 27bd ea0e 17bd c25e 14bd
00000290: a0b5 52bb 4262 a63c 3d2c fabc 446c c4bc
000002a0: 5478 79bc 8cf0 773c 90c4 a9bb ddf9 8cba
000002b0: f498 4d3d b528 f4bc e7b4 723d 150b 1e3c
000002c0: a87b a33c 4e59 8a3d 7ef5 4e3d e3aa 253a
000002d0: 268e 17bd 69bc 893c 56d8 2fbd b8eb 883d
000002e0: 3c4f bf3b e25b f93c de47 3ebd bf9d 943d
000002f0: c4c8 32bd 43a4 9bbd 91fb 97bd 5f8c 393d
00000300: a1f9 2dbd 4819 4a3a c1c7 8ebc f9ec 0d3d
00000310: 060a f6bc 3b95 57bc 7e1b 103d 0cda 033c
00000320: ca76 22bd ea86 67bd 2fc7 a83b dc8b a8bc
00000330: 0b1a 9bbc 0fc0 5ebd d15e 923c 2bac 30bd
00000340: 3464 8dbc 8031 c2bd 7e96 dcbc f83c 45bd
00000350: c2e2 a3bd 25aa 313d 6770 bdbc 33ed b4bd
00000360: 97b1 d03b 4f77 8e3d 262c 363d 5a73 9a3c
00000370: 021e e93c 0c12 94bc 8ae6 913d 3657 97bc
00000380: 4778 78bc 2a53 3c3d 779b 5f3d 5d7b 14bd
00000390: 1a77 b13d fc65 4e3d 3f5f 683c b742 d13c
000003a0: 72c0 3aba 395b 143d 7e33 49bc 7544 c03b
000003b0: 6706 febb a098 013d b8eb 253d b8ba 0a3c
000003c0: 81c2 843c ff72 943c e3e9 2bbd be72 d23d
000003d0: 4365 ad3d cdbc 733d b45f a63d e7a1 383d
000003e0: 3ea6 8b3d 6817 0f3c a2d6 023d f607 7e3c
000003f0: 685a bf3b fc99 4f3c 8cf6 28bc 9965 243d
-0.00018026 -0.040160336 -0.040495083 0.046004567 -0.020527 0.0029971371 0.047037195 0.010040243
0.043664023 0.01027254 -0.03524961 -0.007280664 -0.0075750565 -0.015231482 -0.029125474 -0.029492324
-0.016509702 0.017299246 -0.07618378 -0.07823266 -0.03840831 0.037532575 -0.0048899814 -0.1017037
-0.0409482 -0.07047987 -0.049873713 -0.018618545 0.027101578 -0.0031813218 -0.00092782633 0.1075837
-0.0074286386 -0.0010123883 0.0052062375 0.053008046 -0.04806577 -0.027393391 0.023411166 -0.026471434
0.04168685 0.026287707 -0.0008291565 -0.040923707 0.023228284 0.0476611 0.026310116 0.027445786
-0.04505968 -0.03527112 0.0448963 0.0053547756 -0.0055234544 0.0005581863 0.06090073 -0.027585695
-0.013860439 -0.016784761 -0.030600991 -0.02415836 0.047614425 0.02134938 -0.040923122 -0.016031913
0.07581895 0.07125115 -0.024701845 0.01884367 0.062885754 0.06585254 0.0083449995 -0.0066759344
0.059716064 0.09525536 0.063203685 0.035917446 0.075191595 -0.010997497 0.054333057 0.046611592
0.045490153 0.0015186737 -0.05142399 0.01730925 -0.023514228 -0.033886015 0.02206113 0.07221351
0.05707976 0.025881916 -0.044195566 0.034621708 -0.007562425 -0.0018325058 0.06316839 -0.008216843
-0.01005956 0.009818502 -0.04452411 0.07151354 0.07582689 0.010292096 0.077198386 0.020045651
0.012497955 -0.022425644 -0.016723137 0.05744993 0.072040774 0.017287923 -0.05256136 0.065431565
0.020088831 -0.009813404 0.07810468 -0.024920903 -0.022315376 -0.0018661948 -0.012969403 0.0058244583
0.059302166 -0.037571784 -0.009116522 0.055383503 0.047302905 0.039092273 0.028342614 0.004778483
0.043983858 0.039276034 0.010640873 0.0051862192 0.051914986 -0.021784818 -0.02369168 0.049211882
-0.031881563 0.027989069 -0.024415761 0.013675099 0.0004559358 -0.014435991 0.0014701723 -0.019823702
-0.010056708 0.052744996 0.02370457 0.0270775 -0.013051614 0.021968346 -0.04237204 -0.021595512
-0.011189491 0.06702852 0.016885703 0.0029490818 0.0907924 -0.019213146 0.03286596 0.08012193
0.048278343 -0.040996354 -0.036879458 -0.03622318 -0.0032151714 0.020310525 -0.030538673 -0.023977406
-0.015226442 0.015133034 -0.005180903 -0.0010755617 0.050194696 -0.029804567 0.059254553 0.009646197
0.019956425 0.06755315 0.05052709 0.00063197146 -0.037000798 0.016813474 -0.042930923 0.06685585
0.005838303 0.030439321 -0.046455257 0.0725665 -0.043648496 -0.0759969 -0.07421029 0.045299884
-0.042474393 0.00077094557 -0.017429234 0.034649823 -0.030034076 -0.013158138 0.03518247 0.008047592
-0.039664067 -0.05652515 0.0051506977 -0.020574503 -0.018933317 -0.05438238 0.017867478 -0.043132942
-0.017259695 -0.094820976 -0.026927229 -0.048153847 -0.08002235 0.043375153 -0.023124887 -0.08834305
0.0063688266 0.0695635 0.044475697 0.018853832 0.028456692 -0.018075012 0.0712405 -0.018474203
-0.015165395 0.04597775 0.054591622 -0.03625046 0.08665295 0.05039023 0.014182865 0.025544507
-0.00071240135 0.03621981 -0.012280343 0.0058675357 -0.007752228 0.031639695 0.040508002 0.008467369
0.016206028 0.01812124 -0.0419711 0.102757916 0.0846658 0.059506226 0.08123723 0.045076277
0.068188176 0.008733608 0.03194297 0.015504828 0.0058396347 0.01267099 -0.010312688 0.040135954

encoder.4.bias f4 [64]
00000000: 051e 6f3d 2585 be3c c239 9bbd 36c5 77bd
00000010: 8e7e 77bd b211 f0bc 7832 a6bc 58dc b1bd
00000020: f7b5 1a3c 694a ddbc f7c4 4dbd e9e2 873d
00000030: 2052 753c 0e71 313d 9a0b 87bd 1891 aabd
00000040: 661e bb3a 2501 d2bc 7a91 73bd 6a6d b03c
00000050: c758 b6bc 71ea 62bd ea41 29bb ce49 2e3d
00000060: 3f6d 16bd ccec 1e3d ef04 5dbd aef8 02bd
00000070: eea0 7fbd 5080 e13c 9ee2 80bd cb86 ae3c
00000080: 0e41 b03c 8e58 103d 106d 50bd 3853 4a3d
00000090: 3444 2c3c 8470 6d3c 06f4 c53b 26d3 943d
000000a0: 10bb 54bd 0fb7 82bd 51bf 6cbd d5c0 783d
000000b0: 2e9b 98bc ea38 bf3c d35e 3d3d ea62 2c3c
000000c0: 7eaa 41bd 0015 443d bbf2 83bc 56f5 703b
000000d0: 4407 e43c 1c2a eebc 8a71 ab3d d929 da3d
000000e0: 1c6a 0d3c ef39 22bd 42c1 e53c 0212 1abb
000000f0: c552 7d3c ca04 e2bb 0147 5c3d 4682 ad3d
0.05837824 0.023256848 -0.07579376 -0.06049081 -0.060423426 -0.029305313 -0.020287737 -0.08684605
0.009442798 -0.02701302 -0.05023667 0.066350766 0.014973193 0.043320708 -0.0659401 -0.08328456
0.0014276027 -0.025635311 -0.05946491 0.021536548 -0.02225913 -0.055399362 -0.0025826641 0.042550854
-0.03672528 0.038800046 -0.053959783 -0.03197544 -0.062409334 0.027527004 -0.06293224 0.021304509
0.021515395 0.035240702 -0.05088526 0.04939577 0.010514308 0.014492158 0.0060410528 0.07266836
-0.05193621 -0.06382572 -0.05779964 0.060730774 -0.018628683 0.023342568 0.04623301 0.01052163
-0.047281735 0.04787159 -0.016106954 0.0036767325 0.027835496 -0.029072814 0.08371265 0.10652513
0.0086312555 -0.03960603 0.028046254 -0.0023509269 0.015461628 -0.0068975436 0.053778652 0.08472113

decoder.0.weight f4 [64, 32, 3, 3]
00000000: 259a 193c 5679 1bbd b760 54bd 3b51 963c
00000010: da4e 08bd 1f6c 8cbd 323f dcbc 881e 463c
00000020: 5b63 5d3c 90c2 3dbd d2ea 86bd e816 08bd
00000030: f9ce 2d3d 0b60 99bb 9778 68bd d628 3dbd
00000040: 44da 57bd 72b0 5abd 8fba a83d 7f1c 30bd
00000050: 30df 9e3c 34d9 6b3d 4164 b23c e1c9 ea3a
00000060: 52d1 383a f579 aabd 5f24 2abd 07d8 b43c
00000070: 2dba 9a3d 818f 733c a17f 803d 2819 003d
00000080: 0bfd 483d c3f6 90bc af17 babc a3a2 e1bc
00000090: 600e c53d 5b3f 233d 7b90 b8bb a014 97bb
000000a0: a4b7 9f3d 7a34 813d 78f0 0ebd 5bb0 553d
000000b0: 106c 6fbc c9a7 4fbc 0067 c63c dbcb 643d
000000c0: dd90 5d3d a2b3 013d 7008 3839 5cd8 16bd
000000d0: 31a2 213d 63ce 8f3c ced9 4f3c 6f92 edbb
000000e0: 17de 0cbd b9a3 aa3d bb8b eb3d f6e9 69bc
000000f0: ef7e f13c 72d8 7bbc 8f5d 4b3d eedd 7ebd
00000100: bc39 37bd d121 6abd a64d 3c3d 16df abbc
00000110: 4196 083d cb13 b5bc 8a82 b23c 4700 babc
00000120: 33ab 453c 280b 23bc ddce ce3c 8667 ca3c
00000130: 9a96 c33d cd1c 23bd 540c f4bc 8dc4 a53b
00000140: 9460 e5bb 44a5 fcbc cb89 8b3d 9021 523d
00000150: 091f d93a bc11 6c3d 002d e83c 5171 2cbd
00000160: 71c8 883d b433 743d 3bdd f4bc 91ee 903b
00000170: 86fa 49bd 84ca 7a3d c5b6 c23d 4fdb fb3c
00000180: 65d0 fdbc 5749 cebc 6f5b 833c 9cff 18b9
00000190: 8254 7abd ae75 90bd a9dc 6b3d 81b5 cdbc
000001a0: 942d 21bd ffb9 f93b b7a0 0cbd 463c 693d
000001b0: e998 7abd 574d 7dbc 90e5 c9bc 6561 2f3d
000001c0: aabd 313c 9362 1fbd 1fc8 033a e598 ef3a
000001d0: 3e95 b43c f29f 223d 8cec 14bd bcfc 1bbd
000001e0: 70f2 e1bc 5b5d 89bd fe64 ee3c 5a87 bdbb
000001f0: 846f 2d3b 6ad3 863b 2ca0 03bd dfcf aebc
00000200: 1e55 1fbc 56d9 96bd 0825 9d3b d342 b8bd
00000210: 847f 74bb bb6e 6abd 14cd 2fbd 4e8e d53c
00000220: 2e5d eb3b dd4d 883d c03c e03c 54be 3d3d
00000230: 16db f43c 9409 9abc e97f 843d b618 20bb
00000240: eef2 4fbd a2e2 a7bd 32b7 463d 962e ecbb
00000250: 2052 bf3c 253e 0cbc 1ba1 53bd 767d 6fbd
00000260: 5ce1 203d aee8 b73c 7ace cb3c 92d7 7ebc
00000270: 6264 f63b cccf 963c fd83 113d 164b 483d
00000280: 5e49 233d 32dd dabc c0b5 e13c eb4f dabd
00000290: 7fa6 1ebd c7ab 63bd 8c67 78bd 05a3 acbd
000002a0: 3d1a 113d 8475 54bd bf0e 7abd 1a1f 2fbd
000002b0: b90a c53c b1ea 513d 605e 9ebc e4a6 023d
000002c0: 1e38 873c cf27 28bd 5223 a3bd 9e93 debc
000002d0: 907b e43b 6005 e2bb cd36 8cbc 0217 343d
000002e0: 2dc5 20bd 6743 033d 705c cf3c dd16 60bb
000002f0: fc43 733a 020a 2cbd 3e20 54bd ee67 91bd
00000300: b582 83bc b3f6 883b 2f98 803c c3bd 7b3d
00000310: 0614 66bd b648 15bd d55e c63c cf1c e13c
00000320: a09b 323d 9970 583d 80e3 e33d ba98 18bc
00000330: 4af9 723d a1ce b5bc 4124 873c 0ac7 7bbd
00000340: 84f4 a5bd 2e6c 5abd 325e 3b3c 2049 55bb
00000350: 8350 8bbd 253b 41bd 73be 1abc 2a14 98bd
00000360: d72e 283d 7c28 ebbc c124 033d daee 8a3d
00000370: 1412 883d ec86 11bd af5f 26bd 349b 143d
00000380: 8970 863d df03 72bc 562b e63d 7d6a d03c
00000390: f0a1 563d 87de 9f3d e875 a03d 9047 683c
000003a0: 4be3 943c 4368 08bd 38cc 10bc 509e 36bd
000003b0: 20f6 753a 2aa2 ee3c dfd6 413d 291b de3c
000003c0: e556 3abd 433b 273d b56b 013c a2bc 02bc
000003d0: 493e 84bc 8612 ebbc dffc 8f3c 3029 2ebd
000003e0: 7780 b73c 1819 98bd e414 91bd 4440 89bd
000003f0: 31de 9f3d 6a11 263d ab97 2cbc 97ac 9d3c
0.00937513 -0.03795751 -0.051850047 0.01834928 -0.033278324 -0.0685656 -0.026885603 0.01209224
0.013512458 -0.046328127 -0.06587757 -0.03322497 0.042433713 -0.0046806387 -0.05675563 -0.046181522
-0.05269839 -0.053390928 0.08238708 -0.042995926 0.019393533 0.057580188 0.02177632 0.0017912948
0.0007050234 -0.08324043 -0.041538592 0.022075666 0.075550415 0.014865757 0.06274343 0.03127399
0.049069446 -0.01769579 -0.022716371 -0.027543372 0.096218824 0.039855342 -0.005632458 -0.004610613
0.077986985 0.06308837 -0.034897298 0.05217014 -0.014613166 -0.01267428 0.024219036 0.055858474
0.05409323 0.03166545 0.0001755075 -0.03682743 0.03946132 0.017554468 0.012686206 -0.0072501223
-0.03439149 0.08332009 0.11501261 -0.014276972 0.029479472 -0.015371429 0.04964977 -0.062223367
-0.044732794 -0.057161156 0.04597249 -0.0209804 0.03334642 -0.022104165 0.021790762 -0.02270521
0.012064743 -0.00995139 0.025245124 0.024707567 0.09550209 -0.03982239 -0.029791035 0.005058831
-0.0070000384 -0.030840524 0.06813391 0.05130154 0.0016565035 0.0576341 0.02834177 -0.042100254
0.06678856 0.05961962 -0.029890647 0.0044229706 -0.049311183 0.06122829 0.09507517 0.030744223
-0.03098316 -0.025181456 0.01603481 -0.00014591072 -0.06111575 -0.070536956 0.057583485 -0.025110962
-0.039350107 0.0076210494 -0.034332957 0.056942247 -0.061180983 -0.015460334 -0.024645597 0.042817492
0.010848442 -0.038912367 0.0005027074 0.0018279819 0.02204382 0.039703317 -0.0363584 -0.038082823
-0.027581424 -0.06707259 0.029100891 -0.0057839574 0.0026464174 0.004114558 -0.032135174 -0.021339355
-0.009724883 -0.07365672 0.0047956742 -0.08997121 -0.003730745 -0.057234507 -0.042920187 0.026068833
0.0071827387 0.06655476 0.027372718 0.04632409 0.029889625 -0.018803395 0.064697094 -0.0024428791
-0.050768785 -0.08197524 0.048514552 -0.007207702 0.02335459 -0.008559738 -0.051667314 -0.05846926
0.03927742 0.022449818 0.02487873 -0.015554326 0.007519291 0.018409632 0.035526264 0.048899733
0.03986489 -0.026716802 0.027552485 -0.106597744 -0.038733 -0.05558374 -0.060645625 -0.08429531
0.035425413 -0.051869884 -0.06104922 -0.04275427 0.024052965 0.05124921 -0.01933211 0.03189744
0.016506251 -0.04105359 -0.07965721 -0.027169999 0.0069727376 -0.0068976134 -0.017115975 0.043967254
-0.03925054 0.0320467 0.025312632 -0.0034193315 0.0009279845 -0.04200173 -0.05178856 -0.07099901
-0.016053537 0.0041797995 0.015697567 0.061460268 -0.05617144 -0.036446296 0.024215141 0.027479557
0.043605447 0.052841756 0.111273766 -0.009313757 0.05931977 -0.022193255 0.01649678 -0.061469115
-0.08103278 -0.053325824 0.011436032 -0.0032544807 -0.06802466 -0.047175545 -0.009444821 -0.07425721
0.041060295 -0.028705828 0.032017473 0.067838386 0.06644073 -0.035529062 -0.040618595 0.036280826
0.06564433 -0.014771431 0.112387344 0.025441403 0.05240053 0.078061156 0.07834989 0.014177218
0.018174788 -0.033302557 -0.008837752 -0.044584572 0.0009382684 0.02913006 0.047324058 0.02711256
-0.045493025 0.040828 0.0078992145 -0.007979544 -0.016142981 -0.028695356 0.017576633 -0.04251975
0.022400124 -0.07426661 -0.07084063 -0.06701711 0.078060515 0.04054395 -0.010534207 0.019247336

decoder.0.bias f4 [32]
00000000: 82f3 103d a6bd 4cbd eba9 86bc a96e fe3b
00000010: da95 923d 48ea 6cbc 59a9 423d 0fd6 1c3b
00000020: b6cc 82bb 0135 203d b83d 0c3d 34f9 c5bc
00000030: 5047 d13c f7b9 56bd 0407 6bbd 7509 253d
00000040: bdee 32bc 592e d63c 28ac 14bc fd95 2bbd
00000050: 5e24 2abc 7b76 85bc bffe fd3d 04a8 7abd
00000060: 6c10 b13d 1152 b63d b01c 2abc 1302 023d
00000070: 1192 5bbd 2a38 d23d 4ce7 433c 67b3 823c
0.035388477 -0.04998555 -0.016438445 0.0077646566 0.07157488 -0.014460154 0.047524784 0.00239313
-0.0039916886 0.03911305 0.034238547 -0.02416668 0.0255467 -0.052423444 -0.057379737 0.040292222
-0.010921177 0.026145147 -0.009074248 -0.041891087 -0.010384647 -0.016291847 0.124021046 -0.06119539
0.0864571 0.08902372 -0.010382816 0.03174026 -0.053606097 0.10264619 0.011957001 0.015954686

decoder.2.weight f4 [32, 16, 3, 3]
00000000: b2ba 9cbd b1f0 403d 52bc c93b 2c07 2c3e
00000010: 58f7 673c ef1e cf3d ff08 54bd 78a5 183c
00000020: 1741 61bd fc7d 813c 794a d23c d681 bdbc
00000030: c40b 0c3d 23dc 5dbd 3129 93bc 416e 153a
00000040: 354d dabb e3e5 50bc bfac 0dbe 4064 e1bd
00000050: eb22 ad3c 296a 18bd c891 37bd 7fc4 c6bc
00000060: 48fa 1c3d d439 0abc 8765 8f3c 245d 3c3c
00000070: 903e 10bd 9052 a0bd 9191 103d c760 023e
00000080: 0cc3 babc 36ff 15bd 7987 823d 028f 59bd
00000090: b808 2fbd 38c2 ca3c 7a8e 6abb 040a a23d
000000a0: f2b2 353d c0fc 213d 86a5 cb3d 843d 8c3d
000000b0: 29f0 a83d 26c4 a63d 1d2d a9bc fb36 4ebd
000000c0: 5f22 c93c 2dad 37bc c8fa 94bd 6215 4f3d
000000d0: 6182 2a3c 4f22 33bd 62bc 623d e239 393d
000000e0: 2a01 cfbb ac0a 60bd 68e2 babd a8a4 d2bd
000000f0: a29d edbd 7ced 21bd ae21 57bd bf27 4abd
00000100: 5cd7 1d3d adaa af3c 4323 1b3e 703c 62bd
00000110: 6bfd 003e b123 353d cc21 423b 4ae1 b6bc
00000120: 95d0 0b3d 8198 0f3d b0b3 35bd fc54 ac3d
00000130: 9565 95bc 828f 2a3e d8da b83b 80ea fa3c
00000140: 0cc3 0c3d d0f0 2039 aa0e 98bc bfb8 12bc
00000150: da16 d3bc b9e8 11bd 1c19 28bd 101a 1b3c
00000160: fbe4 9bbd 6b9d b1bc 6134 68bd 18a1 193c
00000170: 3188 b6bc 1c35 263d cb56 9abb 4ea4 12bd
00000180: 3a06 98bc 7fd1 f23c 0b26 8fbd 4c7c 4a3d
00000190: ff61 223d 59fb 343d eb9e a0bc cca8 cd3d
000001a0: 6747 973d b756 e73b 33e7 11bd dcf2 4f3c
000001b0: 1b20 25bd 329a 05bd b8b2 633d c11c b4bc
000001c0: bea3 8a3d 17dd 26bb 68d7 54bd 0d94 22bc
000001d0: a412 c9bc 0c98 34bd df29 3cbc b043 69bd
000001e0: 4abb 0f3c fee1 65bd b5d8 e1bc 6df9 793d
000001f0: 0f65 773d c055 84ba 040b 303b e3ac 48bc
00000200: a3cf 98bd fcd0 953d 5c44 8fbd 40f7 aebc
00000210: 0c80 81bd 06fb e13c 5d75 a63c 9b7b 3dbd
00000220: 1eb3 e53c ba05 3dbd c61a c5bb 8a1f 62bd
00000230: d1e2 673d 8813 c2bb f558 06bc 39dd 2e3c
00000240: 9423 3bbd 96b9 bc3b c39d b53c b4df afbb
00000250: cb55 7c3d ac82 1dbd 57a4 713d 0957 8f3c
00000260: e23d 803d 947a c93c 552b 5e3d 89f8 713d
00000270: 6a94 89bc 13b3 48bd 37a3 913c b005 92bd
00000280: cdb1 78bd 1fef 20bd 64af 5cbd b525 f73b
00000290: e71d 8bbd ffab 9d3d 1ee8 adbd 14a9 a9bd
000002a0: 60f9 bbbb 8649 d63b e5cd 7fbb dd61 b1bd
000002b0: d5a1 8c3d 49fe 5e3d 5dd9 81bd db94 823c
000002c0: d026 8ebd ade0 9e3c 1807 3fbd 3c0d cebd
000002d0: c377 863d 8f03 37bc 0c82 cb3c 31f7 853c
000002e0: 0c00 db3d aacc fd3d 74f2 2f3d fba9 c23d
000002f0: 7785 3d3b a36e edbd 98a7 7abd fda1 72bb
00000300: 7fb5 24be 11d7 18be 95d4 d8bd 0cf4 58bd
00000310: 8b91 e2bd 5fb3 aabc 401b fc3c 3788 95bd
00000320: f569 0d3d 9944 be3c 3eba 6c3c 7356 b4bd
00000330: cbb3 9f3c fbd8 c9bd c8ba 45bd efea a53c
00000340: a504 1039 aecf a9bc 6441 563c c3de 57bd
00000350: ccad d43d 6758 413d 443f f53d 94ee 4a3d
00000360: 0ff6 c9bd d1ae d7bc 1a28 593d eb18 233b
00000370: 9019 703d 80de f93c 588f 82bd b266 d23d
00000380: 0e15 b0bd f2fc 3abc a234 74bd aa9c 0a3d
00000390: e5c3 243d 0464 0cbd 0b37 85bd 5dbd 783d
000003a0: 3b36 b5bd 701f cfbc c18d 0cbd eb38 53bd
000003b0: 587e 55bd 55a0 e8bc 777f 043d 8f29 eb3b
000003c0: 9f64 663d 3083 b63c d1f1 133d 8bc7 ee3d
000003d0: e75d ef3d 8b47 acbc cdb2 9bbc 61b8 1f3e
000003e0: c9b7 a73d 5cdd c33c 5ab6 963c 9b8d bcbb
000003f0: a493 f03c a10a 6e3d dbc0 3cbd 07a1 173e
-0.07652797 0.04710454 0.0061564827 0.16799611 0.014158092 0.10113322 -0.05176639 0.009316795
-0.054993715 0.015807144 0.025670277 -0.0231332 0.034190908 -0.054165017 -0.017963978 0.0005700328
-0.006662036 -0.012750122 -0.13835429 -0.11005449 0.021134814 -0.037210617 -0.044816762 -0.024263619
0.038324624 -0.008436639 0.017504467 0.011496816 -0.035215914 -0.078282475 0.035295073 0.1273223
-0.022798084 -0.03662034 0.063734956 -0.0531149 -0.042732924 0.024750814 -0.003579049 0.079120666
0.04436011 0.03954768 0.099436805 0.06847671 0.08248932 0.08142881 -0.020651395 -0.050345402
0.024552522 -0.011210722 -0.07274395 0.0505575 0.010407061 -0.04373389 0.055355437 0.045221217
-0.0063172774 -0.054697677 -0.09125215 -0.10285312 -0.11602332 -0.039533123 -0.052522354 -0.04935431
0.03853546 0.02144369 0.1515017 -0.05523342 0.12596671 0.04422349 0.0029622195 -0.022324223
0.034134466 0.03505755 -0.044360816 0.08414647 -0.018236915 0.16656306 0.0056413226 0.030629396
0.0343657 0.00015348499 -0.01856168 -0.00895518 -0.025767732 -0.035622332 -0.04103957 0.009466663
-0.07612034 -0.021681508 -0.056690577 0.009376787 -0.022281738 0.040577993 -0.0047100536 -0.035801224
-0.018557657 0.029640911 -0.06989678 0.049434945 0.039644238 0.044185016 -0.019607028 0.10041961
0.07386666 0.0070598978 -0.03562088 0.0126921795 -0.04031382 -0.032617755 0.05559036 -0.021986367
0.067695126 -0.002546137 -0.05196324 -0.009922993 -0.024545021 -0.044090316 -0.011484592 -0.056949317
0.008772681 -0.056123726 -0.027569154 0.061028887 0.06039911 -0.0010096356 0.0026862035 -0.012248251
-0.074614786 0.07315251 -0.069954604 -0.021358132 -0.06323251 0.027585518 0.020319635 -0.046260457
0.028039511 -0.04614804 -0.0060151545 -0.05520586 0.056612793 -0.0059227385 -0.00819992 0.010672861
-0.045688227 0.0057594283 0.022169953 -0.0053672437 0.061605256 -0.038454697 0.058994617 0.017497556
0.06261803 0.024594583 0.054240543 0.059074912 -0.016794402 -0.048998903 0.017778022 -0.07129991
-0.06071644 -0.039290544 -0.053878203 0.007542337 -0.06792813 0.07698821 -0.084915385 -0.08284202
-0.005736515 0.0065395264 -0.0039032635 -0.08661244 0.068668045 0.054441724 -0.06340287 0.01594012
-0.06940997 0.019394243 -0.046637625 -0.10061118 0.065658115 -0.011170282 0.024842285 0.016353222
0.10693368 0.12392552 0.04295583 0.095050775 0.0028918663 -0.11593368 -0.061194986 -0.0037022822
-0.1608486 -0.14925791 -0.10587422 -0.052967116 -0.11062916 -0.020837484 0.030774713 -0.073013715
0.034524877 0.02322607 0.0144487005 -0.088055514 0.019494912 -0.09855839 -0.04827383 0.020253627
0.0001373464 -0.020728912 0.013077114 -0.052702677 0.103847116 0.047203448 0.119749576 0.049543932
-0.09861385 -0.026328476 0.05301676 0.0024886678 0.05861813 0.030501604 -0.06374997 0.10273494
-0.08597766 -0.011412846 -0.059620507 0.033840813 0.040225882 -0.03427507 -0.06504639 0.060727466
-0.08848234 -0.025283545 -0.034314875 -0.051567953 -0.052122444 -0.028396765 0.032348122 0.007176585
0.056248304 0.022279352 0.036119286 0.116591536 0.11687832 -0.021030208 -0.019006157 0.15597679
0.08189351 0.023909263 0.018397499 -0.0057541854 0.029367276 0.058115605 -0.04608236 0.14807521

decoder.2.bias f4 [16]
00000000: 5cbc fdbc 1ec2 1fbd 2431 53bd 31d4 12bd
00000010: 427d 9a3d a826 863d a409 223d 7631 71bc
00000020: a7fb a5bd aa8b 5abd e717 29bc 46bc fe3c
00000030: aed7 f53c 9a5f 8abd 7d51 7dbc db22 133d
-0.030973606 -0.039003484 -0.051560536 -0.035846893 0.07543422 0.06550342 0.039559975 -0.014721265
-0.081046395 -0.05335585 -0.01032064 0.031095635 0.03001007 -0.06756516 -0.015461323 0.035921913

decoder.4.weight f4 [16, 3, 3, 3]
00000000: ad5d 13bd 25a2 c03d 8f8c 87bd 7985 703e
00000010: 7cd9 2bbd a933 423e 0178 c43d c4a4 3b3e
00000020: 190d 033e 621d c5bd 51c6 f93d 32ab d43d
00000030: c90f 0c3e 9021 143d 508d e73d d75b 753d
00000040: 5b91 7d3e 0531 d33d 4c24 a13d 76ce 1e3e
00000050: 1ab0 6b3d 425b 86bc e4e9 263d 08a7 333d
00000060: 76cd ee3c 7708 253e ed87 763d 3f56 db3d
00000070: f0a1 30bd 3b03 0dbd 27e6 19be 34fc e2bd
00000080: 3ffc 96bd a05f 9abc 0c6c ca3c 5b50 893c
00000090: 691c 44be 0c27 2ebd 7223 393e 9098 50bd
000000a0: d7d2 0ebe c764 be3d 11ac e63d 3e0d b83d
000000b0: dab9 3d3e 5e9a 90bb a7a6 8ebd 2885 053e
000000c0: 1e23 f2bc f176 9f3b 7498 573d b82b 48be
000000d0: 8264 4abd 01ca fbbd 20c7 f1bc b164 11bd
000000e0: b304 8fbd e652 25bc f38c 873b e183 7ebb
000000f0: 9de8 0c3d 7d7a 393e d288 933d 0ae4 333e
00000100: 7025 70bd c17e 96bd 31db 353c 6939 ebbd
00000110: 3816 50bd dd01 1bbc ae06 fe3d dd9d be3d
00000120: 7b8f 023e d3eb 63bd cc25 b63d 02b3 ef3d
00000130: 20f4 11be 53da 103d 46b5 2f3e 5b19 173d
00000140: 9c8d 1f3e e108 3dbe fb76 af3c 22bf 07be
00000150: 3c78 fabd 03e8 933b 7e53 25be da42 043e
00000160: 7ef4 ecbc 5ac9 32be 2142 aabd 497c 903d
00000170: a821 b03d dfee 35be 9e09 ea3d e4e4 4fbe
00000180: a951 ac3d 42d7 cabd a0be cf3d d16e c3bd
00000190: 10ca adbd 6c9a 5e3d e7b4 83be 918a 873d
000001a0: b865 41be 20ae 3bbe 542a 31bd 8e5d d2bc
000001b0: 625a f23d 97a2 033e f27e d53d df3b b43c
000001c0: 7f86 633e 470a bb3d f558 293e 88e4 ff3d
000001d0: 9dbf 44be 8c53 983d 3d27 aa3d c81c b03d
000001e0: 92e1 1fbd 61f4 143e fb72 1a3e fb45 06bd
000001f0: 163e dd3d 2a41 163e 0d9e 963d 763d c6bd
00000200: beee 2a3c 3c92 02be 2233 173e 2ed1 44be
00000210: ed56 61bd 5c5c 99bd fb05 0bbe 2ea0 57be
00000220: e8da 14be 569b 8ebd 18fd 21be be96 89bd
00000230: e31a afbd ad2a 113e 740e 993b 7657 aabd
00000240: 578b 83bd faa0 7dbc 65e3 003d fafb 0c3e
00000250: 494e 2ebe 0c01 ef3d ddf1 4d3d 6656 21bd
00000260: c7f2 c03c d3bb f73d c508 a0bc 3d90 3abe
00000270: c761 d9bd 9082 61be f9fe 57bc 3ca8 2cbe
00000280: 1ef1 50be c41b 29bc a518 8bbd 0ff6 22be
00000290: ffa0 f8bd 1a09 19be 0ff7 de3d be0e 10be
000002a0: 7b3b 5dbe 92fe 3fbe 04de 3bbe ecc6 e93c
000002b0: f7ec 1abe 952b 9dbd b49d 6639 8959 d03a
000002c0: 5bb4 fabd 6131 cdbd dfc7 a1bd 4cd3 98bd
000002d0: ba91 1fbe 69bb f8bd de91 703d d793 d3bd
000002e0: 8890 013b 2eed a6b9 26e0 38be 3db9 143c
000002f0: 78f2 1ebe 9f0e 423b 53d0 343d f01b 9b3d
00000300: 480e 70bc 8141 c0bc 7b84 04be b286 033d
00000310: aadf af3d 90e9 d03d 9551 cf3c c039 153e
00000320: 34e0 0cbe 746f 453e a7ef 903e e9d4 2abc
00000330: edd5 78bc 20d2 e53d 77dc 793d ead2 bebd
00000340: 5061 533e d217 b4bc 9271 733d 3eb4 f73d
00000350: c4e4 0a3e 04db 223e 543f 343d fc3d c93d
00000360: 01f8 8bbd 943b 7d3e 044a 7f3d 077a 763e
00000370: e9e7 5fbd eb62 073e 03f0 c9bd 7a5c 523e
00000380: 7701 7ebd 8359 313d af23 3f3e 54e4 063e
00000390: 6ba7 3b3e 2aa7 93bc 07ed 163e 18fb 28be
000003a0: 223d aebd 47a3 93bd c4d5 14b9 26f7 12bd
000003b0: 1573 4e3e 9085 703e 32ca 59bd d33b b7bc
000003c0: c540 963c 0fe6 113e 1059 453e 55ed 263e
000003d0: 885c 09be d492 e4bd e197 153e 44db 8bbd
000003e0: ecfd 0b3e 1ba1 703d 68c1 50bd 72ca 9dbc
000003f0: bca4 0c3e 0065 073c d34b b3bd af1d b5bb
-0.035978008 0.094059266 -0.06618606 0.23488416 -0.041955456 0.1896502 0.095932014 0.18324572
0.12797965 -0.09624745 0.12196029 0.103842154 0.13677897 0.03616482 0.1130625 0.05990204
0.2476248 0.10312084 0.07868251 0.15508446 0.05754099 -0.016400937 0.0407504 0.043860465
0.029150706 0.1611651 0.060188223 0.107098095 -0.043123186 -0.03442691 -0.15029202 -0.1108326
-0.07372331 -0.018844426 0.024709724 0.01676195 -0.19151463 -0.042517707 0.18079928 -0.050926745
-0.13947617 0.092965655 0.11263288 0.08986901 0.18527928 -0.0044129333 -0.0696538 0.13039076
-0.02955776 0.004866474 0.052635625 -0.19547927 -0.049412258 -0.122943886 -0.029513896 -0.035496417
-0.06983318 -0.010090565 0.0041366755 -0.003883593 0.034401525 0.18113132 0.07203831 0.17567459
-0.058629453 -0.07348395 0.011099623 -0.114855595 -0.05080244 -0.009460893 0.12403618 0.09307454
0.12750046 -0.05564482 0.08893928 0.11704065 -0.14253283 0.03536446 0.17158994 0.036889415
0.15581363 -0.18460418 0.021419039 -0.13256505 -0.12229964 0.004513742 -0.16145131 0.12916127
-0.028925177 -0.17459622 -0.08313394 0.070549555 0.086001694 -0.17766903 0.114276156 -0.20302159
0.08414013 -0.099043384 0.10143781 -0.09542621 -0.08485806 0.054346487 -0.25723955 0.06618226
-0.18886459 -0.18328142 -0.043253258 -0.025679376 0.118336454 0.12854992 0.104246035 0.022001205
0.22219275 0.091328196 0.1653784 0.12494761 -0.1921372 0.0743781 0.08308265 0.085992396
-0.03903348 0.14546348 0.15082924 -0.032781582 0.108028576 0.14673296 0.073543645 -0.096796915
0.010432897 -0.12751096 0.147656 -0.1922042 -0.05501454 -0.07488319 -0.135765 -0.21057197
-0.14536631 -0.06963222 -0.15819204 -0.06718205 -0.0855005 0.14176436 0.0046709124 -0.08317463
-0.06423061 -0.015480274 0.03146686 0.13767996 -0.17022051 0.116701216 0.050279487 -0.039389037
0.023553265 0.120963715 -0.019535432 -0.18219085 -0.10614353 -0.22022462 -0.013183349 -0.16861051
-0.20404479 -0.010321561 -0.0679181 -0.15914176 -0.121400826 -0.14944878 0.108869664 -0.14068124
-0.21604721 -0.18749455 -0.18346411 0.028537236 -0.15129457 -0.07674328 0.00021993258 0.0015895824
-0.12241431 -0.10019184 -0.078994505 -0.07462177 -0.15582934 -0.12145121 0.05873286 -0.103309326
0.0019769985 -0.000318387 -0.18054256 0.009077367 -0.15522182 0.0029610766 0.044143986 0.07573688
-0.014651842 -0.023468735 -0.12941162 0.032110877 0.085875824 0.102007985 0.025307456 0.14572811
-0.13757402 0.19280797 0.2830784 -0.010426738 -0.015187723 0.11221719 0.061001267 -0.093175724
0.2064259 -0.021984015 0.05943448 0.12094925 0.1356383 0.1590386 0.044005707 0.09826276
-0.06834412 0.24729759 0.062326446 0.24069987 -0.054664526 0.13221328 -0.09860232 0.2054309
-0.062013116 0.043298256 0.18665956 0.13173038 0.18325584 -0.018024046 0.14738856 -0.16502035
-0.08507754 -0.07208877 -0.00014194014 -0.03588023 0.20161088 0.2348845 -0.053171344 -0.022367394
0.018341431 0.14247917 0.19272256 0.16301472 -0.13414204 -0.11160818 0.14608718 -0.06828931
0.13671082 0.058747392 -0.050965697 -0.019261573 0.13734716 0.008263826 -0.08754697 -0.00552722

decoder.4.bias f4 [3]
00000000: 8dd2 f0bd 9b36 51bc 1850 78bc
-0.117589094 -0.012769367 -0.015155815
