cashew_autoencoder.pth (torch, 193122 bytes, 12 tensors)

encoder.0.weight f4 [16, 3, 3, 3]
0	0xbdb95e60	-0.09051204
1	0xbdeaabc7	-0.11458545
2	0xbe199bfe	-0.15000913
3	0xbd8dcaeb	-0.06923469
4	0xbdc4066b	-0.09571537
5	0xbd8c9f20	-0.06866288
6	0x3d7d099d	0.061776746
7	0x3e157d76	0.14598641
8	0xbceba787	-0.028766407
9	0x3e5780af	0.21045183
10	0x3e1b4f28	0.15166914
11	0x3e17a04c	0.14807242
12	0x3ced93f8	0.029001221
13	0xbdaaf68a	-0.08347805
14	0x3e39dd02	0.18150714
15	0xbd9f52bd	-0.07779453
16	0xbd3f18cf	-0.04665452
17	0xbe133f0a	-0.14379516
18	0x3e0f6ffc	0.14007562
19	0xbe146a9a	-0.1449379
20	0xbc872074	-0.016494967
21	0xbe164255	-0.14673741
22	0xbcbb533b	-0.022866836
23	0xbe04e5f3	-0.12978344
24	0xbc44d544	-0.012013737
25	0x3e11bfb3	0.14233284
26	0xbc77cfdb	-0.01512524
27	0xbd19ebdd	-0.037578452
28	0x3ca87d86	0.020567667
29	0xbe30c7bb	-0.17263691
30	0x3e203613	0.15645628
31	0xbd441e38	-0.04788038
32	0xbc54d14e	-0.012989355
33	0x3d4eb00c	0.05046086
34	0xbe02fd1d	-0.12791868
35	0x3d39a640	0.045324564
36	0x3dd57283	0.10422232
37	0xbd96b246	-0.07358222
38	0xbe48e8c4	-0.19620043
39	0x3d6024a2	0.054722436
40	0x3d853098	0.06503409
41	0x3dbaddc3	0.09124329
42	0x3d4fb252	0.05070717
43	0xbe043946	-0.12912473
44	0x3d0eb8f2	0.034844346
45	0x3c798107	0.015228516
46	0xbb829e23	-0.0039861365
47	0xbcf392d8	-0.029733106
48	0x3d0c3914	0.03423412
49	0x3c6b0f30	0.014346883
50	0xbd9f9662	-0.07792355
51	0xbdedd6e1	-0.116132505
52	0xbca7a167	-0.020462705
53	0x3da02c5f	0.07820963
54	0xbe290164	-0.16504437
55	0x3e1e3a4a	0.15451923
56	0x3df688bb	0.12037798
57	0xbad0b1f4	-0.0015922175
58	0xbcdc0019	-0.026855515
59	0x3dc493c3	0.09598496
60	0xbcb96364	-0.022630401
61	0x3d971f97	0.07379072
62	0x3de79c42	0.11309101
63	0x3d14780b	0.036247294
64	0x3e065ee0	0.1312213
65	0xbd4d7df3	-0.050168943
66	0xbde55ff0	-0.11199939
67	0xbdcc982f	-0.09989964
68	0x3e3521f4	0.17688733
69	0x3df374ba	0.11887498
70	0x3db0480c	0.08607492
71	0xbccd7200	-0.025078773
72	0xbd814596	-0.063121006
73	0xbe316f95	-0.17327721
74	0xbd8ce409	-0.06879432
75	0xbe27aed1	-0.16375281
76	0xbc01fe0b	-0.007934104
77	0xbdc68bac	-0.09694609
78	0xbd4b82a1	-0.049685124
79	0x3e3f16e1	0.18661071
80	0xbd7226fe	-0.059119217
81	0xbde10b7a	-0.10988517
82	0xba287509	-0.0006426131
83	0xbdf9548f	-0.121743314
84	0x3e1b0196	0.15137324
85	0xbd5af953	-0.05346043
86	0x3da97bed	0.0827559
87	0xbe237bff	-0.1596527
88	0xbde56414	-0.11200729
89	0x3d8f87f1	0.07008351
90	0xbe365731	-0.17806698
91	0xbc9b99c3	-0.018994218
92	0xbd7f46df	-0.062323447
93	0xbd68a51c	-0.056798086
94	0x3e293cf4	0.16527158
95	0x3c801306	0.015634071
96	0xbe33a7ec	-0.17544526
97	0x3e0c8056	0.13720831
98	0xbdb39792	-0.08769144
99	0x3db2a1aa	0.08722241
100	0x3e3f780e	0.18698141
101	0xbe2cd27d	-0.1687717
102	0xbcf5bc01	-0.029996874
103	0x3dfc61a8	0.12323314
104	0xbddb38bd	-0.10704181
105	0x3e0c0d47	0.1367694
106	0xbd9271b0	-0.071505904
107	0xbe03346f	-0.1281297
108	0x3d4a980f	0.04946142
109	0x3d83c422	0.06433894
110	0xbc96f85c	-0.018428974
111	0xbdd38cca	-0.10329588
112	0x3e2c1eed	0.16808672
113	0x3dd478df	0.10374617
114	0xbe2d80e9	-0.16943707
115	0x3d6d85dc	0.057988986
116	0x3d077148	0.033067018
117	0xbca042a7	-0.019563032
118	0xbc1e1531	-0.009648607
119	0xbe441803	-0.19149785
120	0xbe1b5f90	-0.15173173
121	0xb9c98b0c	-0.00038441306
122	0xbbdbe759	-0.0067109284
123	0x3df350cb	0.118806444
124	0x3db24539	0.087046094
125	0xbe4a9ce1	-0.19786407
126	0xbdb40ad6	-0.08791129
127	0xbdca8507	-0.09888654
128	0xbd8e7fe6	-0.069579884
129	0xbe3978c1	-0.1811247
130	0xbe1faf41	-0.15594198
131	0x3dcaabda	0.09896059
132	0xbe2f8bbf	-0.17143153
133	0x3de14208	0.109989226
134	0xbb7cb476	-0.0038559712
135	0x3c483a12	0.012220876
136	0x3d8501ff	0.06494521
137	0x3e245634	0.16048509
138	0xbda08293	-0.07837405
139	0xbd0d62df	-0.03451812
140	0x3e00c52a	0.12575212
141	0x3db4ea2f	0.088337295
142	0xbcb04f39	-0.021522151
143	0x3e1e73b8	0.1547383
144	0xbe1096c2	-0.1412001
145	0xbc1dc8ee	-0.009630425
146	0xbd2e1174	-0.042497113
147	0xbdbd5313	-0.09244361
148	0x3e172dec	0.14763612
149	0x3e14301b	0.14471476
150	0xbe3b04a0	-0.18263483
151	0x3e27b774	0.16378576
152	0xbd33ad3d	-0.043866385
153	0xbe18ff82	-0.14941218
154	0xbe3a6615	-0.18203004
155	0xbe2171be	-0.15766045
156	0x3dd43bdb	0.10362979
157	0x3d1a4598	0.037664026
158	0xbe34a62c	-0.17641515
159	0xbd303131	-0.043015663
160	0xbe1dc018	-0.15405309
161	0x3dc36e63	0.09542539
162	0xbd3bc2e1	-0.045840148
163	0x3d9af836	0.07566874
164	0xbe0814a6	-0.13289127
165	0xbdc5e78a	-0.09663303
166	0xbd37514e	-0.044755273
167	0x3d4a4fa6	0.049392365
168	0xbc58e8d1	-0.0132391015
169	0x3d75f91e	0.06005203
170	0x3dd66c6b	0.10469898
171	0xbc0e0530	-0.008668229
172	0xbe291dd7	-0.16515289
173	0xbdaf0d3f	-0.08547448
174	0x3da55588	0.080729544
175	0x3d17efa9	0.037093792
176	0x3db4eb7e	0.08833979
177	0x3dd49c12	0.103813305
178	0xbe21de6c	-0.15807503
179	0x3ce234a4	0.027612992
180	0xbd6df382	-0.058093555
181	0xbdbd3a51	-0.092396386
182	0x3dd86980	0.105669975
183	0x3df3686d	0.11885152
184	0xbe28c416	-0.16481051
185	0x3d93ad2d	0.07210765
186	0x3e37ce75	0.17949851
187	0xbdab7a54	-0.083729416
188	0x3da4ab7f	0.08040523
189	0xbe17a139	-0.14807595
190	0x3e4794bb	0.1949033
191	0x3c5207e7	0.012819267
192	0xbdd98fb3	-0.106231116
193	0xbb94958c	-0.004534429
194	0xbc8527d6	-0.016254347
195	0xbd03f701	-0.032217983
196	0xbcbb8833	-0.022892093
197	0xbd540967	-0.05176678
198	0x3be935bc	0.0071170013
199	0xbd4d6037	-0.050140586
200	0xbbb92cda	-0.0056510987
201	0xbdc6b8c1	-0.09703208
202	0xbd950c9d	-0.072777964
203	0x3e4161c0	0.18884945
204	0x3dd2c8b1	0.10292185
205	0x3e3d6836	0.18496785
206	0xbd9540d5	-0.07287756
207	0x3e3bc0f5	0.18335326
208	0x3d83457f	0.0640974
209	0x3cad1918	0.02113013
210	0x3cc871c1	0.024468305
211	0x3d0f8d7b	0.035047036
212	0x3e1d7d09	0.15379728
213	0xbd29e261	-0.041475657
214	0xbdc29cd9	-0.095025726
215	0x3e377921	0.17917301
216	0xbd9a8f26	-0.07546835
217	0xbc891352	-0.016732845
218	0x3e1a1bdb	0.15049689
219	0xbe1a1abf	-0.15049265
220	0xbdb02789	-0.08601291
221	0x3e0660ab	0.13122813
222	0x3df1bdd1	0.11803783
223	0xbdf12b27	-0.11775809
224	0x3de21bc6	0.110404536
225	0xbda722c5	-0.08160929
226	0xbc8febb5	-0.017568449
227	0x3d9014a1	0.07035185
228	0xbe00cd6a	-0.12578359
229	0xbcd698a9	-0.02619584
230	0x3d9e79b3	0.07738056
231	0x3bbdeb3c	0.0057958644
232	0xbd55751e	-0.052113645
233	0xbd7981ac	-0.06091468
234	0x3e157c90	0.14598298
235	0xbe32ff4a	-0.17480198
236	0x3de5109c	0.111848086
237	0xbe3084c1	-0.17238142
238	0x3e3c767e	0.18404576
239	0xbe1b643b	-0.15174954
240	0x3dc5758c	0.09641561
241	0x3e330802	0.17483523
242	0xbd3b815f	-0.045777675
243	0x3e0e33df	0.13886975
244	0x3e715aa2	0.2356973
245	0xbe079fad	-0.13244505
246	0xbd8a0559	-0.06739301
247	0x3e50575c	0.20345825
248	0x3e7360a0	0.23767328
249	0x3dc324e1	0.095285185
250	0x3ddb6b17	0.10713785
251	0xbe10358c	-0.14082927
252	0x3da6d47d	0.08145998
253	0x3d575192	0.052568026
254	0x3dc53681	0.096295364
255	0xbd01e385	-0.03171112

encoder.0.bias f4 [16]
0	0x3e1cbb30	0.15305781
1	0xbe26c1ed	-0.16284914
2	0x3e621f68	0.22082293
3	0x3e37aa45	0.17936046
4	0x3db00bf4	0.0859603
5	0x3e3e00f0	0.18555045
6	0x3dd872b9	0.105687566
7	0xbc032c40	-0.0080061555
8	0x3d8e0941	0.06935359
9	0xbd999f3e	-0.07501076
10	0x3deb3620	0.11484933
11	0xbe3444a1	-0.17604305
12	0x3c52effc	0.0128746
13	0x3e12310a	0.1427652
14	0x3e259625	0.16170557
15	0x3a175f7c	0.0005774421

encoder.2.weight f4 [32, 16, 3, 3]
0	0x3dd81a2e	0.105518684
1	0x3c9d8d35	0.019232372
2	0x3bd817dc	0.006594641
3	0x3ddfcb2e	0.10927425
4	0x3e05cd21	0.13066532
5	0x3dea7bb8	0.11449379
6	0xbcef8661	-0.029238882
7	0x3c951f25	0.018203327
8	0x3d90d0c1	0.07071067
9	0xbd3f6ba9	-0.046733532
10	0xbda9a6b1	-0.08283747
11	0x3d044e33	0.03230114
12	0xbd6aca88	-0.057322055
13	0x3d6b72c1	0.057482485
14	0xbdabd8f6	-0.083909914
15	0xbd1f30ae	-0.038864784
16	0x3d731ec7	0.059355523
17	0x3d9e3fcc	0.07727012
18	0x3d857754	0.06516901
19	0x3d2edefb	0.04269312
20	0xbc9f81f9	-0.019471155
21	0xbd81f961	-0.063463934
22	0xbcf33a19	-0.029690789
23	0x3ccbda00	0.024884224
24	0xbd08f700	-0.033438683
25	0x3cb7e55c	0.022448234
26	0x3c8518f2	0.016247246
27	0xbd1c6b85	-0.038188476
28	0x3c6b5544	0.014363591
29	0x3de3168b	0.11088284
30	0x3dda385f	0.10655283
31	0x3de45b5d	0.11150239
32	0x3db8864a	0.090099886
33	0x3e022bb1	0.1271198
34	0x3c5d7d3f	0.0135186305
35	0x3d8b0caf	0.067895286
36	0xbb07f746	-0.0020746752
37	0x3e0edb27	0.13950787
38	0x3db6b364	0.08920935
39	0x3df00e86	0.1172152
40	0x3c6f0fde	0.014591185
41	0x3c7dab9c	0.015482809
42	0x3db179ad	0.08665786
43	0x3b40292f	0.0029321422
44	0x3d63ed67	0.055646326
45	0xbc3ef19f	-0.011654287
46	0xbba8da0c	-0.0051529463
47	0x3d309d28	0.043118626
48	0x3d5e3a98	0.054255098
49	0x3d867356	0.06564967
50	0xbd506fcb	-0.050887864
51	0xbc6be1c8	-0.014397092
52	0xbd868758	-0.065687835
53	0x3da7d003	0.08193972
54	0xbcb7bf96	-0.022430222
55	0x3caea6de	0.021319803
56	0x3d466e9c	0.04844533
57	0x3d40e8f5	0.047097165
58	0x3c882997	0.016621394
59	0x3da229d0	0.07918131
60	0x3d88408f	0.066529386
61	0xbcadef28	-0.021232203
62	0x3e08ad6f	0.1334741
63	0x3d4c69f2	0.049905725
64	0x3d3cafaa	0.046065964
65	0x3d555e24	0.052091733
66	0xbd0443c0	-0.032291174
67	0x3cc19729	0.02363165
68	0x3a1c1ee0	0.00059555285
69	0xbd8d57e3	-0.06901529
70	0xbd43373a	-0.04766009
71	0xbdc35955	-0.09538523
72	0x3ce0a7c2	0.027423743
73	0x3deb17fc	0.11479184
74	0xbca3fdc3	-0.020018464
75	0x3d715512	0.05891902
76	0xbcd8d651	-0.026469382
77	0x3d8eb6ea	0.06968482
78	0x3de6f3de	0.11276983
79	0xbcded78c	-0.02720239
80	0x3d971b94	0.07378307
81	0x3d1c6885	0.038185615
82	0x3c947114	0.018120326
83	0x3cade258	0.021226093
84	0xbde8cce7	-0.11367207
85	0xbca4b00a	-0.020103473
86	0xbbdde0f6	-0.006771202
87	0xbdb30503	-0.0874119
88	0x3d37e0fa	0.04489229
89	0x3ac4180a	0.0014960777
90	0x3d7af1b1	0.06126565
91	0xbb1c1580	-0.0023816526
92	0x3d879fa3	0.06622245
93	0x3d951924	0.07280186
94	0xbd165510	-0.036702216
95	0x3d718c26	0.058971547
96	0xbd1b81aa	-0.037965454
97	0x3db002fc	0.08594319
98	0xbc9c80cf	-0.01910439
99	0xbda2305d	-0.07919381
100	0xbcddbd4f	-0.027067808
101	0x3cad866f	0.021182267
102	0xbd96ae35	-0.07357446
103	0xbb2dcd71	-0.0026520158
104	0x3d3d4267	0.046205904
105	0xbdc2d88e	-0.09513961
106	0xbd7f2604	-0.062292114
107	0x3d0bda0d	0.034143496
108	0xbabd5383	-0.0014444444
109	0xbdbe1e36	-0.09283106
110	0xbd2dc73d	-0.042426337
111	0xbd5b1dec	-0.053495333
112	0xbd31c184	-0.04339744
113	0x3d63f336	0.055651866
114	0x3d848ac3	0.06471779
115	0xbcd5e2f3	-0.026109194
116	0x3d808a87	0.06276422
117	0x3c809fdb	0.015701225
118	0xbc30950a	-0.010777721
119	0xbd4ade1c	-0.049528226
120	0x3d676351	0.0564912
121	0x3c2db867	0.010603047
122	0x3cf73dd0	0.030180842
123	0xbd06e233	-0.032930564
124	0x3da8906f	0.082306735
125	0x3db0fbf3	0.086418055
126	0xbafdd736	-0.0019366506
127	0x3bb47778	0.005507406
128	0x3de3b58e	0.11118613
129	0xbcf5454f	-0.029940275
130	0xbbee733b	-0.00727692
131	0xbc880c1d	-0.016607339
132	0x3d5f2636	0.0544798
133	0xbc1aeeed	-0.009456378
134	0x3dc6d7d7	0.09709137
135	0x3dfe56d9	0.124189086
136	0x3d55c8e8	0.052193552
137	0xbcec5c49	-0.028852599
138	0x3cfbcfe3	0.030738777
139	0xbd374707	-0.04474547
140	0xbda016ca	-0.07816847
141	0xbc4dc909	-0.012560138
142	0xbda435a4	-0.08018044
143	0x3d589683	0.052877914
144	0xbcfd4f16	-0.0309215
145	0xbd1656f4	-0.03670402
146	0xbd5bcb7a	-0.053660847
147	0x3c67c2f1	0.014145599
148	0x3d50c628	0.050970227
149	0xbc9e507d	-0.01932549
150	0xbd990fd8	-0.07473725
151	0x3d07190a	0.032982863
152	0xbd3322c1	-0.043734316
153	0x3d1cf4d2	0.038319416
154	0xbd63a469	-0.055576716
155	0xbc455b0c	-0.012045633
156	0x3d6dd122	0.058060773
157	0xbcf82ce4	-0.030294843
158	0xbcc2a5fe	-0.023760792
159	0x3da2a876	0.079422876
160	0x3d70a254	0.05874856
161	0x3da040d1	0.07824863
162	0x3b0faea9	0.0021924174
163	0x3ca97686	0.0206864
164	0xbc460b1b	-0.012087609
165	0x3ccc2adf	0.024922786
166	0x3d7475c6	0.05968263
167	0xbd326680	-0.043554783
168	0x3c5196b7	0.012792281
169	0x3d31d16b	0.043412607
170	0x3c94cc6f	0.018163888
171	0xbda79f7c	-0.08184716
172	0x3d884ce2	0.06655289
173	0xbc3e2acc	-0.011606883
174	0x3d1c6434	0.0381815
175	0xbda7dc89	-0.081963606
176	0x3c15cafa	0.009142632
177	0x3d23b22e	0.039964847
178	0x3cd99aa0	0.026562989
179	0x3d54728d	0.051867057
180	0xbc11af5a	-0.008891905
181	0xbd6e30c1	-0.058151964
182	0xbd7984ae	-0.06091755
183	0x3d6e174e	0.058127694
184	0xbcf6467b	-0.030062905
185	0xbd2f492b	-0.042794388
186	0xbdb98fd4	-0.09060636
187	0xbd76d0aa	-0.06025759
188	0x3d57a325	0.05264582
189	0xbd468eb0	-0.04847592
190	0x3d84c815	0.06483475
191	0x3dd4327b	0.10361191
192	0xbd128078	-0.03576705
193	0x3dbb164d	0.09135113
194	0x3c863645	0.0163833
195	0x3da2f5a9	0.07957012
196	0x3db0da74	0.086354166
197	0x3c22176c	0.0098932795
198	0xbd45f72f	-0.048331436
199	0x3cae5738	0.021281824
200	0x3d2f3ece	0.042784505
201	0xbd4acce6	-0.049511813
202	0xbd250184	-0.04028465
203	0xbde1a1c2	-0.11017181
204	0x3bc7ed15	0.0061012604
205	0x3d105971	0.035241548
206	0x3c5f70f6	0.013637772
207	0x3d5cfc23	0.053951394
208	0x3de3706d	0.11105428
209	0xbd17e0da	-0.03707967
210	0x3d8477b0	0.06468141
211	0x3d9be5e6	0.07612209
212	0x3cd96e05	0.02654172
213	0x3d8c96ac	0.06864676
214	0x3dadd818	0.08488482
215	0xbd46faae	-0.04857891
216	0x3d3bccb6	0.045849524
217	0x3d89cac3	0.06728127
218	0xbcd34751	-0.025790842
219	0x3d5d5d70	0.054044187
220	0xbc2798fc	-0.010229345
221	0x3ccefa64	0.02526588
222	0x3c9c51fe	0.019082066
223	0xbc855276	-0.016274672
224	0xbdb1cccd	-0.08681641
225	0x3d872596	0.06598966
226	0x3c00dd12	0.007865207
227	0xbc1a69a8	-0.0094246045
228	0x3d006f63	0.031356227
229	0xbd51fa40	-0.051264048
230	0x3a65fc89	0.00087732874
231	0xbcab7706	-0.020930778
232	0x3d828b8b	0.06374272
233	0x3d9db6a4	0.077008516
234	0x3d9d9585	0.07694534
235	0xbcfc73ab	-0.030816874
236	0x3d28675e	0.041114204
237	0xbd4890b0	-0.04896611
238	0xbd78314b	-0.060593884
239	0x3c4d67eb	0.012536983
240	0x3d59962c	0.05312173
241	0xbd72b467	-0.059254076
242	0xbd3b7925	-0.04576983
243	0x3d819a97	0.06328314
244	0x3d9e706a	0.07736285
245	0x3dbee7bc	0.093215436
246	0x3bb69e99	0.0055731055
247	0x3d475c93	0.04867227
248	0x3daec40a	0.08533485
249	0xbd96ccb9	-0.073632665
250	0xbd07b67d	-0.03313302
251	0x3c6ef7da	0.01458546
252	0x3af53409	0.0018707524
253	0x3dd0a9d7	0.101886444
254	0xbd368107	-0.044556644
255	0xbd1065c8	-0.035253316

encoder.2.bias f4 [32]
0	0x3dafc2e9	0.08582098
1	0xbdb22ccf	-0.08699953
2	0x3da63cdc	0.08117077
3	0x3dc33391	0.0953132
4	0x3d587f30	0.05285567
5	0xbd50fcdd	-0.0510224
6	0x3db85ce8	0.090020955
7	0xbd20b728	-0.03923717
8	0x3dfefafb	0.124502145
9	0xbb8cacf2	-0.0042930776
10	0xbd388759	-0.045050953
11	0x3cc50f53	0.024055159
12	0x3d9b39fd	0.0757942
13	0x3dd3a035	0.103332914
14	0x3c11f8cf	0.008909418
15	0x3df85533	0.121256255
16	0x3d927d2b	0.0715278
17	0x3de45b69	0.111502476
18	0x3d1214ab	0.03566424
19	0x39c31cee	0.00037214853
20	0x3dd1d0bb	0.1024489
21	0xbc92a1b0	-0.017899364
22	0x3d9f396e	0.07774626
23	0x3cacb3f1	0.021081896
24	0x3d893d39	0.067011304
25	0x3dd3c3aa	0.10340054
26	0x3d798d4e	0.060925774
27	0x3da44625	0.080211915
28	0x3d075b44	0.033046022
29	0x3dfde914	0.12397972
30	0x3dd989cc	0.10621986
31	0x3db10d67	0.086451344

encoder.4.weight f4 [64, 32, 3, 3]
0	0xbd882f6c	-0.0664967
1	0xbc19703d	-0.009365139
2	0x3ca7b321	0.020471158
3	0x3cce10f3	0.025154566
4	0xbc2ae629	-0.010430851
5	0xbd052350	-0.03250438
6	0x3b7430a4	0.0037260437
7	0xbc91aa57	-0.01778142
8	0x3c8cbda8	0.017180279
9	0x3b4e1877	0.0031447688
10	0x3c204b83	0.009783628
11	0xba640806	-0.00086987054
12	0xbc93cfec	-0.01804348
13	0xbd9f97f8	-0.077926576
14	0xbd5e84da	-0.054325916
15	0xbc32377a	-0.010877484
16	0x3d125e45	0.035734434
17	0xbd01ec2c	-0.03171937
18	0xbc4cae50	-0.012492731
19	0x3b9ebb5b	0.004844112
20	0x3d350e1b	0.044202905
21	0x3d9ba012	0.0759889
22	0x3bfd1159	0.0077230153
23	0x3d12d197	0.03584441
24	0x3cda39cf	0.026638893
25	0x3d9fff32	0.078123465
26	0x3c9508fd	0.018192763
27	0x3bba62ca	0.005688046
28	0x3d55d01c	0.05220042
29	0x3d8197df	0.06327795
30	0xbce93806	-0.028469097
31	0x3cc45a0a	0.023968715
32	0x3dc6948e	0.09696303
33	0x3d381aa8	0.044947296
34	0x3d84fccd	0.064935304
35	0x3db6f46c	0.089333385
36	0x3ced9c3e	0.029005166
37	0xbcaed889	-0.021343486
38	0x3d14e522	0.03635133
39	0x3d5ce942	0.05393339
40	0xbcf3227e	-0.029679533
41	0x3cd336d9	0.02578299
42	0x3c3428a5	0.010996019
43	0x3d96ac05	0.07357029
44	0x3c934b5f	0.017980276
45	0x3c54f42b	0.012997667
46	0xbd4432f0	-0.04790014
47	0xbcd4b6d4	-0.025966085
48	0xbd7a13ed	-0.06105416
49	0xbc05b0bf	-0.008159815
50	0xbd214bc3	-0.039378893
51	0x3d195c20	0.037441373
52	0xbd125549	-0.035725866
53	0xbbd60496	-0.0065313084
54	0x3d60704c	0.054794595
55	0xbbc571ca	-0.0060255276
56	0x3cda2af7	0.026631815
57	0x3d644e30	0.055738628
58	0x3d63d687	0.05562451
59	0x3ce61050	0.02808395
60	0xbbe4a288	-0.006977383
61	0x3ce39aeb	0.027783832
62	0x3d91e8f8	0.071245134
63	0xbbf1e9dd	-0.007382615
64	0x3c935390	0.017984182
65	0xbcd46bb7	-0.025930269
66	0x3ce110ed	0.027473891
67	0xbbb08992	-0.0053874934
68	0x3d35a57d	0.044347275
69	0xbceeb6d9	-0.029139923
70	0xbd8bd67d	-0.0682802
71	0xbd5ca3a6	-0.053867005
72	0x3d295c06	0.041347526
73	0x3d76ae2a	0.06022469
74	0x3da74bfe	0.08168791
75	0xbb7c1986	-0.0038467362
76	0x3de82fd9	0.11337251
77	0x3d0a6629	0.033788834
78	0x3bdef6b9	0.006804314
79	0x3c290f38	0.01031857
80	0x3d9f1378	0.07767385
81	0xbd01e3e2	-0.031711467
82	0xbd162252	-0.036653824
83	0xbcc75af2	-0.024335358
84	0x3d432bf1	0.047649328
85	0xbcfdb926	-0.030972075
86	0x3b3fb8a0	0.0029254332
87	0x3d638047	0.055542257
88	0xbd6006a4	-0.054693833
89	0xbd1e3492	-0.038624354
90	0x3c7a1734	0.015264321
91	0x3c289f6a	0.0102919135
92	0x3d856a38	0.065144
93	0xbc823dff	-0.015898703
94	0xbcd74a97	-0.026280684
95	0x3d0a1228	0.03370872
96	0x3cb9693e	0.022633191
97	0xbc9ec8d4	-0.019382872
98	0x3d96895e	0.073504195
99	0x3ca09182	0.019600634
100	0x3d720c57	0.0590938
101	0xbbedefb1	-0.0072612395
102	0xbd4df9a3	-0.0502869
103	0xbce322d1	-0.027726563
104	0x3d3007d1	0.042976204
105	0xbd5e9a9d	-0.05434667
106	0x3d2c6425	0.042087693
107	0x3bcdc6b8	0.0062797926
108	0xbc4c08f0	-0.012453303
109	0x3d16ec27	0.036846306
110	0x3d3c4658	0.045965523
111	0xbc8524c0	-0.016252875
112	0x3d5fe432	0.054660983
113	0x3d34139b	0.04396401
114	0x3b7fbb69	0.0039021617
115	0xbcffe5c9	-0.0312375
116	0x3d8e2c54	0.06942049
117	0x3d822cfb	0.063562356
118	0xbbac3439	-0.005255249
119	0x3c711a58	0.0147157535
120	0x3da9edae	0.08297287
121	0x3d430370	0.0476107
122	0xbb37e3b5	-0.0028059308
123	0x3d925ccb	0.07146605
124	0x3d856050	0.06512511
125	0xb9940a6c	-0.00028236525
126	0xbd008d50	-0.031384766
127	0xb9b5e862	-0.0003469615
128	0xbc4aa855	-0.012369235
129	0xbc80e5b5	-0.015734533
130	0xbcb73a82	-0.022366766
131	0xbd6d58ff	-0.0579462
132	0xbd35fe01	-0.04443169
133	0xbc121121	-0.008915217
134	0xbd22adf3	-0.039716672
135	0x3d22690f	0.039650973
136	0x3d94637c	0.07245538
137	0x3da9c46b	0.08289417
138	0x3d9b3aac	0.0757955
139	0x3d405b6b	0.046962183
140	0x3b95f73e	0.0045765927
141	0x3ace8f88	0.0015759328
142	0x3c72a433	0.014809656
143	0x3dc845f4	0.097789675
144	0xbd5aa6a5	-0.05338158
145	0x3c0527f3	0.0081272
146	0x3c805bb4	0.015668727
147	0x3cf822fb	0.030290117
148	0x3d3b5602	0.04573632
149	0x3d6d235d	0.057895053
150	0x3d42a300	0.04751873
151	0x3ced349c	0.02895575
152	0x3d2b6497	0.041843977
153	0xbd250697	-0.040289488
154	0xba0ecf6b	-0.0005447778
155	0x3c03479b	0.008012678
156	0xbd06d3c6	-0.032916807
157	0xbd0ce8fd	-0.034401882
158	0xbd17f607	-0.037099864
159	0x3c4080c0	0.011749446
160	0xbb88ea8e	-0.0041783517
161	0xbc9a512a	-0.01883753
162	0xbc1acc80	-0.009448171
163	0xbd3602ed	-0.044436384
164	0xbc664a03	-0.014055732
165	0x3d9b9139	0.075960584
166	0x3c8f0089	0.01745631
167	0xbb957e77	-0.004562195
168	0x3cf58300	0.029969692
169	0x3d69a0e5	0.057038207
170	0xbc60cd2a	-0.01372079
171	0x3d31d161	0.04341257
172	0x3d5a933e	0.053363077
173	0x3d7e8baf	0.06214493
174	0x3ca3b6d0	0.019984633
175	0xbcba8326	-0.022767615
176	0x3d6b1a0f	0.0573979
177	0xbd3fb59a	-0.046804048
178	0x3d26c601	0.040716175
179	0xbc1799d5	-0.009252985
180	0x3b909dbc	0.0044133347
181	0x3d99a1f4	0.07501593
182	0x3d74cb74	0.05976434
183	0xbbb24254	-0.005440036
184	0x3dc53f5a	0.09631224
185	0x3d57758d	0.05260234
186	0xbb7e569d	-0.003880895
187	0x3ccd464a	0.02505793
188	0x3c847f15	0.016173879
189	0x3d7e1f9a	0.062041856
190	0xbc554491	-0.013016836
191	0xbb1eff11	-0.0024260918
192	0x3ca58136	0.020203214
193	0xba120489	-0.0005570134
194	0x3c58aa68	0.013224222
195	0x3cd1d03b	0.025611987
196	0x3c5f965d	0.013646689
197	0x3dcf2106	0.101137206
198	0x3c347deb	0.011016349
199	0x3d43ddb9	0.047818873
200	0x3c79b92b	0.015241901
201	0xbc0defea	-0.008663157
202	0xbc30f8f9	-0.010801547
203	0xbbaf1c98	-0.005343985
204	0x3d59e1a0	0.05319369
205	0x3dc39611	0.09550107
206	0x3d409689	0.04701856
207	0xbd1b5495	-0.03792246
208	0x3d9e15d7	0.07719009
209	0x3c0371fc	0.008022781
210	0x3b95a549	0.0045668227
211	0x3dac5827	0.08415251
212	0x3c9c754a	0.019098897
213	0x3d8b3eb0	0.06799066
214	0x3db33cdd	0.08751843
215	0x3d83ec1e	0.0644152
216	0xbd546d6d	-0.05186217
217	0xbd271787	-0.04079392
218	0x3ceb70d0	0.028740317
219	0x3d6b4bf3	0.057445478
220	0x3c9da745	0.0192448
221	0x3d910cf6	0.0708255
222	0x3d07ed4a	0.03318528
223	0x3d5461dd	0.051851142
224	0xbc13763f	-0.00900036
225	0x3d86b368	0.06577188
226	0x3dce5eda	0.10076685
227	0x3cc01d79	0.023451554
228	0xba07f780	-0.00051867217
229	0x3d91e2ce	0.07123338
230	0x3d8d5bf7	0.069023065
231	0x3d50505a	0.05085788
232	0x3dac1a0d	0.08403406
233	0x3ccc04d8	0.024904653
234	0x3d1f1d11	0.03884608
235	0x3ca742bf	0.02041757
236	0xbb05f6d5	-0.0020441313
237	0x3d48795e	0.04894387
238	0xba969ec6	-0.001149141
239	0x3d65190a	0.055932082
240	0xbcfa5b34	-0.030561067
241	0x3cd5f66a	0.026118476
242	0x3d3fb61a	0.046804525
243	0x3d3864e0	0.045018077
244	0x3cb98702	0.022647385
245	0xbcb170cd	-0.021660233
246	0x3d5861e9	0.05282775
247	0x3c46edee	0.012141688
248	0xbd408d85	-0.047009964
249	0x3c1beacc	0.009516429
250	0xbd27318f	-0.040818747
251	0xbcb052ee	-0.021523919
252	0x3c9bc808	0.01901628
253	0xbc6648a8	-0.014055409
254	0x3d18625e	0.037203185
255	0x3d4e2108	0.05032447

encoder.4.bias f4 [64]
0	0x3ce7b120	0.028282702
1	0xbcb58dde	-0.022162374
2	0x3dbfd0ea	0.09366019
3	0x390c12ec	0.0001335849
4	0xbd010c7f	-0.031506058
5	0x3dcc1484	0.099648505
6	0x3d251715	0.040305216
7	0x3db32e23	0.08749034
8	0xbcfa40e3	-0.030548519
9	0x3d45c45b	0.048282962
10	0x3d3ca716	0.046057783
11	0xbd3fabab	-0.046794575
12	0xbbe8968a	-0.007098024
13	0x3d31cbeb	0.043407362
14	0x3b13dd06	0.002256216
15	0x3d174638	0.0369322
16	0xbd0a99e0	-0.033838153
17	0xbc2f92fa	-0.010716194
18	0x3cdebbf5	0.027189234
19	0x3d86a636	0.06574671
20	0x3d8b8bc5	0.06813768
21	0x3c1f2da5	0.009715472
22	0x3d79c3ea	0.060977854
23	0x3da554c2	0.08072807
24	0x3d6b26e9	0.057410154
25	0x3dac7f8f	0.08422767
26	0x3ca8ca20	0.020604193
27	0xbbdea260	-0.006794259
28	0x3d006666	0.031347655
29	0xbabf5c8d	-0.0014599726
30	0x3d9b0141	0.075685985
31	0x3b81e655	0.0039642253
32	0xbc9b9020	-0.018989623
33	0xbcc1b865	-0.023647496
34	0x3da445ec	0.08021149
35	0x3ccd6659	0.025073217
36	0x3d9b1136	0.07571642
37	0x3d04e3eb	0.032443922
38	0x3c328d19	0.010897898
39	0x3d8e86a1	0.06959272
40	0x3d63c0ae	0.055603676
41	0xbc849d80	-0.016188383
42	0xbd1ebcec	-0.03875439
43	0xbd291ff4	-0.04129024
44	0x3dac601d	0.0841677
45	0x3d7e0157	0.062012997
46	0xbd1948de	-0.037423007
47	0x3ccc4f68	0.024940208
48	0x3db73dbf	0.08947324
49	0x3d24bfb3	0.04022188
50	0xbd8368fe	-0.0641651
51	0x3bc3549c	0.005961014
52	0xbbae5d36	-0.00532117
53	0x3d56107a	0.052261807
54	0x3cd6d1c1	0.026223065
55	0xbd410ab3	-0.047129344
56	0xbd04097f	-0.03223562
57	0x3d9a0fab	0.0752252
58	0x3d07cedd	0.033156265
59	0xbd767920	-0.060174108
60	0x3dd1aa1f	0.10237526
61	0xbd82cd2c	-0.0638679
62	0xbcf024de	-0.029314455
63	0xbd929c05	-0.071586646

decoder.0.weight f4 [64, 32, 3, 3]
0	0x3c1adaff	0.009451627
1	0xbd01b307	-0.031664874
2	0xbb589038	-0.0033044945
3	0xbd368bcd	-0.04456692
4	0x3b252653	0.0025199845
5	0x3d033958	0.03203711
6	0x3be8676d	0.0070924074
7	0x3d3efaf5	0.04662605
8	0x3b55958e	0.0032590362
9	0xbc088d65	-0.008334492
10	0x3ce80a88	0.028325334
11	0xbc9123ce	-0.017717268
12	0x3c2ff579	0.010739678
13	0x3c935464	0.017984577
14	0x3ce2ae90	0.027671129
15	0xbc94e294	-0.018174447
16	0xbc822660	-0.01588744
17	0x3da19e35	0.07891504
18	0x3af269ed	0.0018494703
19	0x3d091a98	0.033472627
20	0x3d45ddd9	0.048307274
21	0x3d4276a8	0.04747644
22	0x3a1dc9c4	0.000601914
23	0xbc97bf9d	-0.018523986
24	0xbd122aa7	-0.035685208
25	0x3d00278b	0.03128771
26	0xbd53f094	-0.051743105
27	0xbd1239a8	-0.035699517
28	0x3d4bc0ad	0.049744297
29	0xbc401a03	-0.011724952
30	0x3d4c9164	0.049943343
31	0x3c85e5b8	0.01634489
32	0xbc6b0037	-0.014343313
33	0xbcfb2530	-0.03065738
34	0x3dcc0db9	0.09963555
35	0x3c542e7f	0.012950539
36	0xbd8229d9	-0.06355638
37	0xbcf5b28a	-0.02999236
38	0xbd78e91c	-0.060769185
39	0xbc21d80c	-0.00987817
40	0xbd7f1a3c	-0.06228088
41	0x3c9ac030	0.01889047
42	0xbdcc51df	-0.09976553
43	0xbd0a48d4	-0.03376086
44	0xbd86753f	-0.06565332
45	0xbd638e78	-0.05555579
46	0xbd228d6f	-0.039685663
47	0x3cbecc51	0.023290785
48	0xbd1732d4	-0.036913708
49	0xbc9afa4b	-0.018918177
50	0x3c9476c5	0.01812304
51	0x3cfc9a29	0.030835228
52	0xbd281732	-0.041037746
53	0x3d227b95	0.03966864
54	0x3d686119	0.056733225
55	0x3cce28b7	0.025165899
56	0x3d256b6a	0.04038564
57	0xbc0c9bcb	-0.008582066
58	0x3dd68caf	0.10476052
59	0x3abbce26	0.0014328405
60	0x3cea620c	0.028611206
61	0xbbed589f	-0.0072432305
62	0x3d1f49b4	0.03888865
63	0x3cbedb5f	0.023297964
64	0xbd33c1f4	-0.04388614
65	0x3d2a491e	0.041573636
66	0xbda46c58	-0.080284774
67	0xbd4bfe24	-0.049802914
68	0xbd775110	-0.06038004
69	0xbd0400f1	-0.03222746
70	0xbcc35ad6	-0.023847025
71	0xbd845296	-0.064610645
72	0xbd3d148d	-0.046162177
73	0xbc87422e	-0.01651105
74	0x3cea1972	0.028576586
75	0xbcb9f077	-0.02269767
76	0x3d29ebac	0.04148452
77	0x3cc922c5	0.024552712
78	0xbd0fcb71	-0.035106126
79	0xbcf05ef5	-0.029342154
80	0xbd14cc24	-0.036327496
81	0x3cb65754	0.022258438
82	0x3b5c558c	0.0033620326
83	0x3cbbaece	0.022910502
84	0xbd329ea6	-0.04360833
85	0xbbcc08ad	-0.00622662
86	0x3c07d5a1	0.008290679
87	0x3d5c418b	0.053773444
88	0x3db2d18a	0.08731373
89	0x3da7e377	0.08197682
90	0xbcc183f7	-0.023622496
91	0xbcb9e469	-0.022691922
92	0xbcd13dd5	-0.02554218
93	0x3dc8edc4	0.09810975
94	0xbb7da68e	-0.003870401
95	0xbc63754c	-0.013882946
96	0x3ae91cc0	0.0017785057
97	0x3ca38ac4	0.01996363
98	0x3d45c68f	0.048285063
99	0xbd1a9610	-0.037740767
100	0xbc2a6729	-0.010400572
101	0x3d3050b1	0.043045703
102	0xbbb9440b	-0.0056538633
103	0x3cf028f6	0.029316407
104	0xbd72dd99	-0.059293363
105	0x3d54cf1b	0.051955324
106	0xbaf1f6c6	-0.0018460385
107	0xbd6960bc	-0.05697702
108	0xbb7f159d	-0.0038922795
109	0xbca6b716	-0.020350974
110	0xbd5b919a	-0.053605653
111	0x3d5373e7	0.051624205
112	0xbcdef418	-0.027216002
113	0xbcf94da0	-0.030432522
114	0x3dbebb1a	0.093130305
115	0xbc352629	-0.011056461
116	0x3cc5501d	0.024086053
117	0xbd2286bf	-0.039679285
118	0xbd5df8ab	-0.054192226
119	0xbcb15f59	-0.02165191
120	0xbca5870d	-0.020205999
121	0xbd4195c4	-0.04726197
122	0x3d158422	0.036502965
123	0xbd336416	-0.04379662
124	0xbcacec2b	-0.021108707
125	0x3cd0fa19	0.02550988
126	0xbc485359	-0.012226903
127	0xbccde9ae	-0.025135841
128	0xbd98a624	-0.07453564
129	0xba6ee780	-0.00091134757
130	0x3c89d10f	0.01682332
131	0xbd3cd0d9	-0.04609761
132	0x3d470bac	0.048595116
133	0x3d2d590f	0.04232126
134	0xbc91ebe6	-0.01781268
135	0x3a29c9c7	0.00064769055
136	0xbcf3ce84	-0.02976156
137	0xbc020e97	-0.007938049
138	0xbc6eadaf	-0.014567777
139	0x3c3febac	0.011713903
140	0xbb17b784	-0.0023150155
141	0xbbe60f88	-0.0070208944
142	0xbcf21f8a	-0.029556055
143	0x3d9cf19f	0.07663273
144	0xbcb3026c	-0.02185174
145	0xbc196840	-0.009363234
146	0x39c67118	0.00037849764
147	0xbd669d46	-0.05630233
148	0x3d105def	0.035245832
149	0x3d87aaf4	0.066244036
150	0x3c1a521f	0.009418993
151	0x3d641c24	0.0556909
152	0xbd7e093e	-0.062020533
153	0x3c222f7c	0.0098990165
154	0x3d8469cd	0.064654924
155	0xbcf6727f	-0.030083893
156	0x3d37469b	0.04474507
157	0xbd70974b	-0.058738034
158	0x3d7a5a61	0.06112135
159	0xbcb38536	-0.021914106
160	0xbc17393b	-0.009229953
161	0xbb897c6a	-0.0041957395
162	0xbd7848cb	-0.060616296
163	0xbcfa3c21	-0.03054625
164	0xbd82b158	-0.06381482
165	0xbccf06f5	-0.025271872
166	0xbc5d019e	-0.013489155
167	0xbc63d16c	-0.013904911
168	0xbc441561	-0.011967988
169	0xbc668a3d	-0.0140710445
170	0x3d1f18c1	0.038841967
171	0x3ce236d7	0.02761404
172	0x3cb88018	0.022522017
173	0xbd20098e	-0.039071612
174	0x3da38ee8	0.079862416
175	0x3d93cae8	0.07216436
176	0x3d2ccdf0	0.042188585
177	0x3c40364c	0.011731695
178	0x3c67a84a	0.014139244
179	0x3d8fe7f2	0.07026662
180	0xbd35df9e	-0.04440271
181	0xbb9516fa	-0.004549858
182	0xbd00f0ea	-0.031479754
183	0xbad469f9	-0.0016205899
184	0xbca9f99c	-0.020748906
185	0xbc82eefc	-0.015983097
186	0xbcbeaaba	-0.023274768
187	0x3d26a11c	0.04068099
188	0x3a7eb600	0.0009716451
189	0xbcc5b4b4	-0.024134018
190	0xbbbd0e55	-0.005769531
191	0xbd877e0b	-0.06615838
192	0xbd77ef8e	-0.06053119
193	0x3c20bd78	0.009810798
194	0x3c92bf53	0.017913496
195	0x3cf62001	0.030044558
196	0xbcad8426	-0.021181177
197	0xbced9dd8	-0.02900593
198	0xbc179975	-0.009252896
199	0x3b8c6bae	0.0042852974
200	0x3d69729a	0.05699406
201	0x3d62c105	0.05535986
202	0x3d471af1	0.048609678
203	0x3d83abe8	0.06429273
204	0xbbc61184	-0.0060445685
205	0xbabe0821	-0.0014498272
206	0xbd1cf1e9	-0.03831664
207	0x3d1e681c	0.038673505
208	0x3be92da5	0.007116037
209	0xbb11363f	-0.0022157577
210	0xbcecd1cc	-0.028908633
211	0xbd1ccfba	-0.03828404
212	0x3ca1dfb4	0.01975999
213	0xbd2268c8	-0.03965071
214	0x3d95d681	0.07316304
215	0xbd0a1d36	-0.033719264
216	0x3d64e03c	0.05587791
217	0x3bd54048	0.006507907
218	0xbc1012dd	-0.00879356
219	0x3c9f31e1	0.019432964
220	0xbc86e536	-0.016466718
221	0x3b291ba0	0.002580382
222	0xbd1554a1	-0.03645766
223	0xbd3b5730	-0.045737445
224	0xbc9b17bc	-0.018932216
225	0xbd6ee5c8	-0.058324605
226	0x3d496594	0.049169138
227	0x3d29201e	0.041290395
228	0x3ce275dd	0.027644092
229	0xbcdd8839	-0.027042495
230	0x3c4e9044	0.012607638
231	0xbcbc7e4c	-0.023009442
232	0x3cb49c49	0.022047179
233	0x3d0aab9d	0.03385507
234	0x3d40d402	0.047077186
235	0xbcdd15a6	-0.026987862
236	0xbceb1236	-0.028695207
237	0xbcada938	-0.021198854
238	0xbd12cb00	-0.035838127
239	0x3d620307	0.05517867
240	0xbd5daf43	-0.05412222
241	0x3d30d00e	0.043167166
242	0x3d459c15	0.048244555
243	0xbd35145d	-0.044208873
244	0xbc62c0df	-0.013839929
245	0xbc8404ec	-0.016115628
246	0x3da1dec7	0.079038195
247	0x3d78c989	0.060739074
248	0x3da69794	0.0813438
249	0xbcdf870e	-0.027286079
250	0x3d29eed5	0.041487534
251	0x3c775528	0.015095986
252	0xbd96e54a	-0.07367952
253	0xbd2d4bb7	-0.042308535
254	0x3dcaf6f5	0.099103846
255	0x3ce26a76	0.027638655

decoder.0.bias f4 [32]
0	0xbce565d0	-0.02800265
1	0x3d85ae7a	0.065274194
2	0xbc4f7696	-0.01266255
3	0x3d10c6fd	0.03534602
4	0x3cbfd717	0.023417993
5	0xbcf6eca5	-0.030142138
6	0x3d9ea3be	0.07746075
7	0x3d489389	0.048968825
8	0xbcf382bb	-0.029725423
9	0x3ce83499	0.028345393
10	0xbc9313ec	-0.017953835
11	0xbc9d158a	-0.01917531
12	0xbc94ec97	-0.018179221
13	0x3c8f3109	0.017479436
14	0xbc89ecb7	-0.016836507
15	0x3da32dfe	0.07967757
16	0xbd01d31b	-0.031695466
17	0x3d265282	0.04060603
18	0x3d171782	0.036887653
19	0x3d1dab8e	0.038493685
20	0xba9c96e3	-0.0011946823
21	0x3cc526e5	0.024066398
22	0x3d9b98fb	0.07597538
23	0x3c4b62bc	0.012413677
24	0xbceec72f	-0.029147713
25	0x3d179f19	0.03701696
26	0x3c6f3898	0.014600895
27	0x3d74ae2f	0.059736427
28	0xbd2ebde4	-0.042661563
29	0xbba06782	-0.0048951516
30	0x3d855187	0.06509691
31	0x3d40c62d	0.047063995

decoder.2.weight f4 [32, 16, 3, 3]
0	0x3cdb9cdc	0.026808195
1	0xbd87c902	-0.06630136
2	0x3dab5c25	0.083671845
3	0x3c779200	0.015110493
4	0xbda7d275	-0.08194438
5	0xbd20d66b	-0.039266985
6	0x3d7cfec4	0.0617664
7	0x3d778c32	0.060436435
8	0x3d4b4615	0.049627382
9	0x3d9dd5c1	0.07706786
10	0xbd8df04b	-0.06930598
11	0xbd12369d	-0.035696615
12	0xbd6be03a	-0.057586886
13	0x3d95b69d	0.07310221
14	0x3da81944	0.08207944
15	0xbba9dee5	-0.005184042
16	0x3d9cc1b6	0.07654135
17	0x3c934402	0.017976765
18	0x3cb1a3d2	0.02168456
19	0x3d3601d2	0.04443533
20	0x3bf8bed0	0.007591106
21	0x3bbe3290	0.0058043674
22	0x3d1b9a26	0.037988804
23	0xbd598c33	-0.05311222
24	0xbd63dd93	-0.05563123
25	0xb9f2c400	-0.00046303868
26	0xbbb12eb0	-0.005407177
27	0xbd2fd18d	-0.042924453
28	0x3d4b5c8a	0.0496488
29	0x3cd4bd5a	0.025969196
30	0xbd82bfc4	-0.06384233
31	0xbcddf5c6	-0.027094733
32	0x3cbfce60	0.023413837
33	0xbd5cd1fb	-0.05391119
34	0x3d778637	0.06043073
35	0x3d181ecd	0.03713875
36	0x3c81a369	0.01582499
37	0x3d28e81d	0.041236985
38	0x3d312dc8	0.04325655
39	0xbd8ea5b0	-0.06965196
40	0x3d33ff6a	0.043944754
41	0xbd29a16d	-0.041413713
42	0x3d48936d	0.04896872
43	0x3d3661cb	0.044526856
44	0xbda2d098	-0.07949942
45	0x3d5f3e06	0.05450251
46	0xbcf76cbd	-0.030203218
47	0xbd61cb8d	-0.05512576
48	0xbd5b882e	-0.053596668
49	0x3cfbc40b	0.030733129
50	0xbcff028b	-0.031129142
51	0x3bd53e06	0.006507638
52	0x3d0cc563	0.03436793
53	0xbc926cfc	-0.017874233
54	0x3d68959e	0.05678331
55	0xbdbb79c0	-0.09154081
56	0xbda9a76a	-0.08283885
57	0xbd6d0695	-0.057867605
58	0x3d1a89a5	0.037728924
59	0xbdac50cd	-0.08413849
60	0x3d4936a1	0.049124364
61	0x3d52ed7d	0.051496018
62	0xbd255e56	-0.04037317
63	0xbd9d647a	-0.0768518
64	0x3d13e437	0.036106315
65	0xbd148b1e	-0.036265485
66	0xbd9d320a	-0.0767556
67	0xbd11fd90	-0.035642207
68	0xbda52f16	-0.080656216
69	0x3ce7ea35	0.02830992
70	0xbd9d7872	-0.07688989
71	0x3cb2e404	0.021837242
72	0xbda75a0a	-0.081714705
73	0xbd0e4432	-0.034733005
74	0x3c69c8c0	0.014269054
75	0xbce63890	-0.028103143
76	0xbd9e5393	-0.07730784
77	0x3d723b57	0.059138622
78	0xbd9ad0f8	-0.07559389
79	0xbd822531	-0.0635475
80	0xbd06067f	-0.03272104
81	0xbd9c6c72	-0.07637872
82	0xbdaa3620	-0.08311105
83	0xbdad42ae	-0.08459984
84	0x3d1ff923	0.039055955
85	0xbcaa703f	-0.020805476
86	0x3d2bce77	0.041944947
87	0x3d40d58c	0.047078654
88	0x3d797635	0.060903747
89	0x3d2acef3	0.04170127
90	0x3d86b415	0.06577317
91	0x3d809cfd	0.06279943
92	0x3c969a5e	0.018384155
93	0xbc3055e3	-0.0107626645
94	0x3cac9894	0.021068849
95	0xbda24f15	-0.0792524
96	0xbb4f0532	-0.003158879
97	0xbcad4b61	-0.021154108
98	0x3ccfbc8e	0.025358465
99	0xbd5ed915	-0.054406244
100	0xbd63b98b	-0.05559687
101	0x3dc7eb47	0.097616725
102	0x3ba6b281	0.0050871973
103	0xbcdcba09	-0.026944177
104	0x3bf417f4	0.0074491445
105	0x3c7a3cb8	0.015273266
106	0x3cae712c	0.021294199
107	0x3d42defa	0.04757593
108	0x3c838d50	0.016058594
109	0xbca4c104	-0.020111568
110	0x3c2a81c0	0.010406911
111	0x3d73ed4c	0.059552476
112	0xbcf93a27	-0.030423237
113	0x3d7f7621	0.062368516
114	0x3cd28680	0.0256989
115	0xbd5ac4e6	-0.053410433
116	0x3d4ef95e	0.050530784
117	0xbcb4f99e	-0.022091683
118	0x3db9c09d	0.09069941
119	0x3ccbef5d	0.02489441
120	0xbcd30e8d	-0.025763774
121	0xbcf74d3a	-0.030188192
122	0xbbec902a	-0.007219334
123	0xbcedc5f6	-0.02902506
124	0x3dbb4944	0.09144834
125	0x3d9cba5d	0.076527335
126	0x3ce25e84	0.02763296
127	0x3d907219	0.070530124
128	0x3c669ef8	0.014075987
129	0x3d3d3f65	0.046203036
130	0xbd42b507	-0.047535922
131	0x3cce0a36	0.025151353
132	0xbdb5b5b7	-0.0887255
133	0x3d020683	0.03174449
134	0xbd545d55	-0.05184682
135	0xbd37788d	-0.0447927
136	0xbcedd67c	-0.029032938
137	0xbcef6466	-0.029222678
138	0x3ceeb580	0.02913928
139	0xbd91c42e	-0.071174964
140	0x3d44bc33	0.048031043
141	0x3c756d7e	0.014979718
142	0xbd3c1183	-0.045915138
143	0x3c9febe0	0.019521654
144	0xbc61ce67	-0.01378212
145	0xbdbf2c91	-0.09334672
146	0xbb45c54f	-0.003017742
147	0x3db614f8	0.08890718
148	0x3a6c5d74	0.0009016611
149	0x3ceae2e0	0.028672636
150	0xbc90c2c8	-0.017671004
151	0x3d940fd9	0.07229585
152	0xbd21af1e	-0.039473645
153	0xbdbd3afa	-0.092397645
154	0x3d803e36	0.06261866
155	0xbc20a4a8	-0.009804882
156	0xbd8b6372	-0.06806077
157	0x3d3aa514	0.045567587
158	0xbc25e80f	-0.010126128
159	0xbd9d5acb	-0.07683333
160	0xbbc3bf01	-0.005973697
161	0xbd1c7a64	-0.03820266
162	0xbc301848	-0.010747977
163	0x3c9881fb	0.018616667
164	0xbd926963	-0.07149007
165	0xbc97c33e	-0.018525716
166	0x3b869a3f	0.004107743
167	0x3d24b3c0	0.040210485
168	0xbd80b320	-0.062841654
169	0xbc947dac	-0.018126331
170	0xbcc21c10	-0.023695022
171	0x3a4df3de	0.00078564684
172	0x3bcbd9b2	0.0062210197
173	0xbca1a0c6	-0.019729983
174	0xbd7ca3de	-0.061679713
175	0xbcb97ab9	-0.022641527
176	0x3d671755	0.056418736
177	0xbd729ae0	-0.05922973
178	0xbc92c711	-0.017917188
179	0xbcf5f48a	-0.030023832
180	0xbc90f870	-0.01769659
181	0xbb9ef1fb	-0.0048506237
182	0x3d821472	0.06351556
183	0xbb365024	-0.0027818764
184	0xbd6db528	-0.058034092
185	0x3cd6c910	0.026218921
186	0x3cabc337	0.02096711
187	0x3c212db8	0.00983756
188	0xbd88b208	-0.06674582
189	0x3c83a62a	0.016070444
190	0x3d4898c5	0.048973817
191	0x3d9b2ea8	0.07577258
192	0xbc0f1c00	-0.008734703
193	0x3c998c7f	0.018743752
194	0x3e10e45b	0.1414961
195	0x3b50f3c1	0.003188357
196	0x3d9a355b	0.07529708
197	0x3d993111	0.07480062
198	0x3d50c490	0.050968707
199	0x3cb7c684	0.022433527
200	0x3d20b63f	0.039236303
201	0x3d2be70f	0.0419684
202	0x3d3e60d5	0.046479065
203	0x3d79d778	0.060996503
204	0x3d8ba430	0.06818426
205	0x3c1f0c30	0.009707496
206	0x3da3334e	0.0796877
207	0xbd89501a	-0.06704731
208	0xbdb2c72e	-0.08729397
209	0xbd9ebe27	-0.077511124
210	0xbd9207ab	-0.07130369
211	0xbd6aca42	-0.057321794
212	0x3d8dc02a	0.06921418
213	0x3d9e9d35	0.077448286
214	0x3d08d02c	0.033401653
215	0xbce1472c	-0.027499758
216	0xbd3262d3	-0.043551277
217	0x3d4900d2	0.049073048
218	0xbd999165	-0.07498435
219	0xbd6066b5	-0.05478545
220	0x3dcac17e	0.09900187
221	0x3c6fce86	0.014636641
222	0xbd7563ab	-0.059909504
223	0x3c7887f0	0.015169129
224	0xbd8afe47	-0.06786781
225	0x3c3ddefc	0.011588808
226	0x3c953226	0.01821239
227	0xbc775eb4	-0.015098263
228	0xbcec9765	-0.028880784
229	0xbd370ddf	-0.044690963
230	0xbcff8b8e	-0.031194475
231	0x3d6b520d	0.057451297
232	0xb8883b62	-6.496046e-05
233	0xbd9f7658	-0.07786244
234	0xbcccf5bf	-0.025019525
235	0x3baf0e2d	0.005342266
236	0xbc96660a	-0.018359203
237	0xbd504e3d	-0.050855864
238	0x3db6da42	0.08928348
239	0xbc831f6d	-0.016006196
240	0x3ce3ddeb	0.02781578
241	0x3ca7ea7f	0.020497559
242	0x3d8d7b2d	0.069082595
243	0xbdba35b4	-0.09092274
244	0xbdee4f65	-0.11636237
245	0xbd65f43e	-0.05614113
246	0xbcd731f0	-0.02626893
247	0x3c86c89c	0.01645308
248	0x3d942ac0	0.072347164
249	0x3cbc32ae	0.022973385
250	0xbd6604cf	-0.05615693
251	0xbd58e7ff	-0.052955624
252	0x3d991075	0.07473842
253	0xbc3b3e37	-0.011428407
254	0xbc47a938	-0.012186341
255	0xbd242a13	-0.040079188

decoder.2.bias f4 [16]
0	0x3d8d45a4	0.068980485
1	0xbcd5d28f	-0.026101379
2	0xbd97c4d3	-0.07410588
3	0xbccfc23b	-0.025361171
4	0xbcf15b72	-0.02946255
5	0x3d947808	0.07249457
6	0xbd18ecdb	-0.037335258
7	0x3d7a4fb9	0.061111186
8	0xbbbfa2c6	-0.0058482615
9	0x3d5a5a10	0.053308547
10	0x3ce2c670	0.027682513
11	0x3d7b63a9	0.06137434
12	0xbbb461fa	-0.005504844
13	0xbd480555	-0.04883321
14	0x3c1898a7	0.009313739
15	0x3d076b70	0.033061445

decoder.4.weight f4 [16, 3, 3, 3]
0	0x3cccef5e	0.025016483
1	0xbd2f75a7	-0.04283681
2	0xbd81a37c	-0.0633001
3	0xbd588c0f	-0.052867945
4	0xbddf016c	-0.10888943
5	0xbe05c169	-0.13062061
6	0xbdc0e7a5	-0.09419183
7	0x3dba7d01	0.09105874
8	0x3da79a02	0.081836715
9	0xbdb3b189	-0.087740965
10	0x3c15fd3b	0.009154613
11	0x3e10adc5	0.14128788
12	0xbcebae41	-0.028769614
13	0xbe6100ee	-0.21973011
14	0xbe375340	-0.17902851
15	0xbe2e7bbd	-0.1703939
16	0xbe0a17bc	-0.13485616
17	0x3d851784	0.06498626
18	0x3d990659	0.07471914
19	0xbe085cd0	-0.13316655
20	0x3dc1e961	0.094683416
21	0xbdac8a36	-0.08424799
22	0xbe55aefc	-0.20867532
23	0xbdaae27a	-0.08343978
24	0xbe540919	-0.20706595
25	0x3c1189df	0.008882969
26	0x3dd9385e	0.10606454
27	0x3e6747f3	0.2258604
28	0x3d8b71cb	0.06808814
29	0x3de45490	0.111489415
30	0x3e273633	0.16329269
31	0x3cebe080	0.028793573
32	0x3e1d9d2d	0.15391989
33	0x3e80d5a1	0.25162986
34	0xbd304123	-0.04303087
35	0x3d14d3b9	0.036334727
36	0x3cfb38e1	0.03066677
37	0x3e2da627	0.16957913
38	0x3e5781b7	0.21045576
39	0x3e315555	0.17317708
40	0x3e0073c8	0.12544167
41	0x3e180aca	0.14847866
42	0x3e6a9768	0.2290932
43	0x3e16bfcd	0.14721604
44	0xbcf11245	-0.029427657
45	0xbe0d2e70	-0.13787246
46	0xbd9079dc	-0.07054493
47	0x3deb39ec	0.11485657
48	0x3d21102b	0.03932206
49	0x3dd8ac20	0.10579705
50	0xbcdcad87	-0.026938213
51	0xbd7e59b9	-0.062097285
52	0xbd9e96db	-0.07743617
53	0xbdfd9dcd	-0.12383614
54	0xbd66ded8	-0.056364864
55	0x3d7a96d7	0.06117901
56	0x3e3ed7a6	0.18636951
57	0x3dea3d2f	0.11437451
58	0xbe1bfbf9	-0.15232839
59	0xbd9fe447	-0.07807212
60	0xbc4111de	-0.011784045
61	0xbda9757f	-0.08274364
62	0xbd65d1e2	-0.056108363
63	0x3d033dd8	0.0320414
64	0x3e04982b	0.12948672
65	0xbe217534	-0.15767366
66	0x3e238a54	0.15970737
67	0x3c2c5e12	0.010520475
68	0x3dec6194	0.11542049
69	0xbdac9d3e	-0.08428429
70	0xbdb81194	-0.08987728
71	0xbde3f251	-0.111302026
72	0x3e018da6	0.12651691
73	0x3dca18b8	0.09867996
74	0x3df6278d	0.120192625
75	0x3d63c0c2	0.05560375
76	0x3e294f02	0.16534045
77	0x3e2be43c	0.16786283
78	0xbd25e7cf	-0.040504273
79	0xbe3daa5e	-0.18522021
80	0x3cc3e7df	0.023914276
81	0x3dcc6f37	0.0998215
82	0xbaa786ed	-0.00127813
83	0xbd96ed66	-0.07369499
84	0xbdb4c1ba	-0.08826013
85	0x3d850db7	0.064967565
86	0x3de08312	0.109625
87	0x3daef9c7	0.08543735
88	0xbe52de91	-0.20592715
89	0xbe0d8489	-0.1382009
90	0xbe3d4076	-0.18481621
91	0xbd68d51a	-0.056843854
92	0xbd28f9f3	-0.041253995
93	0x3dcfb8f1	0.10142697
94	0xbe3ba575	-0.18324836
95	0xbd91ad9d	-0.07113192
96	0x3dea03f4	0.11426535
97	0xbd5b4561	-0.05353296
98	0xbe7eb2de	-0.2487292
99	0xbd5cdcbb	-0.053921442
100	0xbe109c9a	-0.14122239
101	0xbb98a0ed	-0.0046578557
102	0xbd5c93ad	-0.053851772
103	0x3de4af36	0.11166231
104	0x3d2f57d6	0.042808376
105	0x3e32b27e	0.17450902
106	0x3e0ef5df	0.1396098
107	0xbe0d23b6	-0.13783154
108	0xbdd4223c	-0.10358092
109	0xbe47a3a0	-0.19496012
110	0xbe1ac731	-0.15115048
111	0xbdadb419	-0.084816165
112	0x3e13d9ea	0.14438596
113	0xbe56c0b6	-0.20971951
114	0xbd51bbb4	-0.0512044
115	0xbd3f2bab	-0.046672504
116	0xbd921cc7	-0.07134395
117	0x3dc99c2a	0.09844239
118	0x3e088b4a	0.13334385
119	0x3dbc9311	0.09207738
120	0x3e15e5fd	0.14638515
121	0x3d35102a	0.04420487
122	0xbd1d02c5	-0.03833272
123	0xbe207b1f	-0.15671967
124	0x3cb1be48	0.021697178
125	0xbe2f59d9	-0.17124118
126	0xbd995389	-0.07486636
127	0xbe3bfb04	-0.18357474
128	0xbe088160	-0.13330603
129	0x3d598d10	0.053113043
130	0xbc9ea50c	-0.01936581
131	0xbe42593c	-0.18979353
132	0xbe1892a0	-0.14899683
133	0xbe6a7372	-0.22895601
134	0xbe4ccc51	-0.19999816
135	0xbd89364c	-0.066998094
136	0xbe181085	-0.14850052
137	0xbe1ccf3d	-0.1531343
138	0x3de64887	0.11244302
139	0xbe6051a6	-0.21906146
140	0xbe0cb212	-0.13739803
141	0xbdd220ab	-0.10260137
142	0xbd7684e6	-0.060185336
143	0xbdedaa3c	-0.11604735
144	0x3de9e9d5	0.11421553
145	0xbd681cea	-0.0566682
146	0xbe6fc604	-0.2341538
147	0x3c2d8dcc	0.010592889
148	0x3d9b585d	0.07585213
149	0xbe3706b8	-0.17873657
150	0xbdd10594	-0.10206142
151	0x3d047db2	0.032346435
152	0x3cb8d419	0.022562074
153	0xbdc6f2a7	-0.09714251
154	0x3d4bde3f	0.049772497
155	0xbdc50ce6	-0.09621601
156	0x3dada470	0.084786296
157	0xbe585a87	-0.21128283
158	0x3d302c32	0.043010898
159	0xbe2cad81	-0.16863061
160	0xbe6034da	-0.21895161
161	0x3da8eddb	0.08248492
162	0xbdbb55fb	-0.09147259
163	0xbb91741f	-0.0044388915
164	0x3d8cb84f	0.068710916
165	0xbe2a5a3a	-0.16635981
166	0xbd889d3d	-0.06670616
167	0xbe2339b9	-0.15939988
168	0x3dc55958	0.096361816
169	0xbe172d12	-0.14763287
170	0xbd9dfef2	-0.077146426
171	0xbd311828	-0.043235928
172	0xbe05b109	-0.13055815
173	0xbd1bb00e	-0.038009696
174	0xbd918110	-0.07104695
175	0xbe40b5fa	-0.18819419
176	0x3dd5f86f	0.104477756
177	0x3d3395b5	0.043843944
178	0xbe27ddec	-0.1639325
179	0x3cef0927	0.029179169
180	0xbdb0d4ad	-0.08634315
181	0x3d9e792c	0.077379555
182	0xbd5aa5b9	-0.0533807
183	0xbe5f54f9	-0.21809758
184	0xbd953444	-0.072853595
185	0x3dc5f91c	0.096666545
186	0x3d1e6870	0.038673818
187	0xbc83d07e	-0.016090628
188	0xbda7e29f	-0.081975214
189	0x3e0e868e	0.13918516
190	0x3d66795e	0.05626809
191	0xbd6cbbb1	-0.057796184
192	0xbd57a2e5	-0.052645583
193	0xbe599f71	-0.21252228
194	0xbdbf5feb	-0.09344467
195	0x3d1f78e7	0.03893366
196	0xbdaa96d2	-0.08329548
197	0x3d10c9bb	0.035348635
198	0xbe708952	-0.23489884
199	0x3db2b75b	0.087263785
200	0x3e10811f	0.14111756
201	0xbddf5166	-0.109041974
202	0x3db0a858	0.08625859
203	0xbdbfe068	-0.09368974
204	0xbe01b06b	-0.12664954
205	0xbd13b5b7	-0.03606197
206	0xbdf507dd	-0.119643904
207	0x3db36f53	0.08761468
208	0xbe58c174	-0.21167547
209	0xbd826765	-0.06367377
210	0xbe20a9c3	-0.15689759
211	0x3db3ec10	0.0878526
212	0x3b76753f	0.0037606505
213	0xbd53e328	-0.051730305
214	0xbe4c9449	-0.19978441
215	0xbe23dcd2	-0.16002205
216	0xbda4b8e0	-0.080430746
217	0x3c1d5287	0.009602196
218	0xbb7809c8	-0.0037847627
219	0x3c8a391f	0.01687294
220	0xbdae989e	-0.08525203
221	0xbe1eb8c6	-0.15500173
222	0xbd1419e8	-0.03615752
223	0xbe3c2eb0	-0.18377185
224	0xbd068963	-0.032845866
225	0x3e0f5bbb	0.13999836
226	0x3caf8381	0.02142501
227	0xbd196a0b	-0.037454646
228	0x3d8244b8	0.06360763
229	0xbe2702b1	-0.1630962
230	0xbd830161	-0.063967474
231	0xbe194210	-0.14966607
232	0xbe512c47	-0.20427047
233	0xbdd3d39b	-0.10343095
234	0x3e024e42	0.12725165
235	0xbd12b63d	-0.035818327
236	0xbe3abc16	-0.18235812
237	0xbe00a8ec	-0.12564439
238	0xbe0c854c	-0.13722724
239	0xbe3af99b	-0.1825928
240	0xbe2d4fde	-0.16924998
241	0xbcdd7c5a	-0.027036835
242	0xbe1dd9b7	-0.15415083
243	0x3de84c9e	0.113427386
244	0x3e49ac76	0.19694695
245	0x3d3fc885	0.04682209
246	0x3dde8ee5	0.10867099
247	0xbe03ccc8	-0.12871087
248	0x3cae101a	0.021247912
249	0x3e0da9dc	0.13834327
250	0xbd3271cc	-0.043565556
251	0x3dd07160	0.101778746
252	0x3e1c27f4	0.15249616
253	0x3dd0b1e7	0.10190182
254	0x3d17019a	0.03686676
255	0x3e404cf7	0.1877936

decoder.4.bias f4 [3]
0	0x3cc8657f	0.02446246
1	0x3c151bde	0.009100882
2	0xbe0d8826	-0.13821468
