chewinggum_autoencoder.pth (torch, 193250 bytes, 12 tensors)

encoder.0.weight f4 [16, 3, 3, 3]
-0.041724026 -0.15090083 0.02726769 0.10686811 -0.14570656 0.17713848 0.03846533 0.029332226
-0.19895405 -0.15250877 -0.20801477 -0.20443027 -0.13077508 0.0450763 -0.17180148 0.047273777
-0.077702805 0.03863772 -0.1697859 0.085739926 -0.17004205 0.025777286 0.043927144 0.07286734
0.035482828 -0.041935872 0.049208537 0.1233188 0.16964158 -0.10870329 -0.030037737 0.07861523
-0.033355746 -0.085024334 0.16481538 0.10721106 0.20760083 -0.035034973 -0.11850164 0.012609528
-0.1745783 0.18370351 0.10977755 0.042717814 0.10515174 -0.121330045 0.20290363 -0.023760982
0.13710947 -0.13208783 0.19394487 -0.03291277 0.18987219 0.16340321 0.22435285 -0.093004085
0.057947997 0.20766646 -0.02564882 -0.13603358 0.12176596 0.018725488 0.10365668 -0.022348996
0.04022966 -0.036562767 -0.079384 0.12424549 0.15984988 0.12408541 0.051657237 0.12784998
-0.040976748 0.084924966 -0.021496275 0.2086772 -0.14381409 0.004169338 0.035958346 0.21168797
0.15206026 0.20837107 0.01670118 -0.13010879 -0.041413497 -0.05213024 -0.13857774 0.14538161
0.100947484 -0.1348465 0.15203863 -0.002914916 0.20893832 -0.009246544 0.012276824 0.123432554
0.18565609 -0.09393208 0.059666812 0.066696964 0.057347834 0.09614267 0.19332463 0.23534612
0.12553649 0.013321131 0.019482922 0.07816618 -0.121591575 0.09581686 0.19686957 0.10590253
0.15237378 -0.076763935 0.1823538 0.07281492 0.03143843 0.19676173 -0.15308349 -0.14569397
0.18791252 0.05394475 0.1549453 -0.15130794 0.16298188 0.14214687 0.019196546 0.095468245
0.21168305 -0.004196105 0.055345405 -0.0070096687 0.20772567 0.17322336 -0.13049027 0.048456997
0.13329585 -0.15872538 -0.1524274 -0.031524304 -0.13846333 0.14796947 -0.16616452 -0.12388462
0.010221689 -0.053651858 -0.04454034 -0.096008345 -0.05182082 0.10539585 0.04236754 0.019645482
-0.14737861 0.12483588 -0.010521369 0.14158437 0.07373905 0.024402473 -0.15031932 -0.008781106
-0.01676873 0.15067764 0.0028157532 0.026615372 0.035858773 0.0745457 0.058641233 -0.10637936
-0.0057699014 0.15238595 -0.1865893 -0.10907006 -0.05274868 -0.048517745 -0.049063582 -0.022245867
0.054107822 0.15818849 -0.085668385 -0.19655612 -0.17496715 -0.030550862 0.03447054 0.005677118
0.02456037 -0.13914819 -0.16337915 0.030133257 0.08721458 0.10293071 0.23167817 0.15835056
0.23382567 -0.017013146 -0.075997524 0.067496 0.040294755 -0.10280499 0.14550622 0.21683139
0.18550907 0.13601576 0.06611573 0.018698396 0.020774642 -0.1294105 -0.046378188 0.09517516
0.0034914387 0.042368613 0.1852436 0.23346326 0.035478175 0.047633372 0.20175089 -0.04179749
0.013770053 0.057970203 0.18347786 0.13650481 -0.07401373 -0.009633946 0.19847448 0.077348895
0.012288944 0.18720117 0.16763745 -0.09428989 -0.13607958 -0.017221007 -0.06660016 -0.0573001
0.013507804 -0.034915082 0.11051 0.09131099 0.12168495 -0.17190704 -0.024955126 0.01538296
0.04085869 0.053093586 -0.04270036 -0.13022406 0.20088232 -0.16720295 0.15203235 -0.14522399
0.06270879 0.066207014 -0.1460418 0.090639636 -0.046052832 -0.11156561 0.1931039 -0.069544315
00000000: d0e6 2abd bf85 1abe 7e60 df3c abdd da3d
00000010: 1a34 15be ca63 353e d28d 1d3d 234a f03c
00000020: 9cba 4bbe 422b 1cbe d301 55be 2b56 51be
00000030: e7e9 05be eda1 383d baec 2fbe 26a2 413d
00000040: a622 9fbd 9642 1e3d 5bdc 2dbe 6a98 af3d
00000050: 811f 2ebe e32a d33c f3ec 333d 793b 953d
00000060: 7156 113d f3c4 2bbd e48e 493d 918e fc3d
00000070: 86b6 2d3e d59f debd b311 f6bc 0601 a13d
00000080: 09a0 08bd 3d21 aebd 5dc5 283e 7991 db3d
00000090: 5095 543e d580 0fbd fdb0 f2bd 3298 4e3c
000000a0: a7c4 32be c61c 3c3e 0dd3 e03d e0f8 2e3d
000000b0: cc59 d73d e37b f8bd f8c5 4f3e 64a6 c2bc
000000c0: 6d66 0c3e 0842 07be 7c99 463e 8acf 06bd
000000d0: db6d 423e 2c53 273e c1bc 653e ed78 bebd
000000e0: e15a 6d3d 84a6 543e 791d d2bc 634c 0bbe
000000f0: 6e60 f93d 3266 993c f449 d43d 3e15 b7bc
00000100: dbc7 243d d7c2 15bd 1494 a2bd 6b74 fe3d
00000110: b0af 233e 7e20 fe3d 8a96 533d 1beb 023e
00000120: 3cd7 27bd 24ed ad3d f518 b0bc 7aaf 553e
00000130: 0044 13be f19e 883b 0f49 133d bbc4 583e
00000140: afb5 1b3e 3a5f 553e ead0 883c 3d3b 05be
00000150: 33a1 29bd 8586 55bd 53e7 0dbe ebde 143e
00000160: 8ebd ce3d 3315 0abe 04b0 1b3e 2d08 3fbb
00000170: edf3 553e d17e 17bc bb24 493c 35ca fc3d
00000180: a11c 3e3e 765f c0bd 3065 743d 6b98 883d
00000190: 90e5 6a3d 73e6 c43d e4f6 453e 93fe 703e
000001a0: a38c 003e df40 5a3c a69a 9f3c 9715 a03d
000001b0: 0105 f9bd a13b c43d 2d98 493e 6de3 d83d
000001c0: df07 1c3e 6936 9dbd f4ba 3a3e fd1f 953d
000001d0: 95c5 003d e87b 493e ebc1 1cbe cd30 15be
000001e0: 246c 403e 2cf5 5c3d fba9 1e3e 78f0 1abe
000001f0: b9e4 263e f38e 113e 1342 9d3c db84 c33d
00000200: 71c3 583e 7b7f 89bb ddb1 623d 5db1 e5bb
00000210: 0ab6 543e 7761 313e 3e9f 05be d87a 463d
00000220: b57e 083e e888 22be ee15 1cbe a11f 01bd
00000230: 55c9 0dbe 4f85 173e 0827 2abe 38b7 fdbd
00000240: df78 273c 0dc2 5bbd ee6f 36bd 06a0 c4bd
00000250: 1142 54bd c8d9 d73d 9689 2d3d 90ef a03c
00000260: 6bea 16be f4a9 ff3d d261 2cbc 7efb 103e
00000270: 8004 973d b2e7 c73c 4fed 19be a1de 0fbc
00000280: 935e 89bc 3d4b 1a3e 8088 383b 7b08 da3c
00000290: a6e0 123d 6aab 983d ca31 703d 6cdd d9bd
000002a0: 7111 bdbb 100b 1c3e 4411 3fbe 2060 dfbd
000002b0: 000f 58bd 8bba 46bd e5f6 48bd f73c b6bc
000002c0: 2aa0 5d3d 2afc 213e e872 afbd 0246 49be
000002d0: 972a 33be cd45 fabc fb30 0d3d 1e07 ba3b
000002e0: d432 c93c dd7c 0ebe dd4c 27be 05da f63c
000002f0: 8f9d b23d 56cd d23d 0b3d 6d3e a626 223e
00000300: ff6f 6f3e 275f 8bbc 97a4 9bbd 583b 8a3d
00000310: 1d0c 253d 6c8b d2bd 95ff 143e 0c09 5e3e
00000320: 17f6 3d3e b747 0b3e af67 873d 612d 993c
00000330: 952f aa3c 3084 04be 0ef7 3dbd 32eb c23d
00000340: 9fd0 643b b68a 2d3d 80b0 3d3e fe10 6f3e
00000350: 9051 113d 361b 433d c997 4e3e d833 2bbd
00000360: ca9b 613c 2a72 6d3d 9fe1 3b3e ebc7 0b3e
00000370: 8394 97bd b3d7 1dbc e53c 4b3e 1969 9e3d
00000380: 9157 493c aab1 3f3e 27a9 2b3e 0f1b c1bd
00000390: 7258 0bbe 1213 8dbc aa65 88bd 82b3 6abd
000003a0: d64f 5d3c 1e03 0fbd 1153 e23d 4201 bb3d
000003b0: f635 f93d 6608 30be b16e ccbc d008 7c3c
000003c0: 715b 273d a978 593d 93e6 2ebd 7559 05be
000003d0: 18b4 4d3e 4037 2bbe 5eae 1b3e 99b5 14be
000003e0: 776d 803d 8b97 873d fb8b 15be 46a1 b93d
000003f0: e5a1 3cbd 837c e4bd 07bd 453e 406d 8ebd

encoder.0.bias f4 [16]
0.20831077 0.16480693 -0.05895605 -0.04960345 0.17297466 0.1958638 0.030107142 -0.01881148
0.2184662 0.18935724 -0.032029457 -0.039122127 0.07994646 -0.14412288 -0.12094392 0.1929986
00000000: 6b4f 553e 26c3 283e e67b 71bd fd2c 4bbd
00000010: 4520 313e 8590 483e 41a3 f63c 881a 9abc
00000020: 9bb5 5f3e dde6 413e 5231 03bd 863e 20bd
00000030: f8ba a33d f394 13be 72b1 f7bd 6da1 453e

encoder.2.weight f4 [32, 16, 3, 3]
0.06700205 -0.0011012192 0.106275484 0.09607316 0.0761174 0.073478594 0.07030256 0.010097221
0.118678816 0.067683265 0.09037099 0.07906716 0.07419916 0.016158177 0.091968335 -0.020003494
0.054003432 -0.026319109 -0.087734826 -0.054471325 0.023177845 -0.0984223 -0.11893216 -0.023421276
-0.10398403 -0.086313844 -0.099793404 -0.054402966 -0.054526154 0.04934587 0.021098616 -0.008819399
-0.017418008 -0.089970075 0.03707245 -0.0696131 0.046017736 0.014134081 -0.04645903 0.07476355
-0.030220456 0.0013014812 0.033647764 -0.0005053129 0.0512328 -0.019972868 0.041325506 0.10472234
0.07476659 0.08101906 -0.015437525 0.048642013 0.03602404 -0.017473346 0.033291213 0.03153762
0.049511526 0.07482777 0.07873888 0.042975467 0.005464863 0.11174307 0.04835031 -0.042994738
-0.040395405 -0.09212748 -0.0276092 -0.07121138 -0.03724471 -0.106745094 -0.043917425 -0.046667174
0.03138503 0.063808195 -0.042045876 0.0073221894 0.11328553 0.09394039 0.078988306 0.02363829
0.021755889 0.011240164 0.041116297 -0.005034865 0.033774197 0.049475446 0.03863668 0.026843393
0.0028923647 0.10174373 -0.06511483 -0.0783073 -0.039544158 -0.06501163 -0.057215877 0.041236755
0.016938256 0.061461028 0.053305514 -0.07141673 -0.06171649 -0.08064487 0.04104382 -0.08584576
-0.032212283 -0.06519603 0.01566326 -0.046085093 0.07171052 0.11215987 -0.008605817 -0.011175577
0.03978328 0.069769375 0.079714686 0.015170627 0.0453696 0.04137408 0.052491374 -0.022349995
-0.07940914 0.048071288 -0.0631068 -0.028646033 0.03299007 -0.0111776665 -0.103551954 -0.0015022322
-0.020392548 -0.009295069 -0.053100213 -0.10011581 -0.063504905 -0.006944514 0.0057080216 0.016972747
-0.055853423 0.09233156 -0.0039672884 0.075945206 -0.024792308 0.108381376 0.009533799 -0.0063504684
-0.044361524 -0.057056613 0.06287774 -0.01355414 -0.003609415 0.061376248 0.005076251 -0.048705768
-0.089284785 0.0057853744 0.07990008 0.09613601 0.03213677 0.010916707 0.027268326 -0.04814877
-0.020589096 -0.01491664 0.08092421 0.020786107 -0.00442167 -0.017016169 0.09942889 0.10299712
0.0509709 0.03396247 0.032494623 -0.014642478 0.08076637 0.012275469 0.03547895 -0.022610616
0.02507293 -0.043858442 0.011591981 0.027384195 0.10922022 0.10026225 -0.029226052 0.009482413
0.061945498 0.040662922 -0.016888373 0.09414246 0.0027629193 -0.05685375 -0.09450608 0.057975717
-0.008340165 0.00053073437 0.014079774 -0.026165273 -0.079500385 -0.0808191 -0.039171416 -0.08379784
-0.0771143 0.0320602 -0.108954825 -0.013726067 -0.096950926 -0.089769855 0.04495107 -0.016638318
0.1160428 0.037505377 0.09039583 0.092054754 0.077813044 0.09201944 0.08500662 0.04665323
0.013746955 0.07173882 -0.023887869 -0.030501433 -0.030856477 0.021420794 -0.02261263 -0.030795384
0.050277483 -0.043052215 -0.022425048 0.009958547 -0.06239714 -0.028231747 0.03502559 -0.04991091
0.009614214 0.045870326 0.024201201 0.018109767 0.038493644 -0.030763196 0.057968386 -0.035324782
-0.019514302 -0.01492089 -0.0013826858 -0.01878123 0.005233426 0.09600261 0.09759171 0.11755701
0.004393681 0.07668488 -0.028241128 -0.012126013 -0.045903753 0.07253812 0.04070556 -0.09135507
00000000: 5f38 893d c956 90ba f6a6 d93d 01c2 c43d
00000010: 70e3 9b3d f27b 963d cafa 8f3d d06e 253c
00000020: e10d f33d 869d 8a3d 6d14 b93d f7ed a13d
00000030: bbf5 973d 275e 843c e559 bc3d 5ede a3bc
00000040: b432 5d3d 2c9b d7bc 51ae b3bd 531d 5fbd
00000050: 77df bd3c a191 c9bd b492 f3bd fadd bfbc
00000060: 94f5 d4bd 50c5 b0bd 7c60 ccbd a5d5 5ebd
00000070: d156 5fbd e51e 4a3d 01d7 ac3c 3e7f 10bc
00000080: 36b0 8ebc 3b42 b8bd 48d9 173d 5091 8ebd
00000090: 187d 3c3d a292 673c d34b 3ebd a21d 993d
000000a0: e490 f7bc 7696 aa3a 3dd2 093d fa76 04ba
000000b0: 7cd9 513d 249e a3bc ef44 293d ab78 d63d
000000c0: 3a1f 993d 52ed a53d aced 7cbc d93c 473d
000000d0: f28d 133d 4324 8fbc 5e5c 083d 972d 013d
000000e0: 99cc 4a3d 4d3f 993d da41 a13d 0b07 303d
000000f0: 9812 b33b 8dd9 e43d fa0a 463d 401b 30bd
00000100: a775 25bd 55ad bcbd b02c e2bc 46d7 91bd
00000110: e98d 18bd 2c9d dabd c2e2 33bd 1426 3fbd
00000120: 978d 003d dfad 823d 4c38 2cbd faee ef3b
00000130: 3e02 e83d d263 c03d 9fc4 a13d 16a5 c13c
00000140: 6839 b23c aa28 383c 9069 283d 82fb a4bb
00000150: d056 0a3d c4a6 4a3d 7f41 1e3d ade6 db3c
00000160: d48d 3d3b 045f d03d ed5a 85bd 945f a0bd
00000170: 0ef9 21bd d124 85bd 325b 6abd dfe7 283d
00000180: 19c2 8a3c 8fbe 7b3d e256 5a3d ef42 92bd
00000190: 6eca 7cbd 2329 a5bd 911d 283d e7cf afbd
000001a0: 07f1 03bd 7f85 85bd 3d50 803c b9c3 3cbd
000001b0: f7dc 923d 13b4 e53d 6aff 0cbc c419 37bc
000001c0: cbf3 223d 3fe3 8e3d 7441 a33d 398e 783c
000001d0: 79d5 393d de77 293d 3201 573d 5617 b7bc
000001e0: 42a1 a2bd 66e6 443d 233e 81bd 16ab eabc
000001f0: 9820 073d 8822 37bc 0c13 d4bd 8ce6 c4ba
00000200: 460e a7bc 584a 18bc 9c7f 59bd 8509 cdbd
00000210: dc0e 82bd ce8e e3bb 5b0a bb3b 6e0a 8b3c
00000220: 8fc6 64bd 5418 bd3d 0700 82bb 2989 9b3d
00000230: 3d19 cbbc 0ef7 dd3d a733 1c3c 9717 d0bb
00000240: 6eb4 35bd 32b4 69bd 0bc6 803d 2f12 5ebc
00000250: ef8b 6cbb a965 7b3d ae56 a63b b37f 47bd
00000260: f1da b6bd 3d93 bd3b a7a2 a33d f5e2 c43d
00000270: d9a1 033d fddb 323c d361 df3c a537 45bd
00000280: 77aa a8bc ec64 74bc 98bb a53d a047 aa3c
00000290: a8e3 90bb 7e65 8bbc 60a1 cb3d 27f0 d23d
000002a0: ddc6 503d 3b1c 0b3d 1519 053d 01e7 6fbc
000002b0: d768 a53d 0c1f 493c 6052 113d e639 b9bc
000002c0: bf65 cd3c e9a4 33bd 4bec 3d3c d254 e03c
000002d0: daae df3d 4b56 cd3d 796b efbc 1f5c 1b3c
000002e0: 90ba 7d3d 2a8e 263d 7c59 8abc c3cd c03d
000002f0: 1812 353b 7adf 68bd 678c c1bd f277 6d3d
00000300: 30a5 08bc fb20 0b3a daae 663c 8e58 d6bc
00000310: 19d1 a2bd 7c84 a5bd 3572 20bd 349e abbd
00000320: 1aee 9dbd 8e51 033d b523 dfbd 4ce3 60bc
00000330: 358e c6bd 42d9 b7bd 9d1e 383d 154d 88bc
00000340: d9a7 ed3d 3d9f 193d 7321 b93d 3487 bc3d
00000350: 725c 9f3d b074 bc3d f317 ae3d 7517 3f3d
00000360: e93a 613c cdeb 923d 7eb0 c3bc 24de f9bc
00000370: b9c6 fcbc a97a af3c 1f3e b9bc 9a46 fcbc
00000380: c3ef 4d3d 8557 30bd bcb4 b7bc 2c29 233c
00000390: 2594 7fbd 4446 e7bc fe76 0f3d 626f 4cbd
000003a0: f084 1d3c 86e2 3b3d 9941 c63c ef5a 943c
000003b0: 83ab 1d3d 1903 fcbc 4270 6d3d b8b0 10bd
000003c0: 75dc 9fbc c076 74bc 3d3b b5ba 18db 99bc
000003d0: 297d ab3b 049d c43d 2ade c73d bbc1 f03d
000003e0: def8 8f3b f60c 9d3d f059 e7bc 2fac 46bc
000003f0: 9305 3cbd de8e 943d e0ba 263d 5e18 bbbd

encoder.2.bias f4 [32]
0.04597951 -0.04331836 0.12163201 -0.095485285 -0.027885092 -0.002057977 -0.0077070273 0.10116639
0.021705968 0.092699096 0.04835655 -0.008235091 0.0333836 -0.051611 0.02983766 -0.034103062
-0.08288833 -0.03981809 0.06987366 0.0003883134 0.09701869 0.015253168 0.06701586 -0.1065233
0.092555024 0.09809972 -0.048201904 -0.088774376 0.04153647 0.053425703 0.106489845 0.0045576664
00000000: 0355 3c3d 986e 31bd 341a f93d ca8d c3bd
00000010: 476f e4bc 20df 06bb 3b8b fcbb 5330 cf3d
00000020: b7d0 b13c 06d9 bd3d 8511 463d 7aec 06bc
00000030: 3ebd 083d 0e66 53bd 1c6e f43c a7af 0bbd
00000040: 5bc1 a9bd 4b18 23bd ec19 8f3d 8b96 cb39
00000050: bcb1 c63d 6ce8 793c 9c3f 893d e328 dabd
00000060: 7d8d bd3d 82e8 c83d 5c6f 45bd 57cf b5bd
00000070: 2522 2a3d e9d4 5a3d 5917 da3d 7a58 953b

encoder.4.weight f4 [64, 32, 3, 3]
0.0549384 0.05099241 0.08066528 -0.004099164 0.09085681 0.03472605 -0.018709855 0.03837342
0.056854736 -0.039807003 -0.01601612 0.022906726 -0.027275667 -0.026977848 -0.05209172 -0.030190265
-0.040369082 -0.023761174 -0.04055705 0.04457623 0.0012062382 -0.005121174 0.060260408 0.040901836
0.017506583 0.036005933 -0.0117785 -0.07153224 -0.040341448 -0.05803522 -0.047766004 -0.08194437
-0.08568462 -0.030280042 -0.009613361 -0.02526356 0.0324704 0.026301395 -0.007041957 -0.04918301
0.018882226 -0.04161354 -0.043622464 -0.017619293 0.03043745 -0.0014437322 0.07648626 0.08630664
0.04663603 0.04923335 0.047696277 0.0101635065 0.04091262 0.06801888 -0.037693523 -0.055771455
0.01836824 0.029937118 0.02421492 0.04110202 0.0216613 0.03573064 -0.03613327 0.018807271
-0.015032902 -0.02504117 0.055348113 -0.02788657 0.059320115 -0.01890043 0.015309642 0.018745616
-0.0060043046 0.05745346 0.041633923 0.0021061036 0.027280096 0.07079287 0.065050386 -0.0018324784
-0.003950223 0.07220037 0.076965034 0.06891643 -0.00942075 0.0459077 -0.0074083717 -0.020611538
0.052578885 0.017707719 -0.08163128 -0.00198767 -0.03013487 -0.0033644033 0.037328936 -0.021689896
0.0022359465 -0.031300846 0.022161637 0.017484516 -0.023479663 0.08512791 0.061891355 -0.02866927
0.06721033 0.0047403798 0.08548364 0.06275727 0.03551875 0.048619088 0.0011634358 0.02769208
0.071407296 0.08955938 -0.0076887966 0.07124234 0.014923408 0.025595129 0.020304915 0.009999496
-0.041738365 -0.08093075 -0.012175603 0.019766696 -0.06451185 -0.026282962 -0.017865416 -0.0040587783
-0.04657149 0.0056554787 -0.0437198 -0.04277239 0.0047308765 0.01712985 -0.0017695762 0.0018126077
-0.08159217 -0.0038194542 0.025663782 -0.08257172 0.003987762 -0.027062621 0.012997247 0.023574667
0.013820441 0.028299738 -0.07215637 0.021799028 -0.08913713 -0.056780983 -0.027825046 -0.03744805
0.004024493 -0.015602209 0.009807315 -0.030589614 -0.011373825 -0.05879935 0.04296143 0.046888802
0.013411056 0.045184944 0.030248059 0.04772366 0.050130293 -0.005917229 0.03213893 0.06293573
0.05327009 0.022510396 0.0037455421 -0.05484521 -0.029522808 -0.0091156475 0.030554814 -0.0014861905
-0.025652872 0.006331701 -0.014209625 -0.042663928 -0.0011246931 0.0404723 -0.016061153 0.03509783
0.00087334693 -0.022957867 0.04163637 0.03423073 0.06305735 0.075418 -0.019891055 -0.0015977633
0.027124362 0.07475101 0.079174094 0.010025289 0.0018122983 0.06952343 -0.0032393455 -0.011348308
0.010931712 0.014073088 -0.021288538 0.016280044 0.07992198 0.0008976941 0.037172645 -0.047765158
-0.047647938 -0.020939272 -0.044562947 -0.028088478 -0.009250318 -0.04233118 -0.07811008 -0.07942884
0.016269598 -0.009414102 0.061496686 -0.0039753895 0.016441777 0.011417643 -0.030997852 0.039482392
0.046804663 -0.004074011 0.008155057 -0.01865745 -0.0039506904 -0.018903282 0.07073477 -0.007848174
0.017389795 0.006964599 -0.05374541 -0.042408243 -0.022180442 0.0031562438 0.015161953 0.00065458706
0.030274697 -0.027167806 0.0010119412 0.041119244 0.05515779 -0.0013037063 0.047166508 0.002711609
0.045788515 -0.021834407 -0.045359563 0.0093146525 -0.014870979 0.084434144 0.037166946 -0.029633911
00000000: 1607 613d 6bdd 503d d733 a53d 4852 86bb
00000010: 2313 ba3d e73c 0e3d 6945 99bc 722d 1d3d
00000020: 83e0 683d ab0c 23bd 3d34 83bc e3a6 bb3c
00000030: 3871 dfbc a600 ddbc 215e 55bd 9351 f7bc
00000040: 0d5a 25bd cba6 c2bc 261f 26bd 9195 363d
00000050: a31a 9e3a 85cf a7bb 9ed3 763d af88 273d
00000060: f769 8f3c f57a 133d 9cfa 40bc 7f7f 92bd
00000070: 133d 25bd 57b6 6dbd 49a6 43bd 73d2 a7bd
00000080: 6b7b afbd da0d f8bc 5c81 1dbc 86f5 cebc
00000090: afff 043d 0676 d73c 38c0 e6bb 2074 49bd
000000a0: e6ae 9a3c f672 2abd 78ad 32bd 5656 90bc
000000b0: f657 f93c 9d3b bdba d4a4 9c3d 89c1 b03d
000000c0: 6c05 3f3d e9a8 493d 2c5d 433d d684 263c
000000d0: fe93 273d 7c4d 8b3d 8664 1abd 9c70 64bd
000000e0: fe78 963c b03e f53c 5e5e c63c 975a 283d
000000f0: 0a73 b13c 4b5a 123d 7b00 14bd b511 9a3c
00000100: 904c 76bc 2423 cdbc b4b4 623d 6072 e4bc
00000110: a6f9 723d 13d5 9abc 4bd5 7a3c 6890 993c
00000120: c2bf c4bb 5254 6b3d 5588 2a3d 8e06 0a3b
00000130: 827a df3c dafb 903d 2339 853d c62f f0ba
00000140: df70 81bb cadd 933d d89f 9d3d 0f24 8d3d
00000150: 7d59 1abc b609 3c3d edc1 f2bb 87d9 a8bc
00000160: f55c 573d c70f 913c 4d2e a7bd 9243 02bb
00000170: 67dd f6bc 527d 5cbb 3ae6 183d 02af b1bc
00000180: f588 123b 5135 00bd 528c b53c b03b 8f3c
00000190: 6c58 c0bc 8b57 ae3d ca81 7d3d d1db eabc
000001a0: 92a5 893d 3055 9b3b 0c12 af3d e286 803d
000001b0: 1c7c 113d cf24 473d 6d7e 983a 80da e23c
000001c0: fd3d 923d e96a b73d 4df2 fbbb 81e7 913d
000001d0: 4f81 743c e0ac d13c 7e56 a63c edd4 233c
000001e0: d9f5 2abd 05bf a5bd 2e7c 47bc c4ed a13c
000001f0: ca1e 84bd 5e4f d7bc 7e5a 92bc 80ff 84bb
00000200: bfc1 3ebd 9851 b93b 8813 33bd 1a32 2fbd
00000210: 7805 9b3b e653 8c3c 20f1 e7ba 0695 ed3a
00000220: cc19 a7bd cf4f 7abb da3c d23c 5d1b a9bd
00000230: c6ab 823b 6eb2 ddbc 68f2 543c a91f c13c
00000240: 226f 623c dad4 e73c b8c6 93bd e093 b23c
00000250: 878d b6bd 2d93 68bd 5af1 e3bc 2063 19bd
00000260: e5df 833b 68a0 7fbc dcae 203c 1297 fabc
00000270: 4859 3abc 96d7 70bd 53f8 2f3d 790e 403d
00000280: 0cba 5b3c d913 393d c7ca f73c e279 433d
00000290: 6c55 4d3d 51e5 c1bb 1ca4 033d 73e4 803d
000002a0: bd31 5a3d b967 b83c c577 753b 5fa5 60bd
000002b0: d1d9 f1bc cc59 15bc 174e fa3c 47cc c2ba
000002c0: f925 d2bc 287a cf3b 7dcf 68bc 5fc0 2ebd
000002d0: 706a 93ba 48c6 253d ae92 83bc bec2 0f3d
000002e0: 52f1 643a 2312 bcbc e68a 2a3d 8635 0c3d
000002f0: 3624 813d c174 9a3d 91f2 a2bc 0a6c d1ba
00000300: e933 de3c 0f17 993d 0726 a23d 1c41 243c
00000310: a48a ed3a 4d62 8e3d 334b 54bb 41ee 39bc
00000320: ec1a 333c cf92 663c 4d65 aebc ba5d 853c
00000330: 23ae a33d 3b53 6b3a 5842 183d 66a5 43bd
00000340: 7c2a 43bd d688 abbc a387 36bd cf19 e6bc
00000350: a58e 17bc 7663 2dbd 2df8 9fbd 96ab a2bd
00000360: d247 853c 9b3d 1abc f3e3 7b3d fc43 82bb
00000370: e8b0 863c 1111 3b3c 35ef fdbc 4ab8 213d
00000380: 3fb6 3f3d 487f 85bb ca9c 053c 82d7 98bc
00000390: cb74 81bb 0edb 9abc 64dd 903d a195 00bc
000003a0: 0b75 8e3c 4a37 e43b 2624 5cbd 44b4 2dbd
000003b0: c2b3 b5bc fcd8 4e3b d769 783c 9898 2b3a
000003c0: a402 f83c 058f debc 1da3 843a a76c 283d
000003d0: 23ed 613d 20e1 aaba ab31 413d 40b5 313b
000003e0: bd8c 3b3d 12de b2bc f3ca 39bd 7c9c 183c
000003f0: 68a5 73bc cfeb ac3d 5e3c 183d d1c2 f2bc

encoder.4.bias f4 [64]
0.08407015 0.02254221 0.060811643 0.038055558 -0.0798885 -0.0531167 0.025660504 -0.041338187
-0.0314593 -0.06703758 0.029532757 0.044333104 0.046380762 0.09144802 -0.06869501 -0.039037317
0.056763247 0.050268363 0.03712835 0.07903889 0.091596246 -0.081206076 0.046045855 0.044781715
0.04248075 -0.03727165 -0.024383005 -0.052277815 0.037329104 -0.07244736 0.05498855 0.07203291
0.032726668 -0.0574525 -0.0017680774 0.017797034 -0.040548675 0.026704853 0.09508694 0.032962546
-0.08477596 0.055231236 0.019150043 0.06308314 0.045383893 -0.025702797 -0.010210819 0.013126474
-0.04729824 -0.0017477786 0.04084031 -0.029109288 0.00039704857 0.022041459 0.057421397 0.03382766
-0.019562792 0.046969883 0.041300703 0.007942971 0.08999395 0.014880653 0.07714457 -0.048814207
00000000: f92c ac3d 71aa b83c a115 793d 25e0 1b3d
00000010: 959c a3bd e690 59bd fa35 d23c 3b52 29bd
00000020: 78db 00bd 004b 89bd aeee f13c a196 353d
00000030: c1f9 3d3d 1949 bb3d f8af 8cbd 98e5 1fbd
00000040: 9480 683d 33e6 4d3d e613 183d 24df a13d
00000050: d096 bb3d 5f4f a6bd 949a 3c3d 086d 373d
00000060: 4b00 2e3d 28aa 18bd debe c7bc 4321 56bd
00000070: 67e6 183d 485f 94bd ac3b 613d fe85 933d
00000080: 660c 063d 5053 6bbd d5be e7ba 16cb 913c
00000090: 5e16 26bd 23c4 da3c f1bc c23d bc03 073d
000000a0: 059f adbd 263a 623d 8de0 9c3c bc31 813d
000000b0: 76e4 393d ac8e d2bc 474b 27bc 6c10 573c
000000c0: cdbb 41bd b815 e5ba 2b48 273d 9a76 eebc
000000d0: f52a d039 4a90 b43c b332 6b3d df8e 0a3d
000000e0: 2642 a0bc 7e63 403d ed2a 293d 3c23 023c
000000f0: c04e b83d fbcd 733c f9fd 9d3d 68f1 47bd

decoder.0.weight f4 [64, 32, 3, 3]
-0.034283143 0.016286505 0.011209882 0.08124001 0.029937588 0.046634674 -0.0032766764 -0.018944042
0.085273296 0.03642876 0.050720654 0.05175169 -0.014735429 -0.02224753 -0.0144891655 0.014982402
-0.017694602 -0.010340331 -0.051457208 0.044633124 -0.02350045 -0.008261364 -0.058566187 0.0033193305
-0.01446552 0.011838478 0.06284667 0.045628756 -0.055228442 -0.009086336 -0.03112521 -0.004911565
0.033176985 -0.031042917 0.020722648 -0.02278149 -0.022399684 0.03119672 -0.024644753 0.039156493
0.009843018 0.015829021 0.0035780556 0.023101386 -0.024832534 -0.024078649 0.040431824 0.0049849492
-0.01022868 0.055211347 0.038678363 -0.018438095 0.003940562 -0.0012559803 0.039273627 0.048498295
0.028528279 0.045453764 0.06838281 0.066041954 0.042402398 0.07471645 -0.020488672 -0.0100010745
0.00028763048 -0.01116151 -0.052262962 -0.04341459 -0.05314633 -0.028498448 0.035927378 -0.02329176
0.028071912 0.071779534 0.04875868 -0.03248079 0.07203867 -0.00911496 0.049881734 0.03552652
-0.022496914 -0.058337584 0.07379956 -0.034641996 0.055480693 0.020717243 -0.0023784162 0.034176987
-0.016867112 0.070815854 -0.007961588 -0.005728926 -0.057780482 0.070226245 0.019142058 -0.013299737
-0.013850715 0.02627101 0.042270336 -0.012342507 0.04044543 0.06347361 0.053434025 0.059842553
-0.0098651 -0.031621054 0.045426928 0.055452414 0.028693913 0.07355614 0.08699517 0.056728765
0.01162415 0.047282547 -0.010546129 -0.0015530859 0.026200382 0.028268946 -0.024397878 0.005583232
-0.04176817 -0.0058510858 -0.00846641 -0.021633191 0.06051776 -0.014527242 0.0003631807 0.03250235
-0.02483845 0.032813337 -0.008565046 0.053075124 -0.07406757 -0.03570044 -0.01602708 0.039900333
-0.037935987 -0.024859946 -0.04721372 -0.058110084 -0.011708137 -0.013476277 0.030997489 -0.04358977
-0.009349776 0.016455036 0.037831686 -0.002051737 -0.026773406 -0.046962958 0.020089304 -0.040601123
-0.010319045 0.0024245318 0.033851277 -0.020118892 0.012700887 0.0810632 -0.033273 0.041872162
-0.011687967 0.03774292 0.05154844 0.044319503 0.020332096 -0.0022641218 0.014491093 0.0711324
0.01762346 0.0010941495 0.020377856 -0.023485314 0.06934518 -0.011573006 -0.05898732 -0.008225271
0.0038469313 -0.040484153 0.0035053806 0.041203566 -0.008448863 -0.008117675 0.052075353 0.03146452
0.016141761 0.09006128 -0.017985309 0.060734753 0.065123886 0.017437538 -0.04881237 0.04255634
0.07010405 -0.022498947 0.08146676 -0.009562894 0.044257898 0.023029787 -0.017888164 0.05081667
-0.0762698 -0.03679635 -0.07058574 -0.040167082 -0.06301274 -0.051923007 -0.05654141 0.044538934
0.07505376 0.012812142 0.07843066 0.040876947 0.08511626 -0.0134619605 0.04188946 0.03888682
-0.0071683456 -0.06764471 0.025350818 -0.027817339 0.00977997 0.032320477 -0.008887891 -0.04612375
-0.026509728 0.04072911 -0.03315373 0.037322033 -0.0027659223 0.008378016 0.07834758 -0.0077267676
0.025211327 -0.02008198 0.023701988 -0.00033757387 0.05058526 0.02050942 0.0023154307 0.07351728
0.022417841 0.07427153 0.065335765 -0.025851432 -0.008323335 0.0074734073 -0.04158656 -0.01642076
-0.087479204 -0.024350792 -0.025967857 0.016868299 0.07268168 0.09120519 -0.023543134 0.0754035
00000000: 7b6c 0cbd 476b 853c a7a9 373c 2a61 a63d
00000010: ac3f f53c 0004 3f3d 82bd 56bb 8930 9bbc
00000020: c4a3 ae3d 5336 153d 76c0 4f3d 95f9 533d
00000030: de6c 71bc 7440 b6bc f763 6dbc c078 753c
00000040: 45f4 90bc 7e6a 29bc cbc4 52bd 39d1 363d
00000050: 0484 c0bc ac5a 07bc 19e3 6fbd 2089 593b
00000060: ca00 6dbc 2df6 413c c1b5 803d 38e5 3a3d
00000070: 3837 62bd dbde 14bc 4cfa febc 32f1 a0bb
00000080: 97e4 073d b74d febc 8bc2 a93c 3fa0 babc
00000090: 8b7f b7bc 4490 ff3c cbe3 c9bc 8f62 203d
000000a0: 9c44 213c ddab 813c d07d 6a3b 1e3f bd3c
000000b0: 996d cbbc 9640 c5bc d79b 253d c958 a33b
000000c0: 3296 27bc 4b25 623d 346d 1e3d 7d0b 97bc
000000d0: d41f 813b b59f a4ba 62dd 203d 26a6 463d
000000e0: 23b4 e93c ba2d 3a3d 490c 8c3d 0141 873d
000000f0: 23ae 2d3d f004 993d dcd7 a7bc 8cdb 23bc
00000100: 1ccd 9639 c4de 36bc b011 56bd 7fd3 31bd
00000110: f7af 59bd 9475 e9bc 9628 133d 5cce bebc
00000120: 11f7 e53c 2601 933d 2eb7 473d 940a 05bd
00000130: 0389 933d ea56 15bc ca50 4c3d 4284 113d
00000140: 734b b8bc 64f3 6ebd 3924 973d c4e4 0dbd
00000150: b93f 633d 35b7 a93c 34df 1bbb 2bfd 0b3d
00000160: e62c 8abc e707 913d 5271 02bc b7b9 bbbb
00000170: 3aab 6cbd c7d2 8f3d cecf 9c3c 24e7 59bc
00000180: 1cee 62bc 4d36 d73c a923 2d3d 3a38 4abc
00000190: 1baa 253d 74fe 813d a3dd 5a3d 771d 753d
000001a0: 3aa1 21bc 1485 01bd 9611 3a3d 1222 633d
000001b0: 7f0f eb3c 9aa4 963d 862a b23d 6c5c 683d
000001c0: 3873 3e3c 58ab 413d acc9 2cbc ea90 cbba
000001d0: 2fa2 d63c 4794 e73c 0fde c7bc 8bf3 b63b
000001e0: 1a15 2bbd 77ba bfbb b3b6 0abc 1738 b1bc
000001f0: 79e1 773d ab03 6ebc 4a69 be39 2f21 053d
00000200: 017a cbbc 4767 063d 6854 0cbc 4d65 593d
00000210: bdb0 97bd a03a 12bd 394b 83bc 886e 233d
00000220: c462 1bbd 16a7 cbbc 2c63 41bd d704 6ebd
00000230: 7cd3 3fbc 9acb 5cbc 72ee fd3c 308b 32bd
00000240: ce2f 19bc b6cc 863c 66f5 1a3d 6f76 06bb
00000250: e753 dbbc 3b5c 40bd 5392 a43c 5d4d 26bd
00000260: 3611 29bc e5e4 1e3b a3a7 0a3d 60d0 a4bc
00000270: 6217 503c 7704 a63d 4549 08bd 2582 2b3d
00000280: e37e 3fbc 5298 1a3d 7524 533d 5e88 353d
00000290: 7f8f a63c a961 14bb 0d6c 6d3c ddad 913d
000002a0: 135f 903c 9169 8f3a 76ef a63c 4664 c0bc
000002b0: d904 8e3d b59c 3dbc b09c 71bd 49c3 06bc
000002c0: cc1c 7c3b b6d2 25bd 87ba 653b 12c5 283d
000002d0: 1a6d 0abc ffff 04bc f74c 553d f1e0 003d
000002e0: ba3b 843c 0c72 b83d ed55 93bc 01c5 783d
000002f0: ac5f 853d 2bd9 8e3c 7bef 47bd 8f4f 2e3d
00000300: b692 8f3d b64f b8bc 0bd8 a63d afad 1cbc
00000310: c547 353d f7a8 bc3c 338a 92bc 2425 503d
00000320: 5733 9cbd c5b7 16bd 428f 90bd 3d86 24bd
00000330: d30c 81bd 38ad 54bd f797 67bd 756e 363d
00000340: c9b5 993d 05ea 513c 41a0 a03d 966e 273d
00000350: 6f51 ae3d 8e8f 5cbc 4894 2b3d c947 1f3d
00000360: 71e4 eabb 4f89 8abd 85ac cf3c 30e1 e3bc
00000370: 2b3c 203c 7a62 043d 849e 11bc 42ec 3cbd
00000380: ee2a d9bc 91d3 263d 35cc 07bd fdde 183d
00000390: 7a44 35bb f243 093c b274 a03d d330 fdbb
000003a0: fc87 ce3c f782 a4bc ac2a c23c 66fc b0b9
000003b0: 7d32 4f3d 5f03 a83c 7bbe 173b 3a90 963d
000003c0: 9fa5 b73c ac1b 983d c2ce 853d 62c6 d3bc
000003d0: 995e 08bc 7ce3 f43b ab56 2abd d484 86bc
000003e0: 4c28 b3bd 507b c7bc 8bba d4bc 632f 8a3c
000003f0: 22da 943d c9c9 ba3d 88dd c0bc 266d 9a3d

decoder.0.bias f4 [32]
0.043541066 -0.015292048 0.035942312 0.057552498 -0.047717452 0.032768473 0.04337008 -0.05990372
0.080418855 0.074082516 0.08041314 0.0795016 0.045475416 0.07781465 -0.09218343 -0.013319309
-0.06117625 0.07200356 0.06905734 0.0039185826 0.08325247 0.013679101 -0.048555624 0.089338005
0.03786563 0.0805241 0.076023936 -0.08340717 0.08116907 0.072878465 0.052831918 -0.024632994
00000000: 1e58 323d 808b 7abc 3f38 133d 2bbc 6b3d
00000010: 6073 43bd 3c38 063d d3a4 313d 9a5d 75bd
00000020: a4b2 a43d 93b8 973d a5af a43d bcd1 a23d
00000030: 6e44 3a3d 4a5d 9f3d abca bcbd 3b39 5abc
00000040: f393 7abd 9a76 933d ef6d 8d3d 7467 803b
00000050: 4580 aa3d 4f1e 603c 43e2 46bd d8f6 b63d
00000060: fe18 1b3d d2e9 a43d 70b2 9b3d 61d1 aabd
00000070: f83b a63d 4e41 953d 4866 583d 22cb c9bc

decoder.2.weight f4 [32, 16, 3, 3]
0.004830734 -0.020258091 0.053585034 -0.04333816 0.0036249007 -0.00801801 -0.025902221 0.04606034
-0.047242943 -0.03480508 -0.030102853 0.021645874 0.011123329 -0.06178741 0.0500753 0.06744006
0.028819969 -0.036227316 -0.008232237 0.02844564 0.058354825 0.104633406 0.029210519 -0.023219438
-0.027444903 -0.029465469 0.075524166 -0.026290398 -0.05755982 -0.043906957 0.022944937 0.019356301
0.088869005 -0.02169179 0.025938295 0.040359996 -0.003665641 -0.04332215 0.046992283 0.016044362
-0.032882098 0.03304842 -0.060655314 -0.04870117 0.03353753 0.09436472 -0.041989636 0.10580527
0.12416087 0.025112685 0.07452337 0.087598905 0.10520214 0.06633328 -0.06419619 -0.001609152
-0.06722887 0.029964147 0.01801831 -0.016898075 -0.011522778 0.024805315 0.009151237 -0.07026382
-0.09459013 -0.03839865 -0.04791534 0.024513735 0.02024646 -0.000969867 0.0063660084 -0.12117991
0.029040407 0.03772801 0.078908786 -0.029318772 0.11440591 -0.017656753 -0.04110017 0.080681056
0.09951428 -0.009029884 -0.05816549 8.3464285e-05 0.043952793 0.019009233 0.005318751 -0.026823224
-0.087622546 0.052039433 -0.008104663 -0.050991576 -0.025074823 0.106327325 0.06925426 0.033896312
-0.002814448 0.0061130673 0.0501977 -0.09055969 0.020092718 -0.033250257 0.0022658021 0.05340756
-0.04851826 -0.040662047 0.04061173 -0.09011406 -0.108939804 -0.1332536 0.022645362 -0.03514646
0.016637167 0.055809043 -0.08410823 0.00214264 -0.12086311 -0.016399143 -0.0042829425 0.08589579
0.057104357 0.09795007 -0.039662015 0.055442836 -0.0062422403 0.012550501 -0.06122906 0.037975438
-0.024666812 -0.10447563 0.09766933 -0.06480606 -0.02876884 0.03461952 0.04412992 0.018221507
-0.0022924836 0.0580637 -0.009009137 0.005373435 0.074458145 0.04081917 -0.07741149 -0.10825265
0.06731341 0.084421374 0.040345572 0.048064828 -0.0680187 0.07094534 -0.008043105 0.04427255
-0.04803319 -0.06735708 -0.029761938 0.020748781 -0.075775735 0.07683393 -0.038386438 0.013658359
0.025644826 0.066398606 0.047792137 -0.04652246 -0.0282126 -0.03196934 0.09541398 -0.02521036
0.07664128 -0.021415489 -0.07283074 -0.053152736 -0.010486866 -0.0055721635 0.068591185 0.09120399
0.025045812 0.026998665 -0.041508928 0.13077477 0.0023287071 -0.00969916 0.04134122 -0.07290319
0.074121624 -0.03953124 -0.01747335 0.045256082 -0.06853219 0.07887181 0.09334032 -0.02407852
-0.018320736 0.10827037 0.08695598 0.043369472 0.029668963 0.09072627 0.0005684718 0.07397421
-0.019997967 -0.03268351 -0.05444229 0.038521156 -0.011461963 0.059708487 -0.05513909 -0.06368499
-0.038649596 -0.10081956 0.07107266 -0.071204215 0.05729369 0.050910994 -0.051781848 -0.079196736
-0.01018283 0.03637098 0.091141365 0.10275671 -0.045582674 0.08759627 -0.0028185272 -0.045237217
-0.018809576 0.049172793 0.013442347 0.015887367 -0.1040561 -0.031268 -0.028020475 0.013990528
0.054318767 -0.0065620323 0.010538071 0.043056667 -0.013280829 0.012557825 -0.06856891 0.031389676
-0.09006057 0.02586185 0.0190154 -0.04622975 -0.093292385 -0.008987058 0.05757239 -0.014433161
-0.03549844 0.0948238 0.03193551 -0.0027739054 -0.03864104 -0.0511059 0.011633551 0.056285992
00000000: 224b 9e3b 4cf4 a5bc fb7b 5b3d 5b83 31bd
00000010: be8f 6d3b f95d 03bc e530 d4bc c4a9 3c3d
00000020: d181 41bd c68f 0ebd 429a f6bc b052 b13c
00000030: a03e 363c cc14 7dbd c21b 4d3d 041e 8a3d
00000040: db17 ec3c 1863 14bd 81e0 06bc d506 e93c
00000050: 7805 6f3d 0a4a d63d e64a ef3c b136 bebc
00000060: 22d4 e0bc 9161 f1bc 6aac 9a3d f65e d7bc
00000070: d9c3 6bbd c8d7 33bd 05f7 bb3c 1b91 9e3c
00000080: f400 b63d fbb2 b1bc 8c7c d43c 8650 253d
00000090: 403b 70bb 9172 31bd fb7a 403d 776f 833c
000000a0: 61af 06bd c85d 073d b571 78bd e17a 47bd
000000b0: a65e 093d 4a42 c13d 53fd 2bbd 6fb0 d83d
000000c0: 0e48 fe3d 1eb9 cd3c b59f 983d 0e67 b33d
000000d0: 3874 d73d bed9 873d 4b79 83bd 2eea d2ba
000000e0: 4aaf 89bd 5f77 f53c 239b 933c d56d 8abc
000000f0: 09ca 3cbc 8434 cb3c 12ef 153c 7ae6 8fbd
00000100: 78b8 c1bd e747 1dbd e042 44bd 07d1 c83c
00000110: e7db a53c ac3e 7eba f399 d03b 2c2d f8bd
00000120: 26e6 ed3c b088 1a3d ee9a a13d ec2d f0bc
00000130: a54d ea3d e5a4 90bc a758 28bd 1c3c a53d
00000140: 25ce cb3d 14f2 13bc f03e 6ebd 8c09 af38
00000150: d807 343d 40b9 9b3c eb48 ae3b 61bc dbbc
00000160: 7373 b3bd 4d27 553d 6cc9 04bc 8bdc 50bd
00000170: b769 cdbc 24c2 d93d 2dd5 8d3d dcd6 0a3d
00000180: 9a72 38bb 2050 c83b 1a9c 4d3d 5c77 b9bd
00000190: 7c99 a43c 6c31 08bd da7d 143b e3c1 5a3d
000001a0: 15bb 46bd 3f8d 26bd 7c58 263d b88d b8bd
000001b0: d51b dfbd a273 08be c482 b93c bcf5 0fbd
000001c0: ab4a 883c 0698 643d f040 acbd 896b 0c3b
000001d0: 1487 f7bd 7f57 86bc ed57 8cbb 22ea af3d
000001e0: 42e6 693d 0c9a c83d a374 22bd 0718 633d
000001f0: b58b ccbb 9ea0 4d3c 53cb 7abd 228c 1b3d
00000200: 0e12 cabc 52f7 d5bd dc06 c83d 0ab9 84bd
00000210: a1ac ebbc 33cd 0d3d 93c1 343d 4545 953c
00000220: 7e3d 16bb 34d4 6d3d 0f9b 13bc a413 b03b
00000230: 837d 983d 0132 273d ea89 9ebd 91b3 ddbd
00000240: 9ddb 893d 1de5 ac3d 6641 253d a0df 443d
00000250: 634d 8bbd ca4b 913d 3ac7 03bc 2257 353d
00000260: 73be 44bd 82f2 89bd 4fcf f3bc 59f9 a93c
00000270: 4f30 9bbd 1c5b 9d3d 193b 1dbd 4fc7 5f3c
00000280: 1915 d23c fefb 873d b0c1 433d 568e 3ebd
00000290: 1c1e e7bc 48f2 02bd 6868 c33d f585 cebc
000002a0: 1af6 9c3d 896f afbc 4828 95bd afb6 59bd
000002b0: 1bd1 2bbc b296 b6bb 8979 8c3d 28c9 ba3d
000002c0: e02c cd3c 4e2c dd3c 4405 2abd d2e9 053e
000002d0: 399d 183b 3ae9 1ebc 6955 293d 454e 95bd
000002e0: 14cd 973d 82eb 21bd 4524 8fbc 715e 393d
000002f0: 9b5a 8cbd 8b87 a13d 3629 bf3d 5140 c5bc
00000300: 5e15 96bc dbbc dd3d fa15 b23d 30a4 313d
00000310: 530c f33c b2ce b93d 7f05 153a ca7f 973d
00000320: c7d2 a3bc 25df 05bd e1fe 5ebd 5cc8 1d3d
00000330: f5ca 3bbc e390 743d 87d9 61bd 476d 82bd
00000340: 0a4f 1ebd 7c7a cebd 8b8e 913d 84d3 91bd
00000350: caac 6a3d 0c88 503d 3419 54bd e631 a2bd
00000360: e2d5 26bc bdf9 143d 53a8 ba3d 1c72 d23d
00000370: e6b4 3abd ac65 b33d 0ab7 38bb a94a 39bd
00000380: 8a16 9abc 6969 493d 4a3d 5c3c 3926 823c
00000390: 5d1b d5bd e012 00bd 328b e5bc 8738 653c
000003a0: 5b7d 5e3d 5106 d7bb e0a7 2c3c 305c 303d
000003b0: d697 59bc 56bf 4d3c db6d 8cbd 7692 003d
000003c0: ad71 b8bd 3bdc d33c 2fc6 9b3c 685b 3dbd
000003d0: 1410 bfbd 743e 13bc 07d1 6b3d 1179 6cbc
000003e0: d066 11bd fb32 c23d cfce 023d 69ca 35bb
000003f0: 1146 1ebd 6c54 51bd a69a 3e3c 248c 663d

decoder.2.bias f4 [16]
0.094449334 0.046310138 0.065538615 0.027624616 -0.0653983 0.058551062 -0.078831956 -0.028582621
0.114632964 -0.027774448 0.09069166 0.04926374 -0.04218961 -0.035342768 -0.053503238 -0.011429355
00000000: a76e c13d b3af 3d3d 1c39 863d 054d e23c
00000010: 8bef 85bd 3dd3 6f3d a672 a1bd 1a26 eabc
00000020: b0c4 ea3d 3d87 e3bc 8dbc b93d c7c8 493d
00000030: 03cf 2cbd 94c3 10bd 3626 5bbd 3042 3bbc

decoder.4.weight f4 [16, 3, 3, 3]
0.03955219 -0.15076262 -0.02774099 -0.058028292 0.14750914 -0.12148297 -0.043545652 0.13561131
0.069960535 -0.10393409 -0.12383277 0.03586641 0.11228828 0.07283606 -0.18010324 -0.11884376
-0.16079168 0.06230989 -0.14973542 -0.12834384 0.05978573 -0.052024256 -0.06966479 0.03228228
-0.09035342 -0.115335114 0.0881349 0.15254752 0.22131813 0.041465756 0.14136939 0.22683309
0.038393978 0.052959498 -0.10675471 0.10494077 0.06857192 0.18852979 0.042248935 -0.010203743
0.2563323 0.16351683 -0.050348703 0.16819358 0.07192469 -0.0015272674 -0.10210087 0.14284445
0.078325085 0.042319104 0.037013434 0.10045709 0.12619323 -0.019669594 0.011632181 0.06799908
-0.09379251 -0.046715625 0.028555455 -0.01251394 -0.16285071 0.120590635 -0.031845197 -0.09873045
-0.13356434 -0.015364497 -0.061439283 -0.18989304 0.14573969 -0.20156957 -0.2295102 0.0997199
-0.102351084 0.032793224 0.11112075 0.05054079 -0.16360188 0.018551063 -0.119086355 -0.102421045
-0.12254183 0.036268197 0.14442632 -0.11970556 -0.09243531 -0.027007181 -0.027117286 -0.09089224
0.12037613 -0.0973586 -0.10593732 -0.225126 -0.0068503623 -0.10461508 0.018529104 -0.19167687
-0.05585977 -0.15892802 0.08988911 -0.068337895 -0.12158543 -0.08355266 -0.21845934 -0.094745904
-0.18514502 -0.04885361 -0.23681086 -0.11326849 0.19970079 0.1368024 -0.043150812 0.10238679
0.19884025 0.033167157 -0.1074196 -0.095661014 0.14406583 0.029676922 0.054282684 0.23003468
-0.05633814 -0.09630443 0.2023134 0.23387733 -0.07498091 -0.10270501 -0.103324786 0.1636329
-0.10689322 0.04546365 -0.12513998 -0.009704705 0.0044888565 0.08301507 0.09527557 0.10933611
-0.18496366 -0.01832821 -0.19654974 -0.13516465 -0.12545879 -0.14508642 -0.19338785 -0.12515058
0.07087954 -0.062026422 -0.029074779 0.0120785795 0.11565543 -0.06843876 0.14054014 0.043365017
-0.18441088 -0.11286332 0.022952642 0.13254856 -0.18082735 0.03788329 -0.21173747 0.082685895
-0.057407793 -0.06508574 0.07276748 -0.059248663 0.053209554 0.0945068 0.028523427 0.20776585
0.09428712 -0.12890708 -0.039803248 0.11280019 -0.054211535 -0.045480195 0.0069800112 0.09179097
0.036686108 -0.041829374 0.14350177 0.20679013 -0.15323134 0.15143949 0.04127836 0.055163883
0.24981706 0.11135014 0.02725949 -0.08877629 0.14500347 -0.0773795 0.034271628 -0.11398886
-0.021813752 0.24305989 0.18488389 0.14750373 0.008743051 0.21427274 0.12733144 -0.026693147
-0.024574457 0.046217192 -0.06400215 -0.0719383 0.10059039 0.2270564 0.07773171 -0.12197444
0.03346462 -0.019175814 -0.116941154 0.18013589 0.065855406 0.09604704 0.16117045 0.11295239
-0.052509993 -0.10923856 0.14248347 0.022176871 -0.13187489 -0.17346543 0.013247637 -0.014469459
0.09163489 -0.1663735 0.09126628 -0.16633028 -0.10049796 -0.19336988 -0.11402882 -0.0768294
0.12348903 -0.19608387 0.10457653 -0.077923626 0.0132112345 0.06381106 -0.2067266 -0.07222111
-0.045322657 0.05630657 0.11751613 -0.17529796 0.06409902 0.018616559 0.03555068 -0.16882393
0.035566546 0.121911526 0.085194774 0.02601415 0.1601011 -0.09731335 0.021764554 -0.09821677
00000000: 7a01 223d 8461 1abe 1341 e3bc 13af 6dbd
00000010: a30c 173e 10cc f8bd ed5c 32bd b1dd 0a3e
00000020: 7847 8f3d 65db d4bd 099c fdbd a8e8 123d
00000030: 66f7 e53d 122b 953d fc6c 38be 5b64 f3bd
00000040: 93a6 24be a838 7f3d 3e54 19be 916c 03be
00000050: e2e1 743d 6317 55bd 6aac 8ebd 6d3a 043d
00000060: 370b b9bd d134 ecbd 1280 b43d 6b35 1c3e
00000070: 38a1 623e ffd7 293d 23c3 103e ef46 683e
00000080: 0143 1d3d 0fec 583d 37a2 dabd 30eb d63d
00000090: 6f6f 8c3d f40d 413e 380d 2d3d 9a2d 27bc
000000a0: fd3d 833e f570 273e 713a 4ebd f03a 2c3e
000000b0: 404d 933d 972e c8ba 431a d1bd d145 123e
000000c0: e768 a03d cc56 2d3d 669b 173d 72bc cd3d
000000d0: cc38 013e 2122 a1bc e794 3e3c 1a43 8b3d
000000e0: 4a16 c0bd e258 3fbd 21ed e93c 4507 4dbc
000000f0: 56c2 26be 39f8 f63d 1c70 02bd 3133 cabd
00000100: 17c5 08be 5fbb 7bbc c2a7 7bbd 5273 42be
00000110: c93c 153e 4168 4ebe b904 6bbe f239 cc3d
00000120: 729d d1bd 3052 063d 4793 e33d dc03 4f3d
00000130: 4087 27be 66f8 973c 8ce3 f3bd 20c2 d1bd
00000140: 36f7 fabd f68d 143d 7ee4 133e 3028 f5bd
00000150: b94e bdbd 2a3e ddbc 1225 debc b625 babd
00000160: c387 f63d f263 c7bd aaf5 d8bd 6e87 66be
00000170: 0179 e0bb 6e40 d6bd 59ca 973c f146 44be
00000180: 37cd 64bd 07be 22be c817 b83d bdf4 8bbd
00000190: c801 f9bd a81d abbd ceb3 5fbe 240a c2bd
000001a0: a896 3dbe b91a 48bd 8c7e 72be 4ff9 e7bd
000001b0: 5d7e 4c3e ee15 0c3e e8be 30bd 2ab0 d13d
000001c0: c79c 4b3e 49da 073d cffe dbbd ece9 c3bd
000001d0: fe85 133e 041d f33c 8557 5e3d 368e 6b3e
000001e0: d2c2 66bd 423b c5bd 3e2b 4f3e 8a7d 6f3e
000001f0: 978f 99bd 0157 d2bd f29b d3bd 628f 273e
00000200: d5ea dabd 1838 3a3d b224 00be 7c00 1fbc
00000210: 4217 933b ce03 aa3d d71f c33d 9ceb df3d
00000220: 1d67 3dbe 0b25 96bc 5644 49be 9a68 0abe
00000230: 4578 00be 8991 14be 7707 46be 7927 00be
00000240: 4b29 913d 6b0f 7ebd 3b2e eebc 3ce5 453c
00000250: c1dc ec3d 9f29 8cbd c1e9 0f3e 849f 313d
00000260: 35d6 3cbe e224 e7bd 2e07 bc3c cfba 073e
00000270: ce2a 39be 822b 1b3d b5d1 58be 3957 a93d
00000280: 6f24 6bbd ac4b 85bd 1e07 953d baae 72bd
00000290: 43f2 593d c88c c13d f6a9 e93c 92c0 543e
000002a0: 9b19 c13d 3800 04be bb08 23bd c903 e73d
000002b0: ea0c 5ebd 7149 3abd 94b8 e43b e7fc bb3d
000002c0: 2c44 163d 4755 2bbd 21f2 123e cbc0 533e
000002d0: ade8 1cbe f412 1b3e 7f13 293d 86f3 613d
000002e0: 0bd0 7f3e 8b0b e43d 4b4f df3c 58d0 b5bd
000002f0: ca7b 143e 2579 9ebd 6860 0c3d fe72 e9bd
00000300: c1b2 b2bc b1e4 783e 3452 3d3e 380b 173e
00000310: 043f 0f3c 506a 5b3e 2c63 023e 96ab dabc
00000320: 5f50 c9bc 3d4e 3d3d 8f13 83bd 6354 93bd
00000330: 5602 ce3d 7981 683e ce31 9f3d bccd f9bd
00000340: 3312 093d 9916 9dbc d87e efbd 8b75 383e
00000350: 33df 863d 4fb4 c43d de09 253e 9553 e73d
00000360: b814 57bd 77b8 dfbd 30e7 113e 45ac b53c
00000370: 360a 07be eca0 31be 9e0c 593c 4f11 6dbc
00000380: 13ab bb3d d15d 2abe d1e9 ba3d 7c52 2abe
00000390: e0d1 cdbd c102 46be f187 e9bd bc58 9dbd
000003a0: d1e7 fc3d 36ca 48be 382c d63d 6c96 9fbd
000003b0: ef73 583c 5faf 823d 23b0 53be a9e8 93bd
000003c0: 40a4 39bd b8a1 663d 4cac f03d 4f81 33be
000003d0: 5946 833d c181 983c 979d 113d 2ee0 2cbe
000003e0: 3aae 113d c0ac f93d 997a ae3d a01b d53c
000003f0: 8bf1 233e 394c c7bd 944b b23c e025 c9bd

decoder.4.bias f4 [3]
-0.15166351 -0.11994366 0.04437271
00000000: ae4d 1bbe 06a5 f5bd 29c0 353d
