fryum_autoencoder.pth (torch, 193106 bytes, 12 tensors)

encoder.0.weight f4 [16, 3, 3, 3]
000000 7e fd bd bd 29 24 18 3e ea cc ac bd ff 68 24 3e
       -0.092768654 0.14857544 -0.08437522 0.16055678
000010 04 2f 33 be 63 66 11 be 80 8c ee 3c f2 00 0e be
       -0.17498404 -0.14199214 0.02911973 -0.13867548
000020 62 f7 96 3d 20 e0 1e bc 44 6e 56 3d 08 0e 28 be
       0.07371403 -0.00969699 0.05235125 -0.16411602
000030 20 9d c8 bc 52 cf e6 3d 6f 47 0d be 20 bf 00 bd
       -0.024488986 0.11270012 -0.13796781 -0.03143227
000040 c7 bb c0 bd 3a 05 be bd 3a a3 d7 3d b0 97 53 bc
       -0.09410816 -0.09278341 0.1052918 -0.012914583
000050 91 90 43 be b4 16 8e bd f9 41 c8 bd 20 65 f2 3c
       -0.19098116 -0.06937924 -0.09778208 0.029589236
000060 90 12 03 bd e1 93 1d be 14 ba 44 bd d0 f4 88 3d
       -0.032000124 -0.15388443 -0.04802902 0.06687319
000070 7d 17 84 bd 2c 1e 52 3e ce 34 fe bd 6f 57 a0 3d
       -0.064497925 0.20519322 -0.124124154 0.07829177
000080 f9 8e 64 3e d7 0c ab bd 68 c8 aa 3b cc a3 8c 3d
       0.22320165 -0.083520584 0.0052118786 0.06867179
000090 ba f7 6d bd 1f 7e e4 bd 4c e0 00 be ee 1d d9 3d
       -0.05809758 -0.11156868 -0.12585562 0.10601412
0000a0 df 5c 13 3e 61 70 98 bd 32 9e 17 bd 61 37 b0 bd
       0.14390896 -0.074433096 -0.0370161 -0.08604313
0000b0 32 b6 4b 3e 61 50 10 3b b5 15 2f bd 5e 10 1f 3e
       0.19893721 0.0022020566 -0.04274531 0.15533587
0000c0 aa 6c 9d bd ec b0 01 3e 45 79 08 3e db 46 0e be
       -0.07686742 0.12665147 0.1332751 -0.13894217
0000d0 7d ab 1c bd 6a dc a2 3d 4c fe a0 3d 04 cb cd 3d
       -0.03824948 0.07952197 0.07861003 0.10048488
0000e0 c1 34 fb 3c 8e 6b b4 3c 2e 28 19 3e f2 c6 02 3d
       0.030664803 0.022023942 0.14956734 0.03192801
0000f0 ee 78 0d be 83 7f b0 bd 32 eb 9b 3d f4 d4 4c 3e
       -0.13815662 -0.08618071 0.07613219 0.2000311
000100 35 02 4b 3d b5 7b 03 3d 8d 11 0c 3d 4f 0a ac bd
       0.04956265 0.032100398 0.034196425 -0.08400404
000110 8c 23 9c bd 38 22 a1 3d 95 6d 76 bd 4f 97 79 bd
       -0.076239675 0.07867855 -0.0601631 -0.060935315
000120 68 a1 91 3d e6 f8 26 3e 19 96 09 3e 37 45 92 3d
       0.07110864 0.16305885 0.13436164 0.07142108
000130 93 5e 23 bd 91 95 55 3e 10 1f f2 ba 0c 38 f5 bd
       -0.039885115 0.20857836 -0.0018472392 -0.11973581
000140 4f 9e 2f 3e 0d b5 21 3e 77 a6 2e be b0 23 0d 3e
       0.17150234 0.15791722 -0.17055689 0.13783145
000150 b7 7f 41 3d cb 5e b6 3c 4a 22 4a 3e ad ad 43 bd
       0.04724094 0.022261998 0.19739643 -0.047773052
000160 d6 43 d5 3d a6 f4 02 bc 3b 54 a0 3d 01 3f a3 3d
       0.10413329 -0.007992899 0.07828566 0.079710014
000170 7e 1f 27 3d 2a f4 ac 3d 2e c3 07 be 2e 63 92 bd
       0.040801518 0.08445008 -0.13258049 -0.07147823
000180 ed 5e d7 3d a4 2d 5b bd 70 fe 70 3e dd 86 ee 3c
       0.105161525 -0.053510323 0.2353456 0.029117042
000190 83 0b 58 3e b7 d3 0c 3d 09 e2 60 bd 87 ff 26 bd
       0.21098141 0.034381595 -0.054903064 -0.040771034
0001a0 be 0f 54 3e 15 6c 07 3d 3b 6b 4e 3c 0c 63 af bd
       0.2070913 0.03306206 0.012598808 -0.085638136
0001b0 2f 63 b6 bd 04 4a 6b 3d 3c cb 79 3d c3 aa 42 3e
       -0.089056365 0.057443634 0.060984835 0.19010453
0001c0 bf 8a 2d 3e e8 37 02 be 0a 69 ae 3d e4 7c 2d bd
       0.16947459 -0.12716639 0.08516128 -0.042355433
0001d0 0c 03 54 bd 92 52 94 3d d6 1d 0b be 40 05 d6 bb
       -0.05176072 0.072423115 -0.135856 -0.0065313876
0001e0 75 6f 16 be 76 15 29 be 62 3b 81 3d 73 03 2c 3e
       -0.14690955 -0.16512093 0.063101545 0.16798191
0001f0 4a 6f 1e be 00 6a 1b be 1e 64 44 be 21 a1 dc bd
       -0.15472141 -0.15177155 -0.19178817 -0.107729204
000200 3e 3f ea bd 78 2c 3c bd 91 10 95 bd 0e db e0 3d
       -0.11437844 -0.045940846 -0.072785504 0.10979281
000210 0d 9c 26 be 83 5d 35 3e 0a f0 13 be 0a 57 2e 3e
       -0.16270466 0.17711453 -0.14447036 0.1702539
000220 d4 72 b5 3d 51 ec 12 3e 25 f6 45 3e 27 ad dd 3c
       0.08859792 0.1434796 0.19332178 0.027060105
000230 d5 12 69 bb db ff 0c 3d bb 76 70 3d 46 d7 7d bc
       -0.0035564203 0.03442369 0.05870698 -0.01549322
000240 f0 dc 2f be 59 a3 19 3e bc bb 0b 3e 75 3e ba 3c
       -0.17174125 0.15003718 0.13645834 0.02273486
000250 5b e3 21 3e f9 56 55 be f1 23 16 bd 7e 07 2e be
       0.15809385 -0.20833959 -0.03665537 -0.16995046
000260 3b 97 9b bd f2 dd 04 be 11 12 19 be 37 6f 0e be
       -0.07597204 -0.1297529 -0.14948298 -0.13909613
000270 7e 97 22 be 07 d5 c1 bd 8a 9c 29 3d f5 c2 2c 3e
       -0.15878102 -0.0946446 0.041409053 0.16871245
000280 ea 2d ac 3d 2c ec 39 3d b5 a5 39 be f3 27 15 3e
       0.08407195 0.045391247 -0.18129618 0.1456602
000290 6a a9 f4 3d 7f 43 04 be bd 4a cb bc cc 9e 76 bc
       0.11946376 -0.12916373 -0.024815911 -0.015052509
0002a0 a0 88 f0 bd cb a8 f0 bb ff f4 f6 3d d2 54 af 3d
       -0.11744809 -0.0073443404 0.12058448 0.085611
0002b0 55 cf 5b 3d b7 1e 77 3b 8b 18 47 3d 42 1b 13 be
       0.053664524 0.0037707516 0.04860739 -0.14365867
0002c0 53 4a a8 bd 2a 54 9f 3d dc 7b e3 3d 45 4f e9 bd
       -0.08217301 0.07779725 0.11107609 -0.113920726
0002d0 fa 28 58 bc 6a 11 9c bd 4a 17 6a 3d 4b 2e 5f 3e
       -0.013193363 -0.07620509 0.057151116 0.21795003
0002e0 32 3c 24 3e f8 6b 98 3d c5 0e 5d 3e de 43 a6 3d
       0.16038588 0.074424684 0.21587665 0.081184134
0002f0 35 ef 23 3e 26 33 23 bc 8d bc 9f 3d 69 31 86 bd
       0.16009219 -0.009960925 0.07799635 -0.06552393
000300 6e f8 ea bd b0 05 e7 3c 34 16 01 be 87 06 21 bd
       -0.114731655 0.028200954 -0.12606126 -0.039312866
000310 7c 51 3c be bc 39 c4 3c ae a2 f8 bb 4c 1e cc bd
       -0.18390459 0.023953311 -0.0075877523 -0.09966716
000320 e2 89 2e 3e 23 3e ae bd 7d 0b 3c 3e 54 ef da bd
       0.17044786 -0.085079454 0.18363757 -0.106901795
000330 f3 4f 82 bd 6e 65 1f 3e 85 3d b7 bd a7 4e 35 3e
       -0.06362905 0.15566036 -0.08947281 0.17705785
000340 a7 a7 86 3c e9 2e 09 be 3f 6c 0f 3c 4b fe 01 3c
       0.016437365 -0.13396801 0.008753835 0.007934163
000350 9f 26 77 bd 75 a2 e8 3d ad 0a 48 3d 21 c8 96 bd
       -0.060339566 0.11359111 0.048838306 -0.0736239
000360 40 70 12 be a3 a5 14 3e 2a 00 3c 3e fc f5 0d be
       -0.14300632 0.1451631 0.18359438 -0.13863367
000370 31 ea f5 3d a3 3b c0 bb 2a df 36 3e a0 3e a1 3d
       0.12007559 -0.0058664843 0.17858568 0.07873273
000380 6e c1 04 3e 1d 2b 95 bc 7e 09 7a 3d 5a 2f 07 be
       0.12964413 -0.018209035 0.06104421 -0.13201657
000390 7e b4 3f bd 6c 02 bb 3d 58 46 b6 3d ba 52 a2 bd
       -0.04680299 0.09131321 0.08900136 -0.07925935
0003a0 8e 93 17 be c9 7d 55 bd 15 07 07 be 1c e7 cf 3d
       -0.14802381 -0.05212191 -0.13186295 0.101515025
0003b0 a2 74 97 3d b0 06 84 bd 9f 10 44 3e e3 fd 33 bd
       0.07395293 -0.06446588 0.19146965 -0.043943297
0003c0 c3 4d 33 3d d1 06 c1 3d 59 35 48 3e 9b b4 60 3d
       0.04377533 0.09425128 0.195516 0.05485974
0003d0 c0 2a 15 ba ab e9 81 3c f5 15 f9 bd 56 e8 45 bb
       -0.0005690269 0.015858492 -0.12162391 -0.0030198297
0003e0 19 75 2f 3e 50 80 38 3e 50 5c cb 3b 41 b3 c0 bd
       0.17134513 0.18017697 0.006206073 -0.0940919
0003f0 a2 d0 35 3d 89 46 18 3d 77 08 23 3e 8b df be bd
       0.04438842 0.037176643 0.15921198 -0.09319981

encoder.0.bias f4 [16]
000000 91 fb bb bd 91 79 2f 3d a4 e9 04 be 15 51 b6 3d
       -0.09178842 0.042840544 -0.12979752 0.08902184
000010 bb b0 aa bd ed fb 09 bd 04 a4 13 bd 9c c0 cf bd
       -0.0833449 -0.03368752 -0.03604509 -0.10144159
000020 7a be 32 bd f2 0f 0a be 39 9a aa 3d b8 20 43 3e
       -0.043638684 -0.13482645 0.08330197 0.1905545
000030 50 20 c5 3d c3 6e a5 bd 3e 9f 0b be 63 3a 0a 3e
       0.09625304 -0.08077767 -0.13634965 0.13498835

encoder.2.weight f4 [32, 16, 3, 3]
000000 40 62 96 bd e0 f7 5d bb 00 de 81 bd 28 1e a2 bd
       -0.073429585 -0.003386967 -0.06341171 -0.07915908
000010 c8 fb 60 bd 54 0a 8b 3c e0 79 4d 3b a1 c8 9f 3d
       -0.054927617 0.016972698 0.003135316 0.07801939
000020 8e 3c 66 bd c2 14 c0 bb 95 c3 73 3d ae d7 2d bd
       -0.056210093 -0.0058618495 0.059512693 -0.042442016
000030 0c 22 72 bd 91 2c 4b 3d 61 86 0f 3d d1 cb 0e 3d
       -0.0591145 0.04960305 0.035040263 0.034862343
000040 c0 92 c4 3a 73 1b dc 3c e2 bc 76 bd b4 cb 89 3d
       0.0014997348 0.026868558 -0.060238726 0.067283064
000050 8f 80 11 bd ca 36 72 3d 9e d2 68 3d ce 40 c5 bd
       -0.035522994 0.059134282 0.056841485 -0.09631501
000060 3e 30 a7 ba f1 02 7f 3d 55 b5 a5 bd 5d c2 a1 3d
       -0.0012755466 0.062258665 -0.08091227 0.078984
000070 89 a1 80 3d f6 0f 88 3d b6 96 76 bd d9 e7 a0 bd
       0.062808104 0.06643669 -0.060202323 -0.078567214
000080 32 5f c4 bc ee 00 6d 39 5a 04 15 bd 15 34 62 3d
       -0.023971174 0.00022602428 -0.036381103 0.05522545
000090 00 a8 e9 bc f0 83 c4 bb 90 37 ee 3c 1b a5 0e bd
       -0.028522491 -0.0059971735 0.029079229 -0.034825426
0000a0 c7 11 8b bd f0 0a 77 bd 7c bd be bc 1c e6 c1 3c
       -0.067905 -0.060313165 -0.023283713 0.023669295
0000b0 60 e8 55 bd 7e 8a 5f bd b0 1e e6 3c 4a ce b4 3b
       -0.052223563 -0.054575436 0.028090805 0.0055177556
0000c0 86 18 69 3d 88 7c c9 bd 31 0e ca bc 41 ab 1c bd
       0.056908153 -0.098382056 -0.02466497 -0.038249258
0000d0 9d 2c a1 3c 28 35 c4 3c c2 d6 80 3d 03 90 88 3d
       0.019674594 0.023951128 0.06290962 0.06668093
0000e0 6a eb 19 3b 41 4d 18 bd ce 60 5a 3d df e9 29 bc
       0.0023486265 -0.03718305 0.053314976 -0.010370701
0000f0 8f ee 09 bd 14 9d 1a 3d 25 47 8a 3d 13 3c 9b 3c
       -0.033674773 0.037747458 0.06751851 0.018949544
000100 d2 ff af 3c 03 38 8f bd 67 1b 83 bd 96 65 b7 bc
       0.02148429 -0.06993105 -0.06401711 -0.022387307
000110 8d 04 6a 3d 3d 00 b5 3c 3e c3 9f 3d 19 05 8e 3d
       0.057133246 0.02209484 0.07800911 0.06934566
000120 be 4a 80 bd 3f 1f ab 3c 4c 49 4a 3d a9 24 f3 bd
       -0.06264256 0.020888923 0.049386308 -0.11872227
000130 c5 f4 0b 3d d2 fe b3 bd 82 31 a5 bd 94 52 29 bd
       0.034168977 -0.087888375 -0.080660835 -0.04133852
000140 b8 17 e4 3c 47 e0 14 bc a9 79 ba bd a0 70 b4 bd
       0.027843341 -0.009086675 -0.09105236 -0.08810544
000150 67 d1 8a bd 32 e5 ed bc 1a b2 97 bd 49 7c c0 3c
       -0.067782216 -0.029039953 -0.07407017 0.023496764
000160 68 f9 89 bd 59 4a 93 bd 9c 6e 76 bd 4b 43 86 3b
       -0.067370236 -0.07191915 -0.06016408 0.0040973774
000170 ef 70 8c bd 0a 95 d3 3b 5a 38 cd bc 0e 16 e1 3b
       -0.06857478 0.006456976 -0.025051285 0.006869084
000180 fb 07 52 bd 8b ba 40 bd 4b de 95 bc 38 7b 3b bd
       -0.051277142 -0.0470529 -0.018294474 -0.045771807
000190 00 98 93 3d 18 58 bb 3c 37 04 8e bd bf 7b e4 3c
       0.07206726 0.022869155 -0.06934398 0.027891038
0001a0 d5 97 21 3d e5 71 9a 3c 20 25 1b bc 53 0d cd 3d
       0.03945144 0.018853137 -0.0094693005 0.10012307
0001b0 f7 e8 b7 3b 5e cb 08 3c 99 f9 83 3d c7 85 54 bd
       0.0056124884 0.008349268 0.06444091 -0.051885393
0001c0 c7 7b ab bd f2 49 db ba df 07 05 bd 67 d8 52 3d
       -0.08373218 -0.0016730411 -0.03247821 0.05147591
0001d0 5c dc 33 bd dc f1 24 bc 77 37 27 bd d3 29 23 3d
       -0.043911323 -0.010067429 -0.04082438 0.03983481
0001e0 d8 61 04 3d 37 af 5b 3d b9 86 1e bd 55 27 0c 3a
       0.032319874 0.053633895 -0.0387027 0.0005346437
0001f0 1f 51 4f bd 61 ae ec 3c 6e c4 dd 3c 61 e1 08 3d
       -0.050614472 0.028891744 0.027071204 0.033418063
000200 dd 53 47 bd 66 a2 c2 bd 0f 37 a0 bb d1 e7 6f 3d
       -0.048663963 -0.09503631 -0.004889376 0.058570687
000210 1d f8 1a bc 17 84 28 3d a9 94 78 3d db 2a b0 bc
       -0.009458569 0.041141596 0.06068865 -0.02150481
000220 fc be e1 3a 83 b7 b3 3d db 06 49 3d b0 29 5b 3d
       0.0017223055 0.087752365 0.049078804 0.053506553
000230 9b bd fc 3b 48 69 28 3d 79 37 84 3c a8 9c 89 bc
       0.0077130324 0.04111603 0.016139733 -0.016798332
000240 74 2a 9d bc bb 7e 3d bd 8c cc 87 3c 03 1d 98 3d
       -0.019185282 -0.046263438 0.016577028 0.074274085
000250 2c 26 d2 bc 60 56 59 3b be 29 84 bd 72 76 0d 3d
       -0.025652967 0.0033163056 -0.06453274 0.034536786
000260 68 f0 66 bd 20 e2 6d bb ee 6e a0 bd 88 66 7c bc
       -0.056381613 -0.003629811 -0.07833658 -0.015405305
000270 65 2a 8b 3d 58 4a 09 3d d6 74 b7 bc 46 a0 7e bd
       0.067951955 0.033518165 -0.022394579 -0.062164567
000280 86 53 4f 3d c6 87 32 bd 20 54 38 bb bc 6e 82 bd
       0.050616764 -0.043586515 -0.0028126314 -0.06368777
000290 fb ba 48 bd 00 85 ef ba 40 e4 f4 bb 58 5e 55 bd
       -0.049006443 -0.001827389 -0.0074734986 -0.052091926
0002a0 28 4c 66 bc b4 99 ce 3c 06 25 b1 bc 46 54 63 3d
       -0.014056243 0.025219776 -0.0216241 0.05550029
0002b0 68 01 27 3d 48 91 9a bd 00 8b a9 39 a6 bc 78 3d
       0.040772825 -0.075472414 0.00032337755 0.060726784
0002c0 be 73 1e 3d 6e ae 95 bd fe 82 39 3d 00 84 cf b8
       0.0386846 -0.073086604 0.04529094 -9.895116e-05
0002d0 f5 eb 9c 3d f4 db c0 3c 90 16 ef 3b d6 cf 70 bd
       0.07662193 0.023542382 0.007296391 -0.058791958
0002e0 b5 65 91 3d 49 ce a4 3d 16 e9 11 bd 3e 6c 15 bd
       0.07099477 0.08047158 -0.03562268 -0.03648018
0002f0 cc 82 cb 3c cb 71 71 bd ca 4b 61 3d 20 ba b6 3c
       0.024842642 -0.058946412 0.05500392 0.022305548
000300 08 2c 72 bd 22 47 13 3d ac 9d 84 3c 9c 3a 82 bd
       -0.059124023 0.03595651 0.016188465 -0.06358835
000310 26 0a 71 3d 2f b5 9d 3d 16 4e 12 3d 82 6d 42 3d
       0.05884757 0.07700574 0.035719 0.047467716
000320 bf e5 a3 bd 68 a9 6d 3c a2 7a 1b 3d 40 76 93 bc
       -0.08002805 0.014505722 0.03795875 -0.018000722
000330 1a 5d 5e 3d 30 89 87 bc 0c 09 99 bd bd a0 87 3d
       0.054288007 -0.016544908 -0.07472429 0.06622455
000340 7a 4a 4b 3d 7d ed 80 3d b0 95 01 3d 00 10 3e bc
       0.049631573 0.06295297 0.031636894 -0.011600494
000350 d0 e1 e5 3c 28 58 4d bd 80 05 1f ba 03 6f 5a bd
       0.028061777 -0.0501329 -0.0006066188 -0.053328525
000360 84 11 f6 3c 5b 10 8f bd 80 8f d9 3b fc 7a 8f 3c
       0.030037649 -0.069855414 0.006639421 0.017514698
000370 d2 27 33 3d ab 3f 9d bd 96 ff 6e bd 2e f2 5a 3d
       0.043739147 -0.07678159 -0.058349214 0.053453617
000380 0e df 4f bd 00 96 0a 3c 3b bb 29 bd b0 56 c1 bb
       -0.05074983 0.008458614 -0.041438323 -0.0059002265
000390 93 3e 90 bd 50 78 13 3d b8 41 66 3c c2 54 4e 3d
       -0.07043185 0.03600341 0.0140537545 0.0503738
0003a0 48 64 23 3c d1 64 92 3d a7 43 8a bd 78 09 9f bd
       0.009972639 0.071481355 -0.06751185 -0.07765478
0003b0 93 6c a1 3d a0 09 25 3b 68 26 49 bd 43 10 8a bd
       0.07882037 0.002518274 -0.049108893 -0.06741383
0003c0 24 8c d4 3c 20 e9 43 bd eb 39 23 bd fe 19 0a 3d
       0.02594573 -0.047829747 -0.039850157 0.033716194
0003d0 23 7c 80 bd e0 eb a0 bd 94 9a dc 3c 70 be a9 bd
       -0.06273677 -0.078574896 0.026929177 -0.08288276
0003e0 e0 be 87 bc c0 d3 27 3c cc 31 c4 3c 8a 76 a9 bd
       -0.016570508 0.010243356 0.023949526 -0.08274563
0003f0 c0 b2 45 bc a0 eb 26 3b 80 6d fc bb 7b 5a 36 bd
       -0.012066543 0.0025470033 -0.007703483 -0.044519883

encoder.2.bias f4 [32]
000000 52 d9 e2 3d 08 bc 14 bc d7 c2 ab 3d 69 88 52 3d
       0.11076607 -0.009078033 0.08386772 0.051399622
000010 eb 39 7d bd 83 80 50 3d e9 69 62 3b 88 b0 7f 3d
       -0.061822813 0.05090381 0.003454799 0.062424213
000020 a4 0d 9f 3d a9 84 af 3d c4 f7 e9 3d 2b eb 8f bc
       0.077662736 0.08570225 0.11424211 -0.017568192
000030 8b a6 bc bd 87 6f d8 bd aa b7 9b bc d0 81 a8 3d
       -0.09211453 -0.10568147 -0.019008476 0.08227885
000040 e8 60 7f bd 0a 42 3b 3c a8 b7 dd 3d da da 52 3d
       -0.062348276 0.011429319 0.10826045 0.051478244
000050 01 41 10 3d ba 20 2e 3d 23 e4 12 bd 4a af 77 3d
       0.035218243 0.04251168 -0.0358621 0.060469903
000060 b1 09 f3 3c 80 c4 35 3d c9 17 b2 3d 71 29 8d bd
       0.029667707 0.04437685 0.08695943 -0.0689267
000070 d1 b7 ba bd 5f 98 96 3d a4 e2 bd 3d 71 53 df 3d
       -0.091170914 0.07353281 0.09271744 0.10904587

encoder.4.weight f4 [64, 32, 3, 3]
000000 dd 05 0c 3d a4 06 54 3d 3b 20 12 3d 25 26 57 3d
       0.03418528 0.051764145 0.03567527 0.05252661
000010 97 69 3d 3d 9e aa 70 3d d2 aa 8c bc 40 e1 07 3d
       0.046243276 0.058756463 -0.017171297 0.0331738
000020 87 c6 52 3d 40 82 57 3b 06 74 4a bd e9 0d fd bc
       0.05145886 0.0032884032 -0.049427055 -0.030890422
000030 21 6f 41 bd e6 b0 f1 3c 1b 9d 09 3d 18 b9 55 bc
       -0.04722512 0.029503297 0.033597093 -0.013044618
000040 9f 24 3a 3d 7b 6c 14 3d 05 fa 96 3c bb 5e ee bc
       0.04544508 0.036236268 0.018429765 -0.029097905
000050 63 1b c9 3d f8 16 9b 3c c1 e5 1d bc 76 6b bf 3a
       0.09819677 0.01893185 -0.009637297 0.0014604169
000060 59 52 a5 3d 7b b2 e1 3c f6 ca e2 3d 5d 6e ab bc
       0.08072347 0.027550926 0.11073868 -0.020926649
000070 84 12 c5 bc 1c 3e 95 3d 22 40 ef bc 88 d2 3d 3d
       -0.02405668 0.07287237 -0.029205386 0.046343356
000080 fe fe 91 3d de d9 ab bc ec df 1b 3c d7 45 1f 3c
       0.07128714 -0.02097791 0.009513836 0.009721241
000090 b0 99 8e bd 64 3c 50 bc 9f 1e 27 bd 42 30 ac bd
       -0.06962907 -0.012709711 -0.040800687 -0.08407642
0000a0 16 86 79 3c 9e c3 12 bd 3b 05 41 bd 33 53 1a bd
       0.0152297225 -0.035831086 -0.04712413 -0.037677
0000b0 c7 89 9b 3c 00 40 81 3c 53 ae a8 3c 26 54 48 3d
       0.018986596 0.015777588 0.020590937 0.048908375
0000c0 77 6e 6c 3d 27 89 9d 3c a5 05 28 bc 86 51 83 3d
       0.057722535 0.019230438 -0.010255252 0.06412034
0000d0 79 b2 f6 3b 5b f2 56 3d a9 4b 8f 3b 94 bf 4b 3d
       0.0075286 0.052477222 0.004373033 0.04974325
0000e0 bb 1d 19 3d 37 c4 40 3d 16 3e 2d bc b3 c2 0a bd
       0.03738187 0.047062125 -0.0105738845 -0.033877086
0000f0 38 6d 55 3d 3a df 1b 3c a4 84 eb bc 64 5b aa bc
       0.052106112 0.009513671 -0.028749771 -0.020795532
000100 57 ee 9b 3d fe 65 b0 bc 22 1f 1a bc 44 57 5e bc
       0.07613819 -0.021533009 -0.009406837 -0.01357061
000110 b1 8e b9 3d 68 bf 89 3d 75 d3 b1 3d 31 19 29 3d
       0.09060419 0.06725961 0.0868291 0.04128379
000120 06 0e ef 3c f9 7b 47 3d 65 c8 43 bc 91 b7 0b 3d
       0.029181492 0.048702214 -0.011949633 0.03411061
000130 35 85 57 3d e6 6d 2c 3d 5c 81 86 3d 54 02 24 3d
       0.05261727 0.042096995 0.06567642 0.040041283
000140 0f af 1e 3d d0 ff cf bb f3 0e ca bb 7e ab a6 3b
       0.038741168 -0.006347634 -0.006166333 0.0050863614
000150 3d e5 ad 3d f1 b8 53 3d 58 9b 41 3d 85 ac 76 3d
       0.08490989 0.051690046 0.047267288 0.06022312
000160 05 82 81 3d 6e 86 e0 3c 69 a5 0c bd 01 82 8c bc
       0.063236274 0.027407851 -0.034337435 -0.017151834
000170 92 6a 4c 3d 99 9d b7 bb 2b 46 45 3d 26 0a d1 39
       0.04990632 -0.005603504 0.04816262 0.00039871148
000180 c9 3b e6 bb 55 60 2c 3d 1a 2c cb bc ae 4c c2 bc
       -0.00702617 0.042084057 -0.024801303 -0.023718204
000190 ce ea 49 bc 61 0a 99 bd 99 56 4a 3d 2f 00 83 bd
       -0.012324048 -0.07472683 0.049398992 -0.063965194
0001a0 bd 48 c0 3c 33 d8 27 3c be d8 6d 3b 48 fc 16 bd
       0.023472184 0.010244417 0.0036292518 -0.036861688
0001b0 43 05 12 bd 11 3a 02 bd 9d 6c 57 3c 8b 48 c7 3c
       -0.03564955 -0.031793658 0.013148454 0.024326583
0001c0 ba 28 b0 bd 84 58 0e bd ae f7 64 bd d2 1b 00 bd
       -0.08601518 -0.034752384 -0.05590027 -0.03127653
0001d0 d1 b1 a3 3c 34 aa 1d 3d ff 0b 1f bd 0e 7d 95 bd
       0.01998225 0.038492396 -0.0388298 -0.07299243
0001e0 16 0a ed 3b 94 d7 91 bd a1 37 89 bd bc 6e 14 bd
       0.0072338684 -0.071211964 -0.067000635 -0.036238417
0001f0 db 17 1d 3c 20 34 d8 3c e9 b9 e5 bb 1a 74 e9 3b
       0.009588207 0.026392043 -0.0070106876 0.007124436
000200 e6 ee ab 3d 5b 02 68 bd 56 f3 d7 3c e3 22 aa 3c
       0.08395176 -0.05664287 0.026361149 0.020768588
000210 60 f2 30 3c ce 08 41 3b 53 57 c1 3d 8c 16 84 3d
       0.010799974 0.002945471 0.09440484 0.06449613
000220 3a df 82 3c 39 2f fb 3c 28 7b 98 3b 71 2e 09 3a
       0.015975583 0.030662166 0.0046533532 0.00052330556
000230 1d ec 3d 3d 4b ad 67 bc d5 ba aa 3d dc 7a a5 3d
       0.046367753 -0.014140437 0.08336417 0.08080074
000240 ea 4b d1 3c 28 36 0e bd 0c d6 4f bc 37 03 5d 3d
       0.025548894 -0.034719616 -0.01268531 0.053958144
000250 05 60 6e 3d 7e 7a 17 bd 7c 3c 0e 3c 30 c9 3c 3b
       0.05819704 -0.036982052 0.008681413 0.002880644
000260 3a 87 58 bd 4f 1b 67 bd 86 5a d1 3c 8b d8 9c 3d
       -0.052863337 -0.056422528 0.02555586 0.0765849
000270 09 6d b7 3c ca 4f b0 3c bd 83 94 3c f8 e3 89 bc
       0.02239086 0.021522421 0.018129224 -0.016832337
000280 b6 fb 38 3d 34 d4 b3 bc a7 b0 2b 3d 55 da 8a 3d
       0.045161925 -0.021951772 0.041916516 0.06779925
000290 c5 47 25 3d ea ad f9 3c 14 5e 3f 3d 98 24 be 3d
       0.040351648 0.030478436 0.04672058 0.092843235
0002a0 c4 23 ba bc 2c e8 84 3d 86 3c c0 3c f2 da 90 3c
       -0.022722133 0.06489596 0.02346636 0.017682526
0002b0 16 e6 ac 3d 3c 93 cc 3c 63 dd b5 3d 9d 07 b7 3d
       0.08442323 0.02497255 0.08880117 0.08936999
0002c0 15 b2 ef bb 08 5a 36 3c 01 b5 47 3d 08 70 4f 3d
       -0.00731493 0.011129864 0.048756603 0.05064395
0002d0 7a a5 b9 3d 5c fb d3 3b 32 9b 20 bd 41 c4 9d 3d
       0.09064765 0.0064691734 -0.039210506 0.07703448
0002e0 18 9c 19 bd af f7 5b bd 16 a4 a9 3d 4f 09 73 3c
       -0.03750238 -0.053703006 0.0828325 0.014833762
0002f0 e0 3a a8 3d c3 cb a1 3c 29 81 6b 3d 62 e4 ab 3c
       0.082143545 0.019750481 0.057496224 0.020982925
000300 49 1d 09 bd d2 7f 0e 3d 61 05 ae 3d 6d 0c a5 bc
       -0.033475194 0.034789868 0.0849712 -0.020147527
000310 57 af 8c 3d da e7 d5 3d cd 85 cb 3c bb 00 8f bd
       0.06869381 0.10444613 0.024844075 -0.06982561
000320 36 5d 52 bd ac 73 db bb a9 d6 ab bd 9a ab ac bc
       -0.051358424 -0.006697139 -0.083905526 -0.02107792
000330 28 f3 67 bd f9 55 28 3d a1 8a ab bb 3c 08 fe bc
       -0.056628376 0.041097615 -0.0052350317 -0.031009786
000340 0d f5 36 3d 04 51 29 bd ad b8 8b 3d ee 0e 30 bd
       0.044667292 -0.04133703 0.068223335 -0.042982988
000350 70 b7 3d bb 2b cf c6 bc 2f 25 97 3c 7d 5a ce 3c
       -0.0028948449 -0.024268707 0.018450348 0.025189633
000360 dd f4 02 bb a6 01 3f 3b 71 ce 1e 3c 60 2b fb bc
       -0.0019982376 0.002914527 0.009692774 -0.030660331
000370 e4 57 20 3d 8a f5 0b bd 24 77 43 3d 6e 34 99 3c
       0.03914632 -0.03416971 0.047721043 0.018701758
000380 3a 33 ac bc a1 9b 1a bd ee 84 42 bc 89 7b 27 bd
       -0.02102052 -0.037746076 -0.011872513 -0.040889297
000390 08 0a 5f 3c a8 ae 23 bd 59 9d 33 3c 4b 11 e7 3b
       0.0136132315 -0.039961487 0.010962808 0.007051622
0003a0 33 21 85 39 4a 6e ec 3b 2b c5 5f 3b c6 76 49 bc
       0.00025392472 0.007215296 0.003414462 -0.012296384
0003b0 56 66 3e 3d 50 b4 60 3d 66 70 bb 3b b7 f4 c4 3c
       0.046484314 0.05485946 0.005720186 0.02404247
0003c0 e0 c6 92 3d 58 ee bd 3b ee 77 98 bc 98 9a d8 3c
       0.07166839 0.005796235 -0.018611874 0.026440904
0003d0 55 d5 a8 3c 28 c7 89 3c 1c d2 11 3d c7 e1 34 bd
       0.020609537 0.016818598 0.035600767 -0.04416063
0003e0 5a 94 c5 bc 57 30 06 bd b5 8f b4 bb b4 12 1f 3c
       -0.024118591 -0.032760944 -0.0055102953 0.009709049
0003f0 50 b6 ed 3c 58 37 c0 bb 6d a7 06 bd ea 19 a3 3c
       0.029017597 -0.0058659725 -0.032874513 0.019909818

encoder.4.bias f4 [64]
000000 a6 8e a7 3d 68 4d bd 3d 43 e7 4a 3c 7d 04 68 bd
       0.08181505 0.0924328 0.012384239 -0.056644905
000010 39 2c ac 3c 69 54 d2 bc b2 53 f1 bc 4d 83 36 3d
       0.02101718 -0.025675016 -0.029458854 0.044558812
000020 8a 73 fe 3c aa 5f 65 bd 97 2c d3 bc 0c d9 94 3c
       0.031060953 -0.055999435 -0.025778098 0.018169902
000030 81 be d3 3c e4 35 8d 3d e0 27 b6 bc c7 bf 92 3d
       0.025847675 0.068950444 -0.02223581 0.07165485
000040 ef 3b 67 bd 70 b4 09 3d 35 07 d8 3c 96 84 4e 3d
       -0.05645364 0.033619344 0.026370624 0.050419413
000050 3c 46 a9 3d 3f d2 9f 3d 50 07 1a 3c 93 19 8e bd
       0.08265349 0.07803773 0.0094011575 -0.06938472
000060 a0 73 91 bc d4 f4 b2 3d ea 84 05 3d fd 57 13 3d
       -0.01775533 0.087381035 0.03259746 0.035972584
000070 6c 00 a8 3d 51 f7 c6 bc 3b a6 10 3d 86 fc a8 3d
       0.082032055 -0.024287852 0.03531478 0.0825129
000080 2c 6e 9c 3d c4 83 44 bd 01 61 83 bd 53 b9 45 3b
       0.07638201 -0.047977224 -0.064149864 0.0030170276
000090 f4 3b a5 bc 00 99 ae 3d a9 c3 86 3d 57 df 2b 3d
       -0.02017019 0.08525276 0.06580288 0.04196104
0000a0 3f 59 85 bd 0a e4 1d bd 38 c8 ad 3d 2a 3c 6b bd
       -0.06511163 -0.038547553 0.08485454 -0.057430424
0000b0 e9 32 ef bb 11 0c 1b 3d 08 7d 90 3d 78 07 80 bd
       -0.00729977 0.037853304 0.07055098 -0.062514246
0000c0 b8 c2 5d 3d 58 be a7 3d 76 aa 38 3d ba ed 8b 3d
       0.054140776 0.08190602 0.04508444 0.06832452
0000d0 b0 a3 5c bd 0d de ac 3d 2e f7 44 3d a0 15 cd 3d
       -0.053867042 0.0844079 0.04808729 0.1001389
0000e0 2a af 45 bd 9e 30 b6 3d f5 82 37 3d 0f 47 b5 3d
       -0.048262753 0.08895992 0.044802625 0.08851444
0000f0 0b a3 69 bd fe 5e e9 bc 64 9b b6 3c 8f 9e e7 bb
       -0.057040256 -0.028487679 0.022290893 -0.007068462

decoder.0.weight f4 [64, 32, 3, 3]
000000 3a 2b f5 bc bd 15 5f 3d ea a1 07 3c 92 94 0a bd
       -0.029927839 0.05446409 0.008278349 -0.033833094
000010 28 ec 74 3c 62 7c d6 bc 81 3d f2 bc 41 a3 a4 bc
       0.014948882 -0.026182357 -0.029570343 -0.020097377
000020 40 b4 e5 bc 98 b3 11 bd 78 c4 6b bd de 75 30 bd
       -0.028040051 -0.035571665 -0.057560414 -0.043081157
000030 69 68 cc 39 cb 84 43 3a dc 48 cc 3b 4d 27 89 bb
       0.00038987704 0.00074584474 0.0062342715 -0.004185593
000040 89 96 d4 3d a8 40 52 3a fa 7e 8c 3c cd 60 74 bd
       0.10380275 0.0008020499 0.01715039 -0.05966263
000050 8e b1 67 bd f7 90 60 bd fe f5 8b 3d 39 6e 89 bd
       -0.056565814 -0.05482575 0.06834029 -0.067104764
000060 54 84 46 bd 86 ba 25 3d 18 cf fc bc 74 92 5a 3c
       -0.04846604 0.040461086 -0.030860469 0.013340581
000070 1c 80 9d 3b 99 38 43 bd 9d 14 4a bd 0d 63 b2 bc
       0.0048065316 -0.047661398 -0.049336065 -0.021775747
000080 f7 9d 02 bc 2b 83 47 3d d7 03 b8 3b ec c0 58 3c
       -0.007972232 0.048709076 0.005615692 0.01322959
000090 49 72 28 bd 23 62 35 bd 24 40 9a 3c 44 1b c4 bc
       -0.041124616 -0.044283044 0.018829413 -0.023938783
0000a0 3c 35 ce bc 9e 9c 92 3c 90 ae ab 3c 84 8e 06 3d
       -0.025171869 0.017896947 0.020957261 0.032850757
0000b0 5e d8 12 bd ba 7d 9e bc ef e3 b2 3d 86 a8 b9 3d
       -0.035850875 -0.01934706 0.08734881 0.090653464
0000c0 0e cb 8e 3c 96 5b f0 ba 73 b9 be 3d 65 9a 86 bc
       0.017430808 -0.0018337842 0.093127154 -0.016431043
0000d0 02 c6 b3 3d 3e 18 0f 3c e9 25 10 3c 6d 4f 20 3c
       0.08778001 0.008733807 0.008798101 0.009784562
0000e0 f2 98 78 3c 1c 8e 53 bc fb 7d e6 3c 47 e2 52 3d
       0.015173184 -0.0129122995 0.028136244 0.051485326
0000f0 d5 22 19 3d df a4 09 3d 0c 06 9b bb dc 47 d5 3c
       0.037386734 0.0336045 -0.0047309455 0.026035242
000100 1e 08 68 3c da b2 1f bb e2 22 11 bc e1 49 a7 3c
       0.014162092 -0.0024368078 -0.008858414 0.02042097
000110 83 ac 89 3c 6e 14 82 bd 0a 1f 2a bc d6 6a 07 bd
       0.016805893 -0.06351553 -0.010383377 -0.03306087
000120 58 4f ea bc cf 62 8a bb 5d b6 65 3d c3 24 90 3d
       -0.028602287 -0.0042232047 0.05608212 0.07038262
000130 70 83 64 3c 7e d6 cb 3d 5c a8 ef 3c c9 53 7d bb
       0.013947353 0.099530205 0.029255085 -0.0038654676
000140 84 86 5f 3c 68 be 86 bd 1a 05 4f 3c eb 53 cc 3c
       0.013642911 -0.06579286 0.012635494 0.024942359
000150 61 13 0e bd 31 52 8a bb cb 76 96 bd e5 64 7b bb
       -0.03468645 -0.0042212238 -0.07346877 -0.0038359698
000160 46 4a 07 3c f7 d3 3d bc da 3d ac 3c d7 ff c8 bc
       0.008257454 -0.011586181 0.021025587 -0.024536056
000170 8c 18 85 3d ee 6c 97 3c 49 c1 04 b9 93 b6 13 3c
       0.064988226 0.018484559 -0.00012660505 0.009015697
000180 b6 ce 21 bc d5 4b 56 3d e7 a4 26 3c c4 1e 96 bb
       -0.009875944 0.052318413 0.010171152 -0.0045813043
000190 ad 00 fa bc 90 71 12 bd c0 80 6b 3d 8f bd 05 3d
       -0.0305179 -0.035752833 0.057495832 0.03265148
0001a0 64 3f 10 3c ec 90 f7 3c e0 01 35 bd 33 00 da bc
       0.008804176 0.030220471 -0.04419124 -0.026611423
0001b0 d2 ac b0 39 63 00 d9 3d 00 ef 8f 3d e2 26 33 3d
       0.00033698097 0.10595777 0.070280075 0.043738253
0001c0 32 bc 0b 3d 30 5e 9d 3c 24 a9 b9 3c e5 c2 0a 3c
       0.034115024 0.019209951 0.02266366 0.008469318
0001d0 dd 2b 0f 3d 87 98 8f 3c f5 ac 16 bd 08 71 47 3d
       0.03495394 0.017528785 -0.03678604 0.04869178
0001e0 1c b6 d9 3c e7 9d c3 bc 60 37 87 3d d0 29 9d 3c
       0.026576094 -0.023879005 0.06602359 0.019184977
0001f0 d8 c4 8b 3c 1f 2d cc ba e3 35 b7 ba e8 08 66 3b
       0.017061636 -0.0015577412 -0.0013977851 0.0035100523
000200 27 0a d6 bc dd f6 23 bd e7 c1 8f 3d cc f8 fc bc
       -0.026127888 -0.04003035 0.07019406 -0.030880354
000210 ae 8e 24 3d 28 8a aa 3d b2 14 9c 3c 27 78 5a bd
       0.040175132 0.083271325 0.019052837 -0.053337242
000220 79 f3 f3 bc bf 40 e1 bc 70 05 58 3d f6 e9 73 3d
       -0.029779183 -0.027496694 0.05273956 0.059549294
000230 25 7a 0f 3d 40 e3 3d 3d 8e 74 82 3d a1 1c 9b 3d
       0.035028595 0.0463593 0.06369887 0.0757382
000240 2e 67 1d bd 5e 59 ed 3b 00 51 52 3d a9 d2 ae bc
       -0.038428478 0.0072433194 0.05134678 -0.021340685
000250 05 b1 4a 3d ac 34 82 bc c5 bd 37 3d b1 a3 6b bc
       0.049485225 -0.015894257 0.044858713 -0.014382289
000260 81 e4 53 3d b7 8f c0 ba 2d 87 8c bc 45 ae cd 3b
       0.05173159 -0.0014691268 -0.0171543 0.006276878
000270 6d 08 ae 3c ae 0e 5e 3c 17 14 86 3d 48 c0 95 3c
       0.021244252 0.013553305 0.065468006 0.018280163
000280 14 d9 46 3b 57 ba eb 3c 98 d4 28 bc 88 b3 c5 bb
       0.003034179 0.028775377 -0.010304593 -0.0060333647
000290 7d d7 cf bc 0c bb d6 bc 93 b8 12 3d 07 04 95 bd
       -0.025371308 -0.026212238 0.035820555 -0.07276159
0002a0 0c ce 32 3b 89 a8 43 3d 3a 8a 2d bd 77 ea 56 bd
       0.0027283458 0.04776815 -0.04236815 -0.052469697
0002b0 45 ba 8f bd 04 a6 76 3c 3c e6 f4 bc 67 58 10 bd
       -0.0701795 0.01505423 -0.02989494 -0.035240557
0002c0 dc e3 85 bd 02 42 81 bd 80 5f 57 bc 84 2c be bc
       -0.06537601 -0.06311418 -0.013145328 -0.023214586
0002d0 59 90 e8 3c 40 a1 9a bd 5b fb e7 3c 18 4c 03 bd
       0.028389143 -0.07550287 0.028318098 -0.03205499
0002e0 d2 df c5 3d 98 bd 0a bc 77 47 9e bc 4c e3 2d bd
       0.09661831 -0.008468054 -0.019321186 -0.042453095
0002f0 f8 f6 1c bc 84 19 21 3c 20 4a 8f 3d 08 70 95 3c
       -0.009580366 0.009832744 0.0699656 0.018241897
000300 18 25 08 bc d1 8c 8c 3d a1 22 48 3c 8f cb 9b 3d
       -0.008309625 0.06862796 0.012215287 0.07607185
000310 0a 33 18 bc de 39 da bb 7d 71 4e bd 0f 9a 85 3d
       -0.009289512 -0.0066597303 -0.0504012 0.06523525
000320 dc e9 a0 3c ab e4 90 3a 65 72 90 3d 57 a4 85 ba
       0.019642763 0.0011054476 0.07053069 -0.0010196072
000330 34 b6 92 bd 32 c1 d6 3c bf 48 e0 bc cb d4 ff 3c
       -0.07163659 0.02621517 -0.027378438 0.031229397
000340 e0 6e c6 3d 8b c2 bf 3d 2b bf 0f bc ea 6c c1 3c
       0.096891165 0.09363278 -0.008773605 0.023611505
000350 63 a9 1a bb 98 da 51 3d 6a d6 8c 3d ac ad 51 bc
       -0.0023599498 0.051233858 0.06876834 -0.012797754
000360 ec dc 7c 3d ac 79 0d bd 2f 52 4a 3d fe 43 9b 3b
       0.061734125 -0.034539863 0.049394783 0.00473833
000370 8c 2d 85 3d db 4b b3 3d d8 27 8a bc 1b a2 6e bd
       0.06502828 0.08754703 -0.016864702 -0.058260065
000380 3e 89 13 3b 62 8b be bc 6f 35 b8 3d 5e 77 80 bb
       0.0022512223 -0.023259822 0.08994567 -0.0039204797
000390 2a 30 3c bc 26 1f 82 3d d2 d6 64 3d bc 3a bc 38
       -0.011486093 0.06353597 0.05586893 8.975479e-05
0003a0 dc 6e 33 3d 13 b0 41 3d 85 5f 4d 3d 9a a8 37 3d
       0.043806896 0.047287058 0.050139923 0.044838525
0003b0 f4 33 60 3d b3 8f b2 bc 12 e7 8e 3d 7d fc af 3d
       0.054737046 -0.021797037 0.06977667 0.0859308
0003c0 22 a5 4d bd 11 ac ea 3c 1f a1 a0 bc 76 5a 36 3d
       -0.05020631 0.0286465 -0.019608079 0.044519864
0003d0 8d 77 b2 3d de 0c 9f 3d e7 5b 03 bd 6d b7 a1 3d
       0.08714209 0.07766126 -0.032070067 0.07896314
0003e0 da 49 f8 ba e6 f1 ba bc f0 a0 c6 bc ba 5c 18 3d
       -0.0018942908 -0.022820424 -0.024246663 0.037197806
0003f0 ec 0c ca 39 f9 28 03 3d d2 62 71 bd 6e ca 4f bd
       0.0003853807 0.032021496 -0.058932133 -0.05073016

decoder.0.bias f4 [32]
000000 73 d0 c6 3c f9 ab 2e 3b 04 04 23 3d 1a 4a 27 3c
       0.024269318 0.0026652797 0.03979875 0.010210538
000010 54 ab c3 bc 32 9e 64 3d 28 61 3d 3d 8c c5 c9 3b
       -0.023885407 0.05581493 0.046235234 0.0061575826
000020 26 d3 b9 3d 3d 6b 55 3c e6 b8 8a 3d 40 21 04 3c
       0.090734765 0.013026056 0.06773548 0.008064568
000030 bc 1e a8 3d 49 4c 12 3c 9a ea 8a 3d 06 93 72 3d
       0.08208987 0.008929321 0.06783028 0.059222244
000040 a7 ac 9d 3d 23 cc 72 3d 68 14 36 bd 99 a4 a7 3c
       0.076989464 0.05927671 -0.044453055 0.020464228
000050 55 05 a9 3c 00 25 bf 3d c5 e9 36 3d 07 51 60 3d
       0.020632425 0.09333229 0.044656534 0.054764774
000060 0f 38 05 3d c1 f8 06 3d 96 48 65 3d 07 c3 92 3d
       0.032524165 0.032952074 0.055977426 0.07166105
000070 50 0e 11 bd 71 01 17 3c e3 fc ac 3d ea d6 80 3d
       -0.03541404 0.009216652 0.08446672 0.062909916

decoder.2.weight f4 [32, 16, 3, 3]
000000 f1 bb 96 bd 39 25 40 3d 85 3e af 3d 9d d9 8b 3d
       -0.07360066 0.0469105 0.085568465 0.06828616
000010 a8 40 85 3d 28 8e b5 3d 12 5f aa bb 53 71 7c 3a
       0.06506473 0.08865005 -0.0051993215 0.0009629924
000020 5b ea 8f 3d a9 75 4c 3d 36 0d 5d 3d 6d 41 14 bc
       0.07027122 0.049916897 0.053967677 -0.009048802
000030 6b 78 2c 3d 36 6f 94 bd a8 4d 45 bd 06 6f 8b 3d
       0.042107027 -0.07247774 -0.048169762 0.068082854
000040 ff c4 96 bd a5 a2 1d 3d 2b df 9e bc 22 12 4a 3d
       -0.07361793 0.038485188 -0.019393524 0.0493337
000050 05 b2 8f 3d b4 7b ca bd 85 de d9 bd 84 ff 68 bd
       0.070163764 -0.09886876 -0.10638145 -0.056884304
000060 53 7c cc bd 9d 1c 80 bd 72 7f 43 3a a2 1f 6c bd
       -0.099846505 -0.062554576 0.00074576505 -0.057647355
000070 87 9c cf bc 62 4e 44 bb cf 1b a5 3d e5 5c ad 3d
       -0.025343193 -0.0029953946 0.08061945 0.08464984
000080 e0 05 80 bd a1 3d 35 bd 7a 18 88 3d c6 5c c6 3d
       -0.062511206 -0.044248227 0.066452935 0.09685664
000090 78 34 92 3d 3f e0 be 3c c7 0f 1e 3d 38 64 a9 bc
       0.07138914 0.023300288 0.038589265 -0.02067767
0000a0 d6 85 88 bb 20 a6 8a 3d 80 bd ba 3d 9b 1d da 3d
       -0.004166345 0.06769967 0.091181755 0.10650178
0000b0 d4 74 f7 bc 96 11 ec 3c f5 d4 8c 3d d8 60 a9 3c
       -0.030207075 0.02881698 0.06876556 0.020676062
0000c0 88 f3 fb 38 04 30 db 3c 45 f5 29 3d 4d 96 08 bd
       0.00012013974 0.026756294 0.041493673 -0.033346463
0000d0 a6 25 66 bc a9 93 64 3d 72 6e eb 3c 3e 3e 2c 3d
       -0.014047062 0.055804882 0.028739188 0.042051546
0000e0 48 a7 84 bc 28 c0 8f bd 33 07 54 bd c4 54 1b bd
       -0.016193047 -0.07019073 -0.05176468 -0.037922636
0000f0 61 e0 b3 bd 02 73 fc bc 65 03 ca bc 48 86 35 3c
       -0.08783031 -0.030816559 -0.024659822 0.011079378
000100 87 4e 31 b8 0f 29 a9 bd 7e 02 0b 3d c2 a0 00 3d
       -4.2273223e-05 -0.082597844 0.033937924 0.03140331
000110 b2 6c 76 bd 23 71 27 bd d0 f9 62 bd 82 57 e4 3c
       -0.060162254 -0.04087938 -0.05541402 0.027873758
000120 3d 5c 85 3c 32 8e 93 3d b5 d1 60 3c bf 05 5a bd
       0.016279334 0.07204856 0.013721873 -0.053228136
000130 7c 1c a5 3d 2c 63 94 bc 75 44 c8 3d 7d 90 5a bc
       0.080620736 -0.018113695 0.09778682 -0.013340113
000140 31 43 a2 3d 53 62 6d bd 13 1a da bc b9 ec b2 bc
       0.07922972 -0.057955097 -0.026623761 -0.021841394
000150 5f 2e 60 bd e8 c6 a4 bd 26 9d 6a bd ff 1e 63 3d
       -0.054731723 -0.08045751 -0.057278775 0.055449482
000160 db 45 a6 bd 5a 21 81 bc 0e 8a 33 bd 63 e3 f4 bc
       -0.081187926 -0.015762974 -0.04383283 -0.029893583
000170 52 9a 60 bd 06 96 93 bd 68 a8 6f 3d 6e 40 d8 3d
       -0.05483467 -0.07206349 0.058510214 0.10559164
000180 88 01 27 bd 1f b5 3f 3c 93 13 9f 3d 15 9b 17 3d
       -0.040772945 0.0117008975 0.07767405 0.037013132
000190 bb 7d 3c 3d db 3f de 3c 15 bd 0a 3c dd be f9 3b
       0.046018343 0.027130058 0.008467932 0.0076216296
0001a0 84 1b c1 3d 57 c2 8c 3d 8c ca 91 3d 9a ad 9f 3d
       0.09429076 0.06873005 0.07118711 0.07796784
0001b0 13 a4 6d 3d 5b 31 8d 3d 3d 99 e7 3a 03 65 97 3d
       0.0580178 0.068941794 0.001766957 0.07392313
0001c0 5c a2 6a bd 25 40 36 bd 13 f9 b2 bd 50 22 68 3d
       -0.057283744 -0.044494767 -0.087389134 0.056673348
0001d0 64 ad ce bc 07 37 93 3b f3 ca 83 bb 35 a5 7e 3b
       -0.025229163 0.0044926438 -0.004021996 0.0038855795
0001e0 5c 75 5e bd cf 2a b1 bb 26 32 89 3d 2d 7c c6 bd
       -0.05431114 -0.0054067145 0.06699018 -0.096916534
0001f0 b6 40 ff 3c f4 10 78 3d 1c 49 b6 bc a1 06 ad bd
       0.031158786 0.060563043 -0.022251658 -0.0844853
000200 46 1d ea bd 91 27 1e bd d3 d3 2d 3d 22 c3 12 3d
       -0.11431365 -0.038611952 0.04243834 0.035830624
000210 40 69 41 bd bb 7e 50 bd 2f 6e 6d 3d 35 88 8f bc
       -0.047219515 -0.05090211 0.057966407 -0.017521003
000220 c1 46 5f bd e1 b2 f4 bb d0 85 96 3c e9 46 76 bc
       -0.054510836 -0.007467613 0.018374354 -0.015031555
000230 6f 98 03 3d 08 6a 51 3d e8 d6 64 bd 5e db 7d 3d
       0.032127794 0.05112651 -0.055869013 0.061976783
000240 0d 66 1e 3d 84 3a 8f bb e4 9c cc 3b 23 0d 6f bd
       0.038671542 -0.0043709893 0.0062442888 -0.058362138
000250 98 a9 a9 3c 48 67 88 bc 75 4a c0 3d 01 27 c2 bd
       0.020710751 -0.01665081 0.093892016 -0.09480096
000260 16 ff 3e 3c df 3a 83 bc 98 6f 97 bd 44 cc b8 bc
       0.011657497 -0.016019283 -0.07394332 -0.022558339
000270 de 8d 55 bd 60 ee 27 bd 25 69 9f bc 64 50 f7 bb
       -0.05213725 -0.040998816 -0.019459317 -0.007547425
000280 21 cf 0f bd 0c ac 29 bd 9a 13 7a 3d e2 bd 1b 3d
       -0.035109643 -0.041423842 0.06105385 0.038022883
000290 5b f8 cf 3c 5f 0f ff 3c cc 00 21 3e dc 00 7c 3d
       0.02538698 0.03113526 0.1572296 0.061524257
0002a0 89 6c 32 3d 9a 7d 02 3e 7f 1d 92 3d 53 4a 9e 3d
       0.04356054 0.12743226 0.07134532 0.0772902
0002b0 a0 6b 45 bc ce 44 15 3d d1 19 0a bd e6 59 93 bd
       -0.012049586 0.03644257 -0.033716027 -0.07194881
0002c0 52 25 ab 3c 5b fe 45 bd a4 d1 c2 3d 12 5d c5 3c
       0.02089182 -0.048338275 0.09512642 0.024092231
0002d0 0f bd de 3c fc 0c 50 bd 8d c3 8d bd ec 6d d8 3c
       0.02718976 -0.050793633 -0.06922064 0.026419602
0002e0 1f ac d7 bb 57 d5 61 bd 6c 10 54 3d 51 eb 35 3d
       -0.0065817977 -0.055135097 0.051773474 0.04441387
0002f0 42 de 7f bd fe ca 91 bd 24 8c 28 3d 95 b7 f0 3a
       -0.06246782 -0.07118796 0.041149274 0.0018365259
000300 6b 96 a2 bc c9 48 09 3d 9e 7d a0 3b 91 73 1e 3c
       -0.019847116 0.03351668 0.0048977872 0.009671108
000310 bc cb 89 bb 0e 94 ba bc e3 b9 82 bd 00 35 ff 3b
       -0.0042051952 -0.022775676 -0.06383111 0.0077883005
000320 41 b6 2f 3d 16 42 69 bd 75 a1 64 bd 28 56 33 bd
       0.04289842 -0.05694779 -0.05581804 -0.043783337
000330 bc a1 5b bc 78 9d 35 3c ef c9 32 bd 8c e3 d8 bc
       -0.01340526 0.011084907 -0.04364961 -0.02647569
000340 1b 62 b8 3b 15 16 71 3d 41 ac 8e bd f2 a2 92 3d
       0.0056269295 0.05885895 -0.069664486 0.071599856
000350 da cb d9 3c 32 d0 01 bd 33 0e 23 3d 4d c7 02 3d
       0.026586462 -0.03169269 0.039808463 0.03192835
000360 72 9d 4e bd 63 6e f5 3b d4 8f 12 3d a7 e8 85 3d
       -0.05044312 0.0074899658 0.035781696 0.065385155
000370 96 f5 71 bd 9a 44 04 3d 83 c7 ed 3d 3c f8 e2 bb
       -0.0590721 0.032291986 0.116103195 -0.0069265645
000380 f6 6a 2e bd 12 4c 67 bd f8 93 81 bd 34 9a 07 bd
       -0.042582475 -0.05646903 -0.06327051 -0.033106044
000390 14 75 dd 3c 18 52 c5 bc 4a 96 2a bd 52 f7 ee bb
       0.027033366 -0.024086997 -0.041647233 -0.0072926665
0003a0 d9 84 87 bd df 71 8c 3c c0 61 ba 3a 8b f1 e4 3d
       -0.066171356 0.017144142 0.0014219806 0.11178883
0003b0 8e fe 7e 3d b1 b5 c9 3d ec 51 b9 3d 27 21 f4 3c
       0.06225448 0.09849108 0.090488285 0.029800965
0003c0 19 94 e4 3d 14 27 a4 ba 03 20 00 bc 55 f2 25 3c
       0.1116106 -0.0012523853 -0.007820132 0.010128577
0003d0 8c 76 2d bd ae 75 44 3d bd 7e 25 bd 07 fd c9 bc
       -0.042349383 0.04796379 -0.04040407 -0.024656786
0003e0 42 fa 92 bd 2d 0d fc bc 53 cf 56 bd 03 ff d0 3c
       -0.07176639 -0.030768001 -0.052443814 0.025512224
0003f0 b2 de b7 3c dc 09 3f 3c be 65 a5 3d 54 a6 04 3d
       0.022445057 0.0116600655 0.080760464 0.032385185

decoder.2.bias f4 [16]
000000 13 d6 d6 3d 53 7f c2 3b e9 70 2d 3c 1a 61 91 3c
       0.1049005 0.0059355884 0.010586002 0.017746497
000010 d4 19 ce 3d 14 33 ec 3c 28 02 a7 bd 77 a3 c7 bd
       0.1006352 0.02883295 -0.08154708 -0.09747975
000020 54 60 62 3d 3b c1 83 bc c0 a4 95 3d 39 04 d1 3d
       0.055267647 -0.01608335 0.07306814 0.102058835
000030 05 08 47 bd 37 90 57 3d 6d 65 0c 3d 5e 05 89 bb
       -0.048591632 0.05262777 0.034276415 -0.004181548

decoder.4.weight f4 [16, 3, 3, 3]
000000 5c b1 de bc 87 f9 1b be fd 01 0f be a2 88 33 bc
       -0.02718418 -0.15231906 -0.13965602 -0.010957869
000010 89 d3 85 be c1 6a 43 be 1b 8a 1d be ef 6b bf bd
       -0.2613795 -0.19083692 -0.15384714 -0.093467586
000020 66 8a 78 bd 8f 79 98 3c 66 00 2f bd 68 c3 ed 3d
       -0.060678862 0.018612651 -0.04272499 0.116095364
000030 eb de 81 3d 70 c6 13 3e dc a3 ac bb ae f6 08 be
       0.06341346 0.14431167 -0.005268557 -0.13375351
000040 5a c3 9a bd 7c d5 db bd d8 af 7b 3d b5 ce 87 bd
       -0.075567916 -0.10734078 0.061446995 -0.06631223
000050 58 f2 66 bc 33 c9 1c bd 25 d8 f8 bc 31 9d 1d 3e
       -0.014095865 -0.038277816 -0.030376503 0.15391995
000060 55 1b 02 3e e7 c6 10 be 96 6f ff 3d 04 12 e1 bc
       0.12705739 -0.14138375 0.12472455 -0.02747441
000070 32 68 15 3d bd 1d 6e bd 6e 69 80 bd 37 f3 2f be
       0.03647632 -0.05813383 -0.06270109 -0.17182623
000080 e5 45 3c bd 41 60 33 be 0a a2 41 be c1 b7 2f be
       -0.045965094 -0.17517187 -0.18909469 -0.1715994
000090 d6 b5 d8 bd b8 6a f8 3c 33 3c 32 be ed 7e 94 bc
       -0.105815575 0.030324325 -0.17405777 -0.01812693
0000a0 88 fb a8 3c af 15 71 3d 3b ea b5 bd 26 a3 ed bd
       0.020627752 0.05885857 -0.088825665 -0.11603384
0000b0 f8 a0 ff bd b3 89 6f ba 48 6c 22 be 2b ca d1 bd
       -0.12481874 -0.0009137645 -0.15861619 -0.102436386
0000c0 c8 cd 25 bd 1e 10 10 be 62 16 08 3e 56 eb c4 bd
       -0.04047945 -0.14068648 0.13289788 -0.09615199
0000d0 2b 9a af 3c 77 6f 1c be 9c 73 1a 3e 32 ec 5c 3b
       0.021435818 -0.15276895 0.15083164 0.003371012
0000e0 5c 28 b4 3d f7 e0 1c be bb e8 43 3e 75 a2 76 bc
       0.087967604 -0.15320192 0.19131748 -0.015053381
0000f0 4f bb 72 3e 93 df 03 be 46 f1 36 bd c7 14 49 3e
       0.23704265 -0.12878256 -0.04466369 0.19636832
000100 3a 04 14 3e d8 0c 03 3e 1d f3 4e 3e a8 34 c5 3d
       0.14454737 0.12797868 0.20209928 0.09629184
000110 8a b1 51 3b 86 05 b4 3d ea c4 c8 3d dd de a1 bc
       0.003199669 0.08790116 0.098031834 -0.01975959
000120 35 d4 e9 3d b7 78 47 3e 5b ab b8 bd 17 2d bc 3d
       0.114174284 0.19479643 -0.090170585 0.09188288
000130 1d 9a 2c 3e 85 1e 76 3c d0 cb 8b 3d 63 c4 9c bd
       0.16855665 0.015021925 0.068259835 -0.07654645
000140 99 06 cf 3b fb d0 09 be 6c a1 26 be 18 48 a1 3d
       0.006317925 -0.13458626 -0.16272515 0.07875079
000150 c0 0e 28 be 7d 32 5a be 6b cc 37 bd 66 c9 db 3d
       -0.16411877 -0.21308322 -0.044872683 0.10731773
000160 bd 12 0e be ec cd f6 3d 7a a2 3f bd c3 2a 70 3b
       -0.13874336 0.12050995 -0.04678581 0.0036646582
000170 8f 2d 1b 3d b7 9f 3b be cd 2b 0c be 8d 1e 6f 3c
       0.037885245 -0.18322645 -0.13688584 0.014594686
000180 81 31 09 be 3b a8 93 3d b1 3a bf 3c 67 ca d9 3b
       -0.1339779 0.07209822 0.023343416 0.0066464427
000190 1f 4f 25 be 02 84 99 3d 9a 9e 38 be 4a ea 87 bd
       -0.16143464 0.074958816 -0.18029252 -0.06636484
0001a0 37 70 a3 bd 0f 65 c8 bd e3 3d b1 bd c6 6a e9 bd
       -0.07980388 -0.097849004 -0.08654382 -0.113973185
0001b0 38 26 dc bd 9b cd a1 3c 2a 83 fc 3d 9e bd a6 bd
       -0.10749477 0.01975136 0.12329705 -0.08141635
0001c0 8a ee 5b be ee 44 22 be 0a da 7d bc 35 67 63 be
       -0.21477714 -0.15846607 -0.015493879 -0.22207339
0001d0 45 68 41 be c2 79 22 3e 38 8c a6 3d 1c c2 73 3c
       -0.18887432 0.1586676 0.08132213 0.014877822
0001e0 07 9a 3a 3d f5 e2 17 be 0e 44 ae 3d 3b d3 f6 3c
       0.04555705 -0.14832671 0.08509074 0.03013002
0001f0 51 ec 8a bd e4 90 8a bd c4 7e 48 bd 08 fc ae 3b
       -0.06783355 -0.06765917 -0.048949018 0.005340103
000200 1a 9a 2f bd 2e fe 8b 3d a6 70 46 be 18 c3 a7 bd
       -0.042871572 0.0683559 -0.1937891 -0.08191508
000210 30 77 e3 bd fc 6a a3 3c 83 28 fe 3d ae 0e c1 bd
       -0.111067176 0.019948475 0.12410071 -0.09426628
000220 c6 dc 82 bc f3 a0 e2 3c af e9 c9 bd 82 58 fd 3b
       -0.015974414 0.027664637 -0.09859025 0.007731498
000230 fe cd b4 bd a8 55 90 bd f2 8e 08 be e4 31 14 be
       -0.088283524 -0.07047588 -0.1333578 -0.14472157
000240 f5 08 2b bd 96 08 ee bd 9c 6b 55 be 44 c1 88 bd
       -0.04175659 -0.116227314 -0.20841831 -0.066774875
000250 55 a1 2d bb c1 88 33 be 40 b6 75 3e 90 cd 6f bd
       -0.0026493866 -0.17532636 0.23995304 -0.05854565
000260 d3 84 a1 3d eb 03 ba 3d 81 65 09 3e 79 81 95 3d
       0.07886662 0.090827785 0.13417627 0.073000856
000270 b8 d4 12 be 20 08 0b be 60 67 28 be 2c 37 9e 3d
       -0.14338958 -0.13577318 -0.16445684 0.07725367
000280 20 27 53 3a aa 3f 3a bd a4 83 e2 3d df 7c d3 3d
       0.00080548413 -0.04547087 0.11060265 0.10326552
000290 82 1e a2 bd 1b fa ba 3d 10 a8 94 bc 5b b2 a8 3d
       -0.07915975 0.09129735 -0.018146545 0.082371436
0002a0 cb eb 53 3e 32 69 1b 3e cc 97 33 3e cb e8 87 bd
       0.20695417 0.15176848 0.17538375 -0.066361986
0002b0 80 9d 16 bd 4f ab 15 be 4f b8 90 bd fe a8 4c 3e
       -0.036771297 -0.1461613 -0.07066404 0.1998634
0002c0 cb 31 9b 3d c9 d4 7e bc 2b 07 d3 3d 62 5d 8b bd
       0.07577857 -0.015553662 0.103041016 -0.06804921
0002d0 55 58 40 3e c8 cb d3 ba 5c 15 1b 3e 4f c0 8d 3d
       0.18783696 -0.0016158754 0.15144867 0.069214456
0002e0 c0 1d d5 3b bd 80 f6 bd 11 15 c5 bd 69 bf 0f 3e
       0.0065037906 -0.12036274 -0.09623159 0.14037861
0002f0 bd 66 e5 3d 07 cd 23 bd 15 c7 29 3d 67 88 99 bd
       0.112012364 -0.03999045 0.041449625 -0.0749672
000300 e3 9f 7f 3e b4 9e e0 bd 5d 16 38 3d 0c 8d 6f bd
       0.24963336 -0.1096777 0.044943202 -0.058484122
000310 40 8c c7 bc 7f e8 b1 3d a1 1d 43 bd 4c 7d d0 3d
       -0.024358869 0.08686923 -0.04763568 0.101801485
000320 35 64 2c be 56 5c 35 3c e8 48 02 3e aa fa 9a bd
       -0.16835101 0.011069378 0.12723124 -0.075673416
000330 de 37 cc 3c e2 33 d8 bc 54 6e a9 bd 20 fb a9 3c
       0.024928983 -0.026391927 -0.082729965 0.020749629
000340 d3 e4 a3 3d 87 9c ac bd f6 18 35 3e 3b e6 b4 3d
       0.08002629 -0.08428293 0.17685303 0.088329755
000350 9d c6 a4 3d 44 37 19 bd 48 ec f9 3d 6c 65 c7 3c
       0.08045695 -0.03740622 0.1220327 0.024340354
000360 0b 74 91 bd d9 84 ad 3d 4e f8 27 be 1d c6 35 be
       -0.071022116 0.08472604 -0.16403314 -0.17751355
000370 ad d1 3c 3d db ab a5 bc 40 df 49 bd 3e 14 21 bd
       0.0460984 -0.020223549 -0.049285173 -0.039325945
000380 71 56 3b be b9 46 17 3e 4d 86 9c 3c d2 6c bb 3d
       -0.18294694 0.14773072 0.019107008 0.09151615
000390 c3 e4 b7 bd 5a e7 e1 bd cf 9f 29 be 41 30 2a 3e
       -0.0897918 -0.11030455 -0.16564868 0.1661997
0003a0 3b eb ef 3c 3d a0 53 bd a1 3b 5d 3d 59 22 5b 3d
       0.029286971 -0.051666487 0.054011945 0.053499553
0003b0 f0 48 1e 3d 6e 09 3e be 30 04 92 3c 7d 74 11 be
       0.038643777 -0.18558285 0.017824262 -0.14204593
0003c0 f1 ca 47 be 8a 04 71 3d 19 ae 02 be 58 72 d3 bd
       -0.1951101 0.05884222 -0.12761725 -0.10324544
0003d0 eb 11 05 3e cc a1 c6 3d 5c 34 ad bd 3d ac a5 bd
       0.12995116 0.09698829 -0.084572524 -0.080894925
0003e0 4b c3 f0 3c 64 22 f9 bd 2a 5e ca bd e0 0d 22 bd
       0.029389998 -0.121647626 -0.098812416 -0.039564013
0003f0 67 30 51 3d 1e cb 67 bd 86 97 32 3e 03 27 1b be
       0.05107155 -0.056590192 0.17440614 -0.151516

decoder.4.bias f4 [3]
000000 c9 13 0a 3e de f4 d7 3d 49 92 bf 3d
       0.1348411 0.105447516 0.093540736
