macaroni2_autoencoder.pth (torch, 193170 bytes, 12 tensors)

encoder.0.weight f4 [16, 3, 3, 3]
0.15607622 0.08833425 0.18864408 0.19168743 0.10141297 0.11825312 0.14414375 -0.0088581825
0.007980139 0.15163057 -0.106784046 0.037090328 0.18979178 -0.12094714 -0.043624382 -0.14340271
0.052990004 0.15469624 0.15829593 -0.06016147 0.23211457 -0.08021903 -0.07363534 0.04522144
0.21676071 0.20847557 0.21286662 0.051257007 0.18584575 0.1779379 -0.11686965 0.100385174
0.16806787 -0.1334316 0.21187508 0.23583075 -0.14467496 0.1562609 0.0975855 -0.037284788
0.14517333 -0.10788047 0.1709794 0.016087927 0.15363419 0.057606656 0.23098934 -0.030654415
0.018457983 -0.04543558 0.017552862 0.0113054775 -0.042694107 -0.02469794 0.099682525 0.15117733
0.04545354 -0.19575758 0.02950816 0.14485495 -0.20078796 -0.018178958 0.009282135 0.15320641
0.02887266 0.17175771 -0.17830567 0.20343794 0.10941609 -0.09110043 0.07428568 0.07643849
0.01703234 0.15345943 0.043949947 0.19721222 0.19392803 0.04591084 0.0013815172 -0.16364828
-0.026134579 0.021211565 -0.14997713 -0.03432636 -0.0075570345 -0.14810084 -0.15759653 0.18023343
-0.16987225 -0.12513027 -0.013722733 -0.08507767 0.11167689 0.11899175 0.054787204 -0.046149313
-0.17820877 -0.09189672 0.09723897 -0.06950218 -0.053393185 0.07583676 0.11145009 0.11425392
-0.072868876 0.031876564 -0.07635863 -0.18111196 -0.19024305 0.059150558 -0.16208686 -0.1338634
0.09528581 -0.1601779 0.01490434 0.007987557 0.12530193 -0.12673913 0.024472324 0.15877613
-0.15532275 -0.08849794 -0.15892252 -0.027955048 0.15053256 0.044327095 0.050162558 0.01887391
0.03897766 0.002479868 -0.004163339 -0.072267234 0.095500626 0.14301535 0.13495071 -0.1968835
-0.03304969 0.042668216 0.09913852 -0.02767538 -0.14917535 -0.12817071 -0.18994328 0.14236471
-0.17979482 -0.0634138 -0.034546327 0.1109573 -0.1131382 -0.052815877 0.16940843 0.06773598
0.13342597 -0.11495522 -0.109340556 -0.12090951 0.15158214 -0.1415592 0.02196276 0.09035308
0.13541976 0.026556138 0.035974666 -0.088540494 -0.0024754256 0.12705116 -0.12966299 0.17683665
-0.124590084 0.07632281 -0.17229456 -0.11821202 -0.18121554 0.10861276 0.048039913 0.013507485
0.037582442 0.10967435 -0.1204007 -0.06353529 -0.17169988 -0.17057174 0.119703576 0.02041252
-0.10296222 -0.14668447 -0.08746018 -0.015283585 -0.11040975 -0.15585378 0.13643977 0.051728662
-0.087189145 -0.03831418 0.051055953 0.12233882 -0.20208465 -0.03568763 0.10471659 0.08643323
0.096168056 -0.014434209 -0.14146662 -0.13547286 0.025630271 0.17998716 0.033876657 0.071552366
0.030467087 0.18512665 -0.11933707 0.1441345 0.06063412 -0.13435368 -0.08720782 0.14680849
0.03865407 -0.16222173 0.15519476 -0.15980183 0.10799635 -0.12798224 0.1424095 -0.07997236
-0.03568977 0.1524309 0.1451933 0.119250186 -0.0033117624 0.04401822 0.14819032 -0.13740136
0.13409777 -0.124460526 0.07551994 -0.02096654 0.13211662 0.17611656 -0.020479515 0.20156322
0.1806406 -0.10771433 -0.10266826 -0.14997716 -0.2042274 0.040116448 0.16848832 0.031160126
-0.05209627 -0.15373188 0.17457898 0.01829462 0.20584345 -0.13650233 0.05291275 0.14349368
00000000: 72d2 1f3e 96e8 b43d ea2b 413e b649 443e
00000010: 9ab1 cf3d b12e f23d 6b9a 133e e921 11bc
00000020: 21bf 023c 0b45 1b3e 98b1 dabd 07ec 173d
00000030: c758 423e 22b3 f7bd 7baf 32bd 29d8 12be
00000040: 0c0c 593d b168 1e3e 5418 223e e06b 76bd
00000050: 71af 6d3e e049 a4bd 20ce 96bd 1e3a 393d
00000060: 85f6 5d3e 9f7a 553e b5f9 593e def2 513d
00000070: 594e 3e3e 5a35 363e 5b59 efbd be96 cd3d
00000080: fc19 2c3e 4ba2 08be c8f5 583e 9e7d 713e
00000090: ac25 14be db02 203e e8da c73d efb7 18bd
000000a0: 51a8 143e 70f0 dcbd 3915 2f3e d4ca 833c
000000b0: 4852 1d3e f5f4 6b3d 7888 6c3e f81e fbbc
000000c0: 3235 973c a91a 3abd 05cb 8f3c 9c3a 393c
000000d0: 04e0 2ebd 5653 cabc 5a26 cc3d 3bce 1a3e
000000e0: 7e2d 3a3d ad74 48be 19bb f13c db54 143e
000000f0: 5c9b 4dbe 0aec 94bc 1914 183c 24e2 1c3e
00000100: 5b86 ec3c 41e1 2f3e c395 36be 0952 503e
00000110: 8b15 e03d dd92 babd 1723 983d c88b 9c3d
00000120: 6887 8b3c 7824 1d3e dc04 343d 00f2 493e
00000130: 1295 463e 010d 3c3d 0614 b53a 6a93 27be
00000140: 2f18 d6bc e0c3 ad3c 9b93 19be cc99 0cbd
00000150: 00a1 f7bb bfa7 17be fc60 21be 1d8f 383e
00000160: fef2 2dbe 2622 00be 50d5 60bc 343d aebd
00000170: dab6 e43d f2b1 f33d 8c68 603d 1007 3dbd
00000180: 5c7c 36be 5934 bcbd 3a25 c73d 2957 8ebd
00000190: d0b2 5abd 4e50 9b3d f23f e43d f6fd e93d
000001a0: 473c 95bd 0091 023d ea61 9cbd 6a75 39be
000001b0: 13cf 42be db47 723d 19fa 25be 7d13 09be
000001c0: 3525 c33d ad05 24be 5531 743c 3ede 023c
000001d0: 264f 003e e7c7 01be 2f7a c83c 3696 223e
000001e0: ed0c 1fbe 683e b5bd 96bc 22be fc01 e5bc
000001f0: 3525 1a3e 5490 353d 4177 4d3d 759d 9a3c
00000200: 0aa7 1f3d 4885 223b 9e6c 88bb d800 94bd
00000210: d595 c33d 9e72 123e 8530 0a3e d49b 49be
00000220: 1d5f 07bd dec4 2e3d 2309 cb3d 7bb7 e2bc
00000230: 6cc1 18be 2f3f 03be 7e80 42be 0ec8 113e
00000240: 221c 38be 18df 81bd 7380 0dbd 953d e33d
00000250: 00b5 e7bd 7655 58bd 6779 2d3e 29b9 8a3d
00000260: d1a0 083e a46d ebbd f1ed dfbd 689f f7bd
00000270: 5938 1b3e e5f4 10be 3feb b33c 090b b93d
00000280: 7aab 0a3e 428c d93c 2c5a 133d b854 b5bd
00000290: c03a 22bb b319 023e 60c6 04be ab14 353e
000002a0: 1629 ffbd 224f 9c3d fc6d 30be 2519 f2bd
000002b0: 9190 39be 5e70 de3d 80c5 443d 804e 5d3c
000002c0: 0cf0 193d f29c e03d a494 f6bd ca1e 82bd
000002d0: 18d2 2fbe 5caa 2ebe 2627 f53d 2838 a73c
000002e0: dbdd d2bd 7434 16be 531e b3bd 0068 7abc
000002f0: 821e e2bd 2298 1fbe deb6 0b3e 6fe1 533d
00000300: 3990 b2bd 54ef 1cbd 0c20 513d c68c fa3d
00000310: 47ef 4ebe 312d 12bd a775 d63d e803 b13d
00000320: c2f3 c43d 767d 6cbc a0dc 10be 66b9 0abe
00000330: 93f6 d13c 8e4e 383e 40c2 0a3d 0c8a 923d
00000340: 1d96 f93c d791 3d3e fe66 f4bd ff97 133e
00000350: 7c5b 783d 0394 09be 039a b2bd f754 163e
00000360: bb53 1e3d 741d 26be 60eb 1e3e 17a3 23be
00000370: 312d dd3d c70d 03be ccd3 113e 8cc8 a3bd
00000380: 702f 12bd d916 1c3e 8dad 143e 7139 f43d
00000390: 270a 59bb 734c 343d 34bf 173e f1b2 0cbe
000003a0: ed50 093e 29e5 febd 33aa 9a3d 05c2 abbc
000003b0: 9449 073e e657 343e a8c4 a7bc 9766 4e3e
000003c0: d9f9 383e 5599 dcbd bd43 d2bd 9d93 19be
000003d0: fd20 51be 2551 243d 3488 2c3e 8543 ff3c
000003e0: e662 55bd e46b 1dbe d5c4 323e 99de 953c
000003f0: a0c8 523e 44c7 0bbe 0abb 583d 02f0 123e

encoder.0.bias f4 [16]
-0.09787785 -0.13441792 0.08256268 -0.090593465 0.20152578 0.24319343 -0.18926682 0.2243359
0.0045924215 0.03347504 0.08527831 -0.11117129 0.12593551 0.041090596 0.008306133 0.036345735
00000000: 2f74 c8bd daa4 09be 9f16 a93d 1189 b9bd
00000010: c65c 4e3e b307 793e 29cf 41be 4fb8 653e
00000020: 067c 963b 201d 093d 65a6 ae3d c6ad e3bd
00000030: 3df5 003e 9d4e 283d 7216 083c 44df 143d

encoder.2.weight f4 [32, 16, 3, 3]
-0.10217287 -0.00045256087 -0.024495063 0.011048551 -0.062403746 0.05284651 -0.05884348 -0.084109925
0.039993756 -0.04419675 0.0011675996 0.028745985 -0.042647988 0.0060122963 -0.036917005 -0.097187206
-0.14610621 -0.06163555 -0.045505065 -0.028778225 0.10460312 0.0085191345 -0.041956734 0.02772108
-0.009408367 0.014509422 0.03977644 -0.0135392845 0.03316605 -0.055926643 -0.0040271655 0.027565666
-0.07457021 0.04650753 -0.019033305 -0.05051602 -0.031104863 0.11343645 0.09150809 0.11319156
0.09126753 -0.0051004835 0.07827708 0.14254409 0.09382595 -0.0082095675 0.012007466 0.1294518
0.09495237 0.1077365 0.13981618 0.03215361 0.015628925 0.019566825 0.0033531114 0.033451766
0.048680015 -0.013745584 -0.0058361515 -0.0033906773 0.009552829 -0.037470013 0.033632703 0.09854743
0.059211113 0.02108469 0.043135148 0.101334244 -0.031275183 0.092556015 0.076180525 -0.026275037
0.06629223 -0.03815519 0.010812281 -0.0052260696 -0.021073263 -0.038982883 0.035793282 0.082520224
0.08594667 0.050028205 -0.0323063 -0.045918666 0.053317685 0.08986207 0.057907425 -0.021217206
0.06129438 0.06367479 0.02513799 -0.0033371733 0.114606105 0.046385504 0.12504177 0.04677275
0.12617715 0.025754612 0.08596009 -0.104341514 -0.038484037 -0.07355653 -0.046754487 -0.057126075
-0.04698263 -0.04698386 -0.035320945 0.020723186 0.0350796 -0.029160278 0.014469304 0.019816529
0.08455501 -0.0027694064 0.014321853 0.08885389 0.070172265 -0.053389285 -0.06823125 0.08704214
-0.044577073 -0.03371938 -0.024589801 0.021388967 0.043803878 -0.020432914 -0.034512572 -0.08039973
-0.036598235 0.002725505 -0.062835746 -0.041822743 0.013578553 0.060990907 0.01031009 0.025155645
0.02184586 -0.0058189495 0.054992132 0.04370472 -0.069612466 0.026940323 0.013680359 0.014335357
0.013255422 -0.041726865 -0.080651976 -0.06543177 -0.084988214 0.006632462 -0.020196317 0.05513166
-0.056750435 0.042892598 0.054969296 0.074830316 0.07137748 0.038772553 0.06973387 -0.044821363
-0.04887983 -0.046403036 -0.061781477 0.05720145 -0.024151469 -0.056286976 0.026131451 -0.065692745
-0.0376614 0.035477377 0.041215166 -0.02598685 -0.010220654 -0.056034308 -0.016830683 0.0048854277
0.014933415 -0.004778318 0.07147325 0.041004837 0.059648786 0.022050695 0.05528281 -0.068370946
0.06979669 -0.06426797 0.06244316 0.06131363 0.0077933837 0.0692016 0.039374378 -0.014764709
0.03808785 -0.007607991 -0.07762672 0.06915792 0.021137632 0.059974685 -0.015498333 0.01269386
0.010586917 0.08055765 -0.053832393 0.0028135777 0.007267624 -0.03984363 0.056133352 -0.00828215
0.026424786 0.018000992 -0.07589168 -0.08889812 -0.04663419 0.06542898 0.014664569 -0.031744435
-0.050565783 -0.079478376 0.046649218 0.015890377 -0.084820166 0.026133599 0.042048037 -0.0028430442
0.06889123 -0.02583203 0.054140225 0.060564134 -0.051906712 -0.037023824 -0.07632906 0.03315913
-0.072633915 -0.08988051 0.027051952 -0.068693645 0.04212636 0.009959922 0.03034336 -0.010526162
-0.063952826 -0.04499017 -0.0673431 -0.06518459 -0.08172705 -0.06719359 0.052150555 -0.025907705
0.07213039 0.030573316 -0.06377442 -0.06660642 -0.070004635 -0.066046685 0.0677299 0.01893008
00000000: 0240 d1bd b145 edb9 dfa9 c8bc fb04 353c
00000010: 129b 7fbd 9575 583d dc05 71bd d341 acbd
00000020: 7ed0 233d a707 35bd 240a 993a b37c eb3c
00000030: a8af 2ebd cc02 c53b 4936 17bd 160a c7bd
00000040: de9c 15be 8f75 7cbd 8563 3abd 50c0 ebbc
00000050: 293a d63d d793 0b3c d3da 2bbd 5217 e33c
00000060: 8d25 1abc edb8 6d3c 9fec 223d e0d3 5dbc
00000070: 20d9 073d 5613 65bd 50f6 83bb 64d1 e13c
00000080: 44b8 98bd ae7e 3e3d bceb 9bbc e3e9 4ebd
00000090: a0cf febc 5f51 e83d 9868 bb3d fad0 e73d
000000a0: 79ea ba3d f521 a7bb bc4f a03d 14f7 113e
000000b0: d227 c03d 6c81 06bc f6ba 443c 038f 043e
000000c0: 6376 c23d f4a4 dc3d f92b 0f3e 81b3 033d
000000d0: 3b08 803c 9b4a a03c e0bf 5b3b b804 093d
000000e0: b264 473d 2835 61bc 303d bfbb 2036 5ebb
000000f0: 7883 1c3c 287a 19bd 72c2 093d 3cd3 c93d
00000100: 5a87 723d cdb9 ac3c 7bae 303d 5488 cf3d
00000110: 681a 00bd 028e bd3d 8904 9c3d bf3e d7bc
00000120: 38c4 873d 9e48 1cbd fe25 313c 733f abbb
00000130: d6a1 acbc 84ac 1fbd fa9b 123d 5d00 a93d
00000140: cf04 b03d 60ea 4c3d 9c53 04bd 3615 3cbd
00000150: a563 5a3d 9b09 b83d 5630 6d3d b5cf adbc
00000160: d10f 7b3d ee67 823d 30ee cd3c 7ab4 5abb
00000170: 9bb6 ea3d bafe 3d3d f30a 003e c894 3f3d
00000180: 9534 013e 56fb d23c d80b b03d 01b1 d5bd
00000190: 70a1 1dbd cea4 96bd a281 3fbd 08fd 69bd
000001a0: dc70 40bd 2672 40bd b2ac 10bd acc3 a93c
000001b0: a0af 0f3d 89e1 eebc a910 6d3c 4656 a23c
000001c0: 2d2b ad3d ee7e 35bb 35a6 6a3c 07f9 b53d
000001d0: 7ab6 8f3d b9ae 5abd d3bc 8bbd 2643 b23d
000001e0: 7396 36bd 551d 0abd 8d70 c9bc ea37 af3c
000001f0: b26b 333d ed62 a7bc 0e5d 0dbd 9da8 a4bd
00000200: 08e8 15bd 639e 323b 07b0 80bd 534e 2bbd
00000210: 9478 5e3c 9ad1 793d a7eb 283c 3613 ce3c
00000220: 17f6 b23c e3ac bebb 6e3f 613d b803 333d
00000230: fb90 8ebd f4b1 dc3c 9623 603c d8de 6a3c
00000240: 452d 593c cae9 2abd dd2c a5bd 1801 86bd
00000250: 4d0e aebd 2055 d93b bf72 a5bc bcd1 613d
00000260: 2573 68bd 26b0 2f3d 7c27 613d a340 993d
00000270: 5b2e 923d f8cf 1e3d a2d0 8e3d 9b96 37bd
00000280: 3736 48bd 1c11 3ebd 930e 7dbd 114c 6a3d
00000290: 4dd9 c5bc 2c8d 66bd a011 d63c eb89 86bd
000002a0: d742 1abd ba50 113d 3cd1 283d 60e2 d4bc
000002b0: 8874 27bc 3b84 65bd 80e0 89bc f015 a03b
000002c0: 48ab 743c 7093 9cbb 9160 923d b0f4 273d
000002d0: 4952 743d a9a3 b43c 3a70 623d 1106 8cbd
000002e0: 91f1 8e3d ed9e 83bd 66c4 7f3d 0024 7b3d
000002f0: a45f ff3b 92b9 8d3d 0747 213d aee7 71bc
00000300: 0102 1c3d 744c f9bb c2fa 9ebd aba2 8d3d
00000310: d428 ad3c 04a8 753d b8ec 7dbc e8f9 4f3c
00000320: c074 2d3c 69fb a43d 5b7f 5cbd 0064 383b
00000330: 4025 ee3b 1333 23bd 16ec 653d dbb1 07bc
00000340: cb78 d83c d176 933c 196d 9bbd 3810 b6bd
00000350: 7e03 3fbd a1ff 853d a943 703c 7406 02bd
00000360: 111e 4fbd 8fc5 a2bd 4013 3f3d 892c 823c
00000370: 32b6 adbd 2116 d63c 903a 2c3d 5e52 3abb
00000380: d816 8d3d b29d d3bc 24c2 5d3d 1912 783d
00000390: 229c 54bd 4ba6 17bd 6952 9cbd ded1 073d
000003a0: 17c1 94bd 4613 b8bd 0e9c dd3c 41af 8cbd
000003b0: b18c 2c3d f12e 233c a392 f83c ec75 2cbc
000003c0: b3f9 82bd 9d47 38bd 2eeb 89bd 807f 85bd
000003d0: 8360 a7bd cb9c 89bd d29b 553d 653c d4bc
000003e0: 19b9 933d e474 fa3c 2a9c 82bd f268 88bd
000003f0: 975e 8fbd 7c43 87bd f9b5 8a3d 4113 9b3c

encoder.2.bias f4 [32]
0.061289314 -0.05808556 -0.07031324 0.028152848 0.033331413 0.05865956 0.11835123 0.04806578
0.04458954 -0.006815202 -0.016682265 -0.057814013 0.1256344 -0.039617583 -0.037858713 0.09614869
0.13807061 0.04034534 -0.03178467 0.043655396 0.12208683 -0.035876654 0.05376285 0.10396505
0.1302728 0.0068072854 0.06208835 0.15042885 0.023650303 0.051973358 0.12153965 0.076534264
00000000: 810a 7b3d 20eb 6dbd 6300 90bd cda0 e63c
00000010: 8586 083d 0245 703d 2162 f23d a0e0 443d
00000020: 86a3 363d 0f52 dfbb 3fa9 88bc 63ce 6cbd
00000030: 4ea6 003e 0c46 22bd bd11 1bbd 9be9 c43d
00000040: 6262 0d3e 2841 253d a430 02bd 00d0 323d
00000050: a908 fa3d 66f3 12bd 6f36 5c3d a1eb d43d
00000060: 3c66 053e a60f df3b 5b50 7e3d 050a 1a3e
00000070: 48be c13c 04e2 543d c8e9 f83d ffbd 9c3d

encoder.4.weight f4 [64, 32, 3, 3]
-0.019801183 -0.0032672528 0.06670847 0.015583984 0.025766488 0.041652586 0.054911036 0.053727835
0.021651909 0.022125311 0.037416335 -0.04907992 0.02028708 0.026881518 -0.023904216 -0.01656626
0.06256477 -0.028999817 0.028931377 -0.078441754 -0.055022303 0.028503673 -0.09699549 0.0030985016
-0.04086708 -0.038138147 -0.020104805 0.054128747 -0.017481701 0.031780113 -0.02751921 -0.02831479
-0.030613301 -0.0113528995 0.033796348 -0.048647378 0.044806637 0.041887477 -0.049702212 -0.0031211607
0.0351056 0.05503403 -0.048989642 -0.032583266 0.06803491 0.118715316 0.0029608824 0.075173356
0.103393465 -0.019698849 -0.01640779 0.07516758 0.017641414 0.071911514 0.048653364 0.035321753
0.041429933 0.04449507 0.05023927 0.09110187 0.059543956 0.07916817 0.101199195 -0.053778253
-0.04455155 -0.03976647 -0.042039882 -0.056241874 0.01727104 -0.05123725 -0.0026433696 0.025525559
0.023482973 0.00014235578 -0.038388096 0.045643594 0.16569318 0.13523503 0.09554189 0.17692722
0.13371855 0.016178548 -0.016233811 0.07077492 -8.463458e-05 0.04233942 0.06719011 0.04001272
0.00039223587 0.043544583 0.03867236 -0.041920956 0.057817496 -0.023383282 0.038498193 -0.007811573
0.020861888 -0.021326669 0.026816523 -0.037079036 -0.0077292225 -0.013587384 0.022571817 0.09146984
-0.039956182 0.035891168 0.010248819 -0.031577643 0.037708763 0.010934792 0.04799381 0.04413076
0.03907218 0.04843312 0.086160235 0.07610905 0.08889077 -0.035991658 0.044099394 0.007370232
-0.028631456 -0.020943746 0.024284728 0.043117497 0.056685448 -0.0029109803 -0.030499892 0.05195895
0.0077008097 -0.025747258 -0.041112445 -0.020788725 -0.02697249 -0.031161975 -0.030433929 -0.009500641
0.051330883 0.06499217 0.025400916 0.05934307 0.07817832 0.08304315 0.03312725 0.016491333
0.054204527 0.049209755 0.015002636 0.036941804 0.007952437 0.040555194 0.03259126 -0.0019116788
0.06705047 0.022401342 0.07456955 0.008359303 0.0023598322 0.00030674034 -0.008928215 0.053377643
0.017785076 0.045930523 0.04245257 -0.047067516 -0.056326807 -0.008795639 -0.0781512 -0.06816565
0.039239716 0.0007655246 -0.03066949 0.024226556 -0.00552164 -0.014965692 -0.033870686 0.046247203
-0.02595065 -0.04978536 -0.012705426 0.037696347 -0.03108861 0.07906695 0.032640703 -0.038906723
-0.008760206 0.075287424 0.030312045 -0.016706847 0.065602645 -0.008703395 -0.031935245 -0.021096919
-0.0068363766 0.033290006 0.03791483 0.039430648 -0.015073538 -0.004219785 0.05593431 0.0635163
-0.009287465 0.0103806155 0.065070614 0.037533432 0.07664275 0.07850997 0.02599264 0.06535735
0.08122413 0.051964693 0.07699716 0.09458343 0.029225633 0.044478852 0.004338974 0.07844895
-0.028163215 0.012252452 0.06076758 0.07769139 -0.006762971 0.06637466 0.064801164 0.008695297
0.0988169 0.014145601 0.0022573841 -0.013096715 -0.034319427 0.048821095 -0.025985908 -0.004196839
-0.019660065 -0.025914945 -0.02972935 -0.0033673684 0.04999452 0.026718434 0.023877863 0.07234394
0.08109957 0.008473738 0.11762767 -0.013822932 0.09898835 0.06900925 0.020523759 0.1130976
0.11467425 0.017545639 0.04948825 0.13995929 0.05353393 0.07463206 0.0367309 0.041645266
00000000: 1736 a2bc 681f 56bb 739e 883d f753 7f3c
00000010: 3e14 d33c e79b 2a3d 65ea 603d b811 5c3d
00000020: 585f b13c 2440 b53c df41 193d 0708 49bd
00000030: 1731 a63c a136 dc3c c6d2 c3bc f7b5 87bc
00000040: f521 803d 0691 edbc 7f01 ed3c 12a6 a0bd
00000050: 115f 61bd 8980 e93c 92a5 c6bd 3b10 4b3b
00000060: 3d64 27bd bf36 1cbd d5b2 a4bc 1bb6 5d3d
00000070: c935 8fbc dd2b 023d f76f e1bc 6bf4 e7bc
00000080: bfc8 fabc 8301 3abc 0a6e 0a3d 7942 47bd
00000090: 2a87 373d 3492 2b3d 8c94 4bbd 638c 4cbb
000000a0: e4ca 0f3d 5d6b 613d 5da9 48bd 0876 05bd
000000b0: e355 8b3d 0421 f33d 5d0b 423b 7df4 993d
000000c0: f4bf d33d 7b5f a1bc a169 86bc 76f1 993d
000000d0: ba84 903c 5846 933d c048 473d 8bad 103d
000000e0: 6fb2 293d 7640 363d b1c7 4d3d 9e93 ba3d
000000f0: 5de4 733d ec22 a23d 8641 cf3d 9646 5cbd
00000100: b07b 36bd 2be2 22bd 0332 2cbd e15d 66bd
00000110: ff7b 8d3c 27de 51bd 623c 2dbb fa1a d13c
00000120: 5d5f c03c 5745 1539 d63c 1dbd c7f4 3a3d
00000130: 79ab 293e 0d7b 0a3e 77ab c33d 692c 353e
00000140: 84ed 083e e088 843c c5fc 84bc 71f2 903d
00000150: d87d b1b8 1a6c 2d3d f89a 893d 61e4 233d
00000160: 02a5 cd39 ce5b 323d e966 1e3d 4fb5 2bbd
00000170: 0ad2 6c3d 4c8e bfbc 48b0 1d3d 39f8 ffbb
00000180: 8de6 aa3c 44b5 aebc 53ae db3c 30e0 17bd
00000190: 6b45 fdbb 9e9d 5ebc 88e8 b83c 8a54 bb3d
000001a0: 18a9 23bd 9e02 133d aaea 273c 8f57 01bd
000001b0: 8174 1a3d d827 333c 2895 443d 75c2 343d
000001c0: 260a 203d cf61 463d c774 b03d 10df 9b3d
000001d0: 5d0c b63d fd6b 13bd 91a1 343d fd81 f13b
000001e0: 848c eabc 3892 abbc c4f0 c63c f99b 303d
000001f0: 002f 683d 25c6 3ebb e9da f9bc e8d2 543d
00000200: 1357 fc3b eaeb d2bc 8665 28bd 1e4d aabc
00000210: 69f5 dcbc 6647 ffbc 9350 f9bc 94a8 1bbc
00000220: 5540 523d 9d1a 853d 9515 d03c b811 733d
00000230: f41b a03d 8712 aa3d 70b0 073d d518 873c
00000240: 9105 5e3d 2b90 493d 9ecd 753c 4a50 173d
00000250: f04a 023c 341d 263d 6a7e 053d 4c91 faba
00000260: c251 893d 0583 b73c ecb7 983d 75f5 083c
00000270: 6aa7 1a3b fed1 a039 a647 12bc 84a2 5a3d
00000280: 02b2 913c a521 3c3d bfe2 2d3d dec9 40bd
00000290: f0b6 66bd 951b 10bc bd0d a0bd 6f9a 8bbd
000002a0: d3b9 203d 7cad 483a 953e fbbc c576 c63c
000002b0: e0ee b4bb a932 75bc fdbb 0abd b56d 3d3d
000002c0: 7596 d4bc bceb 4bbd 6b2a 50bc 7c67 1a3d
000002d0: 8aad febc daed a13d 42b2 053d a85c 1fbd
000002e0: f886 0fbc 4b30 9a3d f750 f83c ccdc 88bc
000002f0: ae5a 863d af98 0ebc 88ce 02bd 72d3 acbc
00000300: af03 e0bb 1a5b 083d 954c 1b3d 0882 213d
00000310: 00f7 76bc 1f46 8abb 601b 653d d514 823d
00000320: 742a 18bc 7513 2a3c be43 853d a8bc 193d
00000330: e0f6 9c3d d6c9 a03d 84ee d43c 13da 853d
00000340: d658 a63d eed8 543d b0b0 9d3d f5b4 c13d
00000350: 986a ef3c 752f 363d f42d 8e3b d8a9 a03d
00000360: 8bb6 e6bc 82be 483c 6de7 783d aa1c 9f3d
00000370: ea9b ddbb 70ef 873d 79b6 843d b876 0e3c
00000380: 8460 ca3d f3c2 673c 9ff0 133b 9b93 56bc
00000390: 8792 0cbd a1f8 473d 66e0 d4bc a385 89bb
000003a0: 250e a1bc 944b d4bc f78a f3bc 11af 5cbb
000003b0: 0ec7 4c3d 9ee0 da3c 829b c33c 0f29 943d
000003c0: 8817 a63d 6fd5 0a3c c7e6 f03d 9479 62bc
000003d0: 67ba ca3d b954 8d3d 7121 a83c b79f e73d
000003e0: 55da ea3d dfbb 8f3c 31b4 4a3d 7d51 0f3e
000003f0: 6546 5b3d b2d8 983d 2473 163d 3a94 2a3d

encoder.4.bias f4 [64]
0.100147024 0.061478272 0.07600189 0.004924184 0.03033994 0.035042893 0.06515678 0.005274305
-0.023345781 0.05330274 0.07376717 0.0062301825 -0.013426387 0.09615817 0.015301724 0.01633983
0.07697422 0.073671445 0.08167381 0.033859834 0.04204176 -0.033821985 0.057418652 0.0595787
0.10491229 0.07569888 -0.012485124 0.031104658 0.029579297 0.049074814 0.01750045 0.03553483
0.049659144 0.0998131 0.04863696 0.0973009 0.016387308 -0.0015460355 -0.027444886 0.015835658
0.019666562 0.089081556 0.04705906 0.070268884 0.08413559 0.021001376 0.007391903 0.03443721
0.05024174 0.10042893 0.016177243 0.07478038 0.010680391 0.099483036 0.07651891 0.0231322
0.050223075 0.07552436 0.032749116 0.078549795 0.0705299 0.016946798 0.10099883 -0.013796689
00000000: e219 cd3d a4d0 7b3d e1a6 9b3d 0d5b a13b
00000010: 778b f83c 2389 0f3d eb70 853d 14d4 ac3b
00000020: a73f bfbc f953 5a3d 3e13 973d 8f26 cc3b
00000030: 59fa 5bbc 93ee c43d 15b4 7a3c 1bdb 853c
00000040: a9a4 9d3d 0ee1 963d 9944 a73d 9cb0 0a3d
00000050: fb33 2c3d ec88 0abd d22f 6b3d cc08 743d
00000060: 41dc d63d 0408 9b3d 688e 4cbc 32cf fe3c
00000070: 4850 f23c ac02 493d 1b5d 8f3c f88c 113d
00000080: 6367 4b3d d06a cc3d 8d37 473d b245 c73d
00000090: ad3e 863c 58a4 caba 19d4 e0bc c8b9 813c
000000a0: c51b a13c 6470 b63d 00c1 403d 22e9 8f3d
000000b0: 484f ac3d 140b ac3c c737 f23b 080e 0d3d
000000c0: 48ca 4d3d afad cd3d 2386 843c 7526 993d
000000d0: cffc 2e3c c3bd cb3d f2b5 9c3d bd7f bd3c
000000e0: b6b6 4d3d 84ac 9a3d f023 063d b7de a03d
000000f0: fb71 903d 03d4 8a3c 79d8 ce3d 820b 62bc

decoder.0.weight f4 [64, 32, 3, 3]
-0.05845409 0.010577896 0.018010141 -0.031253066 -0.047310323 -0.0045951814 0.03834696 0.014668936
-0.039928228 -0.013916684 -0.012314879 0.07434818 0.06292865 0.037171047 0.08728647 0.03660065
0.029226119 0.03871548 0.052907456 0.08169943 0.030520204 0.058228828 0.082200415 0.050688062
0.067712255 0.06532561 0.102690786 0.04226787 0.03855199 0.055717688 -0.03584501 0.06251757
-0.0037895902 0.055206724 0.09400907 0.079889305 0.018085679 0.034961164 0.02178458 -0.024565088
-0.004525163 -0.0050917864 0.0695587 0.07735032 -0.053822286 0.011843856 -0.007686053 -0.037730597
-0.116799 -0.031287678 0.08610881 0.00049405923 0.017836343 -0.05650999 0.049592327 -0.0063622836
0.033765856 -0.120426886 -0.04200778 0.07781195 0.01623136 0.014517035 0.039342873 -0.054099716
-0.061958488 -0.022669766 0.034932584 -0.015795795 0.014573148 -0.04709515 0.00069101766 0.026933854
0.07155456 -0.05136555 -0.118598625 0.054170962 0.05767674 -0.062580206 0.092926905 0.06530783
-0.03648153 -0.03388927 -0.031794555 -0.0033421684 0.0076459763 0.0017738218 -0.015970457 0.06305392
0.023301238 0.076913305 -0.051542513 -0.029137177 -0.025839811 -0.03080775 -0.053781886 -0.006358688
-0.03495161 0.024272734 -0.06009389 -0.03757342 -0.036734197 -0.013891568 0.032516427 -0.08304225
-0.013539493 -0.04364846 -0.010285045 0.020028949 -0.06495315 0.04075635 -0.07147384 0.0034138223
-0.0058187563 -0.023570318 -0.015822183 0.011633206 -0.012052027 0.020148342 -0.05788081 -0.056587964
-0.05593901 -0.026330983 -0.0756893 0.041359372 0.023324488 -0.05700312 0.04110313 -0.0643063
-0.009258949 0.050459936 -0.007845029 -0.03670262 0.04333439 0.000907833 -0.010188708 0.04747352
0.050687872 0.024575012 -0.03912108 0.06943345 0.02570758 -0.06349604 -0.009061875 -0.0039214995
-0.04424706 0.011913018 0.073945336 0.05137212 0.08199087 0.024993572 -0.02312099 0.06647689
-0.027567552 -0.11068728 -0.019075979 -0.0038850142 -0.028685968 0.019281942 -0.014421687 0.0065958006
0.007334383 0.044169307 -0.042151194 -0.027392648 0.017626487 0.0735631 -0.062421538 0.056559462
0.016617121 0.064765535 0.0010291091 -0.0014704942 0.049567938 0.017332926 0.05379513 -0.00048089973
0.029638285 0.0054835407 -0.057197325 0.034824874 -0.05655163 0.042931624 -0.06334128 -0.06584441
-0.036431666 -0.06855057 -0.026242318 -0.02247912 -0.05582906 -0.018104149 0.06564324 0.07640628
-0.018666798 -0.03648322 0.04220107 0.06789302 0.10099504 -0.015768195 -0.017490176 -0.051215332
-0.0953041 0.039332695 -0.020650787 -0.09494429 -0.0117275035 -0.0038521765 -0.017190421 -0.04617022
0.005397814 0.08251491 0.026938403 0.07705568 0.011367006 0.0668749 0.07304654 0.083340764
-0.031169325 -0.014848329 0.060106397 -0.054889712 0.073649004 -0.038350288 -0.012847821 -0.043965388
0.054143086 0.027912758 -0.04341152 -0.040995397 -0.026235089 0.059891127 0.043464806 0.039258905
-2.4498684e-05 -0.050870046 -0.09679423 -0.032132834 0.0318134 -0.028085176 -0.05245788 -0.052874073
-0.021253297 0.041333456 0.03682661 0.01123673 -0.008444424 -0.0036699555 -0.04210011 0.01919423
-0.058307074 0.0027229905 -0.041862026 -0.03367134 -0.072801374 0.031289224 -0.02606886 0.044788435
00000000: 8e6d 6fbd e94e 2d3c 018a 933c 3703 00bd
00000010: 78c8 41bd 2d93 96bb b411 1d3d fa55 703c
00000020: c88b 23bd ce02 64bc 59c4 49bc dc43 983d
00000030: bce0 803d ab40 183d 40c3 b23d 90ea 153d
00000040: 9d6b ef3c 2094 1e3d 7db5 583d 0852 a73d
00000050: 8205 fa3c 5a81 6e3d b158 a83d 499e 4f3d
00000060: b9ac 8a3d 6fc9 853d 8c4f d23d 1321 2d3d
00000070: b1e8 1d3d 3b38 643d 38d2 12bd 3609 803d
00000080: c65a 78bb 7220 623d d487 c03d 019d a33d
00000090: 6b28 943c 7033 0f3d 9375 b23c b93c c9bc
000000a0: d247 94bb 00d9 a6bb cb74 8e3d d869 9e3d
000000b0: c274 5cbd bc0c 423c 49db fbbb 668b 1abd
000000c0: 5034 efbd 8227 00bd d159 b03d c183 013a
000000d0: 861d 923c 0577 67bd 5321 4b3d b47a d0bb
000000e0: 114e 0a3d 5fa2 f6bd 5a10 2cbd df5b 9f3d
000000f0: a1f7 843c dcd8 6d3c fe25 213d aa97 5dbd
00000100: 2fc8 7dbd f2b5 b9bc 7815 0f3d 2f66 81bc
00000110: 37c4 6e3c d8e6 40bd 6925 353a 63a4 dc3c
00000120: 328b 923d af64 52bd d6e3 f2bd 5fe2 5d3d
00000130: 723e 6c3d 0d2a 80bd 7650 be3d 1dc0 853d
00000140: a86d 15bd 7acf 0abd 023b 02bd 4808 5bbb
00000150: 198b fa3b 957f e83a 7ad4 82bc 6a22 813d
00000160: 3de2 be3c b984 9d3d 3e1e 53bd 17b1 eebc
00000170: 03ae d3bc 8960 fcbc 654a 5cbd 8b5c d0bb
00000180: 6b29 0fbd 9dd7 c63c 0325 76bd 96e6 19bd
00000190: 9976 16bd 7699 63bc f22f 053d 0e12 aabd
000001a0: c0d4 5dbc bac8 32bd 9b82 28bc c013 a43c
000001b0: 2806 85bd 21f0 263d e060 92bd 6fba 5f3b
000001c0: 44ab bebb 8a16 c1bc 869d 81bc 3499 3e3c
000001d0: dd75 45bc 230e a53c 6e14 6dbd c8c8 67bd
000001e0: 4e20 65bd 13b4 d7bc fe02 9bbd 7268 293d
000001f0: ff12 bf3c 1b7c 69bd c15b 283d 05b3 83bd
00000200: d9b2 17bc 14af 4e3d 7088 00bc 7d55 16bd
00000210: 677f 313d a4fb 6d3a 8aee 26bc 9873 423d
00000220: 169e 4f3d 8951 c93c 6d3d 20bd 2033 8e3d
00000230: b498 d23c 360a 82bd 4278 14bc ec7f 80bb
00000240: 683c 35bd d22e 433c a770 973d 926b 523d
00000250: d4ea a73d 52bf cc3c 3b68 bdbc 0925 883d
00000260: 59d5 e1bc 03b0 e2bd 3a45 9cbc b99b 7ebb
00000270: d6fe eabc 2af5 9d3c f148 6cbc 9621 d83b
00000280: 4455 f03b e0ea 343d bba6 2cbd 8c66 e0bc
00000290: 6c65 903c 40a8 963d baad 7fbd e5aa 673d
000002a0: a120 883c cba3 843d 2ce3 863a 99bd c0ba
000002b0: c007 4b3d c8fd 8d3c 4858 5c3d 4521 fcb9
000002c0: fdcb f23c 46af b33b be47 6abd 87a4 0e3d
000002d0: afa2 67bd 12d9 2f3d 13b9 81bd 6fd9 86bd
000002e0: 5f39 15bd 3e64 8cbd 21fa d6bc 2226 b8bc
000002f0: 03ad 64bd 274f 94bc f76f 863d e57a 9c3d
00000300: 1deb 98bc 6e6f 15bd 07db 2c3d 7f0b 8b3d
00000310: 7dd6 ce3d 4d2c 81bc 8f47 8fbc 2bc7 51bd
00000320: cc2e c3bd 521b 213d d72b a9bc 2772 c2bd
00000330: b724 40bc cc74 7cbb edd2 8cbc fc1c 3dbd
00000340: 25e0 b03b 94fd a83d edad dc3c 5ecf 9d3d
00000350: ae3c 3a3c b5f5 883d 6d99 953d 90ae aa3d
00000360: d056 ffbc 6846 73bc 2032 763d 09d4 60bd
00000370: 4ad5 963d 3115 1dbd ab7f 52bc 0d15 34bd
00000380: 24c5 5d3d 4ca9 e43c 47d0 31bd caea 27bd
00000390: f8ea d6bc 6650 753d 2708 323d f2cd 203d
000003a0: 8682 cdb7 1c5d 50bd 0e3c c6bd b89d 03bd
000003b0: c54e 023d e212 e6bc 13de 56bd 7c92 58bd
000003c0: 651b aebc 454d 293d 80d7 163d 431a 383c
000003d0: 7b5a 0abc a383 70bb 2a71 2cbd 383d 9d3c
000003e0: 66d3 6ebd 3374 323b 8477 2bbd f6ea 09bd
000003f0: e318 95bd 2129 003d 5d8e d5bc 1474 373d

decoder.0.bias f4 [32]
0.0039665857 0.079532266 0.039921954 0.08050148 -0.04257649 0.016315555 0.040835217 0.04165386
-0.02186879 0.02934988 0.0017297321 0.048268702 -0.032135632 0.00038219584 0.02395075 0.03504685
0.07398332 0.005343129 -0.005146953 -0.05284234 0.040305316 0.045872577 0.006228104 0.05561957
-0.0123904655 0.016282544 -0.008094019 0.007462881 0.02465845 0.048273683 0.01958854 0.005987044
00000000: 22fa 813b d0e1 a23d 3485 233d f6dd a43d
00000010: b064 2ebd 33a8 853c d442 273d 3d9d 2a3d
00000020: 2d26 b3bc 296f f03c 2eb8 e23a 67b5 453d
00000030: a7a0 03bd 7561 c839 5d34 c43c 498d 0f3d
00000040: 9184 973d 6a15 af3b c5a7 a8bb 3671 58bd
00000050: 3017 253d e2e4 3b3d 1f15 cc3b 59d1 633d
00000060: 6101 4bbc f862 853c c79c 04bc 2f8b f43b
00000070: 8500 ca3c a0ba 453d 2578 a03c f72e c43b

decoder.2.weight f4 [32, 16, 3, 3]
-0.01748973 -0.0118001755 0.03151002 0.058089394 -0.00013792272 0.04612723 0.00035381425 0.0105580175
-0.073463246 0.0030903835 -0.094293825 -0.0032022758 0.06466482 -0.028441077 0.03025605 0.025296746
0.01390104 -0.07835915 -0.015228527 0.046006553 -0.010016153 0.08384416 0.06606995 0.087219775
0.05400711 -0.02218023 0.06998513 -0.069614746 -0.059344012 -0.07131994 0.052996434 -0.014596975
-0.046501502 -0.019739665 -0.0740707 -0.040164545 -0.058872372 -0.020433478 -0.018661758 0.077775225
0.047318965 0.11438433 -0.047687847 0.09715092 -0.009181436 -0.104152374 0.014352477 -0.04248607
0.053143088 -0.020541351 -0.052059624 -0.02497722 0.013587185 -0.049223144 0.06372659 -0.00047444552
-0.024849972 0.062739894 -0.0058676484 0.009233161 -0.08897339 0.03404481 -0.047520213 -0.055259515
0.019450665 0.03797665 0.0007996847 0.056264274 -0.059897114 -0.011063337 -0.015003016 -0.080998905
0.055195414 0.05313212 0.0754388 -0.08402874 -0.09725045 -0.08464511 0.03570706 -0.034036394
-0.044690613 0.05872465 -0.031574037 0.051456172 -0.013511052 0.058707125 -0.021134017 -0.00025975856
-0.0028550306 0.0790362 -0.00031421054 0.009695255 -0.08142834 0.12747188 0.076858185 0.14545363
-0.006433609 -0.04697452 0.03625265 -0.0016058803 -0.049485162 0.0010505811 -0.028042523 0.06332538
0.073781006 0.09582541 0.007308662 -0.02736051 -0.090715855 -0.06394608 -0.028363366 0.012726981
0.006810457 0.026482126 0.014971827 -0.09556348 -0.067592695 0.01790646 0.054413386 0.03994628
0.027818566 0.012835101 0.043935474 0.120108865 0.030177701 0.035997063 -0.016909875 -0.0460509
-0.06919509 0.03664081 -0.036993124 0.07972997 0.0630452 0.060866673 -0.04354272 -0.04124356
0.05163352 0.03700898 0.015694277 0.09187503 0.054769963 0.027054138 0.014399802 0.055998337
-0.074645214 0.04950962 -0.010441598 0.067524225 -0.043231025 0.096166864 -0.07496319 -0.06609619
-0.05343935 -0.010952564 -0.038958788 -0.057069983 0.02275096 -0.005091427 -0.020619499 -0.010745582
0.032251794 0.056076057 0.07224487 -0.025864996 -0.045011934 -0.051456545 0.11535419 -0.018860085
0.0127617335 0.016195042 0.034429364 -0.0509682 -0.041396704 -0.09109729 -0.046792384 -0.041681375
-0.023416463 -0.050118867 -0.03318992 -0.041164167 -0.0033822968 0.0588084 0.026184069 0.059207805
0.052250847 0.029043248 0.039732274 0.046343993 -0.043800514 -0.06627175 0.06107027 0.008009761
0.043679588 -0.022690756 -0.022024257 -0.025231289 0.048661247 0.029171685 -0.09247118 -0.012795014
0.032603107 0.0030534498 0.04638796 -0.0949752 -0.08397922 -0.10351405 0.08539509 -0.07239806
0.043633305 0.01259616 0.033805232 -0.006366053 -0.07873815 0.0020209795 0.07899602 -0.09629806
-0.046461266 0.008085175 -0.09422732 -0.038505033 -0.016151123 -0.12379363 -0.055428855 -0.12747158
0.020414077 -0.0068215984 0.030540686 0.032836817 0.05401881 0.08381136 0.051413562 0.0025551661
0.0773689 -0.022443378 -0.018813761 0.062794425 0.085034214 0.06229261 0.091183476 0.07246032
0.008857727 -0.021221695 0.035429332 -0.019560916 -0.0458328 -0.034109704 0.05617204 -0.06549006
-0.027670639 0.053377777 -0.08909512 0.038072918 0.040597834 0.036462616 -0.06385274 0.019372499
00000000: 9f46 8fbc 8655 41bc a710 013d 25ef 6d3d
00000010: 599f 10b9 e8ef 3c3d 2580 b939 89fb 2c3c
00000020: e673 96bd 0888 4a3b 1f1d c1bd 46dd 51bb
00000030: fd6e 843d 43fd e8bc 89db f73c 1f3b cf3c
00000040: 30c1 633c c37a a0bd 1281 79bc 5e71 3c3d
00000050: ca1a 24bc 7db6 ab3d af4f 873d 48a0 b23d
00000060: 8f36 5d3d 50b3 b5bc 5d54 8f3d 2d92 8ebd
00000070: b512 73bd 3010 92bd ca12 593d 2728 6fbc
00000080: 5c78 3ebd 14b5 a1bc 61b2 97bd 9483 24bd
00000090: 2824 71bd 1c64 a7bc 8be0 98bc 9e48 9f3d
000000a0: 88d1 413d 5542 ea3d 5554 43bd 10f7 c63d
000000b0: bc6d 16bc d74d d5bd a726 6b3c e005 2ebd
000000c0: 91ac 593d 5646 a8bc 793c 55bd 079d ccbc
000000d0: c99c 5e3c 359e 49bd 1683 823d 00bf f8b9
000000e0: 2b92 cbbc c67d 803d 6745 c0bb af46 173c
000000f0: ae37 b6bd 9272 0b3d 8ea4 42bd cd57 62bd
00000100: 0057 9f3c 678d 1b3d efa1 513a 5e75 663d
00000110: ad56 75bd 0043 35bc 36cf 75bc c1e2 a5bd
00000120: 9614 623d 11a1 593d a87f 9a3d 4317 acbd
00000130: 3e2b c7bd 6a5a adbd 9141 123d bf69 0bbd
00000140: 810d 37bd 4289 703d c753 01bd b5c3 523d
00000150: 765d 5dbc e276 703d 3f21 adbc 3430 88b9
00000160: 771b 3bbb bbdd a13d a0bc a4b9 d9d8 1e3c
00000170: e7c3 a6bd fd87 023e d367 9d3d ccf1 143e
00000180: 06d1 d2bb 5b68 40bd a97d 143d 677c d2ba
00000190: f4b0 4abd a7b3 893a 6fb9 e5bc bdb0 813d
000001a0: 7f1a 973d 1d40 c43d 807d ef3b 2623 e0bc
000001b0: 3cc9 b9bd 2af6 82bd 4a5a e8bc d484 503c
000001c0: 412a df3b 0bf1 d83c 654c 753c c9b6 c3bd
000001d0: 0a6e 8abd 92b0 923c 92e0 5e3d b69e 233d
000001e0: c3e3 e33c 514a 523c aff5 333d a3fb f53d
000001f0: 3a37 f73c a871 133d 9486 8abc de9f 3cbd
00000200: 28b6 8dbd ad14 163d 1a86 17bd 7749 a33d
00000210: d81d 813d 554f 793d da59 32bd 02ef 28bd
00000220: ab7d 533d ba96 173d 4991 803c fa28 bc3d
00000230: 7856 603d a4a0 dd3c 26ed 6b3c 835e 653d
00000240: 97df 98bd 99ca 4a3d 3c13 2bbc 244a 8a3d
00000250: 0413 31bd 22f3 c43d 4d86 99bd 705d 87bd
00000260: 38e3 5abd 6272 33bc 4093 1fbd 37c2 69bd
00000270: 3960 ba3c fcd5 a6bb 39ea a8bc 3d0e 30bc
00000280: 751a 043d 02b0 653d 1ef5 933d d4e2 d3bc
00000290: 6f5e 38bd 19c4 52bd d13e ec3d 7780 9abc
000002a0: 9716 513c 77ab 843c ce05 0d3d 08c4 50bd
000002b0: 978f 29bd 3791 babd 5fa9 3fbd 17ba 2abd
000002c0: e2d3 bfbc 7149 4dbd 27f2 07bd c29b 28bd
000002d0: 86a9 5dbb 14e1 703d f97f d63c e283 723d
000002e0: fc04 563d 1bec ed3c 4fbe 223d 33d3 3d3d
000002f0: 2b68 33bd 7cb9 87bd d224 7a3d 5f3b 033c
00000300: 5ee9 323d f7e1 b9bc 376c b4bc d9b1 cebc
00000310: 0451 473d 75f9 ee3c 8861 bdbd 2ea2 51bc
00000320: d68a 053d 631c 483b 4d01 3e3d 5c82 c2bd
00000330: 4cfd abbd 2dff d3bd 9fe3 ae3d 6f45 94bd
00000340: d6b8 323d 2060 4e3c 5b77 0a3d 539a d0bb
00000350: 7841 a1bd 6972 043b aac8 a13d eb37 c5bd
00000360: 2b4e 3ebd af77 043c 41fa c0bd 74b7 1dbd
00000370: 5c4f 84bc 8487 fdbd 5e09 63bd e987 02be
00000380: 6c3b a73c b787 dfbb 7630 fa3c e67f 063d
00000390: d442 5d3d 4aa5 ab3d 0797 523d 9374 273b
000003a0: 9673 9e3d 2ddb b7bc 511f 9abc 5d9a 803d
000003b0: 6b26 ae3d 8926 7f3d 67be ba3d 1466 943d
000003c0: 0020 113c 1fd9 adbc 591e 113d 373e a0bc
000003d0: 2dbb 3bbd 9eb6 0bbd a714 663d a71f 86bd
000003e0: 89ad e2bc a8a2 5a3d 8177 b6bd 59f2 1b3d
000003f0: ea49 263d d359 153d 3ac5 82bd 13b3 9e3c

decoder.2.bias f4 [16]
0.05377413 0.026248313 -0.020818654 0.0021050384 0.08598342 -0.04874567 -0.07442692 -0.006511706
0.046927914 -0.030775731 0.06918127 -0.047130916 -0.07741231 0.020407204 0.039116144 -0.04127701
00000000: 4342 5c3d b406 d73c e28b aabc aff4 093b
00000010: 1318 b03d 8aa9 47bd 246d 98bd 2660 d5bb
00000020: 7c37 403d 631d fcbc e9ae 8d3d 590c 41bd
00000030: 588a 9ebd 022d a73c 4038 203d 1512 29bd

decoder.4.weight f4 [16, 3, 3, 3]
0.14157449 -0.073541075 -0.10132242 -0.0060551777 -0.031043855 -0.06948316 0.1405922 -0.064294636
-0.07624655 -0.23411444 0.17273727 -0.15108822 -0.022630537 -0.19682387 -0.12412704 0.020255554
-0.0666789 -0.042581167 0.09317842 -0.04914874 0.09614848 0.0001368515 -0.022660758 0.05753452
0.09268558 -0.18310067 -0.03344962 0.158752 0.053210348 0.11428212 -0.036002357 0.17515676
0.22338627 0.009371029 -0.07104122 0.14015396 -0.026020888 0.021610696 0.14256494 0.14013146
0.02507752 -0.12392729 -0.097910225 0.090895906 -0.013186374 0.07515095 -0.09932854 0.03560112
0.031218052 -0.07388694 0.033278257 0.005613092 0.09455039 -0.004138944 0.13502558 0.060271196
-0.052796822 -0.103081025 -0.21669133 -0.06487343 0.11504315 -0.06258812 -0.18923527 -0.16489612
0.00020966603 0.0869942 -0.14403409 0.03397659 0.081497096 -0.20085244 -0.17756067 -0.19052531
-0.0042165155 -0.1374552 3.802331e-05 0.035135068 0.11914445 -0.15174018 -0.0783148 -0.024192011
0.011584165 0.13941635 0.24802892 0.20836613 0.22610869 -0.05166263 0.1851263 0.051468674
-0.10885042 -0.1320467 -0.07640521 0.13997403 0.02947156 0.12946841 -0.02318655 -0.024095353
0.14246586 0.06254524 0.20613201 0.012293894 0.19026719 0.14552104 0.18435669 0.12154041
-0.06434481 0.18362328 0.007371808 0.0056390837 0.06855231 -0.02627796 -0.06618244 -0.030897405
-0.23506027 -0.028920237 -0.15430674 -0.1939538 0.00880333 0.03079523 0.1429563 -0.029173177
-0.08591773 0.12616263 0.16566435 -0.04973685 -0.11750253 0.117909804 0.119895786 -0.05181088
0.03226611 0.09467283 0.0784788 -0.025882185 0.040605262 0.11105203 0.081083894 -0.15115862
0.05098656 0.005625207 0.025329456 0.09217361 0.20498495 -0.1329969 0.15075186 0.10966937
0.004326356 0.18664904 -0.0020946332 0.11283762 -0.014755719 0.17098352 0.09756288 -0.065430254
-0.13061252 -0.13137142 -0.087053 -0.1163788 -0.024335094 -0.023586774 0.11811861 -0.10636631
0.19537887 0.108240426 -0.23067555 -0.21258782 -0.082048014 0.10563856 0.08401925 -0.008760835
0.0055639907 0.099700406 -0.24810526 -0.059341915 0.12359851 -0.106308736 0.13096291 -0.03441411
-0.16246992 -0.100438654 0.25355038 -0.22345355 0.11592894 -0.030223837 0.13002133 -0.04284449
-0.009148977 0.0003552447 0.038367268 0.1389604 -0.078935064 -0.09817854 0.04008711 -0.055414464
-0.016277336 -0.12732026 0.087516904 0.19256866 -0.23349941 -0.0039921417 -0.16970393 -0.08019635
-0.049879085 0.025892342 -0.07469193 -0.044289555 0.0958736 0.07280778 -0.118236266 -0.010737542
0.040589776 0.118879184 -0.028177865 -0.08118996 -0.06269173 0.04711875 -0.10149565 -0.10430259
0.17120622 0.10375287 -0.08108698 0.09195618 0.1060113 -0.106656276 0.043686107 0.11131917
0.15740632 0.14870338 0.20333682 0.06809627 0.2043841 0.122451454 0.064298935 0.016281342
-0.08983609 0.02537659 0.1656842 0.08517553 0.09910181 0.009512794 0.13858713 -0.019279212
0.10179044 -0.05211209 0.0357569 0.008112432 -0.21447548 0.038101763 0.04500131 -0.019904329
-0.23300773 -0.17604552 0.05114511 -0.09175666 0.1146873 -0.01811009 0.021736255 -0.10952546
00000000: e7f8 103e b49c 96bd 2182 cfbd 836a c6bb
00000010: af4f febc 304d 8ebd 67f7 0f3e e8ac 83bd
00000020: 2727 9cbd b2bb 6fbe 0ae2 303e dfb6 1abe
00000030: ad63 b9bc 328c 49be 5136 febd faee a53c
00000040: f28e 88bd 9769 2ebd 54d4 be3d 3050 49bd
00000050: 7fe9 c43d cb7f 0f39 0ea3 b9bc 51a9 6b3d
00000060: f0d1 bd3d be7e 3bbe 7802 09bd e28f 223e
00000070: 18f3 593d be0c ea3d 3577 13bd 4b5c 333e
00000080: 5fbf 643e f288 193c 0f7e 91bd 8584 0f3e
00000090: c229 d5bc ea08 b13c 8bfc 113e 9f7e 0f3e
000000a0: 5f6f cd3c 97cd fdbd 2885 c8bd a227 ba3d
000000b0: a90b 58bc bee8 993d c36c cbbd 7bd2 113d
000000c0: 00bd ff3c 0952 97bd c84e 083d 07ee b73b
000000d0: a3a3 c13d fb9f 87bb 2544 0a3e eede 763d
000000e0: 7b41 58bd 251c d3bd 55e4 5dbe 5cdc 84bd
000000f0: be9b eb3d 332e 80bd e4c6 41be 87da 28be
00000100: ccd9 5b39 042a b23d ac7d 13be 092b 0b3d
00000110: f3e7 a63d 43ac 4dbe 77d2 35be 1119 43be
00000120: b22a 8abb 0ec1 0cbe 387b 1f38 cae9 0f3d
00000130: 0102 f43d c761 1bbe 8363 a0bd 532e c6bc
00000140: 82cb 3d3c 29c3 0e3e 4bfb 7d3e ee5d 553e
00000150: 0989 673e 329c 53bd c091 3d3e d1d0 523d
00000160: f8ec debd 4037 07be 567a 9cbd 5a55 0f3e
00000170: 576e f13c 5e93 043e b8f1 bdbc 9e63 c5bc
00000180: 92e2 113e b817 803d 4514 533e 546c 493c
00000190: 67d5 423e 7803 153e 00c8 3c3e 2eea f83d
000001a0: 36c7 83bd be07 3c3e 358f f13b 10c8 b83b
000001b0: 2765 8c3d e044 d7bc a98a 87bd 8e1c fdbc
000001c0: a4b3 70be 22ea ecbc 9602 1ebe d39b 46be
000001d0: d83b 103c 4746 fc3c 2363 123e 96fc eebc
000001e0: a3f5 afbd c730 013e eaa3 293e deb8 4bbd
000001f0: 2ba5 f0bd b27a f13d ec8b f53d a537 54bd
00000200: 7829 043d d4e3 c13d 7eb9 a03d e006 d4bc
00000210: b451 263d 3f6f e33d 500f a63d 53c9 1abe
00000220: 48d7 503d a853 b83b b87f cf3c 85c5 bc3d
00000230: 93e7 513e 5730 08be b25e 1a3e 569a e03d
00000240: 1bc4 8d3b ed20 3f3e 1d46 09bb 6917 e73d
00000250: f9c1 71bc 4e16 2f3e 0ccf c73d 4c00 86bd
00000260: 4abf 05be 3b86 06be d848 b2bd 0258 eebd
00000270: 645a c7bc 0d39 c1bc 2be8 f13d 94d6 d9bd
00000280: 6611 483e 28ad dd3d 3636 6cbe 9fb0 59be
00000290: ca08 a8bd 0859 d83d 4912 ac3d 9b89 0fbc
000002a0: 2352 b63b ba2f cc3d 4e0f 7ebe 8210 73bd
000002b0: 3721 fd3d 65b8 d9bd 241b 063e cff5 0cbd
000002c0: 845e 26be c8b2 cdbd 5bd1 813e 02d1 64be
000002d0: 276c ed3d fb97 f7bc 5024 053e b47d 2fbd
000002e0: 97e5 15bc 2340 ba39 ff26 1d3d a34b 0e3e
000002f0: b5a8 a1bd d511 c9bd 6232 243d 47fa 62bd
00000300: 0c58 85bc 3e60 02be 103c b33d b830 453e
00000310: 781a 6fbe 83d0 82bb dec6 2dbe fc3d a4bd
00000320: 034e 4cbd 2d1c d43c 15f8 98bd f768 35bd
00000330: 6159 c43d 3f1c 953d db25 f2bd 84ec 2fbc
00000340: 7741 263d ee76 f33d 44d5 e6bc ec46 a6bd
00000350: 8664 80bd 97ff 403d f4dc cfbd 999c d5bd
00000360: af50 2f3e 627c d43d ee10 a6bd 8653 bc3d
00000370: 741c d93d 9b6e dabd 34f0 323d 4efb e33d
00000380: 1f2f 213e b345 183e 8737 503e 0f76 8b3d
00000390: 114a 513e d4c7 fa3d 29af 833d 7360 853c
000003a0: fcfb b7bd 91e2 cf3c 1ea9 293e 8270 ae3d
000003b0: e4f5 ca3d 8ddb 1b3c c9e9 0d3e 70ef 9dbc
000003c0: 8277 d03d 7d73 55bd d475 123d 02ea 043c
000003d0: 769f 5bbe 9810 1c3d 4b53 383d 670e a3bc
000003e0: 9499 6ebe 4745 34be 897d 513d eaea bbbd
000003f0: 2de1 ea3d 9d5b 94bc 3b10 b23c e24e e0bd

decoder.4.bias f4 [3]
0.15236998 0.10194629 -0.03919005
00000000: e006 1c3e 37c9 d03d bf85 20bd
