macaroni1_autoencoder.pth (torch, 193170 bytes, 12 tensors)

encoder.0.weight f4 [16, 3, 3, 3]
00000000: 98d0 18be 46ee 8c3d c461 683d 720a 23be
00000010: e01a 573c 5f06 d2bd 7172 f2bd 782c 11bd
00000020: 3474 cfbd a002 2b3c 3e68 95bd 8add fe3d
00000030: d2c6 943d c787 023e abae e6bd 8048 f33b
00000040: e6d0 a0bd 0483 50bd 9fd1 413e 4814 44bd
00000050: 9026 2d3c 6d2f 0a3e 78ae 3b3d 7a80 b13d
00000060: 606c da3b 3c53 37bd 0c5e 23bd 73b8 353c
00000070: 76b4 2abe 977c d3bd 37e5 2cbe 4746 4bbe
00000080: 9132 08be a00f 5cbe 3517 163e 22ae 4a3d
00000090: 54a0 0d3e 50c9 41bd b189 dfbd 80ed 333e
000000a0: 55f3 1fbd 64c0 103e afae 1d3e fe10 263e
000000b0: 041e ff3d 408a 2abe 7089 1b3e 34c6 db3d
000000c0: 13f1 fd3c 0999 1fbe 71b0 c83d 245b b4bd
000000d0: ec87 8a3d 4034 083e 2f52 dc3d 5aa0 b33d
000000e0: 7aa1 193e 6c1d a2bd 83af 02be bf14 fc3d
000000f0: c979 433c a769 45be 7818 0dbe 07a4 2bbd
00000100: e5bf 193d 03b8 1cbe ab3c dcbd cb19 d7bd
00000110: 43c7 13bd 5a1c 09be 08d7 b2bd a0d9 21be
00000120: a719 a73d fd77 2bbc 9112 f23b 19ae 9c3d
00000130: 8acf 06be e4f8 30be 1346 76bd d77b 2e3e
00000140: f4aa f9bd f3b1 1abd e2d9 733d cbc3 ca3d
00000150: dd6d 0abc 0440 3ebe aab9 283e 27cf cf3d
00000160: 9804 83bd ee36 c9bc 280f c23d ea73 f7bb
00000170: 586e 743d 5057 be3d d3c4 b33d 5758 123e
00000180: 68cd b13d f2b7 a23d ed73 87bd 20dc 333e
00000190: 948f 8d3d f920 dd3d 96b2 8cbd 8c8f 143e
000001a0: c942 923c e2de de3d 05c4 30be 968e 2d3e
000001b0: a763 f0bd d396 3cbe 1c78 023e 7ac6 b7bd
000001c0: 0f09 cf3d 6d72 d2bc 4cb3 f9bc e327 47be
000001d0: e1f9 5bbd 0a85 0d3e 248c 1fbe 452e e93c
000001e0: f0fc 14bd ed50 99bd 2855 21be da8e fbbc
000001f0: 6476 233e 3e7b a63d db98 b23d 3d82 fc3d
00000200: 92b3 303d 0ab6 24be 089b 343e 6e90 bebd
00000210: d151 97bd 46e6 1b3e c9db d13d 6139 47bd
00000220: 11ce e5bd b3c9 4b3b 57d6 0cbe 124e 14bd
00000230: 7819 26be 18cc cfbc bc24 25be b8db a7bd
00000240: a242 0dbd c6a9 323e 58bf 7a3d e1e6 143e
00000250: 24ea 573e 0752 ec3d 19af 0f3e 875f 64bd
00000260: dc08 3b3e 23db d63c c02d 0dbe 261c b9bd
00000270: f667 18be 0278 053d 77c7 093e 1761 29be
00000280: ac03 b53c fedc 483e 3a79 e5bd 2d34 083d
00000290: e7d1 2cbe 53b4 db3d e41e 213e 4423 363d
000002a0: 7908 d3bd aa6e d23c 13fa febd fca9 e13c
000002b0: e913 cf3d bffb 2b3d 841b 6b3d 2dcb 52bd
000002c0: 0ba0 abbc 79ca 4b3e a8fe f7bc 5431 443e
000002d0: fa86 d7bd 7fd2 dd3c 8dc1 693d 1a3c 00bd
000002e0: 91df 93bb c803 b83c ec54 84bc 4897 103e
000002f0: f015 dc3c bf55 f83d 1923 1abe b80f 40be
00000300: d15c 933d f040 833d df89 e03d 188c f6bd
00000310: 8400 2a3e 182a 14bc 9e30 0c3d c2ff 0c3e
00000320: 5aa1 0b3e 3c5c 063e 0da8 3c3e b1ed 55bb
00000330: 28b4 f0bd b3d8 a6bd 28a1 44bc 99ed 7d3c
00000340: 44c3 4dbd 0ecf 273e 12af 353e 2e73 32bd
00000350: 2375 21be 69be 24be d6d5 073e 0799 d93d
00000360: abbd 773d 8aa4 17be a7a4 52bd 050e 3f3d
00000370: aa66 913c 70bc fdbc 7dbf 87bd 621f 35be
00000380: 09b7 31be ce7b 803c 0e94 1b3d c705 d13d
00000390: bf33 5b3e 691a 19bc a7fc d6bd 4841 123e
000003a0: 49b4 f33c 569f a5bd eff5 07be 321b 473e
000003b0: fd94 0abe 7deb 843d 808d 183e 1d11 053c
000003c0: 0817 083e 214b 4f3c b8b3 1ebe 3811 13be
000003d0: c7c7 f8bd 6327 173d cde1 193e c4f1 163e
000003e0: 8cd7 ef3d 313a 03be ca08 89bc 7a5e cd3c
000003f0: d863 aebd dc26 f43d ea11 33be e6bd 1ebe
-0.14923322 0.068813846 0.05673386 -0.15921953 0.013128966 -0.102551214 -0.11838234 -0.0354428
-0.10129586 0.010437638 -0.07295273 0.12444599 0.072644845 0.12747107 -0.11263784 0.007424414
-0.07852344 -0.050906196 0.1892762 -0.047870904 0.010568276 0.13494654 0.045820683 0.08667083
0.0066657513 -0.044757113 -0.039884612 0.011091339 -0.16670403 -0.10326498 -0.16884314 -0.19851027
-0.1330054 -0.21490335 0.1465729 0.049482472 0.13830692 -0.047311127 -0.109149344 0.17571068
-0.03905042 0.14135891 0.15398668 0.1621742 0.12456897 -0.166543 0.15189147 0.107311636
0.030998742 -0.15585722 0.097992785 -0.08806446 0.06764206 0.13301182 0.10757863 0.08770819
0.15003005 -0.07915768 -0.12762265 0.123086445 0.011930891 -0.19278584 -0.13778865 -0.041904476
0.03753652 -0.1530457 -0.10753759 -0.105029665 -0.036078703 -0.13389722 -0.0873242 -0.15805674
0.0815919 -0.010465619 0.007387467 0.07650394 -0.13165107 -0.17282444 -0.06012542 0.17039429
-0.1219081 -0.03776736 0.05953396 0.09900626 -0.008449045 -0.18579108 0.16477075 0.10146933
-0.063973606 -0.024562325 0.09475547 -0.00755166 0.059675545 0.09293997 0.087777756 0.14291511
0.08681756 0.07945241 -0.06613908 0.1756444 0.06912151 0.10797305 -0.0687 0.14507884
0.017854111 0.10882355 -0.17262276 0.16948923 -0.11737757 -0.1841691 0.1274113 -0.08973403
0.1010915 -0.025689328 -0.030481003 -0.1944881 -0.0537051 0.13820282 -0.15580803 0.028464446
-0.036374032 -0.074861385 -0.15755141 -0.030707765 0.15963131 0.08128975 0.08720561 0.123295285
0.04314 -0.16085067 0.17637265 -0.093048915 -0.07388652 0.15224561 0.10246999 -0.048638705
-0.11220945 0.0031095564 -0.13753639 -0.036207266 -0.16220653 -0.025365874 -0.16127294 -0.08196205
-0.034487374 0.17447576 0.061217636 0.14541198 0.21085411 0.11539083 0.14031638 -0.055755164
0.18265098 0.02622754 -0.13786983 -0.09038572 -0.14883408 0.03258515 0.13454996 -0.16540943
0.022096477 0.19615552 -0.11204763 0.033252884 -0.16876946 0.107277535 0.1573444 0.044467226
-0.103043504 0.025687534 -0.124500416 0.027546875 0.101112194 0.04198813 0.057399288 -0.051463295
-0.020950338 0.19901456 -0.030272797 0.19159442 -0.105237916 0.027077911 0.05706935 -0.031307317
-0.004512735 0.02246274 -0.016153775 0.14120209 0.02686593 0.1212573 -0.15052451 -0.18755996
0.07195438 0.0640887 0.10963797 -0.120384395 0.16601759 -0.009043239 0.034226052 0.13769439
0.1363577 0.13121122 0.18423481 -0.0032642896 -0.11753112 -0.08146801 -0.012001313 0.015498542
-0.050235048 0.16387579 0.17742565 -0.043566875 -0.1576734 -0.1608826 0.13265166 0.10624891
0.060483616 -0.1480886 -0.051426556 0.04664423 0.01774915 -0.030973643 -0.0662832 -0.17687753
-0.17354979 0.015684035 0.037982993 0.1020618 0.21406458 -0.009344676 -0.10497408 0.14282715
0.029749053 -0.080870315 -0.1327741 0.19443968 -0.13533397 0.06490228 0.14897728 0.008121756
0.13290036 0.0126521895 -0.15498245 -0.14362037 -0.121474795 0.036902796 0.15027542 0.14740664
0.11711034 -0.12815167 -0.016727824 0.025069464 -0.085151374 0.11921474 -0.17487302 -0.15502128

encoder.0.bias f4 [16]
00000000: 2a9b f3bd 5e5a 613e a5fa 17bc 2cb6 203e
00000010: dc0d 6f3e 5054 ad3d b0a9 45bd 6788 0b3e
00000020: d1a8 303e 155f 823d 056d 433e 5f51 6fbd
00000030: 9624 a83d 2482 d43a e4a2 243e f0fd fabd
-0.118948296 0.22007129 -0.009276067 0.15694493 0.2334513 0.08463347 -0.04825753 0.13626252
0.17251898 0.06365792 0.19084556 -0.05842721 0.08210103 0.0016213101 0.16077763 -0.12255466

encoder.2.weight f4 [32, 16, 3, 3]
00000000: d87f 0fbc 91d3 893d b0f7 95bb 05f7 9b3d
00000010: d068 073d c2b9 133d 5abd 93bd a0d7 93bd
00000020: 76ca 5cbd 8e69 31bd 4a92 783d d18e a83d
00000030: 2e0f 9bbd 76c6 5abd 33f0 7bbd 0e31 1cbd
00000040: 8671 0fbd aa05 2c3d a630 56bd 0182 a63d
00000050: f0a5 bd3b de9d 6d3d 66e9 83bd 4d9b 943d
00000060: 94e9 a8bd 5266 8dbd 9484 87bc ba2e 793d
00000070: cbac 73bd 7ebb 163d b805 763c 68d6 67bd
00000080: d00e 86bd ba91 7d3d 8dea 8c3d b6d7 413d
00000090: a0bc ba3c a68c 25bd 6ed2 98bd 4089 db3c
000000a0: 5136 9b3d ce5a 5bbd 0811 6e3c 6c28 b6bc
000000b0: da2d 413d fe25 31bd 7233 80bd dfea 9abd
000000c0: 10fc 203d 1848 0f3d 00fa 443a 03dd 63bd
000000d0: 4824 323c dc44 8dbc 20ca 1e3b 131e a73d
000000e0: 62d2 773d 19cb 953d 4054 d0bc 2c31 bd3c
000000f0: c010 733c 5bc1 68bd 2e6a 2a3d f758 9cbd
00000100: 7097 d7bb f63a bebc 99b9 9c3d c41b eb3c
00000110: 10f4 a6bb c46e a7bd 089d 20bc 0844 1cbc
00000120: 807b 78ba 2321 61bd 132f 56bd c8b1 6dbd
00000130: f487 aabc 6e94 5c3d 7f51 aa3d cb53 803d
00000140: 7328 58bd 50ea a63b 4084 cebb f863 0abd
00000150: 58d6 7abc 8607 10bd 7dbd 8c3d 9da2 8e3d
00000160: d8bf 02bc d0f0 19bd 4a6e 343d f36b 88bd
00000170: 98e7 6ebd 1619 adbc 8255 183d aaed 83bd
00000180: c40b 98bd 367c 39bd 2300 813d 0090 08bd
00000190: d487 a2bc e23d 86bd 40f8 f2bc dcb3 97bd
000001a0: a31d 84bd fe7b 88bd 3069 c1bb 9ae5 463d
000001b0: 60b8 90bd f291 8fbd db46 16bd 3439 e93c
000001c0: dd00 823d c78e 84bd c0e8 52bd 3efc 8cbd
000001d0: e030 e23c 0044 533a 805f 7dbb c296 5e3d
000001e0: d07e ce3b f276 0b3d 4e18 233d b2be 98bd
000001f0: 30fc e63c 0356 33bd 6432 e23c 9488 a13c
00000200: b693 90bd 88ac 63bc 4e2f 67bd 1d4e 813d
00000210: 2b0f 4fbd 7343 0dbd b6dc b1bc 5005 a93c
00000220: a041 093b 847f b13c 3337 6cbd b3b5 5dbd
00000230: 6204 9ebd b619 373d ed11 943d 0db5 9c3d
00000240: 2c67 9fbc 7a3a 063d 28db 29bc 6847 a3bd
00000250: 80b4 ed3c 287c 61bd 7be7 2fbd 3c9c 873c
00000260: 0138 863d 10be ba3d 1987 fe3a 8633 1d3d
00000270: 0810 453d fbc8 da3d 43c7 0f3d 5a2f a53d
00000280: 5eeb 613d 6ab1 523d 3f7c 643d 6ece a239
00000290: 71cf a33d 82e9 533b 0d57 983d eb87 85ba
000002a0: 7f64 50bd c1d9 37bd 87d6 52bd fa2c 45bb
000002b0: 0e4a c73a 8e43 e83c bc90 6d3d 82d6 393d
000002c0: ca75 41bd f3b1 95bd 59f0 61bd 5742 62bd
000002d0: 7832 753d 262b 783d 6ff4 423d e8b2 023e
000002e0: 739a ef3d 1ffa 503d 63fa 003e 67cb 153c
000002f0: 3c4a 35bc 26b3 493d 86e2 073d a077 373d
00000300: 730e 833d 3c63 893c 5a68 053e 5618 a73a
00000310: bc28 843d 0b7d 0e3e c04e 28bd 9f05 8abd
00000320: 9b5e 0c3b efbc 09bd 20e6 aebd 07cc 27bd
00000330: dcc6 dfbc 0d10 30bd 1975 d3bc 1224 703d
00000340: 8a6c fe3b d217 8a3d 6ff1 9d3d 2c72 1a3d
00000350: 4efd 59bd acf7 ed3c babe 21bd 8fac 38bd
00000360: 4290 463d 697b f63d 6fe1 003d 216b 733d
00000370: bdcb 083e 1840 d13d 99ab 823d 388d 763d
00000380: 1c41 043e 339e 853d c828 433d a288 94bd
00000390: 5cce 20bd f88e 04bd 8b27 f13c 5289 493d
000003a0: d94c 1e3b f0c6 633d 9f34 133c 57a5 f13c
000003b0: ffc8 a73c 3c61 563d 34a8 ec3d f885 613d
000003c0: 4cc3 98bb 51ee 223c 1abe cd3d 1700 92bd
000003d0: dc68 e2bc 25bf 93ba f8b7 42bc 3ece 2dbd
000003e0: 6714 50bc a48e 84bd 7e27 2f3b 17f8 20bd
000003f0: 1a5a 39bc 6548 783d fdb7 903d c04d 6ebd
-0.008758508 0.06729806 -0.004576646 0.076154746 0.03305894 0.036065824 -0.0721385 -0.072188616
-0.05390402 -0.043313555 0.060686387 0.08230365 -0.07571255 -0.053411923 -0.06150837 -0.03813272
-0.035020374 0.04199759 -0.05229249 0.08130265 0.0057876036 0.058011882 -0.064410016 0.07256184
-0.082476765 -0.06904282 -0.01654271 0.060835578 -0.05949096 0.0367999 0.015016012 -0.056600958
-0.06545794 0.061906554 0.068806745 0.04732486 0.022795022 -0.040417336 -0.07462011 0.026798844
0.075787194 -0.053553395 0.014530428 -0.022236072 0.047162868 -0.043249123 -0.062598124 -0.07564329
0.039302886 0.034980863 0.00075140595 -0.055630695 0.010872908 -0.017244749 0.0024229363 0.08160033
0.06050337 0.073141284 -0.025430799 0.023094736 0.0148355365 -0.056825023 0.041605167 -0.07634156
-0.006579332 -0.023221474 0.076525874 0.028699763 -0.0050950125 -0.08175424 -0.009803064 -0.009537704
-0.0009478852 -0.054963242 -0.052290987 -0.058030874 -0.02081678 0.05385249 0.083163254 0.06265982
-0.05277295 0.00509385 -0.0063023865 -0.033786744 -0.015309893 -0.035163425 0.068720795 0.0696461
-0.007980309 -0.037583172 0.044050492 -0.06661215 -0.058326334 -0.021130126 0.03719092 -0.06441815
-0.07424119 -0.045284472 0.06298854 -0.033340454 -0.019840159 -0.06554772 -0.02965939 -0.07407352
-0.06450965 -0.06664275 -0.005902432 0.04855881 -0.07066417 -0.07010259 -0.036688667 0.02846966
0.06347821 -0.06472545 -0.0514915 -0.06884049 0.027611196 0.0008059144 -0.0038661659 0.054342993
0.0063017383 0.034048982 0.0398181 -0.07458247 0.028196424 -0.0437832 0.027611919 0.019718446
-0.070594236 -0.013896115 -0.056441598 0.06313727 -0.050551575 -0.034488153 -0.021711688 0.020632416
0.0020943657 0.02166725 -0.05766983 -0.05412836 -0.0771568 0.044702254 0.072299816 0.0765172
-0.019458376 0.03277061 -0.010367192 -0.07972604 0.029016733 -0.055050045 -0.042945366 0.01655399
0.06553651 0.09118283 0.0019418924 0.038379215 0.04811099 0.10682865 0.03510214 0.08065672
0.055156104 0.051438726 0.055782553 0.0003105285 0.07998551 0.0032335226 0.074384786 -0.0010187601
-0.05087709 -0.0448854 -0.05147412 -0.0030086623 0.0015204565 0.028352525 0.057999358 0.045370586
-0.047231473 -0.07309332 -0.055160854 -0.055239048 0.059862584 0.060588025 0.04759639 0.1276356
0.11699381 0.051019784 0.12595515 0.009142733 -0.011065062 0.049243115 0.033175014 0.044791818
0.0639924 0.016770951 0.13028088 0.0012748342 0.06453082 0.13914888 -0.041090727 -0.067393534
0.0021418694 -0.033627447 -0.085399866 -0.04096606 -0.027316503 -0.042984057 -0.025812672 0.05862815
0.0077644037 0.067428246 0.077120654 0.03770654 -0.053220086 0.029048763 -0.03948853 -0.04508644
0.04847742 0.12035257 0.03146499 0.059428338 0.1335897 0.10217303 0.06380386 0.06019327
0.12915462 0.06524315 0.047646314 -0.07252623 -0.0392593 -0.032362908 0.0294378 0.049203224
0.0024154691 0.055609643 0.008984714 0.029497785 0.020481585 0.052338824 0.1155552 0.055059403
-0.004661953 0.009944514 0.100460246 -0.071289234 -0.027637891 -0.0011272175 -0.011884682 -0.042433016
-0.012700177 -0.06472519 0.002672642 -0.039299097 -0.011312986 0.060615916 0.07066343 -0.058179617

encoder.2.bias f4 [32]
00000000: 3c2f 92bd 9e27 31bc 8e5e c53c 3013 51bd
00000010: 1c8f d13d 274f c33c 4d0d 8bbb 91e9 923d
00000020: 389c 033d 1d3d 37bd 80b8 0bbd d94e e33d
00000030: 5ac7 0e3e af2e e53d 6c06 933c 3650 bb3d
00000040: d4c8 cb3d f5bf 163e 8c8f 3d3d c24e e23d
00000050: 02a3 e53d c0f8 9e3d a7c7 9a3d 6768 ff3d
00000060: d35d b83d e7a7 e53d c2f1 0b3e 900e bcba
00000070: 8e7c 243d 97fe 8c3c a2ad a93d 9446 173d
-0.071379155 -0.010812668 0.024092939 -0.05104369 0.10232374 0.023841454 -0.004243529 0.071734555
0.032131404 -0.044736017 -0.0341115 0.11099023 0.13943234 0.11190545 0.017947398 0.091461584
0.09950414 0.14721663 0.046279475 0.11050178 0.11212732 0.07762289 0.07557612 0.12471085
0.090022705 0.112136655 0.13666442 -0.0014347602 0.040157847 0.017211242 0.08285071 0.036932543

encoder.4.weight f4 [64, 32, 3, 3]
00000000: 0d7a 333d 1267 e33c f104 353d dc2d 15bd
00000010: 8218 933c 21e7 0bbd 7615 09bd 3f81 62bd
00000020: aa37 a63c bbd5 f13c edee 92bd ba8a bbbc
00000030: 1348 0f3c 935b 79bd 9fe6 043c da82 c53d
00000040: 34c5 c83d e6e4 a33c ec80 d13d 6513 dc3d
00000050: aad5 1b3e 1a05 bc3d f327 9e3d a5e9 163e
00000060: 75d5 b13c 590f 803d 9966 ad3a 5c06 3b3c
00000070: 3aba 9d3c 544d 363c 746c 1bbc 17c9 213d
00000080: ac7f 433c 75f2 093d 839c 183d 71f8 44bd
00000090: 797d 07bb 7018 a3bd 744a 8abb 7a23 3b3c
000000a0: 3603 a4bd ec05 58bd 2ffd bd3c 0b07 9f3d
000000b0: 84db 573d 12e3 ab3b 3604 09bd 7e05 47bd
000000c0: e408 57bd fda1 a7bd 7c96 c8bd fcd1 6c3d
000000d0: 1593 0d3e ee7f c53d 144c ddbc a49e 21bd
000000e0: 057d 2cbd c31e 5e3d 9748 90bd b49b b9bd
000000f0: 0470 4a3d 8ce0 b93d 83d7 cd3c f883 1cbb
00000100: c9a0 38bb 85a2 82bd 8b8a 163d 0697 6a3d
00000110: db81 2dbc dc1c 943d 5597 383e 50cd 963d
00000120: 0169 fe3c b941 703c 7a89 57bc fc5d 043d
00000130: a32d a1bb 7a05 acbd 8f43 a23d 0cec 183e
00000140: da1e f73c 6021 85bd 450c 973d c6d6 f33c
00000150: 6617 1f3c 50e8 9b3c 5a81 70bc cfa0 3cbd
00000160: e147 61bd ecea 90bd 9c4d 423c b177 253d
00000170: 58d4 9ebb 2721 5abd 4423 0abc d98b 09bd
00000180: 5fa4 613d b4c3 0b3c f3f9 023d 5d68 54bd
00000190: 8f0d 71bd 8dcb 89bb a801 b8bd 8c83 fabd
000001a0: dfe0 88bd ec80 883d 12c7 d33d 2c7f 653c
000001b0: d3c5 073d 21c6 babd e0a6 31bd 4cb9 923c
000001c0: 6554 d7bd 470c 60bd e420 873d 3ebe d93d
000001d0: 9e9d cd3d 466b 123d fb81 88bd ddce ae3c
000001e0: 2178 59bd 8ac7 15be 8c56 e9bd c61e b53c
000001f0: ebf5 983d c2dd 173d 2619 863c c011 523a
00000200: 69f7 393d dff2 213d 4a2a 64bd 3ea6 6fbd
00000210: 7c30 063c 6c9f 06bd 005b b1b9 9c48 67bd
00000220: 9baa f1bd 7647 47bd 40e2 36bd 3fa9 89bd
00000230: 18aa 14be 6267 9f3d 06ab c43d d622 933d
00000240: 5c08 853d dee9 a3bd 79aa 33bd 495b 3eba
00000250: 5ab5 79bd 5827 f2bd 2c39 143d abb1 033d
00000260: 8c24 813d 4559 7d3d c633 29bd cd18 12bd
00000270: f6d4 39bd e7bb 02be 5519 a4bd c7a7 293d
00000280: 82c3 143e c282 ce3d 3b12 6abd 8021 013b
00000290: eb7e 3cbd 4f66 0cbb e9a1 aabc 472c acbc
000002a0: c3f7 00bd 4682 e23c 32a6 e13c e040 3a3d
000002b0: 21ff d6bd 51b7 d8bd efd5 333d 9321 d1bc
000002c0: 3935 cdbd 0c6a ea3c 4d83 0d3e 5e6b 893d
000002d0: 2931 2bbd ddfd f3bd 7100 8dbd 03fa f23c
000002e0: fb24 c7bd 165c e3bb 4874 3c3d b77c 193e
000002f0: ef6b 853d ad02 fd3c 21db b7bd 682d 37bd
00000300: 1d7f 30bc 5370 fdbd 2849 bfbd 2750 e63d
00000310: 353f 143e a7ed b93d c455 7b3d 5f9d d5bd
00000320: 32f0 93bd 8b29 81bd bea1 efbd 903f cebd
00000330: 3ebf 253d 892e ce3d 7fd2 443d df3d 833d
00000340: 8b66 42bd 9fdd 4bbc 9a04 48bd 0e92 5bbd
00000350: 7e0f f6bc 9cef 953d 1faf bd3d 4e71 c43c
00000360: fe97 283a 6a95 dbbd 047a 81bd f283 24bd
00000370: 1c83 14be 2bd0 06be ac4f c33c 5ca0 953d
00000380: fba8 8a3d ea80 203b c304 d8bd 78fd 563c
00000390: 9fd8 48bd 5788 eebd b8fa 87bd 39ff cd3d
000003a0: 0691 423d 4db1 823d 6c4f 493d d072 bfbd
000003b0: 35d6 783c 00cf 8bbd 25fe 56bc 9126 b5bd
000003c0: 4302 b83d eb08 c63d b017 a13d ad53 993d
000003d0: 2b3d d63d fa4b ed3d b66c d53d 0a30 c33d
000003e0: 7ade 263e 4aea 23bd bd87 bd3c 4dcb ec3c
000003f0: 0321 713d 65a0 ffbc cf21 513d 306a 1cbd
0.04381757 0.027759109 0.044194166 -0.036420688 0.017956022 -0.03415597 -0.033467732 -0.05529904
0.020290215 0.02952086 -0.07174478 -0.022893298 0.008745211 -0.060878348 0.008111625 0.096440986
0.098032385 0.020006608 0.10229668 0.10745887 0.15218225 0.091806605 0.077224635 0.14737566
0.02170823 0.06252927 0.0013229429 0.01141509 0.019253839 0.011126835 -0.009486306 0.039498415
0.011932295 0.03367849 0.037258636 -0.048088495 -0.0020674153 -0.079636455 -0.0042203013 0.0114220325
-0.08008425 -0.052740023 0.023192016 0.07765015 0.05269958 0.0052455748 -0.03345128 -0.048589222
-0.052498713 -0.08185194 -0.097943276 0.057817444 0.13825639 0.09643541 -0.027013816 -0.039457932
-0.042111415 0.054228555 -0.070450954 -0.09062901 0.049423233 0.09076032 0.025127178 -0.002388237
-0.0028172007 -0.063786544 0.03675322 0.057272933 -0.010590042 0.07232067 0.18026479 0.07363379
0.03105593 0.014664107 -0.013155336 0.032316193 -0.0049187704 -0.08399482 0.07923042 0.14933795
0.030166078 -0.065005064 0.07375387 0.029765498 0.0097101685 0.019031674 -0.014679277 -0.046051797
-0.05500019 -0.07076058 0.011859324 0.04039735 -0.0048470907 -0.053254273 -0.00843126 -0.033580635
0.055088397 0.008530546 0.03197665 -0.05185734 -0.05885082 -0.0042051733 -0.08984691 -0.12232122
-0.06683516 0.06665215 0.10340704 0.014007371 0.033147644 -0.09119821 -0.043372035 0.017910622
-0.10514144 -0.05469921 0.0659807 0.10631989 0.10039829 0.035746835 -0.06665417 0.021338874
-0.05309308 -0.146269 -0.11393461 0.0221094 0.0746878 0.03707672 0.016369414 0.0008013509
0.045401964 0.03953826 -0.055704392 -0.05850815 0.0081902705 -0.03286688 -0.0003382787 -0.05646573
-0.118001185 -0.048652135 -0.044649363 -0.06721734 -0.1451801 0.077833906 0.09602933 0.07184379
0.06495735 -0.08003591 -0.043863747 -0.00072615274 -0.060963966 -0.118239105 0.036187336 0.03215186
0.06305799 0.061852712 -0.04130914 -0.035668183 -0.04536911 -0.12766992 -0.08012644 0.04141977
0.14527705 0.10083534 -0.057146292 0.0019703805 -0.046019476 -0.0021423285 -0.020829158 -0.021017207
-0.031486284 0.02765001 0.027545068 0.045472026 -0.10497881 -0.1058184 0.043905195 -0.025528705
-0.10019917 0.02861502 0.13819619 0.06709932 -0.04179493 -0.11913655 -0.0688485 0.02966023
-0.0972385 -0.0069384677 0.046009332 0.14988981 0.06514727 0.030885065 -0.089773424 -0.044721037
-0.010772494 -0.1237494 -0.09340125 0.112457566 0.14477237 0.09078532 0.06136109 -0.10430407
-0.07223548 -0.06306752 -0.11700772 -0.10070717 0.040465586 0.100674696 0.048052307 0.06408285
-0.047461074 -0.012442975 -0.048832513 -0.053606085 -0.030036684 0.073210925 0.09261917 0.02397981
0.000643134 -0.10721858 -0.06322101 -0.040164895 -0.1450314 -0.13165347 0.023841701 0.07305977
0.06770512 0.0024490901 -0.10547783 0.013121955 -0.04903471 -0.116470985 -0.06639618 0.100584455
0.047501586 0.06381474 0.04914801 -0.093480706 0.01518779 -0.068265915 -0.013122116 -0.088452466
0.089848064 0.0966967 0.07865846 0.07486663 0.104608856 0.11586757 0.104211256 0.09530647
0.16295806 -0.040018357 0.023136014 0.028905535 0.058869373 -0.031204412 0.051057633 -0.038187206

encoder.4.bias f4 [64]
00000000: 77a5 e23c 0b26 173c 89e5 973d 080a 4b3d
00000010: 9b1b b23c f7f0 9a3d fba6 4d3d 71f8 613a
00000020: bbf9 2d3b 38af 403d 2de9 5e3d 2b10 a63d
00000030: 6ae0 383d 8ee6 b83d 8b93 a63d 966c c2bb
00000040: 3270 913d b644 94bc 55de 1c3d 1eb1 203c
00000050: 04d1 583d 38f0 4abc b37d ad3c 377a 473d
00000060: 9cde c23c fe52 753d fe05 efbc 3ba8 b9bc
00000070: ead4 a43c 6692 713d b5e1 893d 97e0 8d3d
00000080: 0ad5 683d 3fb2 c73c bda0 1f3d 658c 5fbc
00000090: 29ed af3c c3cb b83d 0bf4 6d3d 2208 3d3d
000000a0: 2c3a 513d d772 14bd 27a1 813d 505f 7cbd
000000b0: 7c3d ba3d 2144 7f3d b664 00bc 7fb6 ab3d
000000c0: 1aaa f63d d2f4 883b ad66 323d ae2f b03d
000000d0: 7d36 3d3d d827 2d3c 5852 bd3b db42 703c
000000e0: 4b40 5a3c aa82 a63d 691d af3d 461b 3c3c
000000f0: eb9b 973d 7a6e 753d bd86 e03c 8777 51bd
0.02766679 0.009225379 0.07416827 0.049570113 0.021741679 0.07565492 0.050208073 0.00086200895
0.0026546556 0.0470421 0.054421593 0.081085525 0.045135893 0.0902835 0.0813361 -0.0059333546
0.07101478 -0.01809917 0.03829797 0.009807853 0.052933708 -0.012386374 0.021178102 0.048700538
0.023787789 0.0598936 -0.029177662 -0.022663226 0.020121057 0.058977507 0.06732503 0.06927603
0.056843795 0.024376987 0.03897165 -0.0136443125 0.021475391 0.090232395 0.058094066 0.046150334
0.051080868 -0.036242332 0.063295655 -0.061614335 0.090937585 0.062320832 -0.007836511 0.08384418
0.12044163 0.0041795755 0.04355495 0.08602844 0.046194542 0.0105685815 0.0057776384 0.014664377
0.013320993 0.08130391 0.085505314 0.011481112 0.07402786 0.05991981 0.027407998 -0.05113938

decoder.0.weight f4 [64, 32, 3, 3]
00000000: 3a6f cbbc 379e 0f3e c062 d3bc 31d9 713d
00000010: d403 03bc ee32 70ba 6233 c53c 7be4 5d3d
00000020: fdde 5abd 6eb6 c9bc 6b2c 9ebd c7b0 44bd
00000030: 75d3 903c c673 0dbd 4e53 9cbd bf85 c23d
00000040: 5ba3 123e fed0 8c3c 4516 503d 8697 3e3c
00000050: 995b f3bc 51be 2dbd ed7c a0bd 8ec4 1dbd
00000060: e872 a0ba fad3 0b3d 27b4 ae3d c500 37bd
00000070: dbdf 2fbd 00dd 97bd 8543 223d 3a4c 813d
00000080: 0a51 68bd 81ab 423d 9694 8c3d 66d0 0d3a
00000090: bbdb 1b3d 16b4 5fbd a6cf 903c 56e2 d53d
000000a0: 665e e53c 0b96 3f3d 44d6 753c ac59 543c
000000b0: acec 083c f496 543c 3fcc 05be b87f 35bc
000000c0: 6469 2dbd fd8d e8bc 33f6 dabd aae6 03bd
000000d0: 598e 89bc 48d8 30bd 128d 4f3b e33b 143e
000000e0: d5c6 c23d 7c06 2c3d cd31 0d3e 46c2 de3b
000000f0: f9f1 653d 72e4 a03d c1fc a73d c89c b23d
00000100: 3c14 e53b cefd 08bd daf8 3e3d 0e7f 903c
00000110: 2a57 e8bd 5413 643d 5e85 ed3d 40be b9bc
00000120: 3f48 d73c d53e 1fbd e3e3 ffbc e3fe 62bc
00000130: 3ed4 fdbc b1a9 bbbd 3822 4c3d 12c9 783d
00000140: f2ea 193d c748 ce3d 6e96 9c3c 41f9 d43d
00000150: d435 4fbc e08d 4fbb 47bd 073d 6ad7 35bd
00000160: 0188 353d 7e88 823c c09c 4c3b 3167 f0bd
00000170: 5843 4ebc d632 983d 2497 6bbc a6d0 553d
00000180: f239 04bd f3c8 ce3c b286 473d e5ea 6abd
00000190: 9829 d03b daa4 30bd 9271 cb3c 1534 313d
000001a0: 5968 4f3d ed02 623d a9d9 67bd 0385 f3ba
000001b0: 68b4 953d 283c 1bba 9935 85bd 9ce1 4ebd
000001c0: c4f5 bfbd 48be fabb d143 423d 6f53 ae3d
000001d0: a9f5 c23c af24 db3c 04c8 373d 080f 233c
000001e0: bb1a 6eba a86e 003e 48d2 c23c 1537 dc3c
000001f0: 7ec1 463d 2ee3 033d 2ced a93d d82b 3abb
00000200: 8d17 9a3d c2f1 8a3d d205 d33d ac7b 4a3d
00000210: fe01 403d e483 553d 3179 aa3d 364d 0fbd
00000220: fcc7 66bc cf61 19bd c05d 853a 44b2 823d
00000230: 1878 1dbc 5ad7 b43c 4ccc 223c 90a9 63bd
00000240: 45e0 e23c 1c80 1dbd 0480 1cbd 8d0e b3bd
00000250: 2ff7 95bd 9bfa 04bc d0b7 07bd d033 e63d
00000260: 4afc 8cbc 118a 433c b6d8 d43c 9df9 bfbd
00000270: 6ba2 40bc 483d 50bd 987d 0c3c fcca f83d
00000280: e31d 183d 21eb 043e f6ec 97bd 1ccf abbd
00000290: ff98 d1bd 8e1b f73c db6e b73b 814f b0bd
000002a0: 4e11 61bb d2e2 103e 3cb7 513d 6e34 3d3d
000002b0: 1587 adbc af71 b1bd 03d9 583d 19ca 48bd
000002c0: 50c1 febc 721d 063d 9b4f 9abb 8c7a 5b3d
000002d0: 5d32 6c3d d81d ed3b f451 a0bc 2ead ba3d
000002e0: 2329 473c fbe7 bd3d 5052 a8bb 6a9f cf3c
000002f0: cdaa 193d 8dd4 a83c 3ca8 a6bc ea40 d53c
00000300: 1684 e5bd 7b0d 66bd 7992 c4bd af40 38bd
00000310: d3cc e5bc bf03 99bc 492b e6bc c0b5 4dbd
00000320: 3ea2 ca3b 3046 c7bd 5c20 cabd 08c0 15be
00000330: 0274 57bd 3a64 4e3d 116f 8e3c 6002 3e3b
00000340: 7e0a 5e3d bacb 8d3c 2002 b33a 07e3 183c
00000350: a095 e2bb 60c4 893a 53a4 433d a1a5 1c3d
00000360: ffbe 27bc e81c 6ebd 4156 143c 330d c23c
00000370: 3232 2bbd 0cbe d6bd 407d 483d 02aa 19bd
00000380: 06bf 543d ef24 13bd b769 41bd ef65 213d
00000390: c5aa bb3d 3a4f a6bc 31cb a43c 13fd 5a3d
000003a0: 58b9 acbc 3e17 a43c 3741 943c 3e3c 823c
000003b0: 1f41 01bd 85aa fe3d 65c5 9fbc 4a79 d9bc
000003c0: 22c9 e23c 33d5 cf3c 8be4 16bd 92f7 513c
000003d0: 3e0d 6fbd b4bd a8bd e676 983c 9cca f7bc
000003e0: 7a1c ecbc dbe2 1e3d 4602 03bd 4787 a43d
000003f0: b8dc 423d 72f5 7fba ccdb 08bb 281d e03c
-0.02483331 0.14025198 -0.025803924 0.05904502 -0.007996518 -0.00091628626 0.024072353 0.054172974
-0.053435314 -0.024623122 -0.07723316 -0.04802015 0.017678956 -0.03453424 -0.076330766 0.09498166
0.14320128 0.017189499 0.050802488 0.011632806 -0.029706763 -0.042417828 -0.07836328 -0.038517527
-0.0012241276 0.034137703 0.08530455 -0.04467847 -0.042938095 -0.07415199 0.039615173 0.06313367
-0.05671791 0.04752684 0.06864278 0.0005409777 0.03805135 -0.054615103 0.01767714 0.10443561
0.027999114 0.04677395 0.015004698 0.012960833 0.008357208 0.012975443 -0.13066195 -0.011077814
-0.042336836 -0.028388018 -0.1069149 -0.0322024 -0.01679151 -0.043175012 0.0031669778 0.1447597
0.095105805 0.04199837 0.13788529 0.0067980615 0.056138966 0.078560725 0.08202506 0.0872131
0.0069909375 -0.033445172 0.046624042 0.01763871 -0.1134475 0.055682495 0.115977034 -0.022673726
0.026279567 -0.03887828 -0.031236595 -0.013854715 -0.030984994 -0.091632254 0.04983732 0.06073863
0.037577577 0.10072475 0.0191147 0.10399104 -0.012647111 -0.0031670257 0.033139493 -0.044394888
0.044319157 0.015934225 0.003122136 -0.11738432 -0.012589298 0.07431571 -0.014379296 0.052200936
-0.032281823 0.025242304 0.04871244 -0.05735292 0.0063526146 -0.043125965 0.024834428 0.04326256
0.050636623 0.05517857 -0.05660406 -0.0018579069 0.073098004 -0.0005921745 -0.065043636 -0.050508127
-0.09373048 -0.007652078 0.047427956 0.085120074 0.02379878 0.02675089 0.044868484 0.009952314
-0.00090829626 0.12542212 0.02378191 0.026881734 0.048524372 0.032199077 0.0829719 -0.002840748
0.07524023 0.06784393 0.103038445 0.04943435 0.0468769 0.052127734 0.08323897 -0.034985743
-0.014085766 -0.037446793 0.0010175034 0.06381658 -0.009611152 0.022075344 0.0099364035 -0.05558163
0.02769483 -0.038452253 -0.038208023 -0.0874301 -0.07322537 -0.00811639 -0.03313428 0.11240351
-0.017210145 0.011934773 0.025982242 -0.09373782 -0.011757473 -0.050839692 0.008574866 0.12148091
0.037137877 0.1298032 -0.074182436 -0.08389112 -0.1023426 0.030164506 0.005597932 -0.08608914
-0.003434259 0.14149025 0.051200137 0.04619258 -0.021182576 -0.086642615 0.052941334 -0.04902086
-0.031098038 0.032742925 -0.0047091967 0.053583667 0.057665218 0.0072362237 -0.019570328 0.09115063
0.012155804 0.092727624 -0.0051367655 0.02534457 0.037516404 0.020609165 -0.020343892 0.02603193
-0.11206834 -0.0561652 -0.0959825 -0.044983562 -0.02805177 -0.018678544 -0.028096812 -0.05022216
0.0061838916 -0.09730184 -0.09869453 -0.14624035 -0.052600868 0.050388552 0.017386945 0.0028993115
0.054209225 0.017309058 0.001365725 0.009331471 -0.0069148093 0.0010510795 0.047764134 0.038243894
-0.010238408 -0.058133036 0.009053768 0.023687935 -0.041795917 -0.10485467 0.048947573 -0.037515648
0.051939987 -0.035923894 -0.04721996 0.039403852 0.09163431 -0.02030145 0.02011642 0.053464007
-0.021084473 0.020030614 0.018097503 0.015897866 -0.031556245 0.12434868 -0.019503305 -0.026547093
0.027683798 0.025370216 -0.03683905 0.012815373 -0.058362238 -0.08239308 0.018611383 -0.030247979
-0.028822172 0.038790565 -0.03198459 0.080336146 0.047573775 -0.0009764052 -0.0020882962 0.027357653

decoder.0.bias f4 [32]
00000000: e289 283c 54f9 713c 27b3 aabc ce46 2b3d
00000010: 513f 893c f55c 333d a84a b93d f45a fabc
00000020: f962 21bd 0523 10bd b4ba fb3b d731 c53b
00000030: 1975 783c c65b ac3d c14b 663d 6d10 ac3d
00000040: 6877 a13d 04bf 33bd 8af8 3b3c 74bb f4b6
00000050: c945 47ba 3a2d a9bc 78fe 50bb 5f2c 1a3d
00000060: 4fb0 443c cedc 773c bdd4 48bc e726 353b
00000070: cbbc b9bc e1f2 833c 9cd8 983d 3887 473d
0.01028678 0.014768917 -0.02083738 0.04181557 0.016753824 0.043789823 0.09047443 -0.030560948
-0.03940103 -0.035189647 0.007682169 0.0060179043 0.015164637 0.08415942 0.05622459 0.084015705
0.07884103 -0.04388334 0.011472831 -7.293589e-06 -0.00076016464 -0.020651449 -0.0031889956 0.03763997
0.012004926 0.0151283275 -0.012257752 0.0027641596 -0.022673031 0.016107025 0.0746319 0.04871294

decoder.2.weight f4 [32, 16, 3, 3]
00000000: 1152 de3c 3826 043c d430 f23c 73ec 13bd
00000010: e077 e7bc d612 a83c 02ee a7bd d5ee c5bc
00000020: 69fe 533a 2b38 cc3d 3b97 9f3d fbdd 823d
00000030: 619f 003e 9d08 443e 1578 bc3d ba7c 7d3d
00000040: e71f cd3d d5ad c63d d4e6 8fbc a048 183e
00000050: 3680 27bd 56eb 073e 608b 51bb 5cc7 693d
00000060: 3be7 96bd 7aaa f63c b119 b43c 17b5 9c3c
00000070: 95ad bc3c ef3a 003d 3799 fbbb 8c66 9cbd
00000080: 1b58 21bd d2a3 dbbb 0b4d 3abc 2e1e fb3d
00000090: 094f 8e3d de59 1ebc 23e5 f33c 51b0 9fbc
000000a0: cab2 9abd 5404 a0bc 4c11 ddbc 593c 05ba
000000b0: 61d4 4d3d c17e b53c d2f0 933d 42d5 793d
000000c0: 651a b03d 759a fe3d 9aa7 953d f728 cdbc
000000d0: c553 1c3e 7dc0 283d 6b89 ed3c 8e2c 033d
000000e0: 16cc dc3c 79b2 f43c 8d50 853b b0fb 1abd
000000f0: 1294 b1bd 02b8 223a 68e1 4f3d e6b5 fe3a
00000100: 95c5 97bd dc33 583d 1619 1e3d 82d8 67bd
00000110: 6fd0 7abd 9bd6 833d f27f 1e3d 5874 2c3d
00000120: 55f1 d83c cc7f 20bd 7020 46bd 0989 b3bd
00000130: 3cdd b9bd abc3 f4bc 037b 77bd 8cbb 56bd
00000140: d286 11bc dae0 ae3b c6d6 c5bc d249 ecbb
00000150: 7cdd 07bd 9539 8fbd 3d57 aabd 580d a8bd
00000160: dce6 17bd 523c 90bd 1ac1 b03d 79b6 843d
00000170: 2ef0 093d 935b 333d 953e c83d 6b9a 933d
00000180: 61db 053b 8d94 ad3d 0f3c 743c 4812 d63b
00000190: a686 58bd 7cca 993d 4cbf da3b 619a c4bd
000001a0: bffb d8bd 6056 8cbd dcda 34bd 0127 963d
000001b0: cb10 1c3d a71e 803d ca9d 5a3d 6147 a13d
000001c0: 8912 583d a414 0e3d 869c 833d e14e a5bb
000001d0: e5a4 b5bc c70a 0d3d 30f6 643c bf3a 10bd
000001e0: 09e8 3bbc 5f17 bc3d c51d 4bbd e353 f23c
000001f0: 3b56 b0bd 3638 c2bd 060f 82bd 66c2 a1bd
00000200: f471 fd3c 3613 d83c f129 0f3d 21a7 743d
00000210: 82d9 453d 608c 95bd 5d5b 87bd d683 6dbd
00000220: 20dc 67bc da1b a4bc 7f67 9dbc f0df cebc
00000230: 1e8e 36bd fc8a 153d bdb2 9f3c 9a54 123d
00000240: a776 543c 0f4c 193c 6868 033d ada2 283d
00000250: 88a0 b1bd f105 4a3c 0389 81bd ab67 273d
00000260: 26d3 b7bc 5f7c 293d 5307 303d 13c9 213c
00000270: 00ac 1abd b35f f4bc 4863 953b e165 b9bc
00000280: c14f 32bd acdd e0bc ad94 39bd 23e7 1bbe
00000290: 08ea d13c 2ac7 b5bd 2991 40bd 6dcd eabd
000002a0: d816 08bd 4869 243d ae02 7cbc 79c1 853d
000002b0: a506 55bd 3c05 193c 937b bf3d 416c 9e3d
000002c0: 9a64 a13d 0894 11bd 7164 973d 6406 503d
000002d0: 89f2 b9bc b0fa 5d3d 603c a03d 4b7a 8abb
000002e0: 5cda 093b 5073 a13d 0a3e 37bd e740 a13d
000002f0: 19e6 a93d 891b 58bd 4089 58ba 96d0 513d
00000300: c1f2 c13d 6821 3a3c 65ae a43d 8535 21bd
00000310: 17a9 163c 8503 803d 4029 8bbd ee52 6e3b
00000320: a587 26bd 12ee a53c 4cfc 2d3d ffed c63d
00000330: f76f 76bd 127d 643d 3653 73bc 56c8 71bd
00000340: 05f2 3dbd a604 ac3b f137 ee3c b0a3 a6bc
00000350: 5f40 9c38 6201 9c3b 6f7c a1bd d1dd 23bd
00000360: b977 b33d e9f5 613d 3dd2 d63c 6e32 703d
00000370: d3e5 c63d b8e6 a23c 1054 143d 7105 45bd
00000380: 8fd2 6c3d d4d1 b43c 6a26 64bd 5c80 9d3d
00000390: eb0a c03c 10a8 c03d 8288 003e 0946 b03d
000003a0: 10b6 62bd b334 583d 4791 f6bd 707e afbd
000003b0: 00ed 11bd df05 e43b a8f1 abbd 8c48 733d
000003c0: 8f38 9fba 9af9 96bd c754 01be c0a0 233d
000003d0: 37c4 303d 7a2b 19bd 9f82 993d a973 e33b
000003e0: 3c73 c0bc 7590 e63b 3586 4c3d 7b96 993d
000003f0: 135f a5bd 4b58 ca3c 463b cebc a744 6b3d
0.027138742 0.008065753 0.029564299 -0.036114167 -0.028255403 0.020516794 -0.08199693 -0.024161736
0.00080869213 0.09971651 0.07792517 0.06389996 0.12560798 0.1914391 0.09202591 0.061886527
0.100158505 0.097011246 -0.017566122 0.14871454 -0.040893756 0.13273367 -0.0031973943 0.05707489
-0.073683225 0.030110586 0.021984907 0.01912932 0.02303199 0.031306203 -0.0076781767 -0.07636747
-0.039390665 -0.0067028785 -0.011370908 0.12261616 0.069486685 -0.009664981 0.029772347 -0.019493254
-0.075536326 -0.019533314 -0.026985787 -0.000508254 0.05025137 0.022155168 0.07223667 0.060994394
0.08598784 0.12431804 0.07307358 -0.025043948 0.1526633 0.041199196 0.02899619 0.032024913
0.026952785 0.029870259 0.0040684403 -0.037837684 -0.0867082 0.0006207229 0.050752074 0.0019432872
-0.07410733 0.052783832 0.038598143 -0.056602962 -0.061233934 0.06437417 0.038696237 0.04210314
0.026482264 -0.039184377 -0.04837078 -0.08766372 -0.090754 -0.029878458 -0.060420047 -0.052424952
-0.008882241 0.005336863 -0.024150264 -0.0072109485 -0.03317021 -0.06993405 -0.08317421 -0.0820567
-0.0370854 -0.07042755 0.08630581 0.064801164 0.03367632 0.043788504 0.097775616 0.07207187
0.002042495 0.084755994 0.014906897 0.006532941 -0.052862786 0.07509324 0.0066756364 -0.09599758
-0.10594892 -0.06852412 -0.044154033 0.07331658 0.038101953 0.062558465 0.053373136 0.078749426
0.05275205 0.034687653 0.06426339 -0.0050448035 -0.022173354 0.034434106 0.013974711 -0.035212275
-0.011468896 0.09184145 -0.049588937 0.029581016 -0.08610197 -0.09483378 -0.06350522 -0.07898407
0.030938126 0.026376348 0.034952108 0.0597297 0.048303135 -0.07302165 -0.06609223 -0.057987057
-0.014151603 -0.020032812 -0.01921439 -0.025253266 -0.044569127 0.0365095 0.019494409 0.035725214
0.012967742 0.009356513 0.03208199 0.041170765 -0.08673197 0.012330518 -0.06324961 0.04087035
-0.02243955 0.041378375 0.042975735 0.0098746 -0.03776169 -0.02983079 0.0045589544 -0.022631587
-0.04353309 -0.027449451 -0.045307804 -0.1522489 0.02562429 -0.08875878 -0.047013436 -0.11464963
-0.03322491 0.040139467 -0.015381498 0.065310426 -0.05200829 0.009339627 0.09349742 0.077354915
0.07880516 -0.035541564 0.073922046 0.050787345 -0.022698658 0.054194152 0.078240156 -0.0042260042
0.0021034693 0.07883322 -0.0447369 0.07873707 0.08295841 -0.052760635 -0.0008260198 0.051224314
0.0947013 0.011360504 0.080410756 -0.03935768 0.009195588 0.06250671 -0.06794977 0.0036365348
-0.040656704 0.020255122 0.042476937 0.09713363 -0.06016537 0.05578334 -0.014851382 -0.059028946
-0.046373386 0.0052495776 0.02907941 -0.020341724 7.45065e-05 0.004760907 -0.07885062 -0.040006462
0.0876307 0.05516616 0.026223296 0.058641843 0.09711804 0.019885406 0.03621298 -0.048100892
0.05781799 0.02207271 -0.055700697 0.07690498 0.023442706 0.094070554 0.12552074 0.08607108
-0.05534941 0.052784633 -0.12039428 -0.08569038 -0.03562641 0.0069587077 -0.08395702 0.059395358
-0.0012147593 -0.073718265 -0.12629996 0.039948225 0.043155875 -0.037394978 0.07495617 0.006941278
-0.023492448 0.0070362636 0.049932677 0.07499405 -0.080747746 0.024700304 -0.025174748 0.05743852

decoder.2.bias f4 [16]
00000000: 2f65 b4bd 7c11 623d 1f6f 2ebd 7c63 0c3c
00000010: e450 153d 9d9a ba3c b82b 623d c4de 77bd
00000020: f8c6 683d 0263 d9bc 9f0f 45bb 1afc 453b
00000030: 2b07 123d 037d 243d 1f7f 86bb 659d 97bd
-0.08808362 0.055192456 -0.042586442 0.008568641 0.036454096 0.022778803 0.055217475 -0.06051518
0.056830376 -0.026536468 -0.0030069125 0.0030210079 0.035651367 0.040158283 -0.0041045095 -0.074030675

decoder.4.weight f4 [16, 3, 3, 3]
00000000: 98b8 f1bb 2b33 70be 4475 1e3e e712 54bd
00000010: eba3 cf3d a8d9 1cbd 501f 6c3e f340 c83d
00000020: 000d b2bd 6221 673d b459 ef3b 4cb8 05bc
00000030: 3c11 b73c be39 153e b11d 833e 198d 03bd
00000040: 8230 603d ff20 5e3e 2d80 143e a894 8a3c
00000050: 3734 d73c 986e bf3c f346 9c3c c256 d73d
00000060: e4ee 463e d8f0 2b3e eaaa c0bd 3ec9 1b3e
00000070: a4b7 263e 100c 0d3e 5465 32bd debe 1e3e
00000080: 8b00 cd3d cdfe c2bd 1959 f03d 0951 2fbe
00000090: bae2 0c3d 793d 02be 6531 94bd a36a 8abd
000000a0: a69d 9dbd 4edf 3fbe 8c4a 19be ef78 48be
000000b0: 5c9e cdbd 6ff0 04be c3a9 c6bc bb47 033e
000000c0: f83c 06be 0a18 c2bd 8c36 3a3d 6c15 1abd
000000d0: 0186 eb3d 4054 25be 4673 11bd 8561 b13d
000000e0: c01c da3d 7ffc 2c3e e416 693e b8ec 183e
000000f0: 514c 7fbc 5d2e b43d 4f18 323d 0d05 8b3d
00000100: fe59 03bb a266 213e 26c2 353e 17ba 9f3d
00000110: 9ee6 433e 654f 593e 0f85 313c 4f09 313e
00000120: 8fc8 12bd aedb 863d b63b 353d 24e0 05bd
00000130: a1cc 283d 9399 4fbd c6b9 dfbc 8627 853d
00000140: fdc6 033c 011f 45be 798c a93d 17ad a2bd
00000150: 5828 5fbe 8754 e2bd 01bf 73be ac11 1ebe
00000160: 7bbf c8bd fb8d 00be bd61 5f3d f112 843d
00000170: 9c00 c53d 6fac bf3d 7824 4dbe 3ea8 1cbe
00000180: e392 01be fd65 03be 9d8f 8f3d 7001 90bc
00000190: 1511 c8bd c276 f73d 689c 85bd f99b f0bd
000001a0: 3de1 163b 1223 2cbe 36ca 55bd b45f 903d
000001b0: 9482 3b3c 36ca 45be dd2f ffbc 4320 653d
000001c0: 29f8 87bd a877 27bd 6b59 44bd 92db 3a3d
000001d0: 73bf 3abe f7f9 39be d8a2 d7bd 049b aebd
000001e0: 9ccc 973d 9d9b c23b efdb ffbd 8726 c5bd
000001f0: 16c5 6cbc 65ba cc3c 1bb4 f5bd 775b bfbd
00000200: 3b0f b7bd 4881 44be 453b 83bd d1ba 203d
00000210: b54d f13d c4d0 8c3c 842f d43c e89a db3d
00000220: b129 b03d a83c 7e3c fc8b 4f3e 3ee7 ca3c
00000230: 52d1 a0bd c2e1 213e 3585 8b3d 0a55 b63d
00000240: 2f65 333e 8f2e 1d3d 1458 433d 25f2 653d
00000250: 0202 813a 58c4 4e3d f1ae 2dbe d654 1c3e
00000260: b9b2 ad3d ae4c e13d 5545 46be 39d9 0b3d
00000270: b297 27be 74ea 2abe adff ff3c e72f 9abd
00000280: 7d47 c8bd 0bf0 d6bd b587 ff3d 974e 40be
00000290: cbd2 cc3d 2aa0 97bc f2bb 163d c8a3 1cbe
000002a0: 3431 b9bd 9358 79bc 4af2 18be bf25 3dbe
000002b0: 8ae6 6fbe 6b04 37bd cd22 923c 71b1 4bbe
000002c0: 6138 d13d 47ee ebbd f058 4cbe 73f6 1abd
000002d0: dccc 813d 8bbc f83d 3180 c03d 5701 c1bd
000002e0: 02af f8bc 051b 03be 0f6a 77bc 4b41 d9bd
000002f0: faa1 85be 8382 20be 5caf 34be c8c5 0a3e
00000300: 9f03 f43d 0022 b2bd c806 1f3e 9011 12be
00000310: 59d2 6bbd 0a62 47bd 475f 35bc 152b 20bd
00000320: 583f 133e a88a 763d d40e ea3c a668 943d
00000330: a1a9 42be c8b7 163e 5ef9 e53d 31e0 0bbe
00000340: 69bc abbc 6a54 3cbd 75e5 f73d 32e5 b93d
00000350: 2f9e 1fbc 9b75 c83d 9f8c c13d 158b 2f3d
00000360: 6edc bebd 3fde 33be 14a9 0ebd a11d 80be
00000370: e1c7 4bbe 1742 2dbe fe99 ef3d 576c 37be
00000380: b845 3f3d b767 7cbd 06ed 0d3d 007c 26be
00000390: 386e b83c 28e2 1fbd 2ff6 82bd 7821 72bd
000003a0: f011 13be 7d0e 773d 47ca 37be 4cd5 68be
000003b0: 76ff f03c 47d8 e43d 82f8 2fbe 3ed0 2abd
000003c0: 9897 01be 24e1 ee3d 819b e3ba f465 183d
000003d0: 3a76 04be 6387 2fbe d4fa 89bc 1fcf 50be
000003e0: a2f6 d73d 4f4c e23d c2f1 e23d 47ad 16be
000003f0: bea0 ec3d d323 2d3d 1ba1 393e 1d4f 053e
-0.0073767416 -0.23457019 0.15474421 -0.05177584 0.10138687 -0.03829351 0.2305882 0.09778013
-0.08693886 0.05642832 0.0073043946 -0.008161616 0.022347085 0.14572808 0.2560859 -0.032116983
0.05473376 0.21692275 0.1450202 0.016916588 0.026270015 0.023368165 0.0190768 0.105145946
0.19427067 0.16791093 -0.09407599 0.15213487 0.16280991 0.13774133 -0.043553665 0.15502498
0.10009869 -0.09521256 0.11735744 -0.17120756 0.03439591 -0.12718762 -0.07235984 -0.067586206
-0.07696085 -0.18737528 -0.14969844 -0.19577383 -0.1003997 -0.12982343 -0.02425087 0.12820332
-0.13109195 -0.09477241 0.045462176 -0.037618086 0.115001686 -0.1614542 -0.035510324 0.086611785
0.10650015 0.16893195 0.22762638 0.14934051 -0.01558216 0.087979056 0.043480214 0.06788073
-0.0020042653 0.15761808 0.17749843 0.07799166 0.19130942 0.21221693 0.010834946 0.17288707
-0.0358358 0.06584869 0.044246398 -0.03268446 0.041210774 -0.05068357 -0.027310263 0.06501679
0.008043048 -0.19250108 0.08278746 -0.079431705 -0.21792734 -0.110512786 -0.23803331 -0.15436429
-0.09802147 -0.12554161 0.05453657 0.06448925 0.09619257 0.09359061 -0.20033443 -0.15298554
-0.12653689 -0.12831874 0.07009814 -0.01757881 -0.09768883 0.12083198 -0.06523973 -0.117484994
0.0023022436 -0.16810253 -0.052194797 0.07049504 0.0114447065 -0.19315419 -0.031150753 0.05593897
-0.0663913 -0.040885597 -0.047936838 0.045619555 -0.18237095 -0.1816176 -0.10529107 -0.08525661
0.07412073 0.0059389607 -0.12493121 -0.09626489 -0.014451286 0.024991224 -0.11997243 -0.093436174
-0.08938452 -0.19189942 -0.06407789 0.039240662 0.117823996 0.017189391 0.025901563 0.107229054
0.08601702 0.015517391 0.20268244 0.024768468 -0.07852425 0.15808776 0.068125166 0.08902939
0.17519067 0.03837448 0.04769142 0.05613913 0.0009842517 0.050480217 -0.16961266 0.15266737
0.08481354 0.110009536 -0.19362386 0.034142707 -0.16366461 -0.16691 0.031249845 -0.07528668
-0.0977926 -0.10495003 0.12477056 -0.1877998 0.10001143 -0.01850899 0.036800332 -0.15296853
-0.09042588 -0.015218872 -0.14936176 -0.1847143 -0.23427787 -0.044681948 0.01783886 -0.19891907
0.102158315 -0.11520057 -0.19955802 -0.03783269 0.06337902 0.12145337 0.093994506 -0.09424084
-0.030356888 -0.12803276 -0.01510097 -0.10608157 -0.2610014 -0.15674786 -0.1764502 0.1355201
0.11914753 -0.08697891 0.1552993 -0.14264512 -0.05757365 -0.04867748 -0.011070079 -0.039103586
0.14379632 0.060190827 0.028571524 0.072465226 -0.19010021 0.14718544 0.11229204 -0.13659741
-0.020963864 -0.04597894 0.12104312 0.09076919 -0.009742304 0.097880565 0.094506495 0.04285725
-0.093193874 -0.17565249 -0.034829214 -0.25022605 -0.19900467 -0.16919743 0.116992936 -0.17912422
0.04669735 -0.061622348 0.03464987 -0.1625824 0.022513494 -0.03903404 -0.06394612 -0.05911395
-0.14362311 0.06031655 -0.17948256 -0.22737616 0.029418688 0.11174064 -0.17184642 -0.0417025
-0.12655485 0.11664036 -0.0017365069 0.037206605 -0.12935725 -0.1714149 -0.016843237 -0.2039151
0.10545088 0.11049711 0.11081268 -0.14714538 0.11554097 0.042270493 0.18127863 0.1301846

decoder.4.bias f4 [3]
00000000: d65e 21be d932 143e f07a 593d
-0.15758833 0.14472522 0.053095758
