pcb1_autoencoder.pth (torch, 193090 bytes, 12 tensors)

encoder.0.weight f4 [16, 3, 3, 3]
000000 72 ea 37 3e 18 3f cf 3d bd 00 50 be b3 c1 0f be
       0.17960528 0.10119456 -0.20312782 -0.14038734
000010 86 c3 21 be c2 a9 e6 bd 01 81 38 3e 96 d7 a2 3d
       -0.15797243 -0.112628475 0.18017961 0.07951276
000020 4a 99 74 bd 1a 97 d3 bc 07 d7 c1 bd 1e 0d 18 be
       -0.0597165 -0.025828887 -0.09464841 -0.14848754
000030 5a bd b4 3d f8 ca 1a be a1 1e 29 3e 89 64 5e bd
       0.088251784 -0.15116489 0.1651559 -0.054295097
000040 e3 fd 4a 3d 2d 57 1f be 40 42 00 3e 56 19 d5 3c
       0.04955853 -0.15560599 0.12525272 0.026013058
000050 ea f1 ce 3d 1a 39 1a be 53 da da 3d df 02 29 be
       0.10104735 -0.15060845 0.10686173 -0.16505001
000060 03 2d 9c 3d 4d 2c 1c be 7e 6e d8 3d 90 c1 1d be
       0.07625773 -0.15251274 0.1056795 -0.1540587
000070 7f 58 1d 3e 29 42 85 3d b2 7f c1 bd 82 e7 58 3d
       0.1536579 0.0650676 -0.09448184 0.052955158
000080 c7 53 c8 bd 29 f6 1d be 5f a4 17 3e b2 46 ae 3d
       -0.09781604 -0.15425934 0.14808796 0.08509578
000090 46 2a 25 3e 9c 36 13 be 63 32 57 3e 99 92 2b 3e
       0.16129407 -0.143763 0.21015315 0.16755141
0000a0 e5 fe ad 3d 45 44 52 3e e3 d1 08 3e 49 0c bb bd
       0.08495883 0.20533855 0.13361315 -0.091332026
0000b0 ed 19 df bd 52 fb 0f be 99 33 3a 3e 36 d3 9c bc
       -0.10893617 -0.14060715 0.18183745 -0.019143682
0000c0 5e 32 ec bb 85 d6 8a 3d a2 64 55 3d 3b 57 20 3e
       -0.0072081527 0.067791976 0.052097924 0.15658276
0000d0 1a 12 1e bc d2 62 85 bd a1 be 11 3e ce 8c f4 3d
       -0.00964787 -0.06512989 0.14232875 0.11940919
0000e0 e7 0a 40 3e 9a e4 97 3d fa 9d 85 3d b9 cf 4a bb
       0.18754159 0.07416649 0.06524272 -0.0030946566
0000f0 c2 e8 d9 3d 02 1b 5b 3c 3f c0 4b 3d 06 4e 1d be
       0.10640098 0.013373138 0.049743887 -0.15361795
000100 4e ed 08 be 29 fa 2f be eb 65 0d 3e 53 d1 5a 3c
       -0.13371775 -0.17185272 0.1380841 0.013355571
000110 06 71 95 3d 4c cb 2c be f6 56 2d be b5 28 0d be
       0.07296948 -0.16874427 -0.16927704 -0.1378506
000120 87 45 c0 bd e8 36 9e bc e1 7b 98 bd 4c fb 0d be
       -0.09388261 -0.01931329 -0.07445503 -0.13865393
000130 8c b4 1f be a5 78 b7 3b 00 4d ef bd 5a 2a 3c 3e
       -0.15596217 0.0055990987 -0.116846085 0.18375531
000140 df af bb 3d 50 79 2a bd 9c ca 1b be 40 3a 33 3e
       0.09164404 -0.0416196 -0.15214008 0.1750269
000150 3b b9 2a 3e 43 18 4c 3e 42 b7 02 3e 4e 9f 1a be
       0.16672222 0.1993113 0.1276522 -0.15099832
000160 73 42 0d bd 4b ed f8 3c 28 1b 18 3e af 43 ce bd
       -0.0344872 0.030386588 0.1485411 -0.10071503
000170 ef d6 fe 3d c0 7f 4a 3e 6d d0 4e 3e 52 81 53 3e
       0.12443339 0.19775295 0.20196696 0.206548
000180 8c 2d 15 be 1d ab d0 3d 95 81 0a 3c 3f 15 62 3e
       -0.14568156 0.10188887 0.008453746 0.22078417
000190 65 60 d6 3d b8 9e 27 3d b0 26 b7 bd 8f f1 93 bd
       0.104676045 0.04092285 -0.08942926 -0.07223808
0001a0 0c db 4b bb 58 20 c6 3c 94 67 08 3e 84 30 54 3e
       -0.0031105904 0.024185345 0.13320762 0.20721632
0001b0 9b b0 5a bd 7a f4 30 be 2b ab cf bd cf 5f f9 3d
       -0.05339108 -0.1728076 -0.101400696 0.12176477
0001c0 08 0c 4d 3d e2 9e 3b be 82 fa 14 3e 3f a0 f6 3d
       0.050060302 -0.18322328 0.14548686 0.12042283
0001d0 f4 ca 04 be 4b d6 21 3e f7 5d 12 3d 66 da 68 3d
       -0.12968045 0.15804403 0.035734143 0.056848906
0001e0 a1 3e 5d bd 91 6e 33 3e 52 e7 2a bc eb 53 ad bc
       -0.054014806 0.17522646 -0.010431128 -0.02115818
0001f0 76 7d 3b be ad 68 d1 3d 86 e7 20 bd 0b 3a 00 be
       -0.18309578 0.102250434 -0.039283298 -0.12522142
000200 ef 32 1a be bf 63 3c be ad 2c 3d 3e 3a fe a2 3c
       -0.15058492 -0.18397425 0.18474074 0.019896615
000210 1e 2a 1a be 0c 7d 07 3e 8b 62 17 be da 75 fa bb
       -0.15055129 0.13231295 -0.14783685 -0.0076434435
000220 57 6a 31 bd 03 c7 29 be 46 b9 cf 3d cf 94 df 3d
       -0.043314304 -0.16579823 0.1014276 0.10917055
000230 ba c6 1e 3d af 86 9e 3c 8e 46 c8 3d 24 7c c4 3d
       0.03876374 0.019351332 0.09779082 0.095939904
000240 86 38 22 be 51 d3 04 3e 55 01 34 3c 86 c7 a9 bd
       -0.15841874 0.12971236 0.010986646 -0.08290009
000250 89 9a 8e bc 8c 65 97 bd 8a 8e b1 3d af 02 a9 bd
       -0.017407672 -0.073924154 0.08669765 -0.08252465
000260 3a 34 d6 3d 1d 1b 1d 3d b2 02 eb bd ed 09 f4 3d
       0.1045918 0.038355935 -0.114751235 0.11915956
000270 e8 f0 f4 3d c5 f1 e3 bd 1a 39 ae 3c b1 49 cf bd
       0.11960012 -0.11130098 0.021267463 -0.101214774
000280 b4 49 22 3d e5 e7 83 bd b2 38 4e 3e 0a bb 2f bd
       0.03962107 -0.06440715 0.20138815 -0.042902984
000290 d1 e4 ac 3c 62 e5 91 3d d1 1b 2e 3e a9 e0 e2 3c
       0.021105202 0.071238294 0.17002799 0.027695017
0002a0 6b f6 c4 bc 00 df e5 3d 1f 1a 9f 3c 4c a4 a0 bd
       -0.024043282 0.112241745 0.019421635 -0.07843837
0002b0 e7 68 91 3d 54 bd 91 bd 93 57 21 be 5c 21 fd 3d
       0.07100087 -0.071161896 -0.15756063 0.123598784
0002c0 9b bf 14 be d2 0c 59 3d fc 7e ad bc be 06 ae bd
       -0.14526217 0.052990742 -0.021178715 -0.0849738
0002d0 00 7c 94 bd de 6f 81 bd b5 7b b6 bd a2 46 23 3c
       -0.072502136 -0.06320165 -0.08910314 0.009965571
0002e0 48 8c 74 bd e6 75 d0 bd 27 76 05 3e c9 17 07 3e
       -0.059704095 -0.10178737 0.13033353 0.13192667
0002f0 7d 65 1b 3e 17 f7 1d 3e 9c a9 4a 3d a0 4c 1d bd
       0.15175433 0.15426289 0.04947816 -0.038403153
000300 d7 3a ef bd 1e a1 26 be f2 5e b9 3d 4e 28 d5 3d
       -0.11681145 -0.16272399 0.090513125 0.10408078
000310 ca 25 aa 3d 68 5b a1 3c 00 29 fc ba d8 6b 17 bd
       0.08307989 0.019696906 -0.0019238293 -0.036968082
000320 e0 9e 56 bc a0 44 09 bc 37 e3 f0 bd ca 0d c1 3d
       -0.013099402 -0.008378178 -0.11762088 0.09426458
000330 48 00 a2 bc 84 c4 1d bd a0 33 2f bd 1c 0f 61 bd
       -0.019775525 -0.03851749 -0.042773843 -0.05494605
000340 be 8f 2e be 80 8b da ba c0 7c f1 3b 80 8c 46 3d
       -0.17047021 -0.0016673654 0.0073696077 0.048473835
000350 18 24 1e be 34 37 15 bd 6a 2f bf bd 9c 9f a2 bd
       -0.15443456 -0.0364296 -0.093352154 -0.07940599
000360 21 6d f4 bd 34 90 dc bd 80 ba 40 be 34 45 15 3e
       -0.11934877 -0.10769692 -0.18821144 0.1457718
000370 40 5e 1c be cc 27 18 3e bf f3 1f be 03 63 1c 3e
       -0.15270329 0.14858931 -0.15620326 0.15272145
000380 9d ee ba bd 48 b3 18 be 3b 2d 25 3d 40 d7 5c 3d
       -0.09127543 -0.1491214 0.04032634 0.053916216
000390 b3 16 53 be 06 32 a1 bd f0 ad 90 bc b1 de da 3d
       -0.20614128 -0.07870869 -0.017661065 0.10687006
0003a0 ab 24 23 be 53 a1 10 3c a9 c9 23 3d bb 83 b4 bc
       -0.15931956 0.008827525 0.03998724 -0.02203547
0003b0 3c 0d cd 3d 1f 4e c2 3d 94 5e 34 bd 44 f4 95 3d
       0.1001229 0.09487557 -0.04403551 0.073219806
0003c0 64 3f 11 be b5 6e 06 be c8 39 dd 3d 94 74 01 bd
       -0.14184338 -0.13128169 0.108020365 -0.03160532
0003d0 78 87 27 be b6 37 d6 bd ea 4b 40 be af e8 1c be
       -0.16360271 -0.10459845 -0.18778959 -0.15323137
0003e0 44 f6 68 bd 6a b8 cd 3d 26 35 87 bd 65 c6 0b 3e
       -0.056875482 0.1004494 -0.06601934 0.136499
0003f0 e4 13 2a 3d 68 1f 43 be 78 d0 0b 3d ae a0 c7 3d
       0.041522875 -0.1905495 0.03413436 0.09747444

encoder.0.bias f4 [16]
000000 28 92 e6 bc c7 2b 3e be b0 f8 aa bc 80 d6 54 3e
       -0.028145865 -0.18571387 -0.020870537 0.2078495
000010 cf e7 91 bd 95 8e c4 3d 1e 34 2c 3d e0 4e 11 bc
       -0.07124292 0.09597508 0.04204189 -0.008868903
000020 f1 db a8 3b 64 e0 37 be 16 ff c5 bd ba fc 1c be
       0.005153172 -0.17956692 -0.096677944 -0.15330783
000030 b0 ba 87 3c cd ac c5 bd d4 e4 52 3e 97 33 2a be
       0.016568512 -0.096521 0.20595104 -0.16621242

encoder.2.weight f4 [32, 16, 3, 3]
000000 91 4c 6c 3d 64 d8 9a bd 5e 78 9e 3d 86 cb 99 3d
       0.057690207 -0.075608045 0.07737802 0.07509522
000010 08 38 ca 3c 97 00 0e bd c3 34 7d bd 16 b9 98 3d
       0.02468492 -0.03466853 -0.061817896 0.07457177
000020 4e 09 65 bc 3b 8a 99 3d 33 ef 3e 3d e5 aa 67 3c
       -0.013979269 0.074970685 0.046614837 0.0141398655
000030 22 80 44 3d 97 ce a8 bd a4 27 60 bd 72 3c d7 ba
       0.04797376 -0.08242529 -0.054725304 -0.0016421212
000040 db cc 13 3d 00 ef a4 bd 58 f0 7b bd e0 5a 15 bc
       0.036084037 -0.08053398 -0.061508507 -0.009115905
000050 4a 39 48 3d ec d6 85 bc 78 5a 73 bd 80 d0 22 3b
       0.04888276 -0.016337834 -0.05941245 0.0024843514
000060 bc bd 94 3c 52 b4 28 3d 26 e2 16 3d e1 aa c5 3c
       0.018156879 0.04118759 0.036836766 0.024129333
000070 6e 19 3f bd 7e e6 a2 bd ce f0 a1 bc 1b 8e ad bd
       -0.04665511 -0.07954119 -0.019768145 -0.0847437
000080 87 4b 6b 3c 13 b8 88 3d f8 f5 12 3d 41 83 a1 3d
       0.014361269 0.06675734 0.035879105 0.07886363
000090 d7 20 98 bd c6 64 ae bc 80 0a 5d 3b c0 84 d4 3b
       -0.07428139 -0.021288287 0.0033728182 0.0064855516
0000a0 43 23 02 bd a8 c7 55 3c 4a 40 33 3d d3 97 1a bd
       -0.03177191 0.01304809 0.043762483 -0.037742447
0000b0 3c df aa bc d6 f1 97 3d a3 3a 99 3d 18 f0 28 bc
       -0.0208584 0.074191734 0.07481887 -0.010311149
0000c0 ac b6 2a 3d 05 84 8b 3d 06 22 d2 3c 2a ee 64 bd
       0.041678116 0.0681229 0.02565099 -0.055891193
0000d0 6c 1f 1e 3d 64 fa 9d bd 60 50 5c bc 1c d1 ba bc
       0.038604185 -0.07713774 -0.013446897 -0.02280479
0000e0 94 78 9e bd 66 cb 3d bd ee 2e 12 bd 08 79 64 3c
       -0.07737842 -0.046336554 -0.035689287 0.013944872
0000f0 79 fb 85 3d 98 bd 38 bc 60 0e e9 bc 52 44 5a 3d
       0.06542105 -0.011275671 -0.028449237 0.05328781
000100 50 38 85 3b 40 3e 5e bc 11 d5 89 3d ae ac 55 bd
       0.004065551 -0.013564646 0.06730092 -0.052166633
000110 d0 c4 55 bd eb d9 8d 3d a4 6f a6 bd 8a bb 49 3d
       -0.05218965 0.0692633 -0.081267625 0.049251117
000120 2f 91 ce 3a 2b 02 13 bd cb 9c 25 3a 0f 7c b5 3c
       0.0015759821 -0.03589074 0.00063176145 0.022153882
000130 e9 dc af bc 7c b1 57 3a c1 bb 8c 3d 2b 3c c3 bc
       -0.021467643 0.00082280464 0.06871749 -0.023832401
000140 ca a4 b4 bc a0 ea a1 bc 13 a8 a7 3d 7c d7 cb 3c
       -0.022051234 -0.019765198 0.081863545 0.024883024
000150 74 86 9f 3c cc 7b 99 bd 39 11 98 3d cc 58 b3 bc
       0.019473292 -0.074943155 0.0742516 -0.021892928
000160 22 98 53 3d 93 ef 86 bd 10 8a aa 3b 14 fd dd 3c
       0.051658757 -0.06588664 0.0052044466 0.027098216
000170 80 95 d1 bb 66 7d 0a 3d 0e bc 3f 3d 30 17 94 3b
       -0.0063959956 0.033810996 0.046810202 0.0045193657
000180 f1 2b a6 3d 70 c1 89 bd 8d ce a9 3d b0 ad b3 3b
       0.0811385 -0.067263484 0.082913496 0.0054833516
000190 42 7f 45 3d 02 ae 30 3d b6 28 2b bd 30 89 72 bd
       0.048217066 0.043134697 -0.04178687 -0.059212863
0001a0 28 46 39 3c b6 7c db bc eb f0 a0 3d d6 74 0d 3d
       0.01130823 -0.026792865 0.078584515 0.03453525
0001b0 a0 a5 76 bd 14 18 fa bc 10 6c a0 3c b7 70 88 bd
       -0.060216546 -0.03052906 0.019582778 -0.06662124
0001c0 a2 6d 29 bb c0 42 4f bc 4a 65 12 3d 24 4a fa 3c
       -0.00258527 -0.012650192 0.035741128 0.030552931
0001d0 70 e1 d1 bb 8c 94 85 bd 35 db 3d bc bf f9 7b 3d
       -0.006405048 -0.06522474 -0.011587908 0.061517473
0001e0 3c fa 45 bd 87 1e a7 bd 50 84 41 3d a9 58 5e 3d
       -0.048334345 -0.081601195 0.047245324 0.05428377
0001f0 8c a8 a7 bd c8 ba fb bc 1b 0d 83 bc cd 56 f0 bc
       -0.08186445 -0.030728713 -0.01599746 -0.029338265
000200 90 5a 5d 3c cc cd 22 bd 60 b7 a8 bb f2 14 d2 bc
       0.013510361 -0.039747044 -0.005148813 -0.025644753
000210 43 35 91 bd c5 62 e8 bc 91 71 a0 bc 9b 36 20 bd
       -0.07090237 -0.02836741 -0.019585403 -0.039114576
000220 8a 1a 17 bc 6f bf 7a 3d 4d 47 0c bd d9 e8 a3 3d
       -0.009222636 0.06121772 -0.034247685 0.080033965
000230 c5 71 0b bc 80 e6 b7 bc f6 e2 ef 3c 16 f8 18 bd
       -0.0085110115 -0.022448778 0.029283028 -0.03734597
000240 c1 fa 7d bd 9a 2b 32 bd 2f 52 03 3c c6 b2 a0 3d
       -0.062006716 -0.043498613 0.0080152 0.07846598
000250 6c 56 7e 3d 62 f5 13 3d 97 52 90 3d 35 51 01 bd
       0.062094137 0.036122687 0.07047003 -0.031571586
000260 70 2b a5 3d bf 33 41 3d 32 ef af 3d 87 16 ae 3d
       0.08064926 0.04716849 0.08590545 0.085003905
000270 ec 03 f5 3d 41 78 08 3e d2 5e 9e 3d bd b1 61 3d
       0.11963639 0.13327123 0.07732929 0.055101145
000280 25 97 b7 3d 6c 8f a6 bc d6 4c d6 bc bc 10 ec bc
       0.089643754 -0.02033206 -0.026159685 -0.028816573
000290 90 2d 9b bd ff 74 89 bd fa 68 54 bd 10 22 fd bc
       -0.0757705 -0.06711768 -0.051857926 -0.030900031
0002a0 9e 89 0d bd 3e 5d 53 bd 3b d4 84 bd f8 31 5a 3d
       -0.03455507 -0.051602595 -0.06485792 0.05327031
0002b0 9f c7 10 bd c4 53 5d bd dd f1 96 3d f2 32 62 3d
       -0.035346624 -0.054034963 0.073703505 0.055224366
0002c0 68 91 6e 3d df 2b 92 bc 15 ec e3 3b 73 b1 9f bd
       0.05824414 -0.017843185 0.0069556334 -0.07797518
0002d0 e1 3b 78 3d e8 1a 3a bd d5 5b 52 3d 00 44 fd bb
       0.06060398 -0.045435816 0.05135711 -0.0077290535
0002e0 d6 71 1c 3d 7e a6 68 3d ab 8a 92 3d 4e 68 7c 3d
       0.0381945 0.056799404 0.07155355 0.06162291
0002f0 1c 70 98 bd e2 52 8a bd 6c ef 4a 3d a4 b0 a7 bd
       -0.07443258 -0.0675409 0.049544737 -0.081879884
000300 58 81 3c bd 6e 36 36 bd 5b 8a 9d bd 75 bd ff 3c
       -0.04602179 -0.044485502 -0.07692405 0.03121827
000310 f8 76 7a 3d 96 51 92 bd 34 5e 04 3d 67 20 07 3d
       0.061148614 -0.071444675 0.0323164 0.032989886
000320 8f 95 89 3c 18 f6 6c 3d 10 2b 1c 3d 1d 96 29 bd
       0.016794948 0.05785188 0.038127005 -0.041402925
000330 13 25 c8 bd 0e e6 f5 bb 54 70 e2 3c 70 16 88 3c
       -0.09772696 -0.0075042313 0.027641453 0.016612262
000340 80 53 57 bb 6a 50 58 3d 6c 3d d7 bc 37 ea 95 3d
       -0.0032856166 0.052811064 -0.026274405 0.073200636
000350 f2 02 45 3d 50 5d cb bc e0 d7 10 3d 0a 27 74 3d
       0.048098512 -0.024824768 0.035362124 0.059607543
000360 86 0c 03 bd 71 a1 72 3d ac 99 8f 3c 27 c8 29 bb
       -0.031994365 0.059235994 0.017529331 -0.0025906654
000370 68 f5 59 3d 38 45 91 3d d6 33 0c bd e2 16 54 bc
       0.053212553 0.070932806 -0.034229122 -0.012944909
000380 95 5c 09 bd 20 c3 ce 3c 12 4c 5d 3d de b0 69 3d
       -0.03353556 0.025239527 0.054027624 0.05705344
000390 08 b3 28 3d b6 88 6f bd 98 14 42 bd c0 05 90 ba
       0.041186363 -0.058479987 -0.04738292 -0.0010988042
0003a0 53 ae 40 bd aa e6 19 3d b0 cf 91 bc cc 2c b0 bc
       -0.04704125 0.037573494 -0.017799228 -0.021505736
0003b0 3c c8 ca bc 40 d5 bf 3a 3e 0f 84 bd 6c c9 e3 3c
       -0.024753682 0.0014635697 -0.0644822 0.027806006
0003c0 a4 21 91 bc ec 51 d8 3c 9f 27 9f 3d 6c d1 8b bc
       -0.017716236 0.02640625 0.07771229 -0.017067634
0003d0 95 04 85 3d be 3b 78 bd e6 2f 89 bd b8 fd 47 3c
       0.064950146 -0.06060385 -0.06698589 0.012206487
0003e0 77 13 90 bd db 01 75 bd 00 92 96 3b 3f 1a 83 bd
       -0.070349626 -0.059816223 0.0045950413 -0.064014904
0003f0 51 02 92 bd 5a 3b b2 3c 45 b1 ea 3c 69 33 47 bd
       -0.07129348 0.021756817 0.028648982 -0.048633013

encoder.2.bias f4 [32]
000000 1f c9 19 bc cc 45 25 3c 0f 06 6e 3d bb 9a 6b bc
       -0.00938633 0.010087442 0.058111247 -0.014380152
000010 10 89 30 bd 88 c2 c3 3d 46 11 af 3c 9c 87 b0 ba
       -0.043099463 0.09558588 0.021370541 -0.0013468149
000020 3f 93 d4 3c a3 51 46 3d 2f 76 98 3d 59 c9 3f bd
       0.025949119 0.0484177 0.07444417 -0.04682288
000030 11 1a c5 3c 0e 42 7c bd b7 0c 3b bb 99 01 1f bd
       0.024060281 -0.061586432 -0.0028541514 -0.038819883
000040 66 bf d4 3d 30 53 b9 3c e6 8e 8c bd 28 12 ab bd
       0.10388069 0.022622675 -0.06863193 -0.083530724
000050 bd a2 80 3d 68 25 0b 3c 22 7b 9a bd e4 14 05 3e
       0.0628104 0.008492805 -0.07543017 0.1299625
000060 75 e1 81 bd 63 5e f5 bc ef 23 b1 3c 57 78 59 3d
       -0.06341831 -0.029952234 0.02162358 0.05309328
000070 c2 99 1b 3d 5e ec b1 bd 54 da 51 3c 94 58 9c bc
       0.03798843 -0.086876616 0.012808401 -0.019085206

encoder.4.weight f4 [64, 32, 3, 3]
000000 cc 05 8d 3c 5d dc 6f bd 1f 8b 32 bd f7 f4 05 bd
       0.017214678 -0.058559764 -0.043589707 -0.03270432
000010 d0 03 89 bc f1 40 02 bd 71 67 6e bd 8e e3 b8 bb
       -0.01672545 -0.031800214 -0.05820412 -0.005642361
000020 c2 70 12 3d 37 04 88 3c 09 5d 23 3d 6f b2 bc bc
       0.035752065 0.016603572 0.039883647 -0.023034303
000030 67 17 36 3d ca 7c ee 3d c3 50 0f 3d 7d e3 91 3c
       0.044455912 0.116448954 0.03498913 0.01780867
000040 53 c4 55 3d 3b f5 85 3d 87 6e 87 3c 6b f4 25 bd
       0.052189182 0.065409146 0.016532196 -0.0405163
000050 f7 21 52 bd 48 74 36 bd e1 dc 9b bc ec 94 a8 3c
       -0.051301923 -0.04454449 -0.019026222 0.020578824
000060 39 99 38 bb 20 53 d7 3c fe 4d 24 bc 80 ff 98 3d
       -0.00281675 0.026284754 -0.01002836 0.07470608
000070 f7 45 b0 bd ed 0d 87 bd c1 4c 05 3e eb 83 26 3c
       -0.08607095 -0.06594453 0.1301756 0.010163288
000080 0b 58 d7 bc 43 87 0d 3c dc 58 fd 3d 42 f4 2b bd
       -0.0262871 0.008638206 0.12370464 -0.04198099
000090 35 11 31 3d 54 40 bc ba d6 78 d0 3c 81 2c 15 3d
       0.0432293 -0.0014362433 0.025448244 0.036419395
0000a0 57 f5 83 ba 2d 0d 0d bd 8e 36 07 3d 8e 56 50 bd
       -0.0010067624 -0.034436394 0.03301101 -0.050863795
0000b0 ec 14 3b 3d 2a 82 6c 3d 6b 86 71 3d 59 8f 3a bc
       0.04567425 0.05774132 0.05896608 -0.011386716
0000c0 42 9e 47 3d ab 6d 7b bd 8a d1 87 bd f2 62 bb 3d
       0.04873491 -0.061383884 -0.06631763 0.09149732
0000d0 72 3b 0c 3d 5c 0b a3 3d ec 95 e3 3c ae 5e 8f bb
       0.03423638 0.07961151 0.02778145 -0.0043753004
0000e0 d1 6f 25 bd c0 af 18 3d 23 86 01 3d 71 1b 9f bc
       -0.04038984 0.037276983 0.031622063 -0.019422265
0000f0 22 00 22 3b af 0d c2 bb 65 42 71 bd 27 c1 2a bb
       0.0024719317 -0.0059220414 -0.05890121 -0.002605507
000100 56 ea c1 3c f1 41 81 bd 2b 1f 21 3c b0 44 39 3c
       0.02367131 -0.063114055 0.009834091 0.01130788
000110 45 4c ab bc 56 80 89 3d b1 6d 70 3d 68 08 c1 3b
       -0.020910392 0.06713931 0.05869836 0.0058908947
000120 74 50 97 3d fa a3 97 bb c9 e1 0f 3b fd 0e 54 3c
       0.07388392 -0.004627702 0.0021954647 0.012943027
000130 64 74 d8 bb b3 33 74 3d f3 99 26 bd 57 2d a5 3c
       -0.0066056717 0.059619617 -0.04067416 0.020163221
000140 86 08 b2 bb 11 9a 16 3c 63 5e 33 bb eb 43 60 bd
       -0.005433145 0.009192006 -0.0027369491 -0.05475227
000150 4f 2e ca 3b 30 22 7b bc 37 98 8e 3b 00 0e 49 3d
       0.006170071 -0.015327975 0.0043516415 0.049085617
000160 3b 49 29 bd a7 dc 35 3c 26 50 e1 bc eb 13 da bb
       -0.041329604 0.011099971 -0.027504038 -0.0066552064
000170 de 23 c8 3c bf 47 f5 3c 27 bf 7d bb 1b 49 95 bd
       0.024431165 0.029941438 -0.0038718672 -0.072893344
000180 53 b1 83 bd da a7 f8 bb ab fc e9 bc 1b ce 19 bc
       -0.06430306 -0.007588369 -0.028562864 -0.009387518
000190 e6 57 13 3c 79 4a 0e bd 04 95 55 3c ec 30 c0 3d
       0.008993125 -0.03473899 0.013036016 0.09384331
0001a0 78 a7 65 bc 13 b3 f7 bc fb 0a 22 3d 27 9b 46 3d
       -0.014016978 -0.030236756 0.039561253 0.04848781
0001b0 21 c1 d0 bc 6b df f3 3c 97 fb fb bc 45 95 0d bd
       -0.025482716 0.02976962 -0.030759616 -0.034566183
0001c0 43 7f 24 3d 8d ba 9e 3b d2 72 44 bd 9d 64 7f bc
       0.04016043 0.004844016 -0.047961064 -0.015587953
0001d0 b5 22 6d bd d6 25 a2 bc c8 67 54 bc b6 59 f1 bc
       -0.057894427 -0.019793432 -0.0129641965 -0.029461723
0001e0 f6 88 a1 bc ff 45 35 bd 26 19 99 3c 99 1c 22 3d
       -0.019718628 -0.044256207 0.01868875 0.039578054
0001f0 b8 ff cf bc 6a 19 e6 3c ad 93 0f 3c 23 a8 08 bd
       -0.02539049 0.02808829 0.008763236 -0.033363473
000200 c5 56 fb 3c be b4 9c 3d 25 eb e4 3d 2c b2 81 bb
       0.030681023 0.07651661 0.11177663 -0.0039580073
000210 55 c9 34 bd 6b 2a 3a 3d d2 04 ae bc a0 a4 5c bd
       -0.044137318 0.04545061 -0.021242533 -0.053867936
000220 85 76 fa bc cd d0 f9 bc 2d 2c 3d 3d 5e 1d 58 3d
       -0.030574093 -0.030495072 0.046184707 0.05276238
000230 d3 a3 0d bd 3c 7c 86 bc 27 be 78 bc 6f d5 00 bd
       -0.034580063 -0.016416661 -0.015182055 -0.031453546
000240 c8 dc a5 bc 11 24 17 bd df 07 07 bc 3a ec d3 bc
       -0.020246878 -0.03689963 -0.008241623 -0.025869478
000250 3e 56 11 bd c0 e8 34 bd 67 51 f2 bc 22 ce 3e 3d
       -0.035482638 -0.04416728 -0.029579831 0.046583302
000260 1c 5e 93 bc c3 1f 3f bd 06 ac d0 3c de 08 58 bd
       -0.01798921 -0.04666115 0.025472652 -0.05274283
000270 04 32 25 3c d7 71 6d bd d8 44 d6 3b 69 7c 14 bd
       0.010082725 -0.057969894 0.0065389685 -0.03625146
000280 2e ca 96 bc 40 91 95 bb a9 3d 26 3d 8e 7a e5 3c
       -0.018406954 -0.0045644343 0.040586147 0.02801254
000290 79 4e 3e 3d 0e 4e 8d 3c 4c 05 f6 bc dc 97 2e bc
       0.046461556 0.017249133 -0.030031823 -0.010656323
0002a0 a1 e4 5c bd 61 dc 72 3d fa b1 fb 3c ab 6f 6a 3c
       -0.053928975 0.0592922 0.030724514 0.01430885
0002b0 ac 3d b3 bc 90 f0 73 bd 06 14 df 3d fb 73 db 3d
       -0.021879993 -0.05955559 0.10892491 0.10715481
0002c0 ea bb 94 3d d2 c6 d3 3c 1a e5 7c 3d dd 7b 50 b9
       0.07262404 0.02585164 0.061741926 -0.00019882568
0002d0 15 ed 42 3d 71 60 41 bd 4a 0a 8b 3c 0b 60 32 3d
       0.04758938 -0.047211114 0.01697268 0.043548625
0002e0 91 1f 71 3d 9b 9e 3f 3d 2a f8 70 bd 2d d1 20 3d
       0.058867995 0.046782117 -0.058830418 0.039261986
0002f0 9a 94 5a bd 30 f4 0f 3b 9d f7 27 3d dc c7 49 bc
       -0.053364374 0.0021965615 0.041007627 -0.012315717
000300 a4 cf 70 3c 15 38 5e bd 75 2c e5 bc 3c 5b 77 3c
       0.014697943 -0.054252703 -0.0279753 0.015097436
000310 b6 d0 c2 3c be 2c 26 bd 86 d0 99 bc 20 89 30 3c
       0.023781162 -0.040570013 -0.01877619 0.010774881
000320 2a 62 7d 3c ad 8e 81 bc 8e 3a 0f bd 61 74 1e 3d
       0.015465299 -0.015815103 -0.03496795 0.038685206
000330 07 ff 12 3c e6 4b 19 3d f3 78 d0 bc 9e 64 e3 bc
       0.008971936 0.037425898 -0.025448298 -0.027757939
000340 76 6e a5 3c 58 07 58 bd 85 95 0b 3d 31 33 77 bd
       0.020194273 -0.05274138 0.03407814 -0.060351554
000350 9b 7c 87 bd b5 5a 2a bd 95 2e 6d bc bd ee 93 3b
       -0.066155635 -0.04159041 -0.014476438 0.004514544
000360 c0 88 b4 bc ce c3 62 bc f3 f8 a3 bc 6e 8c 11 bc
       -0.022037864 -0.013840629 -0.02001617 -0.008883579
000370 0e 0c 2c 3d 9f f7 62 bd b8 f3 12 bd ce 5f 1e bd
       0.042003684 -0.05541193 -0.03587696 -0.038665585
000380 03 70 69 bd 49 4d 5d 3a c6 47 94 3d db cd ad bc
       -0.05699159 0.00084419973 0.07240252 -0.021216324
000390 ff ac 93 3d bb 4b b7 3d e9 eb 89 3d 68 ea fc bc
       0.07210731 0.08949991 0.067344494 -0.030873492
0003a0 9b b3 95 bc ee 64 02 3d 50 cf db bc 32 e0 3a bd
       -0.01827412 0.031834535 -0.026832253 -0.045623966
0003b0 ea b8 9d bc 36 0c eb bc 1b b5 72 3d 7e 7a fe 3b
       -0.019253213 -0.028692346 0.059254747 0.007766067
0003c0 80 ed e5 bb c7 54 e1 3a 5e 0d 94 3c 54 76 c3 3c
       -0.0070168376 0.0017191403 0.01807278 0.023860134
0003d0 90 e1 49 bd 22 6b 6a 3c c8 71 78 3a 73 4d 81 bc
       -0.04928738 0.014307769 0.0009477404 -0.015784001
0003e0 b6 0c f0 3c d4 80 aa 3c 7a 6c 7f bd a1 f9 57 bd
       0.029302936 0.020813383 -0.06235931 -0.0527283
0003f0 51 0a 11 bd 7a 31 86 3c 0a 25 ea 3c 80 ff f1 3a
       -0.03541023 0.016381014 0.028582115 0.0018462986

encoder.4.bias f4 [64]
000000 5c e2 64 bb e2 4f 52 bd e0 5a 3c bd 60 50 a9 bc
       -0.003492496 -0.051345713 -0.045985103 -0.020668209
000010 0e 03 c7 bd 33 48 3a 3d 90 18 a8 bd a8 de 72 bc
       -0.097173795 0.04547901 -0.0820781 -0.014823593
000020 e3 74 c4 3d b7 d3 48 bd 12 cc 1a bd 9d fc 85 3c
       0.09592607 -0.049030032 -0.037792273 0.016355807
000030 e6 d9 0d bd 61 3e 6f bd af 75 a5 bd 5f 02 ad bd
       -0.034631632 -0.0584091 -0.08079087 -0.08447718
000040 d9 06 53 bd e2 94 91 3d 3d 5c a2 bb c2 5d b8 bd
       -0.051520202 0.07108475 -0.0049548433 -0.09002258
000050 2a ea 0d bd e3 9d bb 3d 26 8a ad 3d 3d 3f fa bc
       -0.034647144 0.09160974 0.08473615 -0.030547732
000060 64 da 3f bd ce 57 c4 bd e0 cc 29 bd f7 94 35 bd
       -0.046839133 -0.0958706 -0.04145515 -0.044331517
000070 d5 fc 5c 3d 6d 21 80 bc 42 06 17 bd 30 4d 5d 3d
       0.053952057 -0.015640939 -0.036871202 0.05402869
000080 35 fa a1 bd dc e3 a6 3c 5e ac 6e bd 9e 25 7e 3d
       -0.07909051 0.020372324 -0.05826985 0.062047593
000090 72 9e 97 bb 58 b8 9d bd 6c 89 df 3d d0 0b a6 3d
       -0.0046270425 -0.077011764 0.10914883 0.08107722
0000a0 64 20 0e bc 15 14 f4 bc 9e 03 b3 bd 2b 37 04 bd
       -0.008674715 -0.029794732 -0.08740924 -0.032279175
0000b0 99 10 d6 bc 5f c6 be bd 0c 77 0b bd 91 9a c5 bd
       -0.026130961 -0.0931518 -0.03404908 -0.09648622
0000c0 c0 c4 83 bb 9a 27 85 3d 6a aa 60 3c 23 6a 2e 3d
       -0.004021257 0.06501694 0.013712505 0.04258169
0000d0 1a c1 ca bc 6c 66 5c 3c fe c9 91 3d 70 f4 de 3d
       -0.024750281 0.013452154 0.07118605 0.108864665
0000e0 36 c4 89 3c 0e 43 67 bd 74 6c 30 bd 72 51 a5 3d
       0.016817193 -0.056460433 -0.04307218 0.08072175
0000f0 7e 48 73 bd b3 60 c5 3b 42 1c de bc 3c 17 42 bd
       -0.059395306 0.0060234903 -0.027113084 -0.04738544

decoder.0.weight f4 [64, 32, 3, 3]
000000 5a 12 a8 3c 5d e7 16 3d 95 ce 41 bd fc 43 ec bc
       0.020516563 0.03684174 -0.047316153 -0.028841011
000010 64 d7 cc 3d 2c 49 ac 3d f4 12 f6 3c 98 84 19 3d
       0.1000202 0.08412394 0.030038334 0.037479967
000020 0a dc 94 bb 89 88 6d bd c9 ed 80 3d fd 69 b5 bb
       -0.0045428323 -0.05799154 0.06295354 -0.0055363164
000030 aa e2 ab bb 91 58 03 bd 46 bb e0 3b f6 24 5d 3d
       -0.0052455263 -0.032066885 0.0068582622 0.053990327
000040 c7 4c 19 bc be 82 54 3c 54 b3 04 3d 44 8a c4 bd
       -0.009356684 0.0129706245 0.032397583 -0.095966846
000050 54 91 bc bd 6a b6 82 3c 89 d3 b3 3d bf 99 1f 3d
       -0.09207407 0.015956122 0.087805815 0.038964983
000060 c8 c5 a3 bc ff ed 2c bd 7b 71 7f 3d 1c df 11 3d
       -0.01999177 -0.04221916 0.062364083 0.035613164
000070 fb c7 c2 bc 4d d6 10 3d 38 83 0f bd c6 65 10 bd
       -0.023776999 0.035360623 -0.03503725 -0.03525331
000080 aa 0b 8a bd f3 5e bb 3c a1 fa 6f 3d a9 3e e4 bc
       -0.06740506 0.022872424 0.058588628 -0.02786191
000090 6d e5 9c 3d 28 76 00 bc 62 bf 78 3c 36 f3 f0 bc
       0.07660947 -0.007840671 0.015182348 -0.029412847
0000a0 4f 37 94 3a 8e 94 d4 3a fe 95 90 3d 13 f6 fb bc
       0.0011307987 0.0016218589 0.07059859 -0.030756986
0000b0 fb 80 39 bd ff 31 92 3a 60 ae d1 bb fd 1a 02 3b
       -0.04528902 0.0011153816 -0.006398961 0.0019852512
0000c0 22 76 82 3d c5 02 72 3d e0 f5 84 3d 33 24 34 bd
       0.06370188 0.059084672 0.064922094 -0.043979835
0000d0 94 56 b9 bc f3 ff 6e 3c f9 c5 0b 3d c8 72 0c bd
       -0.022624291 0.01458739 0.03412435 -0.03428915
0000e0 9d 20 84 bc a8 1e 29 bd d1 e8 4d bd 3f 81 86 bd
       -0.016128832 -0.041289 -0.05027086 -0.065676205
0000f0 d9 bb 4a bd 85 e6 81 bd c4 a0 ae 3c da 4f d6 bc
       -0.04949555 -0.06342796 0.021316893 -0.026161123
000100 62 9a 07 3c 10 60 07 3d 98 60 8c 3d b2 b7 af 3c
       0.008276554 0.033050597 0.06854361 0.021449897
000110 8a c7 2d bc 02 23 0a 3d 15 6d 69 3d e0 cf 71 3b
       -0.010606656 0.033724792 0.056988794 0.0036897585
000120 44 ef 22 3d db b4 b0 bc 56 32 ea 39 17 aa a4 bc
       0.039778963 -0.021570614 0.0004466946 -0.020100636
000130 9f 95 7b bd ff 4c 17 bd 57 a6 be bc 63 84 59 3d
       -0.061421987 -0.036938664 -0.023272676 0.05310477
000140 83 15 e8 3b cd 36 17 3d 11 d5 0e bd 08 cf 52 3d
       0.0070826425 0.036917496 -0.034871165 0.05146697
000150 df 2d 4b bd 61 c8 b1 3c ee ff a0 bc c6 0c da 3b
       -0.049604293 0.021701993 -0.019653287 0.0066543547
000160 46 f7 0c 3d fd da 49 bc e3 d4 d9 3c 1a e4 ab bc
       0.034415506 -0.012320277 0.02659077 -0.02098279
000170 ee 43 fb 3c 73 85 29 3c 10 c4 98 3d e2 f9 52 3c
       0.03067204 0.010346758 0.07459271 0.0128769595
000180 f4 41 5d bd b3 0b 84 bb 11 1b d0 bc 3c 01 eb bc
       -0.054017976 -0.004029715 -0.025403531 -0.028687112
000190 3c ff d0 3b f7 b4 63 3a 4c a7 43 bd 59 86 a4 bd
       0.0063780826 0.00086863287 -0.04776697 -0.08033437
0001a0 f6 18 aa bc 7c bc 87 3d 29 91 29 bb 3a 02 18 3d
       -0.020763855 0.066277474 -0.0025873876 0.0371115
0001b0 98 25 c4 bc 5d 8e 16 3d bd e3 8a 3c 15 d7 0e 3d
       -0.023943707 0.036756862 0.016954297 0.034873087
0001c0 33 ff fd 3c aa f4 61 3d 4c 83 83 bd dc 93 ac 3d
       0.031005478 0.05516497 -0.06421527 0.084266394
0001d0 19 54 aa 3d d5 fd 07 3d 32 a3 2c 3d 5f c9 10 bd
       0.083168216 0.033201057 0.042147823 -0.035348292
0001e0 6c 91 40 3d cf a3 a0 3d c5 fe 68 3d 56 bc e1 3c
       0.047013685 0.07843744 0.056883592 0.027555626
0001f0 32 94 ba 3d af 8e 6c 3d 8d c2 d7 bc 0c b1 ee bc
       0.09110297 0.05775326 -0.026337886 -0.029137157
000200 2d 76 04 bd 3d e2 46 3d 8d 80 2e 3d c9 91 84 3d
       -0.032339264 0.0485556 0.042603064 0.06473119
000210 30 80 10 bd 8e a4 9d 3d 7e 3c 11 3d 4e ab dd 3c
       -0.0352785 0.07697402 0.03545808 0.027059224
000220 ce 62 90 bd a7 01 28 bb 72 0c 37 3d 34 d1 79 3d
       -0.070500955 -0.002563575 0.044689603 0.060990527
000230 ba da 86 3d 8b 8e 04 bd 2c 90 67 3c 56 d0 25 bd
       0.065846875 -0.032362502 0.014133494 -0.040481888
000240 30 5e 13 3d 33 64 ba 3d c9 55 81 3d 50 c6 08 bc
       0.035978496 0.09101143 0.0631519 -0.008348063
000250 97 7e 10 bd ea b0 82 bd e3 c0 85 bc 45 fa 62 bb
       -0.035276975 -0.063814 -0.016327327 -0.0034634036
000260 fa bb aa 3c bd 29 0b 3d 53 ec 8e bb e4 17 27 3c
       0.020841587 0.03397535 -0.004361668 0.010198567
000270 f6 d1 37 3d 9c c2 f2 3d 83 ff e4 3c d5 b1 f1 3b
       0.04487797 0.11853525 0.027953869 0.0073759356
000280 86 9f eb bc 69 90 ab bc de 3a 26 bb 5f 79 27 3d
       -0.02876259 -0.020942884 -0.0025364677 0.040887233
000290 a6 8e 5b 3b 70 d6 09 3d 15 35 07 bc 8a 6d ff bb
       0.0033501773 0.03365177 -0.008252402 -0.0077950405
0002a0 49 2d b8 bc 03 d3 f7 bb b3 bc 3a bd 5f 41 79 3d
       -0.022482531 -0.0075629964 -0.045590114 0.06085336
0002b0 69 39 4d 3d 87 2d a3 3d d5 50 98 bb 00 74 76 3d
       0.05010358 0.07967668 -0.004648308 0.06016922
0002c0 01 fa 43 3d 9c dd 68 bc 4b 81 8d bc 14 b9 88 bb
       0.047845844 -0.014212992 -0.017273566 -0.0041724537
0002d0 f2 0c 92 bc 82 79 27 bc 4f 88 4a 3d 89 60 c2 3c
       -0.017828438 -0.010221841 0.0494464 0.023727672
0002e0 36 13 8f bd 2c b2 76 3c 94 9b 6f 3d d5 e6 78 3d
       -0.06986086 0.015057128 0.05849798 0.060767014
0002f0 9a 23 ab 3c da 1a 67 3c 87 7d d9 3c 2d 6f ab 3c
       0.020891 0.014105523 0.026549114 0.020927036
000300 be 22 81 3c 40 01 e4 3c db f3 55 3c f3 c0 36 bd
       0.015763637 0.027832627 0.013058628 -0.044617604
000310 e2 56 5f 3d 84 a4 4a 3d 3b 00 3d bd 5a 38 31 bb
       0.054526217 0.0494733 -0.046142798 -0.0027041645
000320 b2 74 51 bd 8f 2b 46 3d bf f9 80 bd af 2e 1f 3d
       -0.05113668 0.048381384 -0.06297635 0.03886288
000330 55 22 2b 3d f1 7a 81 bc 03 5a 6f bd c0 71 3b 3d
       0.04178079 -0.015805693 -0.05843545 0.045762777
000340 01 e6 31 3d 77 af 19 bc 38 c9 88 bd 16 25 c0 bc
       0.04343224 -0.009380213 -0.066790044 -0.023455184
000350 6f bd 45 bc 06 bf 3e b8 ef 43 3d bc a6 87 24 bd
       -0.01206909 -4.5477434e-05 -0.011551841 -0.040168427
000360 46 53 48 3b 48 5b 91 3d 76 64 b8 3d 70 8b 57 3b
       0.0030567213 0.07097489 0.090035364 0.0032889508
000370 a7 dc 05 3d c6 ba b9 bc 7d 36 02 3d 31 ef 5d bd
       0.032681134 -0.022672068 0.031790245 -0.05418319
000380 f0 c4 2a 3d 6f e9 2b 3c cd fb 59 bd c1 b7 ea bc
       0.04169172 0.010492667 -0.05321865 -0.028652074
000390 a6 92 8f bb d7 37 5d 3d 0c 09 6d bc 62 88 eb bc
       -0.0043814955 0.05400833 -0.014467489 -0.028751556
0003a0 2a 9a 12 bd 95 1d 65 3d e4 d5 46 3d f0 fe 75 3d
       -0.035791554 0.055936415 0.048543826 0.06005758
0003b0 09 28 ae 3c 14 00 0e bd d6 83 61 bc ef 04 c6 bc
       0.021259325 -0.034668043 -0.013764342 -0.024172274
0003c0 59 52 29 bc e0 03 46 3d e7 46 17 3d f6 4a 4f bd
       -0.010334575 0.04834354 0.036932852 -0.050608598
0003d0 cd 31 5f bd fe 41 8a bd b8 6f 48 bd e6 4d d2 3d
       -0.054490853 -0.06750868 -0.04893467 0.10268764
0003e0 58 9f 4b bd b8 bf 1f bd 68 cf f4 3b ac 45 b1 ba
       -0.04971251 -0.039001197 0.007471014 -0.0013524792
0003f0 89 29 20 3d a3 27 bf bd 76 a7 3c 3c 1a 0c f8 3c
       0.03910211 -0.09333732 0.011514535 0.030279208

decoder.0.bias f4 [32]
000000 13 65 aa bd d6 7c 3b 3c 97 28 c5 bc ae 90 a2 3d
       -0.083200596 0.011443337 -0.024067206 0.07937752
000010 54 a0 67 3c cf 1e 53 bd b0 76 40 3d cf f7 1f bd
       0.014137346 -0.051543053 0.04698819 -0.039054688
000020 9f 48 98 3d 38 d7 b2 3c fd 68 85 bd 38 35 e1 3d
       0.074357264 0.02183114 -0.065141656 0.10996479
000030 aa 7b 34 bc 1f d8 c6 bb a5 c2 ef bc f8 e7 92 bb
       -0.011015812 -0.006068244 -0.029267618 -0.0044832192
000040 c7 b0 33 bd 36 4a b2 bd ef 5f 66 ba 23 09 a1 3d
       -0.04386976 -0.08705561 -0.0008788099 0.07863071
000050 18 05 94 3d 32 df 40 3b 29 48 9f bd aa 43 72 bd
       0.07227534 0.002942991 -0.07777435 -0.05914656
000060 cc 6c 17 bd 64 dc 6b bd ba ee c5 3d 7c 3a f3 bc
       -0.03696899 -0.057583228 0.09664674 -0.029690973
000070 5a 77 3a bd c9 7c 86 bc 28 dc ab 3d a5 f5 f1 3c
       -0.04552398 -0.016416924 0.08391601 0.029536078

decoder.2.weight f4 [32, 16, 3, 3]
000000 7c 0e 41 3b 7b 6f 81 3c 2d 72 83 bd 41 cc 26 bd
       0.0029458096 0.015800228 -0.06418262 -0.040722135
000010 30 7a 82 bc 94 e0 0f 3d 41 eb bc 3c 88 49 7f bc
       -0.015927404 0.035126284 0.023061397 -0.015581496
000020 91 42 4b 3c 36 77 20 3d c0 f7 a7 3a a3 0b e6 bc
       0.012406007 0.03917619 0.0012814924 -0.02808172
000030 95 ff 02 3d 97 ef ba 3c 05 7e 9e bd 25 ef 9d bd
       0.031982023 0.022819323 -0.0773888 -0.07711629
000040 1e 5a 80 3d 39 e5 83 bd 96 0e 55 bd f3 c8 98 bd
       0.062671885 -0.06440205 -0.052015863 -0.07460203
000050 36 90 e8 bc 64 0d 26 3d 6c 63 6f 3d ae 54 63 bd
       -0.028389078 0.040540114 0.058444425 -0.05550068
000060 ce 51 4c bd b6 7f a2 bd 8b 52 43 3d fd 9d 66 bd
       -0.049882703 -0.07934515 0.04768614 -0.056303013
000070 53 9e 91 3a 79 9c 2e bd c4 6f 44 3d b5 8e 05 3b
       0.0011109806 -0.042629693 0.04795815 0.002037925
000080 35 12 e8 bc fd ba 91 bb e6 db b3 bd 8d 43 5b 3d
       -0.028328994 -0.0044473396 -0.08782177 0.05353122
000090 ca 92 57 bc a7 83 49 3d f2 cc 96 bd 82 70 ac bd
       -0.013157556 0.04919782 -0.07363309 -0.08419897
0000a0 4d ff 07 bd c4 df d2 bd 57 c0 ba bd c5 b3 b2 3d
       -0.03320246 -0.10296586 -0.09118717 0.087256946
0000b0 36 7c 94 3b 94 5b eb bc d2 a6 d1 3d 33 58 d9 3d
       0.0045314087 -0.028730191 0.102368966 0.10612526
0000c0 5c 56 eb 3a b8 2f 0f 3a 05 80 3d 3d dc 58 27 bd
       0.0017954814 0.0005462128 0.046264667 -0.040856227
0000d0 81 6d ab 3d f0 c7 1c 3c dd 04 fd 3d 58 4f e2 3d
       0.083704956 0.009569153 0.12354443 0.1105029
0000e0 44 a7 62 bd 2c 0a 2c 3d 75 68 a1 3c b1 a2 58 3c
       -0.0553353 0.04200189 0.01970313 0.013222382
0000f0 1b df 91 3d f4 a5 ba 3d 55 82 da ba 0d d6 bd 3d
       0.07122632 0.09113684 -0.0016670922 0.092693426
000100 a2 af fe 3d 3e e8 58 3c dd 74 c6 3d 9b ff 99 3d
       0.12435843 0.013238965 0.09690259 0.07519456
000110 e0 74 30 bc 61 ec fc 3d 82 12 e9 3d db 65 96 3d
       -0.010770053 0.12349773 0.11380483 0.07343646
000120 a3 fb f3 bc 3d d6 41 bd 44 2f 58 3d 50 e8 ef bd
       -0.029783076 -0.047323454 0.05277945 -0.11714232
000130 ad 0b c8 bd ec 6f 38 bd 0b 51 9d bd fb 21 92 bd
       -0.09767852 -0.045028612 -0.07681473 -0.071353875
000140 40 7f 69 3d 04 e6 8a 3b 3d 2f ab 3d 5a 48 77 bd
       0.05700612 0.004238846 0.08358619 -0.060371734
000150 9e f4 1e 3d 6f 71 5c bd 29 62 8c bd cc 63 34 3b
       0.038807504 -0.053819116 -0.0685466 0.0027525304
000160 cf 85 b8 3d 95 d6 ba bd eb 5f 5e 3d 74 73 01 3d
       0.09009897 -0.091229595 0.054290693 0.031604245
000170 18 6a 85 3d 56 67 df 3c d8 ca 3b 3d 36 3e c7 3d
       0.065143764 0.027270954 0.045847744 0.09728663
000180 9b cf 1b 3d 1c 65 ca 3d ad d6 c0 bc 72 32 cb bb
       0.038039785 0.09882566 -0.023539865 -0.006201082
000190 64 69 ab 3d 3b c4 3a bd 41 a8 91 3d 47 75 19 3c
       0.08369711 -0.045597296 0.0711217 0.00936634
0001a0 ae 64 24 3d 0f 3f ba bc 00 f2 0f 3d 03 ca ba 3c
       0.040135078 -0.022735147 0.0351429 0.022801405
0001b0 52 85 8d bd 1f 3f 03 3d 40 b3 64 3d dc e4 a0 bd
       -0.069101945 0.03204262 0.05583501 -0.078561515
0001c0 79 e7 22 bd f7 e8 23 bd ff db 83 bc f3 76 e3 3c
       -0.03977153 -0.040017094 -0.016096113 0.02776668
0001d0 f4 d6 8e bd 1c 73 5a bd 37 e5 2f 3d 09 43 bc 3c
       -0.06974593 -0.053332433 0.042943206 0.022981184
0001e0 bb d4 23 bc e0 81 c3 ba 2a f4 33 bd c7 59 4b bd
       -0.009999449 -0.0014916025 -0.043934025 -0.049646165
0001f0 cf fb 42 3d 9e dc 35 bb da 0c 5a 3d 0f ec da 3d
       0.047603425 -0.0027749906 0.053234912 0.10689556
000200 b7 be 1a 3d 3b bc a5 bd 73 8b 05 3e 1f bc 51 bd
       0.037779536 -0.08092543 0.13041477 -0.051204797
000210 a8 d8 d4 3d 57 f7 ac 3d 0a 8d b9 3c 9b ce 05 3d
       0.103928864 0.08445614 0.02265026 0.032667737
000220 b7 81 2b 3d 84 50 9e bd 88 c3 11 3c 6b b1 fd 3d
       0.041871753 -0.07730201 0.008896716 0.123873554
000230 5e 65 6f 3d c0 8e ca bc b7 0c b1 bc 9b 78 1b bc
       0.05844628 -0.024726272 -0.021612508 -0.009489204
000240 24 ee 83 bc ec 4e 8f 3c 0b e7 ab 3d f8 84 18 bc
       -0.016104765 0.017493688 0.08393677 -0.009309046
000250 78 a5 13 3e ca 48 ea 3b cb 30 93 3d 16 b1 6b b8
       0.1441859 0.0071497904 0.07187041 -5.619329e-05
000260 b7 37 4a 3d d7 df b3 3d 28 7e 9f 3d 8a 59 1e 3d
       0.04936954 0.087829284 0.07787734 0.03865961
000270 67 e2 01 3d f6 ea 15 3e 7d 95 34 3d 64 54 b4 3d
       0.031710055 0.14640412 0.044087876 0.08805159
000280 d8 cf 91 3d c6 d0 c5 3d b4 af 5d bc ab 22 c6 3c
       0.07119721 0.09658961 -0.01353066 0.024186453
000290 18 ba af bd 75 4f 89 3d 60 bc 68 3c fd b3 8f 3d
       -0.085804164 0.06704608 0.014205068 0.07016752
0002a0 c8 07 9f bd b4 64 9d 3d 17 3f 53 bd 2e b1 e4 3d
       -0.07765156 0.07685223 -0.05157384 0.11166607
0002b0 01 7b e7 3d 41 9b 99 3d 97 de 00 3d 08 b4 81 3d
       0.11302758 0.075003155 0.03146228 0.06333166
0002c0 53 97 b1 3d 1f e2 93 3d 92 ac d1 3d 50 96 c3 3d
       0.08671441 0.072208636 0.10237993 0.09550154
0002d0 8b 7d a3 3d 89 c7 b2 3d ef 56 70 3d bd 01 3d bb
       0.0798293 0.087294646 0.058676656 -0.0028840147
0002e0 d5 a0 d8 3d 4d d9 a9 3d 32 fe 97 3d 4f 91 03 3e
       0.10577551 0.082934 0.07421531 0.128484
0002f0 6e f8 6f 3d 0f b7 e9 bd b4 11 1c bd ef a1 15 bc
       0.05858653 -0.11411869 -0.03810282 -0.009132846
000300 74 d4 00 bd 5d 8d d3 bd e8 b0 e6 ba 3a 0e c9 bd
       -0.03145261 -0.10329697 -0.001760033 -0.098171666
000310 f8 c4 cc bc 66 47 70 bd da 60 91 bd 8e 0d 5a bd
       -0.024996266 -0.05866184 -0.07098551 -0.053235583
000320 b2 71 e4 bd 60 87 8c 3b 65 ca 11 be 7e 01 9a bd
       -0.11154498 0.004288599 -0.14237364 -0.07519816
000330 a4 45 91 bd 4c 1f c8 bd ef c6 9d bc 14 43 c8 bd
       -0.07093361 -0.097715944 -0.019259898 -0.09778419
000340 40 dd 5d bd bc b7 d6 bd 94 5b f0 bd 30 c3 f5 bd
       -0.05416608 -0.10484263 -0.11736217 -0.1200012
000350 e5 3c 8c bd 9f 77 8f bd 15 25 cd bd 63 d9 21 3c
       -0.06847552 -0.07005238 -0.100168385 0.009878489
000360 f0 6f c6 3d 68 80 81 3d ad a6 be 3d 8b a2 c1 3d
       0.09689319 0.0632332 0.09309135 0.09454831
000370 cc 9e c4 3c 3e fd 23 3c 98 5c bf 3d bf cc e2 3d
       0.024001502 0.010009108 0.09343833 0.110742085
000380 e6 0e b2 3d a3 e6 28 bc f0 25 64 3d ac 49 82 bd
       0.08694248 -0.010308894 0.055700243 -0.06361708
000390 12 cf 7d b9 58 c8 54 bd c7 ec ab bc 42 2d 04 3c
       -0.000242051 -0.051948875 -0.020986928 0.008067431
0003a0 9e 51 23 3d f2 f1 8e bd e2 52 1e bc a7 08 a2 bd
       0.039872758 -0.06979741 -0.0096633155 -0.079118066
0003b0 21 55 7b bc 64 87 13 bd 3f 4b 8e bd e9 0e 45 3c
       -0.0153401205 -0.03601779 -0.06947946 0.012027481
0003c0 73 2b a2 3d 3e b4 ee 3c 1d 4b 9e 3c 31 bf a3 bd
       0.079184435 0.02913868 0.019322926 -0.07995451
0003d0 2e 19 ea bd 11 02 c9 bd 53 93 27 bd c0 d6 97 bd
       -0.11430584 -0.09814847 -0.040911984 -0.07414007
0003e0 02 58 ff 3c 44 bb 8e bd 8a df 54 bc 35 53 68 bd
       0.031169895 -0.06969312 -0.012992749 -0.056719977
0003f0 eb 30 8b 3d e8 46 90 3d 51 92 cd bc b7 54 87 3a
       0.0679644 0.07044774 -0.025094183 0.001032493

decoder.2.bias f4 [16]
000000 7b fd 99 3d 85 cd e3 3d f8 46 d0 bc ec 28 9f bb
       0.07519051 0.11123184 -0.025424466 -0.004857173
000010 cc aa 8d 3d 18 7b 1d bd 57 70 70 3d 98 f2 29 3b
       0.069173425 -0.03844747 0.058700886 0.002593195
000020 37 2c 61 ba 82 ac 10 bd f8 e7 e5 3c c8 5a 95 bd
       -0.00085896574 -0.035320766 0.028064713 -0.07292706
000030 71 88 63 3d 7c ab a1 bc 46 00 47 bd d7 35 ae bd
       0.055550043 -0.01973509 -0.048584245 -0.08506363

decoder.4.weight f4 [16, 3, 3, 3]
000000 56 3a 9c 3d 7b f5 ab 3d 6e 18 7e be 16 d2 3b bd
       0.07628314 0.08396431 -0.24814007 -0.04585465
000010 fd 65 1a be 41 7d f6 3b a8 0e 08 be cb a2 9a bc
       -0.15077968 0.0075222556 -0.13286841 -0.018876454
000020 70 6a e7 bc 9a 1f 47 3d 54 99 8a bc 2e 38 3c bc
       -0.028248996 0.048614122 -0.016918816 -0.011488004
000030 63 70 2d be 9a 79 4a be 0d 94 6a be eb 42 30 be
       -0.16937403 -0.1977295 -0.2290804 -0.17213027
000040 6d 49 f5 3c fb 9a f0 bb 8b 3b 34 be cf 2f 0e be
       0.029942239 -0.007342694 -0.17600839 -0.13885425
000050 18 d8 53 bd 00 16 42 bd cb c7 13 be b3 f2 70 bd
       -0.051719755 -0.047384262 -0.14431684 -0.058825206
000060 05 eb d7 bc 3e 8c e5 bd 71 c0 e0 3d db 5e b3 bc
       -0.026357183 -0.1120839 0.10974205 -0.021895817
000070 61 aa 14 be a3 80 b0 3d a0 d5 53 3d a5 8d 1a bd
       -0.1451812 0.086182855 0.0517174 -0.03773274
000080 5d b0 0b be cf e4 94 3d 83 9e cf bd fb e6 7a 3d
       -0.13641496 0.07270204 -0.101376556 0.061255436
000090 d5 ed 17 bd cc 43 52 be 65 f7 56 bc 65 af 88 3d
       -0.03709205 -0.20533675 -0.013120507 0.06674079
0000a0 33 b8 e9 bd ff 64 90 3d b2 45 ac 3d 91 67 a6 3d
       -0.11412086 0.070505135 0.08411731 0.081252225
0000b0 40 46 79 bc aa c3 be 3d 2c 4a 3a be 94 ff 2b be
       -0.015214503 0.09314664 -0.18192357 -0.16796714
0000c0 c6 91 4d be c6 0c 54 be 3c c4 2d be 2d 91 07 3d
       -0.2007514 -0.20707998 -0.16969389 0.033097435
0000d0 79 c1 af bc 77 19 ce bd 4e 65 01 3e 80 d8 4d bd
       -0.02145456 -0.10063451 0.12636301 -0.0502553
0000e0 7b 2a 2f be c9 c6 54 3e 25 22 bc bc d5 51 28 bd
       -0.17106049 0.20778956 -0.0229655 -0.041093666
0000f0 38 a1 cb 3d 36 0f 1f be e0 75 ae bb 07 7f 02 bd
       0.099428594 -0.15533146 -0.0053241104 -0.031859424
000100 fc 04 14 be 1a 26 36 3e da 26 ca bd 38 d5 1f be
       -0.14455026 0.17787972 -0.098706916 -0.1560868
000110 50 a7 ca bd 1f ae 9d bb dc a4 47 3e d0 38 86 bd
       -0.098951936 -0.0048120166 0.19496483 -0.06553805
000120 21 e4 01 3e 67 54 27 bd 6a cd a0 bd d2 98 ba bb
       0.1268468 -0.040851977 -0.078516796 -0.005694487
000130 e8 4f 6b 3d f9 e5 2e 3e 43 80 71 3d 01 9c 9d 3d
       0.05744925 0.17079915 0.05896021 0.07695771
000140 6a 99 af bd d0 46 1a be a2 a0 9d bd 34 dc 99 bd
       -0.08574183 -0.15066075 -0.07696654 -0.075127035
000150 3f 63 16 be 08 14 d2 bd b3 c2 1a bc 6f 3a b2 3b
       -0.14686297 -0.10257727 -0.009445834 0.0054390947
000160 fc 10 d9 bd 69 21 e0 3d 7b 17 80 bd 02 c2 b4 bd
       -0.10598943 0.109438725 -0.062544785 -0.088260666
000170 0a 1b e9 bd 2d 56 a1 bd b8 4c c0 bd 58 cc 0e be
       -0.113821104 -0.07877765 -0.09389633 -0.13945138
000180 1f ef 75 bd 96 bb 70 bd be be 22 3c 12 70 32 3e
       -0.060042497 -0.058772646 0.009933172 0.17425564
000190 40 c6 62 bd 01 8d bb bd f7 45 79 bd 98 de 30 be
       -0.055364847 -0.09157754 -0.06085774 -0.17272413
0001a0 c3 2f 94 3d 92 4c f6 bd 45 fd c2 bd 0a 4e dc b7
       0.07235672 -0.120263234 -0.095209636 -2.6262383e-05
0001b0 61 32 f4 bd 7f 6d f3 bd 1e 16 62 3d 02 f9 20 bd
       -0.119236715 -0.11886119 0.055196874 -0.039299972
0001c0 ad 19 37 3d 6d fe 85 bd 57 b2 fa bd d5 fa 06 3e
       0.04470222 -0.065426685 -0.12241047 0.13181622
0001d0 95 da e8 3d ee d2 80 3d 21 38 34 bc 36 03 cf bc
       0.11369816 0.06290232 -0.01099971 -0.025270086
0001e0 a9 7e 5a 3d 08 1b f6 bd 84 f9 c0 3d 10 a4 55 be
       0.05334345 -0.120168746 0.09422591 -0.20863366
0001f0 b7 12 19 be 05 2a ee bd 53 f7 85 bd c4 32 27 bd
       -0.14948545 -0.11629108 -0.06541314 -0.0408199
000200 56 e3 f7 3d ee c5 ce bd 7e 4f d7 bd 26 d9 d8 bd
       0.12103908 -0.10096346 -0.10513209 -0.10588293
000210 24 dc 39 be b3 ce ee bd 25 23 3d be 3f 35 f8 3d
       -0.18150383 -0.116605185 -0.18470438 0.12119531
000220 53 54 4c 3d a7 c9 1e 3e 3d 37 06 3e 7d bd 6f 3d
       0.049885105 0.15506612 0.13107009 0.05853032
000230 11 60 d3 bd 72 c8 eb bd 57 05 cc b9 81 8c 40 3e
       -0.103210576 -0.11512841 -0.0003891389 0.18803598
000240 a5 b1 75 3c 4c 4a 89 3d 6b b6 8e 3d 44 16 24 3e
       0.014995967 0.06703624 0.06968387 0.16024119
000250 1a 77 73 bc e3 f7 9a bd 7c 69 fe 3d 05 a5 23 3e
       -0.014859939 -0.07566812 0.12422463 0.15980919
000260 e5 00 d1 3d 71 c1 b4 bd 91 0d 78 3e 7d 28 5b 3e
       0.10205249 -0.088259585 0.24223925 0.21402164
000270 d0 29 61 3e 63 ab 4c 3d 34 55 3d 3d 91 9f 39 3d
       0.21988606 0.049968135 0.046223834 0.04531819
000280 22 df 1b 3e c1 ac 08 be 4d ba 09 3e 23 1b 3a 3d
       0.15221837 -0.1334715 0.13449974 0.045436036
000290 a7 e3 57 be b9 4a 7a 3e a7 0d 1d 3e 54 8a dc 3c
       -0.21082936 0.24442567 0.15337239 0.026921429
0002a0 06 ac a2 3d 0f 86 3f 3e da ce 67 3d 2a 5d 6c bd
       0.07942967 0.18703483 0.056593753 -0.057706036
0002b0 a0 fd 8f 3c 9c 54 04 bd 07 ac 24 bd 91 13 8b 3e
       0.017576993 -0.032307252 -0.04020312 0.27163365
0002c0 85 32 f5 3d c3 c6 d8 bd a6 c6 bf 3d 92 55 fa bd
       0.119725265 -0.10584786 0.09364061 -0.122233525
0002d0 78 7a 05 be ee d9 72 bd fb a0 82 3d 7c 35 38 3d
       -0.13035 -0.059289865 0.06378361 0.04497288
0002e0 bc 86 52 3e 1e 3f 89 bd 3a 04 0f 3e 71 9a 67 3d
       0.2055921 -0.06701492 0.13966456 0.05654377
0002f0 9f bb 17 be 46 de 17 3c d2 b0 ca 3d 4f 49 e3 bd
       -0.14817666 0.009269303 0.09897007 -0.11097967
000300 ba c6 b8 bd 9d 5e 69 3e 8d 32 19 3e f7 39 ae bd
       -0.09022279 0.22789998 0.1496069 -0.0850715
000310 02 1f ca 3d ef ad 13 3e 87 e8 2f 3e 73 a1 7e 3e
       0.098691955 0.14421819 0.17178546 0.24866275
000320 33 84 4c 3e 9c 23 af 3d d3 18 b7 bc 9a 3a 84 3e
       0.19972305 0.08551714 -0.022350704 0.2582596
000330 1e 0a b2 bd ec 60 11 3d c0 8a 5b bd 58 6b 23 3e
       -0.08693336 0.035492823 -0.05359912 0.15958917
000340 fe 4b 6c 3e 0c 0b bc 3d c7 f8 48 3e 3f 60 16 3e
       0.23075864 0.091817945 0.19626151 0.14685152
000350 79 d1 0c 3d 04 d9 a2 3d b3 40 38 3e 16 98 57 3e
       0.034379456 0.07951549 0.17993431 0.2105411
000360 af 49 08 3d 31 b0 8f bd e5 2c a6 3d 27 35 6d 3d
       0.033273395 -0.07016028 0.08114032 0.05791202
000370 82 50 03 be a2 9a 7b bc 19 91 a5 3d ee da 04 be
       -0.1282368 -0.015356692 0.08084316 -0.1297414
000380 f0 57 fc bd 5a fc 89 bd fe d9 4b 3d 22 33 ec 3d
       -0.1232146 -0.06737585 0.04976844 0.1153319
000390 1a 6c 0f be e7 07 fb bd b8 62 96 bd 72 c3 0c 3c
       -0.14006081 -0.122573666 -0.07343048 0.00859152
0003a0 39 7d 17 be cb 9c 45 be 9d fc 1f bc 24 92 01 be
       -0.14793862 -0.19298093 -0.009764818 -0.12653404
0003b0 cd 34 cd bd 11 0f 91 3c b4 76 3a be 48 e0 d5 bd
       -0.100198366 0.01770738 -0.18209344 -0.10443169
0003c0 d8 cd b4 3d 6e 1a 68 bc 35 87 0d 3e 0a 7e 11 be
       0.08828324 -0.014166458 0.13821109 -0.14208236
0003d0 9f 36 07 3d ad d3 8f ba fd bc 29 3e 34 45 9d 3d
       0.033011075 -0.0010973118 0.16576 0.07679215
0003e0 52 af c5 bd 40 26 6b bd e0 77 8b 3d a2 d4 16 be
       -0.0965258 -0.057409525 0.06809974 -0.1472955
0003f0 b8 08 c3 bd 1a 4b 1d 3e ee 7e 6c 3e d6 ff 29 3d
       -0.09523147 0.1536068 0.23095295 0.04150375

decoder.4.bias f4 [3]
000000 63 2b 15 be af 64 96 bc 29 db ba 3d
       -0.14567332 -0.018358557 0.09123833
