pcb2_autoencoder.pth (torch, 193090 bytes, 12 tensors)

encoder.0.weight f4 [16, 3, 3, 3]
0	0x3daa2620	0.08308053
1	0xbd89e625	-0.0673335
2	0xbdac11f9	-0.084018655
3	0xbd021651	-0.031759564
4	0xbd4e3e78	-0.050352544
5	0x3a98214d	0.0011606604
6	0x3e067130	0.13129115
7	0xbdfa0b1c	-0.1220915
8	0xbddadccc	-0.10686645
9	0xbe353c64	-0.17698818
10	0x3c7a3e8c	0.015273701
11	0x3cea146c	0.028574191
12	0xbdffa2a8	-0.12482196
13	0xbde79288	-0.113072455
14	0xbcce81cb	-0.025208374
15	0x3e46315e	0.1935477
16	0x3c973e3f	0.018462298
17	0x3e1a2e5f	0.15056752
18	0x3e1d7762	0.15377572
19	0xbd95e8bf	-0.073197834
20	0x3deef0fb	0.11667057
21	0xbd7abf71	-0.06121773
22	0x3e273630	0.16329265
23	0x3e0d9144	0.13824946
24	0xbd84484d	-0.06459103
25	0x3dde166e	0.10844122
26	0x3db96bda	0.09053774
27	0xbbb8e329	-0.005642314
28	0xbe1c5787	-0.15267764
29	0x3d6835b3	0.056691837
30	0xbe436787	-0.19082461
31	0xbe435c14	-0.19078094
32	0xbd7fd98c	-0.06246333
33	0x3dff38bc	0.12461993
34	0xbd83a004	-0.06427005
35	0xbdd7762f	-0.105205886
36	0xbc9e6eab	-0.01933988
37	0xbe01c6f9	-0.12673558
38	0x3d83a476	0.06427853
39	0x3e215f01	0.15758897
40	0xbe06f229	-0.13178314
41	0xbe42721a	-0.18988839
42	0xbdff4c7e	-0.124657616
43	0xbe2cbe55	-0.16869481
44	0x3c6a4fe8	0.014301278
45	0x3e36124d	0.17780419
46	0x3cc03682	0.023463491
47	0xbe0569a3	-0.13028578
48	0xbd2113ad	-0.039325405
49	0x3d59857e	0.053105824
50	0x3c6d13ae	0.014470024
51	0x3dcb8adf	0.09938597
52	0x3e31a006	0.173462
53	0xbe0fd452	-0.14045838
54	0xbcc2572a	-0.023723204
55	0x3c9ca850	0.019123226
56	0x3e00912c	0.12555379
57	0x3dc80d6a	0.097681835
58	0x3cc53f00	0.024077892
59	0x3e4ba44a	0.1988689
60	0x3d893f0e	0.0670148
61	0x3dab2e67	0.0835846
62	0x3d257f87	0.040404823
63	0xbde533ce	-0.111915216
64	0xbb65ffc8	-0.0035095084
65	0xbe26219c	-0.16223758
66	0x3e131b1b	0.14365809
67	0x3dd3aebe	0.10336064
68	0x3b2da9b8	0.0026498865
69	0x3da0a839	0.07844586
70	0xbe13cdf5	-0.14434035
71	0x3e2b46da	0.16726246
72	0x3d3c6a66	0.045999907
73	0xbdb124aa	-0.08649571
74	0xbdb87bbd	-0.09007976
75	0xbe1a28e2	-0.15054658
76	0xbd42193e	-0.047387354
77	0xbe289bdf	-0.1646571
78	0xbe2aab05	-0.16666801
79	0xbe21a65e	-0.1578612
80	0x3e0e2b90	0.13883805
81	0x3da65fd2	0.08123745
82	0xbde1a65f	-0.11018061
83	0xbdd88f82	-0.10574247
84	0x3e05f72b	0.13082568
85	0xbd7b5224	-0.061357632
86	0x3dd23d2e	0.10265575
87	0x3cbd2de8	0.023093179
88	0xbde83a0f	-0.11339199
89	0xbe1dbdde	-0.1540446
90	0xbc927010	-0.017875701
91	0xbe2fde63	-0.17174678
92	0xbe255024	-0.16143852
93	0xbdac3313	-0.08408179
94	0xbe04fa14	-0.12986022
95	0xbdcfad06	-0.101404235
96	0xbe287797	-0.1645187
97	0x3d944daa	0.07241376
98	0xbe3f1bfc	-0.18663019
99	0xbca792c0	-0.020455718
100	0xbe070a84	-0.13187605
101	0xbdd76ac7	-0.10518413
102	0x3e1a1dcd	0.1505043
103	0xbcd1e5f0	-0.025622338
104	0xbddac680	-0.10682392
105	0x3e26df2b	0.1629607
106	0xbdcac170	-0.099001765
107	0x3c43a1f0	0.011940464
108	0x3e12fa74	0.14353353
109	0x3dc41655	0.09574572
110	0x3e66310f	0.22479652
111	0x3e2e97f1	0.17050149
112	0xbe20a635	-0.15688403
113	0x3de440e9	0.11145193
114	0x3d565800	0.052330017
115	0xbdf67809	-0.12034614
116	0xbe06d234	-0.13166124
117	0x3d29b68d	0.04143386
118	0x3b4c8f39	0.0031213297
119	0x3d48d335	0.049029548
120	0x3db671cd	0.089084245
121	0xbda7f94c	-0.082018465
122	0x3da0e34d	0.07855854
123	0xbdcc1492	-0.09964861
124	0xbd1ff398	-0.03905067
125	0xbd23bff5	-0.039977986
126	0x3ca3be1a	0.019988108
127	0xbdb0b1b6	-0.08627646
128	0x3e4f1416	0.20222506
129	0x3d1f2b09	0.0388594
130	0x3d65126f	0.055925783
131	0x3dad4d50	0.08462012
132	0x3d736cd3	0.059429955
133	0x3d138946	0.036019586
134	0x3e009e55	0.12560399
135	0xbcfb080e	-0.03064349
136	0x3d201d75	0.039090592
137	0x3db9bf5d	0.09069703
138	0x3dee662b	0.11640581
139	0x3e1c19b8	0.15244186
140	0x3e5c5d99	0.2152008
141	0x3e0722ba	0.13196841
142	0xbcf17dbf	-0.029478906
143	0x3e5c5e96	0.21520457
144	0xbddf6d1c	-0.10909483
145	0x3d33377f	0.043754097
146	0x3da37e60	0.079830885
147	0xbce2ac8a	-0.027670164
148	0xbe35171c	-0.17684597
149	0xbe10fb31	-0.14158322
150	0x3cfcfb54	0.030881561
151	0x3cebb9d6	0.028775137
152	0x3d4ff522	0.050770886
153	0xbceb8c2f	-0.028753368
154	0x3db87b12	0.09007849
155	0xbcddf5cd	-0.027094746
156	0x3d4ae7c9	0.049537454
157	0x3d4c3120	0.049851537
158	0x3e24dd19	0.16099967
159	0xbda8707e	-0.08224581
160	0xba304114	-0.00067235646
161	0xbdd7fb9e	-0.10546039
162	0x3d936f86	0.07199006
163	0xbdd523b1	-0.10407198
164	0x3c1142c6	0.008866018
165	0x3e554e04	0.20830542
166	0xbe0f15f3	-0.13973217
167	0xbd2f4055	-0.04278596
168	0x3c920092	0.017822538
169	0xbe162e5a	-0.14666119
170	0x3e27d583	0.16390042
171	0xbdb50e5e	-0.08840631
172	0x3e5670f6	0.20941529
173	0x3e27cca0	0.16386652
174	0xbdfa6f34	-0.122282416
175	0x3e33e1ae	0.17566559
176	0x3db2c9d1	0.087299
177	0x3c4e4acc	0.012591075
178	0x3d7ed81a	0.06221781
179	0x3be9478b	0.0071191243
180	0xbcf0c6b0	-0.029391617
181	0x3dbc7d3b	0.09203573
182	0x3e13a44b	0.14418142
183	0x3df86ab6	0.121297285
184	0x3e3b2dc7	0.18279181
185	0x3dee8df0	0.11648166
186	0x3dfc105c	0.12307808
187	0xbdaacc30	-0.08339727
188	0xbcd0a8a3	-0.025471037
189	0xbc93564f	-0.017985491
190	0x3db0bc57	0.08629673
191	0xbb80b4c3	-0.0039277985
192	0x3d761e7a	0.06008766
193	0xbd0da825	-0.034584183
194	0x3e531684	0.20614058
195	0x3e29821d	0.1655354
196	0xbdf8b620	-0.121441126
197	0xbe077660	-0.1322875
198	0x3d4e435e	0.050357215
199	0x3d5ec86d	0.05439036
200	0x3d376c43	0.04478098
201	0xbc6ef161	-0.014583916
202	0x3d92a491	0.07160295
203	0xbdb84cdb	-0.08999034
204	0x3e417b46	0.18894681
205	0xbd331751	-0.043723408
206	0xbd8bcb36	-0.06825869
207	0x3e1b113f	0.15143298
208	0x3e1618be	0.14657876
209	0x3d8d68e8	0.06904775
210	0x3e1d2b36	0.15348515
211	0xbdb38fcf	-0.08767664
212	0x3d02d42d	0.031940628
213	0xbd63dfff	-0.05563354
214	0x3e457902	0.19284442
215	0xbd2cdcb0	-0.04220265
216	0x3d00065c	0.031256065
217	0xbdbd80ad	-0.092530586
218	0x3e3d9b37	0.18516241
219	0x3d53fe95	0.05175646
220	0x3d8fe069	0.07025225
221	0x3d52d439	0.051471923
222	0x3e3cdf36	0.18444523
223	0xbd261ac9	-0.040552888
224	0x3db7fe1b	0.08984014
225	0xbe31cdfa	-0.1736373
226	0x3cbaf9c0	0.022824168
227	0x3e311505	0.17293175
228	0x3dfe36c5	0.1241279
229	0x3d8636ec	0.06553444
230	0x3e299cb8	0.1656369
231	0xb992887e	-0.00027948985
232	0xbca00b7b	-0.019536724
233	0x3d0ad4ac	0.033894226
234	0x3d34af68	0.044112593
235	0x3e2c9b29	0.16856064
236	0x3b3c3238	0.0028716456
237	0xbe0e2269	-0.13880314
238	0xbdf54659	-0.119763084
239	0xbe013adf	-0.12620114
240	0x3d5dd7b0	0.054160774
241	0x3e321880	0.17392159
242	0xbcf4fb8f	-0.029905109
243	0xbdf7a636	-0.12092249
244	0x3e1ee607	0.15517436
245	0x3dce9be3	0.10088327
246	0xbdaf86d1	-0.08570636
247	0x3e3183ad	0.17335387
248	0x3e400518	0.18751943
249	0xbe10cbe1	-0.14140274
250	0xbe2cb84b	-0.16867177
251	0x3db7a25f	0.08966517
252	0xbc3b15e9	-0.011418798
253	0x3e3524a9	0.17689766
254	0xbe397cef	-0.18114065
255	0xbdb931bb	-0.090426885

encoder.0.bias f4 [16]
0	0x3daaac5a	0.08333655
1	0x3c8ec135	0.017426113
2	0x3d4a6f3c	0.049422488
3	0xbc5d8c80	-0.013522267
4	0xbdcdb924	-0.100450784
5	0xbd83150f	-0.06400501
6	0xbdca8467	-0.09888535
7	0xbd0eade2	-0.034833796
8	0x3df5ab29	0.11995537
9	0x3ded2641	0.11579562
10	0xbbed172f	-0.0072354297
11	0x3da554ea	0.08072837
12	0x3d38243f	0.044956442
13	0x3e82387c	0.2543372
14	0xbdc41b38	-0.09575504
15	0xbe0691d2	-0.13141564

encoder.2.weight f4 [32, 16, 3, 3]
0	0x3dbbd442	0.09171344
1	0x3cb2537e	0.021768328
2	0xbd091527	-0.033467438
3	0x3da5dc33	0.0809864
4	0x3dc3d059	0.095612235
5	0x3c9757b8	0.018474445
6	0xbcb95c61	-0.022627058
7	0xbcfd41cc	-0.030915163
8	0x3dc686de	0.096936926
9	0xbc5a36b1	-0.0133187035
10	0xbd9e05a4	-0.077159196
11	0xbd7ab0b5	-0.061203677
12	0xbd9da225	-0.07696942
13	0x3d0cff72	0.0344233
14	0xbd04b794	-0.032401636
15	0xbbef8909	-0.007310037
16	0xbd05bfd6	-0.032653652
17	0xbc9a7f04	-0.018859394
18	0xbd155f71	-0.036467973
19	0xbd78658c	-0.060643718
20	0xbce0a9a9	-0.02742465
21	0x3ccd1ef5	0.025039176
22	0x3d7a6508	0.061131507
23	0x3d2c3db7	0.042051043
24	0x3daac84f	0.08338987
25	0x3dc40b44	0.09572461
26	0x3dc07464	0.093972
27	0x3d264b06	0.04059889
28	0x3b1e6e00	0.0024174452
29	0xbcc9e7b6	-0.024646621
30	0xbc0ba968	-0.008524276
31	0x3d7f1562	0.06227625
32	0xbd80ff9b	-0.06298753
33	0xbd38f3b0	-0.045154274
34	0xbd9985fe	-0.0749626
35	0x3da9e1e7	0.082950406
36	0x3d448979	0.047982667
37	0xbc7d6bb4	-0.015467573
38	0x3d059c97	0.03262004
39	0xbcd12df7	-0.025534613
40	0xbdd5ad7c	-0.1043348
41	0x3cb1aee0	0.021689832
42	0xbd606c9d	-0.05479108
43	0x3d6bed54	0.05759938
44	0x3d567fa4	0.05236782
45	0x3cfb68ee	0.030689683
46	0xbdd91191	-0.10599054
47	0x3d068174	0.0328383
48	0xbd58d666	-0.05293884
49	0xbd95ee1f	-0.073208086
50	0x3c722fec	0.014781933
51	0xbd9dfe5b	-0.0771453
52	0x3d474a7d	0.048655022
53	0x3cdc0eab	0.026862463
54	0x3b7842da	0.0037881644
55	0xbd5eb9c3	-0.054376375
56	0xbd249cb3	-0.040188503
57	0xbd2556a8	-0.040365845
58	0xbdae917b	-0.08523842
59	0x3d6ebd95	0.05828627
60	0x3ce9086a	0.028446395
61	0x3d65bd7c	0.05608891
62	0xbd810cae	-0.063012466
63	0x3d894871	0.0670327
64	0x3cc81f6d	0.024429047
65	0x3d8d62a2	0.06903578
66	0xbd439ae5	-0.04775514
67	0x3c9a2df4	0.01882074
68	0xbb9b15ca	-0.004732822
69	0xbca302c4	-0.01989878
70	0xbd5e8fd7	-0.054336395
71	0x3d4b6830	0.049659908
72	0xbcce99f3	-0.025219893
73	0xbcd7fd91	-0.026366027
74	0xbd1c026f	-0.03808826
75	0x3d0865fe	0.033300392
76	0x3da9df2b	0.08294519
77	0x3b28d503	0.002576173
78	0x3d208b5a	0.039195396
79	0x3bc51cec	0.0060154106
80	0x3d0d7793	0.034537863
81	0x3d98701e	0.0744326
82	0x3db406e7	0.08790379
83	0x3de6a588	0.11262041
84	0x3d2ac978	0.04169604
85	0x3d89b445	0.06723837
86	0x3db7cda4	0.0897477
87	0x3dcf7584	0.10129836
88	0x3d34da26	0.044153355
89	0x3bbe6e9e	0.0058115264
90	0x3d0586f4	0.032599404
91	0x3ccd9d3f	0.025099395
92	0x3d8de7b0	0.069289565
93	0x3bf29219	0.00740267
94	0xbd4710b0	-0.0485999
95	0x3d14b3b3	0.036304187
96	0x3c06cd71	0.008227692
97	0x3c261a5d	0.010138121
98	0xbd5c1a22	-0.05373586
99	0x39bd9c16	0.00036165182
100	0xbc9eddb9	-0.019392835
101	0x3d29ba44	0.041437402
102	0xbd3f9983	-0.04677726
103	0xbbb02387	-0.005375329
104	0xbbef221e	-0.0072977683
105	0x3dc47d66	0.0959423
106	0x3de8ed9f	0.113734476
107	0xbc67f875	-0.014158358
108	0xbc367a48	-0.011137553
109	0x3d3e0a4e	0.046396546
110	0xbce1f85a	-0.027584244
111	0x3cfa659c	0.03056603
112	0xbbe70316	-0.0070499284
113	0x3d314d11	0.043286387
114	0x3bc638e5	0.006049263
115	0x3d941fdc	0.07232639
116	0x3a800a33	0.0009768665
117	0x3dd0f447	0.10202842
118	0x3dfeb831	0.124374755
119	0x3d5155c6	0.05110719
120	0x3debefc6	0.115203425
121	0x3e10f615	0.14156373
122	0x3dec6c43	0.11544087
123	0xbc262fef	-0.010143264
124	0x3de13105	0.10995678
125	0x3d0f11de	0.03492915
126	0x3b5e5ca1	0.0033929723
127	0xbc82c0ae	-0.015961017
128	0xbcadb74b	-0.021205565
129	0xbd5bb369	-0.053637896
130	0xbd593c36	-0.053035937
131	0xbc0326b7	-0.008004836
132	0xbd069c52	-0.032863922
133	0xbc31274f	-0.010812595
134	0xbde9da73	-0.11418619
135	0xbd9f901d	-0.07791159
136	0xbde4b7b6	-0.111678526
137	0xbc91d80c	-0.017803214
138	0xbdc77cbb	-0.09740587
139	0xbd3b1aa5	-0.045679707
140	0x3c86f20b	0.016472837
141	0x3d703c3c	0.058651194
142	0x3ca8c6c8	0.020602599
143	0x3b96f516	0.0046068532
144	0xbd48303e	-0.048874132
145	0xbc7d3a28	-0.01545576
146	0x3d49ea9e	0.049296014
147	0xbba49e10	-0.0050237253
148	0x3ccf978c	0.025340818
149	0xbda356d0	-0.079755425
150	0xbc9549f0	-0.018223733
151	0x3d71fe92	0.059080668
152	0x3d298132	0.041382976
153	0x3c582bd8	0.013194047
154	0x3d61fc9e	0.055172555
155	0x3d38448a	0.04498724
156	0xbd3d3366	-0.046191595
157	0x3c6b6078	0.014366262
158	0xbd2aca98	-0.041697115
159	0xbb2deb60	-0.0026538
160	0x3c4eeb08	0.012629278
161	0x3a981940	0.0011604205
162	0x3c482a58	0.012217127
163	0x3d0fdb76	0.035121404
164	0xbd4e2956	-0.05033239
165	0xbc749948	-0.014929123
166	0x3d737b22	0.0594436
167	0x3d339d5a	0.043851234
168	0xbc330640	-0.010926783
169	0x3d210dfe	0.039319985
170	0xbd070a66	-0.0329689
171	0xbd832434	-0.064033896
172	0x3d044966	0.03229656
173	0xbda4582f	-0.08024632
174	0x3da243cf	0.0792309
175	0xba60b480	-0.00085718185
176	0x3cb1dad4	0.02171079
177	0xbd4b37ce	-0.049613766
178	0xbd5ee573	-0.05441804
179	0xbc878254	-0.016541637
180	0xbd7e98b0	-0.062157333
181	0x3cdc6d3c	0.026907556
182	0xbd1cf448	-0.038318902
183	0x3d49bbc2	0.049251325
184	0x3be99780	0.007128656
185	0xbc8cf080	-0.017204523
186	0x3bc887c0	0.0061196983
187	0x3d6fb122	0.058518536
188	0x3d32ef02	0.043684967
189	0x3d8fa693	0.070141934
190	0x3d99be8b	0.07507046
191	0xbd7b9bd6	-0.061427914
192	0xbc10c078	-0.008834951
193	0x3d2701d6	0.040773235
194	0x3d1ed852	0.038780518
195	0x3c951fa4	0.018203564
196	0xbcfdda4c	-0.030987881
197	0x3d4273a6	0.047473572
198	0xbc5572c0	-0.013027847
199	0x3cca7b4c	0.024716996
200	0xbd5a578e	-0.053306155
201	0xbd270ed3	-0.04078562
202	0x3d356ada	0.044291355
203	0x3d3b1d6a	0.04568235
204	0x3cb0edac	0.021597706
205	0x3da867d1	0.082229264
206	0x3c4809e0	0.012209386
207	0xbd4bc4c0	-0.049748182
208	0x3d9301b7	0.071780615
209	0xbcdaf006	-0.02672578
210	0x3d45e95a	0.048318245
211	0xbbe38610	-0.0069434717
212	0x3a958100	0.0011406243
213	0xbd1e4498	-0.038639635
214	0xbda1cc66	-0.07900314
215	0x3d617f36	0.05505296
216	0xbd9f0f8e	-0.07766639
217	0x3a3c5000	0.0007183552
218	0x3da16b0d	0.078817464
219	0xbd246453	-0.04013474
220	0xbda98404	-0.08277133
221	0x3c0a8aa8	0.00845591
222	0xbd786616	-0.06064423
223	0xbd88580c	-0.066574186
224	0xbd1d254e	-0.038365655
225	0xbd1096d3	-0.035300087
226	0x3d0f923e	0.035051577
227	0xbd300400	-0.042972565
228	0xbd4072fe	-0.046984665
229	0x3cbc0a5c	0.022954158
230	0xbda0759a	-0.07834931
231	0x3da1641f	0.07880425
232	0x3d9c22e3	0.076238416
233	0xbd628040	-0.05529809
234	0xbd8b8d5f	-0.06814074
235	0x3d576b26	0.05259242
236	0xbb9ab830	-0.004721664
237	0x3d8a946f	0.06766593
238	0xbcddb96c	-0.027065955
239	0x3d2b381a	0.04180155
240	0xbd3b4b1e	-0.045725934
241	0xbd9621c7	-0.07330661
242	0xbd2da846	-0.042396806
243	0xbd8025af	-0.062571876
244	0x3d7bfbce	0.061519437
245	0xbd439e6b	-0.0477585
246	0x3b7c9d80	0.0038546026
247	0x3d2a40f8	0.041565865
248	0xbca5952c	-0.020212732
249	0x3d989651	0.074505456
250	0xbd0a26d8	-0.03372845
251	0x3da09235	0.07840387
252	0xbb5b80a0	-0.0033493415
253	0xbd6f9418	-0.058490843
254	0xbd1d890e	-0.038460784
255	0xbd996d62	-0.07491566

encoder.2.bias f4 [32]
0	0x3e10a03a	0.14123622
1	0xbd54afb0	-0.05192536
2	0xbdef1bfd	-0.1167526
3	0x3da007dc	0.07813999
4	0x3d6c4ab3	0.057688426
5	0x3c95c9af	0.018284647
6	0x3d105c7d	0.035244454
7	0x3e064d7a	0.13115492
8	0xbdd29672	-0.102826014
9	0xbd9bef50	-0.076140046
10	0xbd7f87d9	-0.062385414
11	0xbd993692	-0.074811116
12	0xbc0ec7dd	-0.008714643
13	0x3d1aa5c5	0.037755746
14	0xbd781676	-0.060568295
15	0xbd4d9cb4	-0.050198272
16	0x3dc786cf	0.097425096
17	0xbce51c62	-0.027967636
18	0x3dadbaea	0.08482917
19	0x3d9615fe	0.073284134
20	0x3c8bdd5a	0.017073322
21	0x3e1d3156	0.15350851
22	0xbd99f187	-0.07516771
23	0x3ddf5687	0.10905176
24	0xbd769d1f	-0.060208436
25	0xbd3a32e0	-0.045458674
26	0x3d81ae02	0.063320175
27	0x3e1b2cac	0.1515376
28	0x3da37ccb	0.07982787
29	0x3e134506	0.14381799
30	0x3d0846ca	0.033270635
31	0x3d8759ab	0.066089

encoder.4.weight f4 [64, 32, 3, 3]
0	0x3c9d1016	0.01917271
1	0x3caa87c9	0.0208167
2	0xbc8ae3aa	-0.016954262
3	0x3d4c2ce4	0.0498475
4	0xbb18da37	-0.0023323426
5	0xbd20235e	-0.03909623
6	0xbd0df997	-0.034661856
7	0xbd68d1c4	-0.056840673
8	0xbd5a55c3	-0.053304445
9	0x3be43908	0.0069648065
10	0x3d3e2d89	0.046430144
11	0xbc02e038	-0.007988028
12	0x3d465c5f	0.048427936
13	0x3d4ff75d	0.050773013
14	0xbb9536c8	-0.0045536496
15	0xbc3cf3e8	-0.011532761
16	0x3d22fe41	0.039793257
17	0x3d3c6b25	0.04600062
18	0xbcb71784	-0.02235008
19	0xbd14f180	-0.036363125
20	0x3bcfa025	0.0063362294
21	0x3a9d80bb	0.0012016514
22	0xbd67ceb6	-0.05659362
23	0x3d5cb5fc	0.05388449
24	0xbd695b0d	-0.0569716
25	0x3a846ed8	0.0010103835
26	0x3cb19ffa	0.021682728
27	0xbc77720f	-0.015102877
28	0x3b3cd066	0.0028810739
29	0x3ada27de	0.0016643961
30	0x3c5a91b0	0.013340399
31	0xbd19c9fb	-0.03754614
32	0xbbcbe202	-0.0062220106
33	0x3d60cd09	0.054883037
34	0xbc9d4a2a	-0.019200403
35	0xbd37b0f8	-0.044846505
36	0x3ca0be94	0.019622125
37	0x3d2b0e38	0.041761607
38	0x3bd23e0d	0.0064160884
39	0xbd18b120	-0.037278295
40	0xbd3c1ce7	-0.045926
41	0x3b2c8265	0.0026322838
42	0xbd6c26cb	-0.057654183
43	0x3d44ea44	0.048074976
44	0x3d0ebfe0	0.034850955
45	0x3bde367e	0.0067813983
46	0xbd3738c4	-0.04473187
47	0x3c412259	0.011787974
48	0x3cdcfc12	0.026975665
49	0xba712c9d	-0.00092000683
50	0xbd8027d4	-0.062575966
51	0xbd63b14a	-0.055588998
52	0xbcf0d1d0	-0.029396921
53	0xbb99579f	-0.0046796347
54	0xbc2a117a	-0.010380143
55	0x3d04f20c	0.032457396
56	0xbd82e411	-0.063911565
57	0xbce37dd7	-0.027769966
58	0xbd880242	-0.06641056
59	0xbbcbc4af	-0.006218515
60	0x3d3617e8	0.044456393
61	0x3d2e076d	0.04248755
62	0x3d3e7d95	0.046506483
63	0xbcd17ed1	-0.025573166
64	0x3d101377	0.035174813
65	0xbc8bdf40	-0.017074227
66	0xbd683345	-0.05668952
67	0xbd11b99e	-0.03557741
68	0x3d29c755	0.041449863
69	0xbcdfebe0	-0.027334154
70	0xbc9f1356	-0.0194184
71	0xbd18d395	-0.037311155
72	0x3d2f724d	0.042833615
73	0xbbc35268	-0.0059607513
74	0xbd70de41	-0.058805708
75	0x3ca45f32	0.020064924
76	0xbcae2632	-0.021258447
77	0x3d5d17fd	0.053977955
78	0xbd3d021a	-0.046144582
79	0xbd30dd47	-0.043179777
80	0x3cbc5afe	0.022992607
81	0xbc8fe22d	-0.017563904
82	0x3c8579e9	0.016293483
83	0x3c59a543	0.01328403
84	0x3ce89dc6	0.028395545
85	0x3c5c8970	0.013460502
86	0xbd61b804	-0.05510713
87	0x3d1c0ce5	0.038098235
88	0x3c846248	0.016160145
89	0xbc92dc3a	-0.017927278
90	0xbcfdf55f	-0.031000791
91	0xbd5eed2a	-0.054425396
92	0x3d0a5c0d	0.033779193
93	0x3d1b6d32	0.037945934
94	0x3d5d368f	0.05400711
95	0xbcedc8fb	-0.029026499
96	0x3d2da528	0.042393833
97	0xbbb9ac7e	-0.0056663146
98	0xbc7ffc28	-0.015624084
99	0x3cead8eb	0.028667888
100	0xbc647a2d	-0.013945145
101	0x3d61ef8b	0.055160087
102	0xbd469f7d	-0.048491944
103	0x3d3af781	0.045646194
104	0xbcda047c	-0.026613466
105	0x3d5226f3	0.051306676
106	0xbd05afff	-0.032638546
107	0x3d6b56eb	0.05745594
108	0xbcc821b6	-0.024430137
109	0x3bfc268e	0.0076950258
110	0x3d253524	0.040333882
111	0x3cf5a55e	0.02998608
112	0xbcdeeeda	-0.027213503
113	0xbc9cdf74	-0.01914952
114	0x3caad2d6	0.020852488
115	0xbc9c5764	-0.01908464
116	0xbbbc0522	-0.0057379166
117	0x3d4c9dcc	0.049955174
118	0xbcf38b7c	-0.029729597
119	0xbd74f8b8	-0.05980751
120	0xbd73c81d	-0.059517015
121	0xbd3d1de5	-0.046171088
122	0xbcb5e653	-0.022204554
123	0xbd51440a	-0.051090278
124	0x3d4c91aa	0.049943604
125	0xbd19f19f	-0.037583943
126	0xbca4ca6a	-0.02011605
127	0xbd5d1002	-0.053970344
128	0xba8b0ea0	-0.0010609217
129	0x3d320f19	0.04347143
130	0xbd1903e2	-0.03735722
131	0x3d171991	0.036889616
132	0xbb8f61e8	-0.004375685
133	0x3d19b929	0.037530098
134	0x3d37adf5	0.044843633
135	0x3d10cce8	0.035351664
136	0xbab2e2ec	-0.001364795
137	0xbcd417af	-0.0258902
138	0x3d7090bd	0.058731783
139	0xbcbaf431	-0.022821518
140	0xbd536daf	-0.051618274
141	0xbc451a7b	-0.012030239
142	0x3ceaca20	0.028660834
143	0xbd1d2935	-0.038369376
144	0x3d1d0913	0.038338732
145	0xbc7a0a25	-0.015261208
146	0xbd028106	-0.031861328
147	0xbcba1598	-0.022715375
148	0x3cf6ac3a	0.03011142
149	0xbb3cbf4f	-0.0028800552
150	0xbd82cb15	-0.06386391
151	0xbd709938	-0.05873987
152	0xbcb9132a	-0.022592146
153	0xbd1c7a7b	-0.038202744
154	0xbd79cb81	-0.060985092
155	0xbc80d40b	-0.01572611
156	0x3d2608e0	0.040535808
157	0xbd7c25aa	-0.061559357
158	0x3cd3e7e7	0.025867416
159	0xbcc22d74	-0.023703314
160	0xbd1bcf0e	-0.03803926
161	0x3d34fe0c	0.04418759
162	0x3d133da0	0.035947442
163	0xbcee5a7d	-0.029095883
164	0x3cd90ee3	0.026496356
165	0xbd001f0b	-0.031279605
166	0x3c676141	0.014122308
167	0xbcdf7594	-0.027277745
168	0x3d16065e	0.036627166
169	0xbd3fd516	-0.046834074
170	0xbd1c8908	-0.03821662
171	0xbc97af7f	-0.0185163
172	0x3c3f083e	0.01165968
173	0xbcc52e9d	-0.024070079
174	0x3d532df3	0.051557492
175	0x393b3159	0.00017852093
176	0x3ca23182	0.019798998
177	0xbd2875ea	-0.041128077
178	0x3d2b4a5e	0.04181897
179	0xbcd7ce9b	-0.026343634
180	0x3cccdeae	0.025008526
181	0xbd3b291d	-0.045693506
182	0xbbfd356c	-0.0077273156
183	0xbc8f6587	-0.017504467
184	0x3d4e03ee	0.050296716
185	0x3c87955c	0.016550712
186	0xbd6c74d6	-0.05772861
187	0x3cd1c694	0.025607385
188	0x3c315c50	0.010825232
189	0xbd4af0d5	-0.04954608
190	0x3cfcd967	0.030865384
191	0x3d09f0e8	0.03367701
192	0xbd28eafa	-0.041239716
193	0xbd6130b4	-0.054978088
194	0x3d061659	0.032736156
195	0xbc71c969	-0.014757493
196	0xbd265827	-0.040611412
197	0xbd1378f2	-0.036004014
198	0x3a2b3b00	0.0006531924
199	0x3d68f263	0.056871783
200	0x3d350365	0.04419269
201	0x3cdb2d5a	0.026755024
202	0xbd6c7705	-0.057730693
203	0xbd54b005	-0.051925678
204	0x3c627ff4	0.013824452
205	0xbd4d1931	-0.050072853
206	0xbd45781a	-0.04821024
207	0x3c8882eb	0.016663989
208	0x3d3f4878	0.04669997
209	0x3b528a66	0.003212595
210	0x3cb62a3e	0.02223694
211	0xbd86d95a	-0.06584425
212	0x3d231d8d	0.039823104
213	0xbcbe5fdb	-0.023239067
214	0x3d233720	0.039847493
215	0xbd6186a2	-0.055060036
216	0x3d2d54c9	0.042317186
217	0xbcd9367a	-0.026515234
218	0xbd497f2d	-0.04919355
219	0xbcacda86	-0.021100294
220	0x3bcd7c88	0.006270949
221	0xbb144490	-0.0022623874
222	0xbcc40ef4	-0.023932911
223	0xbcf9d260	-0.030495822
224	0xbd473339	-0.048632834
225	0xbd43188a	-0.047630824
226	0xbd5b1e55	-0.053495724
227	0x3c51ede7	0.012813068
228	0xbcb3502e	-0.021888819
229	0x3cb9b012	0.022666965
230	0x3c67609c	0.014122155
231	0x3c9f58cc	0.019451521
232	0x3c2c31dc	0.010509934
233	0xbc7cf05e	-0.015438167
234	0x3d200cae	0.039074592
235	0x3cd6d62e	0.026225176
236	0xbc83c1ba	-0.016083587
237	0xbd2e79bb	-0.04259656
238	0x3ca1b42c	0.019739233
239	0x3d0c6a15	0.034280855
240	0x3d1828d7	0.037148323
241	0x3d4995dc	0.049215183
242	0x3d121e29	0.035673294
243	0x3c14ee16	0.009089967
244	0xbbd08621	-0.0063636457
245	0xbd5bba67	-0.053644564
246	0xbc82d0a0	-0.01596862
247	0x3c40db93	0.011771101
248	0xbbcdb3f7	-0.006277557
249	0xbc99a73f	-0.018756507
250	0xbd37c6ca	-0.044867314
251	0xbccdfcd6	-0.025144976
252	0xbcfc6f8c	-0.030814908
253	0xbd2d533b	-0.042315703
254	0x3d0c50b8	0.034256667
255	0xbb88e4aa	-0.0041776495

encoder.4.bias f4 [64]
0	0xbceb4486	-0.028719198
1	0x3dc35196	0.09537046
2	0x3da8fa16	0.08250825
3	0x3db2f727	0.08738547
4	0x3d84e9fe	0.06489943
5	0x3d4b3c52	0.049618073
6	0x3df1693e	0.117876515
7	0xbd4cab86	-0.049968265
8	0x3db1c8ef	0.08680903
9	0xbcd5718a	-0.026055116
10	0x3dd9ccf9	0.106347986
11	0x3dcf1488	0.10111338
12	0xb8ebf2aa	-0.00011250873
13	0x3d1de2c3	0.038546335
14	0x3d183a80	0.037165165
15	0x3d952c7f	0.072838776
16	0xbcd04c12	-0.025426898
17	0x3d8c01fa	0.068363145
18	0xbc453a6a	-0.012037853
19	0x3df896b1	0.12138117
20	0x3db100a5	0.08642701
21	0xbd11515e	-0.03547799
22	0x3c0ea92b	0.008707325
23	0x3beaadc7	0.007161829
24	0x3d31287e	0.043251507
25	0x3b391857	0.0028243267
26	0x3c3e3f30	0.011611745
27	0xbd89b546	-0.06724028
28	0x3df26a96	0.11836736
29	0x3d6c7ec4	0.05773808
30	0xbd25f4be	-0.040516607
31	0xbc774a85	-0.01509345
32	0x3c9642c5	0.018342385
33	0x3df24678	0.11829847
34	0x3c1d4332	0.00959854
35	0x3dad1c0f	0.084526174
36	0x3dd3959b	0.10331269
37	0xbd43de23	-0.047819268
38	0x3c0173bb	0.007901127
39	0xbd87fee8	-0.066404164
40	0x3ce3d1ae	0.027809944
41	0x3c6720d4	0.014106948
42	0xbcceca78	-0.025243029
43	0xbd757d28	-0.05993381
44	0x3d25b252	0.040453263
45	0xbd2a2182	-0.04153586
46	0x3db031c0	0.08603239
47	0x3de4f43c	0.111793965
48	0x3de23344	0.110449344
49	0x3ca9d957	0.020733519
50	0xbd870af5	-0.06593887
51	0x3d49549a	0.049152948
52	0x3d33faef	0.04394048
53	0x3d3a53e9	0.04549018
54	0x3dd00260	0.10156703
55	0x3d55e894	0.052223757
56	0x3ded92bc	0.11600253
57	0xbd4a77c4	-0.049430624
58	0x3cd9be84	0.026580103
59	0xbd56a443	-0.052402746
60	0x3d2eb50e	0.042653136
61	0xbd54c40e	-0.051944785
62	0x3db45f80	0.08807278
63	0x3d78efcc	0.060775563

decoder.0.weight f4 [64, 32, 3, 3]
0	0xbd6dc11d	-0.058045495
1	0xbc902ce1	-0.017599525
2	0x3bc9e723	0.006161587
3	0x3cb8a836	0.022541147
4	0x3ce56d59	0.028006243
5	0x3d69818f	0.057008322
6	0xbbd99d92	-0.0066410983
7	0x3d2be2ff	0.041964527
8	0x3d4db979	0.05022571
9	0xbb198594	-0.0023425566
10	0xbb6f2614	-0.0036491202
11	0xbc4fe223	-0.012688193
12	0xbc97eb59	-0.01854484
13	0xbd19327a	-0.037401654
14	0x3be94088	0.0071182884
15	0xbd1917aa	-0.037376083
16	0xbb151a78	-0.0022751372
17	0xbd3ede96	-0.046598993
18	0x3d2b5fb5	0.04183932
19	0x3d3ece14	0.04658325
20	0x3d28fdb7	0.041257586
21	0xbd0210ee	-0.031754427
22	0x3d0a5d49	0.03378037
23	0x3d594991	0.053048674
24	0xbd6c151a	-0.05763731
25	0x3c7cbf22	0.015426429
26	0x3bed6675	0.00724488
27	0x3abd4790	0.0014440883
28	0xbca04326	-0.019563269
29	0xbc0ecf0e	-0.008716358
30	0xbcbcc2c4	-0.02304209
31	0x3d6759b3	0.05648203
32	0xbd008b10	-0.03138262
33	0x3bc34490	0.005959101
34	0x3d27e819	0.04099283
35	0x3b133ef4	0.0022467943
36	0xbd333720	-0.043753743
37	0x3bd39db7	0.00645801
38	0xbd2415d9	-0.040059898
39	0x382b1ced	4.0796516e-05
40	0xbcf3f27b	-0.02977871
41	0xbd42b232	-0.04753322
42	0x3cf658c8	0.030071631
43	0x3d6eb4e0	0.058277965
44	0xbc8bd792	-0.017070565
45	0x3d6092f2	0.054827638
46	0x3c77f44e	0.01513393
47	0xbd2731b9	-0.040818904
48	0xbc9e04cf	-0.019289402
49	0x3a137ef9	0.00056265254
50	0x3c537b6a	0.012907842
51	0x3c8cb471	0.017175885
52	0x3bf50379	0.0074772206
53	0x3d4e5f37	0.050383773
54	0x3cfa931f	0.03058773
55	0xbce8dc24	-0.028425284
56	0x3a11568d	0.0005544208
57	0xbaba008e	-0.0014190839
58	0xbcbdee11	-0.023184808
59	0xbd150c87	-0.0363889
60	0x3c019a8d	0.007910383
61	0xbd37dbbe	-0.044887297
62	0x3bf436ef	0.0074528377
63	0x3a2b42fc	0.0006533114
64	0xbd4325a5	-0.047643322
65	0xbd75e077	-0.06002852
66	0xbd245f0b	-0.040129703
67	0x3d29d2c1	0.041460756
68	0xbd1c61a7	-0.038179066
69	0xbd7dcafc	-0.06196116
70	0xbd1e623c	-0.038667902
71	0x3cfee66c	0.031115733
72	0x3ced744e	0.028986122
73	0x3cdea445	0.02717794
74	0xbd186019	-0.03720102
75	0xbd233be9	-0.039852057
76	0xbd022a4f	-0.03177863
77	0x3d1bf57f	0.03807592
78	0x3cbc0c9c	0.022955231
79	0x397c57ad	0.00024065255
80	0x3d66855e	0.056279533
81	0x3b83cf44	0.0040225107
82	0x3d1b8ee7	0.03797808
83	0xbd175ac9	-0.036951814
84	0x3d30783c	0.043083414
85	0xbb090b09	-0.0020911118
86	0xbd3972a7	-0.045275357
87	0xbb0cf557	-0.0021508539
88	0xbd298873	-0.041389894
89	0x3b8d178d	0.004305786
90	0x3c180654	0.0092788525
91	0xbc4eca51	-0.012621478
92	0x3ccad4fa	0.024759758
93	0xbcaac488	-0.020845667
94	0xbd55092c	-0.0520107
95	0x3d18100c	0.03712468
96	0x3d0d1899	0.034447286
97	0xbc1e7e4d	-0.009673667
98	0x3d0717ee	0.032981806
99	0x3cb7816e	0.022400584
100	0xbd27cf1b	-0.040968996
101	0xbd82adfa	-0.0638084
102	0xbbee7e3f	-0.0072782333
103	0xbd454d7d	-0.0481696
104	0x3ce3bd6e	0.027800288
105	0xbd14070b	-0.03613953
106	0xbd0f53de	-0.03499209
107	0xbd7ea87c	-0.062172398
108	0x3d26d4bc	0.040730223
109	0x3d600289	0.054689918
110	0xbc87cdaa	-0.01657756
111	0x3cf365ef	0.029711692
112	0xbcb4d658	-0.022074863
113	0x3d3244e5	0.043522734
114	0xbd5ec28e	-0.05438476
115	0x3cf1a0b1	0.029495569
116	0xbd1e3ba8	-0.03863111
117	0xbcc00c75	-0.02344344
118	0xbbba55f8	-0.005686518
119	0xbd159219	-0.036516283
120	0xb8b324a9	-8.5422136e-05
121	0x3ce624ee	0.028093781
122	0xbd3323d1	-0.04373533
123	0x3d13c783	0.03607894
124	0x3d2e9ad9	0.042628143
125	0xbd5c8095	-0.053833563
126	0xbd0b39a8	-0.033990532
127	0xbc8b5ce6	-0.01701207
128	0xbd4b33aa	-0.049609818
129	0xbd6a7b6e	-0.057246618
130	0x3a4eebc0	0.0007893406
131	0xbcaa95de	-0.020823415
132	0xbce3a763	-0.027789777
133	0xbc2339d4	-0.009962518
134	0x3c9027b6	0.01759706
135	0xbd527103	-0.051377308
136	0x3c4d89ac	0.012545031
137	0xbd14fdf2	-0.036374994
138	0x3bcbfa26	0.0062248884
139	0x3d251e0a	0.04031185
140	0xbd193051	-0.037399594
141	0x3cf2c35f	0.029634176
142	0xbc71030e	-0.014710201
143	0xbc0ee1eb	-0.008720855
144	0x3c1741dc	0.009232011
145	0xbd018c29	-0.031627808
146	0x3ccdc392	0.02511767
147	0x3cbe29ca	0.023213286
148	0x3c7ae997	0.015314481
149	0x3d35346b	0.044239443
150	0xbd420eec	-0.04737751
151	0x3d1ba0f9	0.037995312
152	0x3d521dcd	0.05129795
153	0x3c8e490f	0.017368821
154	0xbd349656	-0.044088684
155	0x3cb0a338	0.021562204
156	0x3c8b5c01	0.017011644
157	0x3cc15c06	0.02360345
158	0xbd188cf1	-0.037243787
159	0x3bf053ee	0.007334224
160	0xbcfeb6a5	-0.031092951
161	0xbcc60c4c	-0.024175785
162	0xbcb7a5d4	-0.02241794
163	0xbd03fb86	-0.032222293
164	0x3d2f2f41	0.042769674
165	0x3a0f8a00	0.00054755807
166	0x3d3e2a51	0.046427075
167	0xbd2df874	-0.04247327
168	0x3d37d8c1	0.044884447
169	0xbb863120	-0.0040952116
170	0x3d2a6cb3	0.04160757
171	0x3d271acd	0.040797044
172	0xbd3806f5	-0.04492851
173	0xbc2a768b	-0.010404239
174	0x3cf7eaeb	0.030263385
175	0xbbda2992	-0.0066577876
176	0x3d41f19d	0.04734956
177	0xbd239eef	-0.039946493
178	0xbcaba2b1	-0.0209516
179	0x3b8a053d	0.0042120502
180	0xbd2d69f0	-0.042337358
181	0xbb9cc9b5	-0.0047847875
182	0xbd23c633	-0.03998394
183	0xbd23deb6	-0.040007316
184	0xbd34798b	-0.044061225
185	0x3d313fb6	0.04327365
186	0x3d2277bb	0.039664965
187	0x3cf76e63	0.030204004
188	0x3c139f9a	0.00901022
189	0x3c8b19d6	0.016980093
190	0x3d4ba539	0.049718115
191	0xbd606b27	-0.05478969
192	0xbd455866	-0.048180006
193	0x3ad34d60	0.0016121082
194	0x3d2ed2fb	0.042681675
195	0xbabdf060	-0.0014491193
196	0x3c429d1c	0.011878278
197	0x3d6ffaed	0.05858891
198	0x3c7c0f17	0.015384457
199	0xbd564a6f	-0.05231708
200	0xbd24e710	-0.04025942
201	0xbd7d4b3c	-0.061839327
202	0x3c89c108	0.016815677
203	0x3d1eed91	0.03880078
204	0xbd1e8ae1	-0.038706664
205	0x3c985a5a	0.01859777
206	0xbd2e14b1	-0.0425002
207	0xbb8fbce8	-0.004386533
208	0xbd7f07ea	-0.062263407
209	0xbd1c3283	-0.03813411
210	0x3d5f31d3	0.054490875
211	0x3d342809	0.043983493
212	0xbd2b4cce	-0.041821294
213	0xbd316da0	-0.043317437
214	0xbd6f42a8	-0.058413178
215	0xbcc51506	-0.024057876
216	0x3c7689d5	0.01504751
217	0xbd5d346d	-0.054005075
218	0xbd553381	-0.05205107
219	0xbc66d663	-0.0140892
220	0x3b718e5c	0.0036858534
221	0xbcf93090	-0.030418664
222	0xbd54165b	-0.051779132
223	0xbd59ce6f	-0.053175386
224	0xbca1f99c	-0.019772343
225	0x3cfbfd6e	0.030760493
226	0x39dfa200	0.00042654574
227	0x3d6d8b07	0.057993915
228	0xbcb1b464	-0.021692462
229	0x3d446577	0.047948327
230	0xbd355faa	-0.044280685
231	0xbc8d69e0	-0.0172624
232	0x3d5ba7f9	0.053626988
233	0x3d0c2837	0.03421804
234	0x3ca5f36a	0.02025767
235	0xbcc18caa	-0.023626644
236	0x3c824bda	0.01590531
237	0xbd2a097e	-0.04151296
238	0x3d10ae39	0.0353224
239	0xbd1e4104	-0.038636222
240	0x3cf643c8	0.030061617
241	0xbd22de0f	-0.039762553
242	0xbc312d10	-0.010813966
243	0x3cd3ce0a	0.025855083
244	0x3cd403d6	0.025880735
245	0x3d42c6eb	0.047552984
246	0xbb6f3390	-0.003649924
247	0x3d0249e3	0.031808745
248	0xbcbaf3d8	-0.022821352
249	0xbca430be	-0.020042773
250	0xbc8b9ef4	-0.017043568
251	0xbd4f6798	-0.050635904
252	0xbc9239d2	-0.017849836
253	0x3d0fc4e4	0.03509988
254	0xbd237d16	-0.039914213
255	0x3d078d02	0.03309346

decoder.0.bias f4 [32]
0	0x3cce6aa5	0.025197336
1	0x3d9a5883	0.075364135
2	0x3d3c86b9	0.04602692
3	0xbd5d42e8	-0.054018885
4	0x3da155bb	0.0787768
5	0x3d9ed10d	0.07754717
6	0x3d962c94	0.07332721
7	0x3d8f1abc	0.06987521
8	0x3d7dbf5c	0.061950073
9	0x3cfd7166	0.030937862
10	0x3aed1607	0.001808823
11	0xbc0542da	-0.008133614
12	0x3d3433ed	0.043994833
13	0x3d4e6df7	0.05039784
14	0x3ba3f161	0.00500314
15	0x3dceb5d8	0.10093278
16	0x3d492667	0.04910889
17	0x3d8694be	0.06571339
18	0x3c94cf19	0.018165158
19	0x3d930495	0.07178608
20	0x3d1546aa	0.036444344
21	0x3cbbcfda	0.02292626
22	0x3c0609e6	0.008181071
23	0xbd9045ba	-0.07044549
24	0x3d87c9c5	0.06630281
25	0xbd449be5	-0.048000235
26	0x3d28725b	0.041124683
27	0xbd8b37ed	-0.06797776
28	0x3d404e5d	0.046949733
29	0x3c698ede	0.014255254
30	0x3c969a8a	0.018384237
31	0x3d80ad78	0.062830865

decoder.2.weight f4 [32, 16, 3, 3]
0	0xbde15f57	-0.11004513
1	0xbd6b9f41	-0.057524923
2	0x3c9d6371	0.019212456
3	0xbd8b0e7e	-0.067898735
4	0xbcb4dbc2	-0.022077445
5	0xbc7a01c2	-0.015259208
6	0xbc7f67bd	-0.015588698
7	0xbd0b04d2	-0.033940144
8	0xbd0c8b93	-0.034312796
9	0x3d5e26ce	0.054236226
10	0xbd315d40	-0.04330182
11	0xbd93ce89	-0.07217128
12	0x3d18bde3	0.037290465
13	0xbcbdeb90	-0.023183614
14	0xbd0920a4	-0.033478394
15	0xbd6f2acd	-0.058390427
16	0x3d799615	0.060934145
17	0xbda545f4	-0.08069983
18	0xbdfab1ae	-0.12240921
19	0xbdbb35db	-0.091411315
20	0xbdd9c28a	-0.106328085
21	0x3d58f995	0.052972395
22	0xbdc15e5f	-0.09441828
23	0xbb492000	-0.003068924
24	0xbd8e9333	-0.0696167
25	0x3bcd15fe	0.006258725
26	0xbd6b5757	-0.05745634
27	0x3ddadc22	0.10686518
28	0x3e44557a	0.19173232
29	0x3df26213	0.118351124
30	0x3e588b79	0.21146955
31	0x3e35f89d	0.1777062
32	0x3e20f86a	0.15719762
33	0x3d379b1a	0.04482565
34	0x3e31c453	0.17360048
35	0x3d5098a2	0.050926812
36	0xbdb9dd69	-0.09075434
37	0xbd6073b3	-0.05479784
38	0x3d2d8546	0.042363428
39	0xbdc7d0bd	-0.097566105
40	0xbd208fb7	-0.039199557
41	0xbcb11ff6	-0.021621685
42	0xbcfbc1f2	-0.030732129
43	0x3c88f83e	0.016719934
44	0xbd76fd05	-0.060299892
45	0xbd42d6ef	-0.047568258
46	0x3d41f469	0.04735223
47	0x3d456447	0.048191335
48	0xbbeab414	-0.0071625803
49	0x3e121031	0.14263989
50	0xbd0841e0	-0.03326595
51	0xbd0bb701	-0.034110073
52	0x3ccb3e8c	0.024810098
53	0xbb94fc6b	-0.004546692
54	0x3d437c70	0.047726095
55	0x3d47cd86	0.048779987
56	0xbd386cf0	-0.045025766
57	0xbd797212	-0.0608998
58	0x3e093eda	0.13402882
59	0x3ce7a5d3	0.028277313
60	0xbc34185e	-0.010992138
61	0xbdc19374	-0.094519526
62	0x3d4556f2	0.04817862
63	0xbdbf8ae5	-0.09352664
64	0xbce1f42b	-0.027582249
65	0x3b01b7c6	0.0019793375
66	0xbd5644d0	-0.05231172
67	0x3d96a9a7	0.07356577
68	0xbd9ae77d	-0.07563684
69	0x3d194ba5	0.037425656
70	0xbc70b734	-0.0146921165
71	0xbdad99ac	-0.08476576
72	0xbd1948a5	-0.037422795
73	0xbdedd2ec	-0.11612496
74	0xbd9c975d	-0.07646058
75	0xbcbb6781	-0.022876503
76	0xbda726a0	-0.08161664
77	0xbcd48b8f	-0.025945453
78	0xbb059e3b	-0.0020388502
79	0xbca6bbd3	-0.020353233
80	0xbd40ee3f	-0.04710221
81	0x3cffde21	0.031233849
82	0x3e3fd7e8	0.18734705
83	0x3dabcbfb	0.083885156
84	0xbd155883	-0.036461364
85	0x3e01f5ef	0.12691472
86	0xbdc0175f	-0.09379458
87	0x3d746d33	0.059674453
88	0x3d85a2c8	0.06525189
89	0xbbdfe929	-0.006833215
90	0xbae62137	-0.0017557506
91	0xbe21d828	-0.15805113
92	0xbd8b17c1	-0.0679164
93	0xbe01b5d5	-0.1266702
94	0xbe115f9e	-0.14196631
95	0xbddab4d0	-0.106790185
96	0x3a18ff48	0.000583638
97	0xbd1c0b78	-0.038096875
98	0x3d6a55c6	0.057210706
99	0x3c1dd2b8	0.009632759
100	0xbdf0b5e6	-0.117534444
101	0x3c0f1f89	0.008735546
102	0xbd025430	-0.03181857
103	0xbde2b061	-0.11068798
104	0xbda74494	-0.08167377
105	0xbdd76919	-0.10518093
106	0xbad2da40	-0.0016086772
107	0xbd65e9f0	-0.056131303
108	0xbb28c42b	-0.002575169
109	0xbd54d96d	-0.051965166
110	0xbd589b90	-0.05288273
111	0xbe056658	-0.13027322
112	0xbe08cf2c	-0.1336028
113	0xbdae8cc4	-0.08522943
114	0x3c52c31e	0.012863902
115	0xbd8040e6	-0.062623784
116	0xbe049f4d	-0.12951393
117	0xbd088f0d	-0.03333955
118	0xbcf5fe61	-0.030028524
119	0xbcce7410	-0.025201827
120	0xbdd41e75	-0.10357372
121	0xbe018ae7	-0.12650643
122	0xbdddfdf2	-0.10839452
123	0x3ce16c89	0.027517574
124	0xbdf41e9b	-0.119199
125	0xbda99697	-0.08280676
126	0x3be4d768	0.0069836862
127	0xbd749905	-0.059716243
128	0x3ce60977	0.028080685
129	0xbde7b802	-0.113143936
130	0x3d74c048	0.059753686
131	0xbdeac82b	-0.1146396
132	0xbd5de6e3	-0.05417527
133	0xbc089654	-0.008336622
134	0xbde74721	-0.11292864
135	0xbdc26c32	-0.09493293
136	0xbd4fe71a	-0.050757505
137	0xbdca1e79	-0.098690934
138	0xbdda9297	-0.10672491
139	0xbdd9ab25	-0.10628346
140	0xbd83aa6e	-0.06428991
141	0xbcde9c55	-0.027174154
142	0xbdaac510	-0.08338368
143	0xbcc0a900	-0.023518085
144	0x3d98b779	0.0745687
145	0xbd2cf20f	-0.042223033
146	0x3da4be13	0.08044066
147	0xbd4feb17	-0.05076131
148	0x3d9faf78	0.0779714
149	0x3d22d2a4	0.039751664
150	0x3db32237	0.0874676
151	0x3d0887fc	0.03333281
152	0xbbda5e18	-0.006664049
153	0x3d6b76f0	0.057486475
154	0xbd895025	-0.067047395
155	0xbda4876c	-0.08033642
156	0xbdb0ab1e	-0.08626388
157	0xbd3391cb	-0.04384021
158	0x3d2686e2	0.040655978
159	0xbd0e95e1	-0.034810904
160	0x3d8d0560	0.06885791
161	0x3c185300	0.0092971325
162	0xbcf93af5	-0.03042362
163	0x3c9df626	0.019282412
164	0x3d220cf3	0.03956313
165	0xbcbc7fec	-0.023010217
166	0xbda1d639	-0.07902188
167	0x3c298280	0.010346055
168	0xbcfacd8b	-0.030615589
169	0xbd5c35a8	-0.053762108
170	0xbd6cd9a7	-0.057824757
171	0xbc0bd825	-0.00853542
172	0x3cd3a546	0.025835644
173	0xbdd0fac8	-0.10204083
174	0x3d2e1a22	0.04250539
175	0xbd3b6929	-0.045754585
176	0xbde25ea0	-0.110532045
177	0x3b980adc	0.0046399664
178	0x3c3057d3	0.010763126
179	0xbd109857	-0.035301533
180	0xbc934994	-0.01797942
181	0x3d3e11cf	0.046403702
182	0xbd442ac7	-0.04789236
183	0x3c1e806d	0.009674174
184	0x3d736376	0.059421025
185	0x3dc3f460	0.09568095
186	0x3d7bbb9c	0.061458215
187	0x3da17976	0.07884495
188	0x3ca44a15	0.020054856
189	0x3d1ab547	0.037770536
190	0xbce0c13d	-0.027435893
191	0xbd093bf8	-0.033504456
192	0x3d0f65b6	0.03500911
193	0xbd53984d	-0.051658917
194	0xbdbfc877	-0.093644075
195	0x3d520861	0.051277522
196	0x3c86fee6	0.016478967
197	0x3ca7994b	0.020458838
198	0x3c2fbadd	0.010725704
199	0x3c98b549	0.018641131
200	0x3b2e34da	0.0026581795
201	0x3bb5673b	0.0055359877
202	0xbd0bf836	-0.03417226
203	0xbd20a34a	-0.039218225
204	0xbd828dfd	-0.06374738
205	0xbd76ffe3	-0.060302626
206	0x3c506dc0	0.012721479
207	0x3d8c0682	0.06837179
208	0x3cc2ef12	0.023795638
209	0xbdaeaf0e	-0.08529483
210	0xbdad49df	-0.084613554
211	0xbdb09428	-0.086220086
212	0x3d757864	0.059929267
213	0x3ccf1446	0.025278222
214	0x3d81b929	0.063341446
215	0x3bf61d9c	0.007510854
216	0xbcaca81f	-0.02107626
217	0x3cd7b830	0.026332945
218	0xbd42c4ff	-0.04755115
219	0xbd902254	-0.070377976
220	0xbd73774b	-0.05943994
221	0x3caa991f	0.020824967
222	0xbd8425a2	-0.064524904
223	0xbdc9604b	-0.098328196
224	0xbd173ec4	-0.036925092
225	0xbceda437	-0.029008968
226	0xbcdca668	-0.026934817
227	0x3d4627b1	0.048377696
228	0x3d106fe8	0.035262972
229	0xbc1d3337	-0.00959473
230	0xbdd8aea7	-0.10580187
231	0xbc79779f	-0.015226274
232	0xbcf8ae95	-0.030356685
233	0x3cca7cda	0.024717737
234	0xbc05f04a	-0.008174965
235	0x3c8084fa	0.015688408
236	0xbc26de6d	-0.010184866
237	0xbd8cd883	-0.06877234
238	0x3e089e06	0.13341531
239	0x3db51aa1	0.0884297
240	0x3ceaf9a5	0.028683493
241	0x3dc9a6a3	0.098462366
242	0xbd0881aa	-0.033326782
243	0xbd501401	-0.050800327
244	0x3d93baea	0.072133854
245	0xbd03d5a6	-0.032186173
246	0x3d02245d	0.03177296
247	0x3a7fa5d9	0.0009752191
248	0xbd79dadb	-0.060999732
249	0x3d23d940	0.040002108
250	0x3da486fa	0.08033557
251	0x3d8b8ebe	0.06814335
252	0xbd0e1926	-0.034691952
253	0x3cfaab96	0.030599397
254	0x3dee767c	0.11643693
255	0x3bef77d4	0.007307986

decoder.2.bias f4 [16]
0	0xbc35dfd6	-0.01110073
1	0xbda49858	-0.0803687
2	0xba821406	-0.000992418
3	0x3cc3ffdd	0.023925716
4	0x3ca0280a	0.019550342
5	0xbd4d3559	-0.050099704
6	0x3d561e0d	0.052274752
7	0xbc67c9c6	-0.014147228
8	0x3d600625	0.05469336
9	0xbc60265a	-0.013681019
10	0x3da3e1c5	0.080020465
11	0x3cdb7119	0.026787328
12	0x3d958914	0.07301536
13	0xbd5a85fd	-0.053350437
14	0xbb3dc4b0	-0.0028956346
15	0x3cd08860	0.025455654

decoder.4.weight f4 [16, 3, 3, 3]
0	0xbcb50579	-0.022097336
1	0xbdb67ca0	-0.08910489
2	0xbe1e305f	-0.1544814
3	0x3dea88f9	0.11451907
4	0xbe14ee2f	-0.14543985
5	0xbe1a8a52	-0.15091828
6	0xbde01f16	-0.10943429
7	0xbdc62bd8	-0.09676331
8	0x3dc00050	0.093750596
9	0xbdb64c5e	-0.08901285
10	0x3e2f78ba	0.17135897
11	0xbe371d34	-0.17882234
12	0xbdf8f2bf	-0.12155675
13	0xbe06924d	-0.13141747
14	0x3deb1558	0.1147868
15	0xbd829a2e	-0.06377064
16	0xbdfdcf92	-0.123931065
17	0x3e41cfaa	0.18926874
18	0xbdc3d444	-0.09561971
19	0x3d50a3fa	0.05093763
20	0xbe292a77	-0.16520105
21	0xbd42906f	-0.047501024
22	0xbd9a6949	-0.07539613
23	0x3da257dd	0.07926915
24	0xbde489f7	-0.11159127
25	0x3e0e4094	0.13891822
26	0x3d6b2f83	0.057418358
27	0xbe128d4b	-0.14311711
28	0x3e0a0997	0.1348022
29	0x3cc54457	0.024080439
30	0xbcd94cb2	-0.026525829
31	0xbdf8c9d8	-0.12147874
32	0x3db78552	0.08960976
33	0xbd865e12	-0.06560911
34	0xbe29b797	-0.1657394
35	0xbe082b1e	-0.13297698
36	0x3c8e994a	0.017407078
37	0x3d03c87e	0.032173626
38	0xbe1e2b04	-0.15446097
39	0x3dd3e0b2	0.103455916
40	0x3dd429ae	0.10359512
41	0xbdca7413	-0.09885421
42	0xbe0b7053	-0.13617067
43	0x3c0d1cbf	0.008612811
44	0x3d256222	0.04037679
45	0x3d98e33d	0.07465217
46	0xbda6c961	-0.08143879
47	0x3db68351	0.08911765
48	0xbc5e046f	-0.013550862
49	0xbc0a4a5a	-0.008440578
50	0xbdaa8bef	-0.083274715
51	0x3cc09742	0.023509625
52	0x3dbdc773	0.092665575
53	0x3e040de9	0.12895931
54	0x3cc4d07c	0.024025194
55	0xbdac5660	-0.08414912
56	0x3cc98f33	0.024604416
57	0xbe1ccaeb	-0.15311782
58	0xbe2833f6	-0.16426072
59	0xbd2ddb54	-0.042445496
60	0xbcd921c4	-0.026505359
61	0xbe547893	-0.2074912
62	0x3db49a52	0.08818497
63	0x3be4688a	0.00697047
64	0xbe0edf17	-0.1395229
65	0x3dd1995c	0.10234329
66	0x3c9d439d	0.01919728
67	0xbd512dd2	-0.05106909
68	0x3e06a02a	0.13147035
69	0x3b43a382	0.0029852097
70	0xbe2cefa6	-0.16888294
71	0xbe39ed4d	-0.1815693
72	0x3e38f96c	0.18063897
73	0x3c9aa4b9	0.018877374
74	0x3cb353f3	0.021890616
75	0x3e2d8cb1	0.16948201
76	0xbe38d802	-0.1805115
77	0x3d151644	0.036398187
78	0x3ca2c6b2	0.019870136
79	0xbc93f1f8	-0.018059716
80	0xbc8c715c	-0.017143898
81	0x3e18649a	0.14882126
82	0x3e219d53	0.1578267
83	0x3df82286	0.1211596
84	0x3e5e8aef	0.21732686
85	0x3e4a45d9	0.19753207
86	0xbccf716c	-0.025322638
87	0x3d7bd1b8	0.0614793
88	0x3e367d7f	0.1782131
89	0x3e5179c7	0.2045661
90	0x3df1c7e4	0.11805704
91	0x3ccb9e39	0.02485572
92	0x3e05f380	0.13081169
93	0x3e29feab	0.16601054
94	0x3e2a8ae7	0.1665455
95	0x3e60e64a	0.21962848
96	0xbc925748	-0.017863885
97	0x3e7aeb1b	0.24503748
98	0x3dae2985	0.08504013
99	0x3d6de796	0.058082186
100	0x3bbe92ac	0.0058158245
101	0x3d44e632	0.048071094
102	0x3dea4020	0.11438012
103	0x3dd58a9e	0.1042683
104	0x3e1db5c0	0.15401363
105	0x3d40010e	0.046876006
106	0x3e76ecf0	0.24113822
107	0xbd5edc47	-0.05440929
108	0x3e0a89eb	0.13529174
109	0x3d18a40b	0.03726582
110	0xbe1db86d	-0.15402384
111	0x3d9f91ea	0.07791503
112	0xbdbff9b7	-0.09373801
113	0xbe4aa4b6	-0.19789395
114	0xbde569ad	-0.11201797
115	0xbe030f59	-0.12798823
116	0xbe6a3400	-0.22871399
117	0x3e0d6ef0	0.1381185
118	0xbdcc9d4b	-0.09990939
119	0xba810a82	-0.000984505
120	0xbd0bf9e4	-0.03417386
121	0xbc142391	-0.009041683
122	0xbe0da8d5	-0.13833936
123	0xbd19a894	-0.037514284
124	0x3de4160c	0.111370176
125	0xbe12866b	-0.14309089
126	0x3dcb2e2b	0.09920915
127	0xbd22c855	-0.039741833
128	0xbd9b0c3d	-0.07570694
129	0x3ba33455	0.0049806037
130	0x3d958af0	0.07301891
131	0x3d236bbd	0.03989767
132	0xbe3498e6	-0.17636451
133	0xbdba598a	-0.090991095
134	0x3c9af07e	0.018913504
135	0xbd568efa	-0.052382447
136	0xbda8b749	-0.08238084
137	0xbe07f9ae	-0.13278839
138	0x3da2059f	0.079112284
139	0x3c8f83b4	0.017518856
140	0xbe684e6a	-0.22686163
141	0xbe6f1deb	-0.23351257
142	0xbdc36e6b	-0.09542545
143	0xbd894ba1	-0.06703878
144	0xbdefb376	-0.11704151
145	0xbe3cf3e9	-0.1845242
146	0xbd688ec8	-0.05677679
147	0x3cea5d53	0.028608954
148	0xbdbe8325	-0.093023576
149	0x3e22b3bd	0.15888877
150	0xbe15cce7	-0.14628945
151	0x3bc65d4b	0.006053602
152	0x3d9a01dc	0.07519886
153	0xbde7fe38	-0.11327785
154	0x3e1b8034	0.15185624
155	0x3c643e25	0.013930832
156	0x3e18f9e9	0.14939083
157	0x3e0d34e0	0.13789701
158	0x3e166b8f	0.14689468
159	0xbde077fc	-0.10960385
160	0xbd412068	-0.047150046
161	0x3d1e1af8	0.03859994
162	0x3e33a661	0.17543937
163	0x3b0b0f91	0.0021218995
164	0x3d85d684	0.06535056
165	0x3d5c4cf5	0.05378433
166	0x3e10465b	0.14089338
167	0xbd70eff2	-0.05882258
168	0x3c4a6fd9	0.012355768
169	0xbdbb5e07	-0.09148794
170	0xbe0bab67	-0.13639604
171	0x3deb1206	0.11478047
172	0x3d32324f	0.04350501
173	0x3c8ae998	0.01695709
174	0xbe280d47	-0.16411315
175	0x3e217625	0.15767725
176	0x3e14b1b4	0.14520913
177	0xbd9e94c3	-0.07743218
178	0xbe1c008e	-0.15234587
179	0xbd57bd69	-0.05267087
180	0xbd1fb0ac	-0.038986847
181	0xbe54ec45	-0.20793255
182	0x3c72ace2	0.014811726
183	0x3c2df253	0.010616857
184	0xbc2a4f07	-0.010394818
185	0xbcd37447	-0.025812281
186	0x3e1d5754	0.15365344
187	0xbcac2744	-0.021014817
188	0x3e1d3d29	0.15355362
189	0x3e1941b8	0.14966476
190	0xbdd05bfb	-0.10173794
191	0xbe20f0a6	-0.157168
192	0x3e1434ae	0.1447322
193	0x3e3eecaf	0.18644975
194	0x3dfbf273	0.12302103
195	0x3c322aee	0.010874493
196	0x3dfb72b5	0.12277738
197	0x3bf20866	0.007386255
198	0xbcbb720a	-0.022881526
199	0xbc6ae1e5	-0.014336084
200	0x3d46238a	0.048373736
201	0x3d8819a7	0.06645518
202	0xbdc07888	-0.093979895
203	0xbe1aae1c	-0.1510548
204	0xbe296e47	-0.16545974
205	0x3e21642d	0.1576087
206	0x3d92fdac	0.0717729
207	0x3e2c22e5	0.16810186
208	0xbe4427c5	-0.19155796
209	0x3e0f175f	0.13973759
210	0xbd2a964e	-0.041647248
211	0xbbbe4ae2	-0.0058072666
212	0x3a9687e3	0.0011484589
213	0x3de14668	0.10999757
214	0x3d0c2a1e	0.034219854
215	0xbdad4645	-0.084606685
216	0xbe4d96d2	-0.20077065
217	0x3da80f03	0.08205988
218	0xbe25ed5d	-0.16203828
219	0x3e03ec27	0.12883054
220	0x3cb90288	0.022584215
221	0x3e11c915	0.14236863
222	0x3e0a5f63	0.1351295
223	0xbd693f91	-0.056945387
224	0x3d843321	0.064550646
225	0xbcfa7f02	-0.03057814
226	0xbe53d247	-0.20685683
227	0xbd5dbf7a	-0.054137684
228	0xbe03bb10	-0.12864327
229	0x3d273f03	0.040831577
230	0x3dd64689	0.10462672
231	0xbe38fa18	-0.18064153
232	0xbd29b842	-0.041435488
233	0xbccf8664	-0.025332637
234	0xbe359c7d	-0.17735477
235	0x3df5adec	0.119960636
236	0xbdccfe3d	-0.100094296
237	0xbd71f63f	-0.05907273
238	0xbe16b920	-0.14719057
239	0x3e08288d	0.13296719
240	0xbd53610e	-0.05160623
241	0xbe13af27	-0.14422284
242	0x3e20eb5a	0.1571478
243	0xbd3eaf2f	-0.046553787
244	0xbd4ae987	-0.049539115
245	0x3d5e1c73	0.05422635
246	0xbb805812	-0.003916749
247	0xbcebd19e	-0.028786477
248	0x3e0014b1	0.12507893
249	0xbda9cfd5	-0.08291594
250	0xbd1faaaf	-0.038981136
251	0xbd45932a	-0.04823605
252	0x3d17ab7f	0.037028786
253	0x3dc37c6d	0.09545217
254	0x3ddc0cff	0.10744666
255	0x3df66998	0.12031859

decoder.4.bias f4 [3]
0	0x3ddada4f	0.1068617
1	0xbd453b24	-0.048152104
2	0x3d9be549	0.07612092
