pcb3_autoencoder.pth (torch, 193090 bytes, 12 tensors)

encoder.0.weight f4 [16, 3, 3, 3]
-0.01308845 -0.030045062 -0.18502694 -0.16974738 0.035672605 -0.046285525 0.17098896 -0.102161296
0.18237527 0.06290425 0.13148744 -0.16837837 -0.1813209 0.13954102 0.18782021 0.10336833
-0.17142297 -0.0046392083 -0.028416052 -0.095800646 0.08752693 -0.049607456 0.13548274 -0.17600474
-0.053488582 0.024489373 -0.15621412 -0.044376817 0.07360176 0.17384598 0.05560765 -0.14742795
-0.19927523 0.16315587 0.07706823 0.14758095 0.058405586 0.14104317 -0.12239522 -0.07184881
0.10117568 0.08032672 -0.106067605 0.20989487 -0.13279371 -0.016115539 0.07347868 -0.049248464
0.13296656 -0.06456453 -0.17221063 0.049321435 -0.0954171 -0.057036616 -0.0047865883 0.031225605
0.044601582 0.21028604 0.048547294 -0.040790003 0.19196711 0.09832079 -0.036889486 -0.10700353
0.16860864 -0.13943432 -0.06520423 -0.16082774 0.20516823 0.108930126 0.055432405 0.09992872
0.12610212 -0.00034700477 0.20834838 -0.13101149 0.11002179 0.1200255 0.054073267 0.02969891
0.061852604 -0.09463135 -0.042176373 -0.13490015 0.08439632 0.02302104 -0.03919089 0.1404566
0.035832647 0.089867726 0.11791102 0.16835946 0.1766865 -0.013760081 0.17957571 0.12116952
0.17629908 -0.05025656 -0.020876808 0.08178063 0.010059558 0.14263286 -0.14838038 0.13447879
0.0272249 -0.039395336 -0.09591887 0.083672225 -0.14639524 0.08292657 0.16531245 -0.11836831
0.104865134 0.25276285 -0.030460946 -0.057862107 0.15056926 0.0693274 0.16472408 0.06389635
-0.12843248 -0.021477805 0.038594354 0.15951592 -0.063580416 0.09317986 -0.0925688 0.15009004
0.06057701 0.07713641 0.048416767 -0.08332748 0.15187395 -0.011788958 0.11939392 0.031365797
-0.091184616 0.12450132 -0.09183031 0.17323323 -0.022219399 -0.017809205 0.037281852 0.13604948
0.041649193 0.19211753 -0.05826591 0.2220613 0.10286692 0.13018025 -0.03733618 -0.08470456
-0.0958207 0.0052978233 -0.06985399 0.15038213 0.15656388 0.15708819 0.08343158 0.12899292
-0.14116049 0.063931026 -0.16029018 0.049327742 0.02585115 0.015664054 -0.11037969 -0.033078894
0.122852735 0.05473965 -0.12084646 -0.06245165 0.099786624 -0.042653196 0.12787007 0.13097838
0.13806719 -0.02426677 -0.15430728 -0.042876977 -0.057782274 0.13367833 -0.12802605 -0.06076532
0.06982231 -0.083659455 0.034026477 -0.1886926 0.016929224 -0.13760522 -0.11836039 -0.14603786
0.19878437 0.047963295 0.15388215 0.035565052 0.09735471 -0.095268816 0.013346025 -0.052579235
-0.18780823 -0.13767928 0.0919954 -0.021642102 0.11791443 -0.03385333 -0.16511235 0.048940007
-0.056476764 0.15632951 0.096164554 0.03356062 -0.009514411 -0.010531117 0.213057 -0.10695491
0.14530526 -0.16829556 -0.00327048 -0.04401433 0.02749773 0.179418 -0.067246616 -0.13076626
0.017550044 0.152203 0.1857852 -0.09886267 -0.17995887 0.11762668 0.12477687 -0.14588962
-0.1757116 -0.13850723 -0.073822096 -0.12546393 0.062045697 0.011158269 -0.052192137 -0.13376036
-0.09062668 0.0750978 0.008636814 -0.0139558315 -0.14915612 -0.1410048 0.112359144 0.12685014
-0.00601018 0.04672023 0.14902744 -0.0024245537 -0.027927065 -0.015261814 0.021078285 -0.1443636
00000000: f070 56bc 1021 f6bc b477 3dbe 42d2 2dbe
00000010: 701d 123d e495 3dbd bb17 2f3e f139 d1bd
00000020: 95c0 3a3e f2d3 803d a5a4 063e 616b 2cbe
00000030: 30ac 39be d7e3 0e3e f153 403e c6b2 d33d
00000040: 8189 2fbe 8004 98bb c8c8 e8bc 2133 c4bd
00000050: 5241 b33d 3031 4bbd fdbb 0a3e 963a 34be
00000060: d816 5bbd f09d c83c 98f6 1fbe 77c4 35bd
00000070: 85bc 963d ae04 323e d9c4 633d 5af7 16be
00000080: ce0e 4cbe 5512 273e f3d5 9d3d 761f 173e
00000090: b23a 6f3d 9f6d 103e 58aa fabd 7825 93bd
000000a0: 3235 cf3d 5682 a43d f939 d9bd aeee 563e
000000b0: 13fb 07be bc04 84bc fd7b 963d c2b8 49bd
000000c0: 6328 083e 693a 84bd fc57 30be 4605 4a3d
000000d0: 0a6a c3bd 3a9f 69bd d0d8 9cbb d7cc ff3c
000000e0: 26b0 363d 3955 573e 87d9 463d 6b13 27bd
000000f0: 0793 443e 695c c93d 6e19 17bd ab24 dbbd
00000100: bea7 2c3e dfc7 0ebe cc89 85bd 07b0 24be
00000110: 9f17 523e c216 df3d 170d 633d 6ea7 cc3d
00000120: ea20 013e 31ee b5b9 4759 553e e027 06be
00000130: 1b53 e13d eecf f53d ee7b 5d3d 214b f33c
00000140: 2859 7d3d 15ce c1bd 22c1 2cbd 4423 0abe
00000150: fad7 ac3d 9f96 bc3c a086 20bd dbd3 0f3e
00000160: 41c5 123d 920c b83d 557b f13d 6c66 2c3e
00000170: 4eed 343e f671 61bc b2e2 373e ba27 f83d
00000180: bf87 343e d3d9 4dbd d705 abbc 9a7c a73d
00000190: d8d0 243c 590e 123e 07f1 17be cfb4 093e
000001a0: c106 df3c 015d 21bd 1d71 c4bd 585c ab3d
000001b0: a2e8 15be 68d5 a93d ab47 293e 166b f2bd
000001c0: 88c3 d63d 226a 813e 3c89 f9bc d100 6dbd
000001d0: d42e 1a3e 86fb 8d3d 6ead 283e 17dc 823d
000001e0: ce83 03be 39f2 afbc 1d15 1e3d 2458 233e
000001f0: 7336 82bd 15d5 be3d b694 bdbd 34b1 193e
00000200: 991f 783d b2f9 9d3d a950 463d 99a7 aabd
00000210: d884 1b3e 7926 41bc cd84 f43d 6c79 003d
00000220: 00bf babd 8cfa fe3d 8811 bcbd 0d64 313e
00000230: 7505 b6bc 9ce4 91bc dbb4 183d 8e50 0b3e
00000240: 5898 2a3d 75ba 443e 3ca8 6ebd 0a64 633e
00000250: e4ab d23d f94d 053e d3ed 18bd 9679 adbd
00000260: a53d c4bd 5d99 ad3b 9c0f 8fbd c6fd 193e
00000270: 4852 203e badb 203e 2dde aa3d b816 043e
00000280: 608c 10be 45ee 823d 1c23 24be e30b 4a3d
00000290: cac5 d33c e751 803c bf0e e2bd bc7d 07bd
000002a0: 379a fb3d af36 603d 597e f7bd 4dcd 7fbd
000002b0: ee5c cc3d 1eb5 2ebd 5ff0 023e 321f 063e
000002c0: 7c61 0d3e 1bcb c6bc ba02 1ebe c59f 2fbd
000002d0: 1bad 6cbd f9e2 083e 4319 03be 0ee5 78bd
000002e0: 00ff 8e3d a655 abbd 595f 0b3d a238 41be
000002f0: 28af 8a3c 62e8 0cbe ef66 f2bd f38a 15be
00000300: 218e 4b3e 2975 443d 4893 1d3e a9ac 113d
00000310: e861 c73d 4c1c c3bd 49a9 5a3c 535d 57bd
00000320: cd50 40be ccfb 0cbe 1668 bc3d c74a b1bc
00000330: 1f7d f13d caa9 0abd 3613 29be 5175 483d
00000340: 2e54 67bd d814 203e ecf1 c43d dc76 093d
00000350: 55e2 1bbc b58a 2cbc 9d2b 5a3e 2d0b dbbd
00000360: e7ca 143e ac55 2cbe 8d55 56bb 5f48 34bd
00000370: eb42 e13c 5ab9 373e 98b8 89bd 97e7 05be
00000380: 1cc5 8f3c 1adb 1b3e 7a3e 3e3e 8378 cabd
00000390: 2347 38be 42e6 f03d 048b ff3d 1764 15be
000003a0: beed 33be d7d4 0dbe 0a30 97bd 9e79 00be
000003b0: a123 7e3d 2cd1 363c 6cc7 55bd 7af8 08be
000003c0: 7b9a b9bd e0cc 993d 6c81 0d3c 00a7 64bc
000003d0: 62bc 18be 9063 10be 8d1c e63d 01e5 013e
000003e0: 0bf1 c4bb b65d 3f3d a69a 183e 43e5 1ebb
000003f0: 4dc7 e4bc b00c 7abc 5eac ac3c 0dd4 13be

encoder.0.bias f4 [16]
-0.10938045 0.11542118 -0.11271374 0.1864415 -0.11326028 0.047106273 -0.14074938 0.17324664
-0.075007856 -0.13040045 -0.124633804 -0.15904863 0.095279984 -0.052900653 0.084938526 -0.059576258
00000000: db02 e0bd f161 ec3d 76d6 e6bd 85ea 3e3e
00000010: 01f5 e7bd 82f2 403d 9b20 10be 9167 313e
00000020: b89d 99bd b287 05be 0240 ffbd a5dd 22be
00000030: 2722 c33d 5bae 58bd 40f4 ad3d 3c06 74bd

encoder.2.weight f4 [32, 16, 3, 3]
-0.005003482 -0.05167256 0.0014125928 -0.055380605 0.06231553 0.06761909 -0.022949032 -0.006139785
-0.080915645 0.063979484 0.04836435 0.061228417 0.028265178 -0.03466984 0.00035238266 0.047789015
0.022753663 -0.012138374 -0.06893106 0.016750284 0.025148027 0.0631591 -0.029814921 -0.066618845
0.043692477 -0.078136444 -0.04580751 0.000620313 0.061415665 -0.050543975 0.055772968 -0.02186793
0.00812012 -0.032607965 -0.0407768 -0.079966396 0.041164584 -0.079550415 0.02274543 -0.04836183
0.03159947 -0.077403866 -0.056669377 0.023346953 -0.07018317 -0.042336136 0.0003935024 0.0014329478
0.00913161 0.04577572 -0.012092024 0.04648567 -0.07355581 -0.06620799 0.059397496 0.014878668
-0.07209264 -0.023599416 0.052630715 0.023548871 0.013577171 -0.042376142 -0.060168833 0.020379543
-0.012827702 -0.02487021 0.07785068 -0.006956078 0.01336471 -0.00394547 0.026090153 -0.045669954
0.00019251555 -0.0777459 -0.024592333 0.033657372 -0.07583498 -0.038110375 0.07545028 -0.069081984
-0.04252548 -0.047100972 -0.07974289 -0.076018475 -0.0021356046 -0.05728831 0.036854453 0.074218415
0.018660963 -0.039535366 0.023068361 -0.038162284 0.08107386 -0.012090504 0.07760697 0.07046608
-0.07467754 0.03661672 0.010544352 -0.01832664 -0.07349913 -0.016006418 0.021867543 -0.0317266
-0.041964423 -0.054535788 0.079350226 -0.0464788 0.05176524 -0.035754513 -0.025776487 -0.061897665
-0.06315854 -0.010094434 -9.983778e-05 0.017349027 -0.02302764 -0.041459035 -0.06532712 -0.047385715
-0.06520167 -0.060496114 0.04393495 0.057271205 -0.07761419 -0.024985187 -0.011203609 -0.0060241744
-0.07039394 -0.07518413 -0.071377896 -0.06240183 -0.06525987 -0.046064526 -0.002872847 0.018361457
0.04945398 -0.06767221 0.03186634 -0.040093184 -0.060608983 -0.016541965 0.020289458 0.039263703
0.03877198 -0.030749522 -0.005077027 0.049947508 -0.021514248 -0.01018548 0.035428442 0.0758696
0.074699976 -0.08546868 -0.079032876 -0.083795495 -0.060065217 0.05599434 -0.047811583 -0.025830083
-0.082599126 -0.04880934 -0.0033502232 -0.03063906 0.03709578 0.015111572 -0.072420254 0.03392793
-0.07536887 -0.06516511 0.028361773 0.03408578 -0.08898705 0.030600788 0.056139823 -0.067987844
0.022466121 -0.016105756 0.049479943 0.020446708 -0.07008949 -0.033408035 -0.022118285 -0.027008953
0.033888713 -0.018702973 -0.07096383 -0.0813903 0.044113025 0.068952 -0.008310559 0.016849106
0.00660866 -0.0865724 -0.03349285 -0.06401889 0.028613279 -0.06157246 0.031286415 0.040154546
-0.03618306 0.007920885 0.04500506 0.056807183 -0.039743572 0.0011286959 0.053632386 -0.05285913
-0.06942232 0.04277366 -0.03201547 0.057948567 -0.022885539 0.071050495 0.036965895 0.0059652287
-0.043521862 -0.061277837 -0.029250883 0.027293019 0.00933069 0.034810998 -0.0704118 0.03399565
0.016407125 0.014773577 -0.042209785 -0.00548929 0.053418726 0.07347736 0.081510246 0.077691495
0.036942728 -0.03653317 -0.079144984 0.049769193 -0.037737362 -0.02598721 -0.064739406 0.021836128
-0.0025245775 -0.03786494 0.06603483 -0.007459653 -0.017453413 -0.04281545 0.0765275 -0.076923735
0.027186073 0.03334921 0.05137104 -0.04365776 0.06166566 0.039198346 -0.053204466 0.06460595
00000000: 40f4 a3bb 9ba6 53bd c026 b93a c6d6 62bd
00000010: 923e 7f3d e17b 8a3d 9cff bbbc 4030 c9bb
00000020: 1ab7 a5bd ad07 833d b219 463d a6ca 7a3d
00000030: 608c e73c f601 0ebd 00c0 b839 6abe 433d
00000040: e465 ba3c 08e0 46bc ba2b 8dbd e437 893c
00000050: 3c03 ce3c 8f59 813d 6c3e f4bc 766f 88bd
00000060: e2f6 323d 0006 a0bd a8a0 3bbd 809c 223a
00000070: fe8e 7b3d 3307 4fbd 3272 643d 6024 b3bc
00000080: 400a 053c ee8f 05bd 9305 27bd 6cc5 a3bd
00000090: 329c 283d 54eb a2bd a054 ba3c 0e17 46bd
000000a0: 726e 013d eb85 9ebd 261e 68bd 1c42 bf3c
000000b0: 32bc 8fbd a868 2dbd 004f ce39 c0d1 bb3a
000000c0: c09c 153c 527f 3b3d a01d 46bc c267 3e3d
000000d0: 6ea4 96bd 0e98 87bd ca4a 733d a8c5 733c
000000e0: 4ea5 93bd 9053 c1bc 4e93 573d 90e9 c03c
000000f0: c872 5e3c 9b92 2dbd 9873 76bd 00f3 a63c
00000100: 482b 52bc 9cbc cbbc 2d70 9f3d d0ef e3bb
00000110: a8f7 5a3c 0049 81bb 04bb d53c 6b10 3bbd
00000120: 00de 4939 3e39 9fbd dc75 c9bc 50dc 093d
00000130: 5f4f 9bbd a019 1cbd ad85 9a3d db7a 8dbd
00000140: 332f 2ebd f3ec 40bd 3e50 a3bd 93af 9bbd
00000150: 80f5 0bbb 26a7 6abd b2f4 163d d3ff 973d
00000160: e0de 983c d6ef 21bd dcf9 bc3c 0e50 1cbd
00000170: 0d0a a63d 4017 46bc 67f0 9e3d 8550 903d
00000180: 8af0 98bd 6afb 153d 38c2 2c3c c021 96bc
00000190: b686 96bd e41f 83bc 9023 b33c c0f3 01bd
000001a0: e3e2 2bbd eb60 5fbd 5f82 a23d 8e60 3ebd
000001b0: ca07 543d 5373 12bd 3629 d3bc 6888 7dbd
000001c0: 4459 81bd 2063 25bc 0060 d1b8 8c1f 8e3c
000001d0: 76a4 bcbc f3d0 29bd 3aca 85bd 8617 42bd
000001e0: 7488 85bd c6ca 77bd 22f5 333d 3695 6a3d
000001f0: 30f4 9ebd bcad ccbc 588f 37bc 7066 c5bb
00000200: b32a 90bd 23fa 99bd 932e 92bd 1099 7fbd
00000210: f7a6 85bd 28ae 3cbd 6046 3cbb c46a 963c
00000220: 4290 4a3d ba97 8abd 4886 023d c038 24bd
00000230: 2041 78bd 0483 87bc 1436 a63c fad2 203d
00000240: 5ecf 1e3d 6ce6 fbbc 305d a6bb c295 4c3d
00000250: a63e b0bc 00e1 26bc 6a1d 113d 8561 9b3d
00000260: 4dfc 983d 340a afbd fddb a1bd f99c abbd
00000270: f206 76bd 525a 653d 14d6 43bd 9c99 d3bc
00000280: bb29 a9bd 4dec 47bd 6b8f 5bbb c4fe fabc
00000290: bff1 173d 8796 773c 1251 94bd 03f8 0a3d
000002a0: fe5a 9abd 4975 85bd f356 e83c 889d 0b3d
000002b0: d83e b6bd 81ae fa3c dff2 653d 363d 8bbd
000002c0: df0a b83c 38f0 83bc 7bab 4a3d db7f a73c
000002d0: 148b 8fbd ddd6 08bd 6831 b5bc e141 ddbc
000002e0: e4ce 0a3d fa36 99bc 7c55 91bd f5af a6bd
000002f0: dcaf 343d b536 8d3d 0329 08bc 2307 8a3c
00000300: 758d d83b df4c b1bd cc2f 09bd 561c 83bd
00000310: 6566 ea3c 6733 7cbd 2f26 003d 1879 243d
00000320: b034 14bd 9ac6 013c 3a57 383d a6ae 683d
00000330: 28ca 22bd c0f0 933a a2ad 5b3d d182 58bd
00000340: 4a2d 8ebd 6f33 2f3d a722 03bd 7a5b 6d3d
00000350: 747a bbbc ec82 913d 8d69 173d f777 c33b
00000360: fb43 32bd 78fe 7abd 8c9f efbc 9c95 df3c
00000370: c0df 183c fa95 0e3d 1034 90bd 063f 0b3d
00000380: 3c68 863c e00c 723c 2be4 2cbd 81df b3bb
00000390: 98cd 5a3d 4c7b 963d d8ee a63d b81c 9f3d
000003a0: 4251 173d cea3 15bd c416 a2bd c8da 4b3d
000003b0: 7e92 1abd 21e3 d4bc 1896 84bd aee1 b23c
000003c0: 6273 25bb 4418 1bbd 453d 873d 1b70 f4bb
000003d0: 76fa 8ebc 415f 2fbd 73ba 9c3d 318a 9dbd
000003e0: 54b5 de3c 2e99 083d 716a 523d 7bd2 32bd
000003f0: 2295 7c3d 728e 203d edec 59bd 2050 843d

encoder.2.bias f4 [32]
-0.030548107 -0.052340608 0.035854567 -0.037307274 0.09335998 0.060698234 0.11638799 0.12493502
0.1160071 0.07282144 -0.06690115 -0.06965394 0.085000575 0.08394029 0.08267402 0.013821435
0.03489416 0.08528477 0.100335546 0.1130583 0.0269635 -0.05489011 0.14228942 0.061177496
0.11561796 0.058031954 0.13070628 0.09259143 0.14618851 0.048708867 0.12356105 -0.04807186
00000000: 0640 fabc 1b63 56bd 3ddc 123d 83cf 18bd
00000010: 8433 bf3d b69e 783d d45c ee3d efdd ff3d
00000020: 2195 ed3d 6823 953d 7803 89bd baa6 8ebd
00000030: c814 ae3d e3e8 ab3d ff50 a93d 4d73 623c
00000040: 2eed 0e3d c8a9 ae3d b97c cd3d 1c8b e73d
00000050: 8fe2 dc3c 74d4 60bd 51b4 113e 4195 7a3d
00000060: 1cc9 ec3d eab2 6d3d ded7 053e 93a0 bd3d
00000070: 71b2 153e f382 473d 930d fd3d 00e7 44bd

encoder.4.weight f4 [64, 32, 3, 3]
-0.045698464 -0.026220758 -0.04440572 -0.013917502 0.031078633 0.03274786 0.0020542517 -0.054337867
-0.04195031 -0.025656853 -0.0038663894 0.039638076 0.015616756 0.058375277 -0.016208494 0.03218512
0.01910359 0.027673487 0.112109914 0.0728368 0.011685287 0.05992676 -0.044687856 0.06680352
-0.0825006 -0.085070826 -0.122489795 -0.036555283 0.0020307973 0.02257352 0.016899895 0.047230806
0.016335819 0.028714906 0.014500897 0.04470143 0.075120516 0.06441636 0.16071783 0.18299738
-0.05645902 0.15848988 0.12687422 -0.066461466 0.106203794 0.047295038 -0.0047925375 -0.0059736334
-0.0001671277 0.020582613 0.0371874 0.02903052 -0.015348885 0.054024722 0.099942975 0.09307059
0.10799711 0.1331879 0.0256796 0.14835195 0.0758392 -0.04411592 0.1022405 0.032756034
-0.039516803 0.05732255 -0.03583628 -0.089439504 0.007538458 -0.041623514 -0.07460613 0.01819157
0.052517056 -0.011253808 -0.048000667 -0.040771276 -0.04752919 -0.05657141 -0.044496182 -0.06997688
-0.080030605 0.17219391 0.17541142 0.13139673 0.105800636 0.09011365 0.116342716 0.08698638
-0.055693407 0.09453334 0.039216895 -0.004402317 -0.040389985 -0.016646285 0.049591746 -0.058003884
0.036790233 0.016392302 0.05400772 -0.004970031 -0.03191275 0.03709742 -0.07975531 0.0025972137
0.05000058 -0.00811442 0.07690719 0.033907276 0.09593401 0.11624646 0.0484808 0.09288109
-0.014300682 0.1659909 0.10472996 -0.049200535 0.07353849 0.026605627 0.09361441 0.0010891295
-0.010226039 -0.049688157 -0.007424974 -0.10714 -0.09733944 -0.082526565 0.17548938 0.15007119
0.1657857 0.096220806 0.09250968 0.12996104 0.12726754 -0.04905013 0.04002011 0.18313992
0.1743106 0.08967098 0.10274765 -0.011429627 0.14926283 0.08838254 -0.10516025 0.1606151
-0.026068073 0.045447696 0.0049887714 -0.010464782 -0.061382085 -0.025027437 -0.041960638 -0.09464992
-0.023807965 0.094497845 0.059319686 0.15661077 0.122077726 -0.033737462 0.088860564 0.066755585
-0.13905151 0.062434927 -0.00411217 -0.053853318 -0.009126343 0.020883583 -0.02318186 -0.01646147
-0.109105706 -0.10788109 -0.07336761 0.12969333 0.18461491 0.13069184 0.16145743 0.14922601
0.15164416 0.07297008 -0.081085466 0.06545683 0.11258978 0.18766727 0.09374826 0.1238441
0.12585768 0.09836758 0.15274595 0.015148079 0.06471231 0.003051103 0.06537893 0.08772793
0.01007676 0.03956024 0.091308 0.0892452 0.11910858 0.037252884 -0.023687765 0.0022326258
0.029485386 -0.04937595 -0.0043948153 0.02508932 -0.026281033 -0.039464302 -0.07916502 0.044554144
0.08360721 0.09307804 0.09046038 0.0043299096 0.078423984 -0.0323848 -0.03330524 -0.05456695
0.06646416 0.018204285 -0.037290208 -0.0030254365 -0.08554448 -0.049155578 -0.12314738 -0.14164403
-0.017893506 0.06825213 0.009894113 0.029024104 -0.09368437 -0.1313841 0.02583931 -0.100431226
-0.0787809 -0.003498856 0.07744603 0.08229912 0.08965593 0.11635022 -0.04813986 0.09215834
0.15755011 -0.048904534 0.1170623 0.10394674 0.15152454 0.16366225 0.20047182 0.109980226
0.13690726 0.17426948 0.022105876 0.11733595 0.06049528 0.013381626 0.056625508 -0.057342634
00000000: 502e 3bbd eacc d6bc c6e2 35bd 3c06 64bc
00000010: 9e98 fe3c 9f22 063d a0a0 063b 6291 5ebd
00000020: 17d4 2bbd 522e d2bc 4063 7dbb 895b 223d
00000030: 6cdd 7f3c ea1a 6f3d adc7 84bc 8bd4 033d
00000040: 227f 9c3c 82b3 e23c e299 e53d 762b 953d
00000050: a573 3f3c c375 753d 9d0a 37bd 49d0 883d
00000060: 13f6 a8bd 9d39 aebd eedb fabd feba 15bd
00000070: 2017 053b 1aec b83c a671 8a3c 1775 413d
00000080: b2d2 853c 863b eb3c 2c95 6d3c d918 373d
00000090: c9d8 993d b9ec 833d 3793 243e aa63 3b3e
000000a0: 9341 67bd 2c4b 223e 51eb 013e f31c 88bd
000000b0: 6081 d93d 71b8 413d b80a 9dbb 78be c3bb
000000c0: 003f 2fb9 de9c a83c d151 183d 6ad1 ed3c
000000d0: e479 7bbc 0749 5d3d e7ae cc3d cb9b be3d
000000e0: 972d dd3d 6962 083e 065e d23c 93e9 173e
000000f0: 9551 9b3d e5b2 34bd 7863 d13d 312b 063d
00000100: 5fdc 21bd 0dcb 6a3d 10c9 12bd 0f2c b7bd
00000110: 2b05 f73b 6b7d 2abd 19cb 98bd 7d06 953c
00000120: 201c 573d e461 38bc 599c 44bd c8ff 26bd
00000130: f8ad 42bd 6cb7 67bd a141 36bd 0a50 8fbd
00000140: 16e7 a3bd 9a53 303e 0d9f 333e dd8c 063e
00000150: 01ae d83d 818d b83d 1745 ee3d ea25 b23d
00000160: c51e 64bd b29a c13d e5a1 203d 5041 90bb
00000170: f86f 25bd ca5d 88bc b720 4b3d 7b95 6dbd
00000180: 5bb1 163d 2649 863c 3337 5d3d a4db a2bb
00000190: f2b6 02bd 77f3 173d c156 a3bd 0436 2a3b
000001a0: 68cd 4c3d 58f2 04bc 8481 9d3d 5be2 0a3d
000001b0: 0d79 c43d a012 ee3d ce93 463d 7138 be3d
000001c0: 684d 6abc 85f9 293e a97c d63d 8086 49bd
000001d0: 599b 963d 0bf4 d93c e9b8 bf3d 1fc1 8e3a
000001e0: 1e8b 27bc cf85 4bbd 324d f3bb 376c dbbd
000001f0: e659 c7bd b003 a9bd 7db3 333e 43ac 193e
00000200: bac3 293e 6a0f c53d b775 bd3d 8214 053e
00000210: 6c52 023e cae8 48bd 20ec 233d 0889 3b3e
00000220: 7a7e 323e 6ba5 b73d 5c6d d23d 5543 3bbc
00000230: 5bd8 183e e801 b53d 425e d7bd 4978 243e
00000240: b68c d5bc 5d27 3a3d d978 a33b 7a74 2bbc
00000250: c86b 7bbd 5706 cdbc ebde 2bbd d1d7 c1bd
00000260: ec08 c3bc 1688 c13d 33f9 723d 935e 203e
00000270: e303 fa3d 4b30 0abd 87fc b53d 27b7 883d
00000280: 8563 0ebe c4bb 7f3d 62bf 86bb 4c95 5cbd
00000290: a886 15bc 0c14 ab3c e2e7 bdbc 34da 86bc
000002a0: d072 dfbd c3f0 dcbd c241 96bd 54ce 043e
000002b0: b10b 3d3e 15d4 053e 1955 253e b4ce 183e
000002c0: 9b48 1b3e 5671 953d 2310 a6bd 3b0e 863d
000002d0: 7895 e63d d92b 403e 16ff bf3d faa1 fd3d
000002e0: d6e0 003e f174 c93d 6f69 1c3e a62f 783c
000002f0: e387 843d 04f5 473b 63e5 853d b3aa b33d
00000300: ff18 253c eb09 223d b0ff ba3d 30c6 b63d
00000310: 33ef f33d 7b96 183d d80c c2bc 3f51 123b
00000320: 568b f13c 703e 4abd 6202 90bb 1e88 cd3c
00000330: 524b d7bc 52a5 21bd 4521 a2bd 687e 363d
00000340: 423a ab3d b39f be3d 4b43 b93d eae1 8d3b
00000350: c19c a03d eda5 04bd 136b 08bd 9881 5fbd
00000360: 5d1e 883d 2721 953c 9ebd 18bd 6746 46bb
00000370: f231 afbd 5c57 49bd b234 fcbd 220b 11be
00000380: 6795 92bc c6c7 8b3d eb1a 223c f5c3 ed3c
00000390: 97dd bfbd 8e89 06be f6ac d33c e3ae cdbd
000003a0: e157 a1bd 104d 65bb 069c 9e3d 718c a83d
000003b0: 879d b73d 0649 ee3d 4d2e 45bd 83bd bc3d
000003c0: d154 213e 1f50 48bd 5cbe ef3d 07e2 d43d
000003d0: 4029 1b3e 1497 273e 7c48 4d3e 503d e13d
000003e0: 6b31 0c3e b373 323e 6217 b53c d54d f03d
000003f0: e6c9 773d 9c3e 5b3c 26f0 673d 1ce0 6abd

encoder.4.bias f4 [64]
-0.0053305537 0.0045517413 0.043275885 0.029090691 0.058960397 0.09364416 0.05151059 0.05676077
0.027662635 0.017289823 0.0458769 0.107197456 0.09970272 0.06424573 0.07169658 0.009482732
0.04035072 0.09408989 -0.060717385 0.044333573 0.10300363 0.051986903 0.021888722 -0.051783703
0.016434021 -0.02415393 -0.030131781 -0.028985301 0.098012626 0.05809264 0.0700027 0.039207544
0.04707275 0.03612731 0.060153827 0.073342614 0.027028011 -0.02456019 0.08783321 0.10089222
0.016641814 -0.010448661 0.01679878 0.029961115 0.093159445 0.08219726 0.029164303 -0.070909575
0.09162187 0.010087945 0.04128561 -0.017621083 0.036907163 0.010156698 0.07207951 0.08657008
0.06465864 0.01735861 0.048074104 0.054016374 0.095362805 -0.011067938 0.042106275 0.022735387
00000000: edab aebb c626 953b 0e42 313d 9a4f ee3c
00000010: 7580 713d 82c8 bf3d c5fc 523d fb7d 683d
00000020: c09c e23c 63a3 8d3c 6be9 3b3d 578a db3d
00000030: f130 cc3d 4493 833d a8d5 923d 765d 1b3c
00000040: cc46 253d 33b2 c03d cbb2 78bd 1f97 353d
00000050: 91f3 d23d 38f0 543d fa4f b33c 261b 54bd
00000060: a4a0 863c 76de c5bc edd6 f6bc 9572 edbc
00000070: d8ba c83d 8cf2 6d3d 935d 8f3d 1798 203d
00000080: 5bcf 403d 3bfa 133d dc63 763d a734 963d
00000090: d969 dd3c 7432 c9bc e6e1 b33d 95a0 ce3d
000000a0: 6a54 883c dc30 2bbc 989d 893c 0371 f53c
000000b0: 61ca be3d 0957 a83d fae9 ee3c 0a39 91bd
000000c0: 3fa4 bb3d e847 253c 1a1b 293d 175a 90bc
000000d0: f72b 173d 4768 263c 6c9e 933d a74b b13d
000000e0: c06b 843d a533 8e3c 5ae9 443d 4640 5d3d
000000f0: 934d c33d 4c56 35bc a177 2c3d 903f ba3c

decoder.0.weight f4 [64, 32, 3, 3]
0.119627364 0.08298465 0.0034742185 0.029275708 0.04203644 0.013882725 0.007566391 -0.05247901
-0.016048301 0.06975872 0.033502568 -0.087629244 -0.039045352 -0.09882435 -0.069061235 -0.09939561
-0.13273157 -0.07204748 0.04110005 0.039370533 -0.0026406827 0.008040102 -0.058076456 0.036001705
0.037502572 -0.013839453 0.14732723 0.048305597 0.07301108 -0.031035513 0.08326605 -0.006664254
0.0034387053 0.06756633 0.16532218 0.05704182 0.09863558 -0.0080064535 0.0018354296 0.10804553
-0.0014745195 -0.11396612 9.515154e-05 -0.055567864 0.0016300443 -0.038327545 0.14174111 0.022424456
0.09660889 -0.041626178 0.11050455 -0.0029058345 0.07703771 0.044954997 0.05203089 0.06320697
0.045429975 0.09980421 0.085368544 0.0037147691 0.06655026 -0.05908943 0.03760709 0.03308912
0.02236939 0.13977888 0.121524416 0.020114252 0.16425271 0.1311204 0.16157697 0.094383195
-0.046915073 -0.008853045 -0.05719747 0.11352253 0.004963087 -0.026415354 -0.043499675 -0.06098429
-0.025745306 0.02165189 0.049827415 -0.03122325 0.028376477 -0.008036118 -0.0017878972 0.035426453
-0.08090055 -0.029356238 0.078657724 -0.053276226 0.053369302 0.064555176 0.0007433444 0.0738637
-0.08990166 0.058002196 0.06950029 0.066071846 0.08785137 -0.05486842 0.093174756 0.01951322
0.022369903 -0.03674994 -0.03886749 0.014451017 0.0335734 -0.0022260412 -0.01118972 0.058260433
0.014454178 0.04589241 0.044012446 0.025635665 0.09672088 -0.04957544 -0.05423276 0.03730664
-0.049510222 0.011407852 -0.07617626 -0.0498487 -0.04734285 0.0524303 0.035161052 0.008957677
-0.035228495 0.026848715 0.018941913 0.009117277 0.005417383 -0.046222914 0.0003106847 0.056925423
-0.056013297 -0.021046145 -0.056533616 -0.02704091 -0.044447426 -0.101699926 -0.09979736 -0.08157022
0.056976426 0.049329087 0.05236825 -0.043884695 0.085314184 -0.021794269 -0.03902159 0.12331752
0.05817162 0.043056525 -0.12087811 -0.023898272 -0.042127017 -0.06371291 -0.09694913 -0.0671655
-0.13948192 0.06999981 0.010089156 0.08024371 -0.08685946 -0.0009207793 0.1537029 -0.061409343
-0.0022647495 0.04546493 0.044447675 0.0049831443 0.0023485327 -0.02946813 0.011703504 0.028744625
0.0047303652 0.03033632 -0.043375887 -0.045831874 -0.051339004 0.035710555 -0.11191761 -0.009384796
0.016122479 0.069443785 -0.118584216 0.048917484 -0.093565814 0.05795011 0.03795563 -0.0560273
0.0047556437 0.040329654 -0.0020251246 0.016836941 -0.057000373 -0.025204599 -0.06918198 0.05673394
-0.012555528 0.05719621 -0.106004044 -0.000520627 -0.08223229 0.036607143 -0.029058589 -0.014483478
0.063229136 0.012191475 0.0060935966 -0.016291594 0.0624451 -0.045508984 0.02391848 0.031467944
0.0483476 -0.056905292 0.0041952874 0.15192512 -0.047964197 0.010030703 -0.04083582 -0.12154663
-0.04040343 0.017544251 0.041807197 -0.019560575 0.029843625 -0.02238729 -0.025993647 -0.08073762
-0.1372677 -0.0009953917 0.03801131 0.10495966 -0.025560625 0.17156987 0.031135833 0.029506749
-0.0036347245 0.05548606 0.021551615 -0.004411516 -0.055774804 0.05361916 -0.032715153 -0.046899386
0.025705919 -0.0069393646 -0.116107434 -0.03514483 0.089955 0.09388841 -0.004655182 0.10199737
00000000: 31ff f43d dbf3 a93d b7af 633b 9cd3 ef3c
00000010: 672e 2c3d 5e74 633c 7def f73b 3bf4 56bd
00000020: ba77 83bc a9dd 8e3d fd39 093d f676 b3bd
00000030: 05ee 1fbd 6c64 cabd fa6f 8dbd ed8f cbbd
00000040: c9ea 07be a18d 93bd 8758 283d ff42 213d
00000050: 4e0f 2dbb a2ba 033c 94e1 6dbd 8676 133d
00000060: 4c9c 193d e0be 62bc f3dc 163e 17dc 453d
00000070: d586 953d 303e febc 6487 aa3d d05f dabb
00000080: e75b 613b 3760 8a3d 384a 293e afa4 693d
00000090: 7301 ca3d 802d 03bc cc92 f03a fa46 dd3d
000000a0: aa44 c1ba 1267 e9bd 188c c738 219b 63bd
000000b0: 36a7 d53a 58fd 1cbd 9524 113e 7eb3 b73c
000000c0: e2da c53d 3680 2abd 3650 e23d d06f 3ebb
000000d0: f2c5 9d3d bb22 383d 581e 553d a872 813d
000000e0: c814 3a3d 2666 cc3d b4d5 ae3d 7c73 733b
000000f0: 814b 883d c207 72bd e409 1a3d 7588 073d
00000100: 0340 b73c 3222 0f3e cbe1 f83d a5c6 a43c
00000110: dd31 283e 6d44 063e 6f74 253e fa4b c13d
00000120: 052a 40bd 5d0c 11bc e547 6abd 807e e83d
00000130: 64a1 a23b 0365 d8bc b72c 32bd aaca 79bd
00000140: d2e7 d2bc 4e5f b13c d517 4c3d e7c7 ffbc
00000150: c975 e83c eca9 03bc e057 eaba 541b 113d
00000160: 30af a5bd 7e7c f0bc 4d17 a13d 2c38 5abd
00000170: c599 5a3d 8135 843d 00dd 423a da45 973d
00000180: 5d1e b8bd b693 6d3d 2b56 8e3d ad50 873d
00000190: 6beb b33d b5bd 60bd 68d2 be3d 30da 9f3c
000001a0: 1641 b73c 1b87 16bd 8433 1fbd f5c3 6c3c
000001b0: 4384 093d c6e2 11bb 1655 37bc 7ea2 6e3d
000001c0: 37d1 6c3c aef9 3b3d 6546 343d e301 d23c
000001d0: 9915 c63d 9e0f 4bbd 2c23 5ebd d9ce 183d
000001e0: 3bcb 4abd 00e8 3a3c 4d02 9cbd 272e 4cbd
000001f0: 94ea 41bd 27c1 563d 0905 103d 38c3 123c
00000200: c14b 10bd d6f1 db3c 122c 9b3c a260 153c
00000210: 4d84 b13b 3d54 3dbd 65e3 a239 a22a 693d
00000220: 336e 65bd f768 acbc cb8f 67bd e684 ddbc
00000230: 810e 36bd 0d48 d0bd 8f62 ccbd 4a0e a7bd
00000240: 1d60 693d 4c0d 4a3d 1780 563d 70c0 33bd
00000250: 34b9 ae3d e589 b2bc 1ad5 1fbd e58d fc3d
00000260: 5d45 6e3d 0a5c 303d f18e f7bd 4fc6 c3bc
00000270: 618d 2cbd ea7b 82bd 448d c6bd 118e 89bd
00000280: 59d4 0ebe 0f5c 8f3d fd4c 253c d056 a43d
00000290: 5fe3 b1bd 7460 71ba 4b64 1d3e 5d88 7bbd
000002a0: 316c 14bb 6f39 3a3d c40e 363d a549 a33b
000002b0: d7e9 193b 2667 f1bc 0ec0 3f3c d979 eb3c
000002c0: 2e01 9b3b e083 f83c eaaa 31bd 34ba 3bbd
000002d0: d948 52bd 3b45 123d 0f35 e5bd b0c2 19bc
000002e0: 4a13 843c 8b38 8e3d 48dc f2bd b35d 483d
000002f0: 6f9f bfbd 185d 6d3d 5d77 1b3d e27c 65bd
00000300: 3bd5 9b3b b530 253d f4b7 04bb a0ed 893c
00000310: 3979 69bd e079 cebc 48af 8dbd d961 683d
00000320: b4b5 4dbc 9346 6a3d a618 d9bd b07a 08ba
00000330: 6769 a8bd 5ff1 153d 470c eebc 1c4c 6dbc
00000340: 477e 813d c1be 473c cbac c73b f375 85bc
00000350: 6fc6 7f3d a167 3abd b0f0 c33c 88e4 003d
00000360: 2208 463d 8615 69bd 9f78 893b 4292 1b3e
00000370: 1b76 44bd d157 243c 7643 27bd 71ed f8bd
00000380: 117e 25bd f6b8 8f3c 063e 2b3d 803d a0bc
00000390: 9e7a f43c 8d65 b7bc a1f0 d4bc c459 a5bd
000003a0: e78f 0cbe ce77 82ba bfb1 1b3d 17f5 d63d
000003b0: 8464 d1bc 03b0 2f3e 9310 ff3c 23b8 f13c
000003c0: 8f34 6ebb 5a45 633d 038d b03c 7a8e 90bb
000003d0: 1f74 64bd c49f 5b3d 5300 06bd 9219 40bd
000003e0: 3895 d23c 9c63 e3bb bcc9 edbd 06f4 0fbd
000003f0: 543a b83d 9148 c03d 7f8a 98bb ffe3 d03d

decoder.0.bias f4 [32]
0.046134397 0.09688718 -0.056485534 0.04871829 0.08956654 -0.034276437 0.027128734 0.015779309
0.06772698 -0.012104246 -0.03888983 0.079995304 0.05693933 -0.0032068011 0.0018372758 0.022156602
0.013041697 0.07411563 0.063554294 0.022413535 -0.00395691 0.09119234 0.012359524 0.027099932
0.008682079 0.060414363 0.030983591 0.033584457 0.076334305 0.0487707 0.02598919 -0.0049242866
00000000: 6cf7 3c3d c96c c63d 605d 67bd d48c 473d
00000010: aa6e b73d 7365 0cbd 143d de3c 9c43 813c
00000020: 71b4 8a3d e350 46bc f14a 1fbd 94d4 a33d
00000030: 3739 693d 3229 52bb bfd0 f03a c381 b53c
00000040: d8ac 553c efc9 973d c128 823d 979c b73c
00000050: f8a8 81bb 0dc3 ba3d 9a7f 4a3c ad00 de3c
00000060: 473f 0e3c 0d75 773d 4dd1 fd3c db8f 093d
00000070: 2955 9c3d c9c3 473d 48e7 d43c e95b a1bb

decoder.2.weight f4 [32, 16, 3, 3]
-0.029767884 0.06041763 0.001811381 0.028282905 0.08188757 0.056710966 -0.019098416 0.018130986
-0.015702488 -0.052258655 -0.045289412 0.029435765 -0.062072363 -0.09792557 -0.023681073 -0.054260056
0.008090719 -0.0814785 -0.046265356 0.0029117856 -0.09200543 -0.059076343 -0.082827725 -0.0525418
0.04400481 -0.04087787 -0.06801729 0.00090923195 -0.07262909 0.009113947 0.019093843 -0.015676845
-0.077481166 0.011644039 0.028550645 0.016762119 0.017015269 -0.08484934 0.06352889 0.053286377
-0.041511223 -0.0290603 0.0035133448 0.01291318 -0.007061303 0.07858975 -0.02896031 -0.059883285
-0.029101213 0.053585723 0.026575563 0.054822717 0.074074246 -0.035757806 -0.043388575 -0.073032215
-0.053068496 0.018247493 -0.07534935 -0.037415713 0.024061253 0.04129332 -0.091876075 -0.028707797
0.030160356 0.0001735561 -0.021024156 -0.08919669 -0.040465612 0.018981397 -0.1039654 -0.005508306
-0.008532785 0.055908665 0.08715983 -0.03613767 0.13150926 0.0049913884 -0.0004126184 0.07556365
0.085256234 -0.07256068 0.022662245 0.034381285 -0.011980276 0.08589935 -0.0006553822 0.07440285
0.09274335 0.01994567 0.0021348759 -0.09538867 0.017088473 0.05263836 -0.09708427 -0.01725781
-0.04942485 -0.011070495 -0.10124291 0.05537136 -0.0774583 0.053026848 -0.035525564 0.02157912
-0.03780184 -0.037428394 -0.019186812 -0.011764039 0.059040245 -0.014275473 0.0046448815 0.009157638
0.032272536 -0.048002847 0.03989337 -0.05272618 0.03818753 0.023685772 0.00146799 0.037380647
-0.048782934 -0.020532621 0.03684742 0.027020525 0.044941787 -0.004418844 0.055918794 0.038093492
0.008421212 0.01959608 0.14539865 0.010527044 -0.05545162 0.008683995 0.09011777 0.044696506
0.059388213 0.00020691169 -0.031924803 0.004914583 0.05771258 0.056468986 0.061452094 -0.05314067
0.06093447 0.042704754 0.09845469 0.005254222 0.116248034 -0.02679758 -0.008836006 0.0858301
0.036442604 0.047680754 -0.06598213 -0.09006455 -0.09892781 -0.055950325 -0.08511981 -0.088944376
-0.030734215 -0.046122342 -0.054588318 0.021236366 -0.059166256 0.044994738 -0.008102098 0.008300822
-0.067607544 -0.090062454 -0.042484652 0.051573183 0.0071673207 0.04801036 0.008038657 0.03626822
-0.050501034 -0.038682997 -0.0051222313 -0.016555134 -0.012062685 0.03174184 -0.048974697 -0.023982728
0.047284942 -0.0956287 -0.011324651 0.0024472598 0.03484189 -0.062507056 -0.048630115 0.08873429
0.06776139 0.082455315 -0.034444153 -0.044396166 0.0039008548 0.09077559 0.048963528 0.034488507
-0.009139595 0.061730973 -0.027646424 -0.09442082 -0.039799597 -0.07762471 0.061776776 -0.100790314
0.026765091 0.007572713 -0.0107668135 -0.05189151 -0.07118918 -0.045289304 -0.03787437 0.04570665
-0.019038873 0.006366488 -0.029616794 0.021554053 0.09814451 -0.019087585 0.08048152 0.015448317
-0.04498287 0.03291616 0.05607521 -0.047129016 0.0022703467 0.01979459 0.015218214 -0.017032737
0.07612285 0.08315421 -0.010689885 -0.14007078 -0.024999585 0.009440698 0.016758969 -0.080282345
-0.012122376 -0.036956336 0.042303115 0.07731245 0.07210409 0.0098081445 0.04133738 0.10921747
0.04358653 -0.054914888 0.063665845 -0.06080052 -0.050100952 0.0005391094 -0.0028134387 -0.006613747
00000000: c7db f3bc 7a78 773d dc6b ed3a 8db1 e73c
00000010: acb4 a73d c249 683d 4874 9cbc 6f87 943c
00000020: 81a2 80bc 2c0d 56bd 6481 39bd 4623 f13c
00000030: 973f 7ebd 348d c8bd cffe c1bc cb3f 5ebd
00000040: ef8e 043c 33de a6bd be80 3dbd a8d3 3e3b
00000050: 586d bcbd 09fa 71bd 95a1 a9bd 1236 57bd
00000060: 633e 343d 8e6f 27bd a64c 8bbd 8659 6e3a
00000070: 8fbe 94bd aa52 153c b16a 9c3c ba6c 80bc
00000080: 72ae 9ebd a4c6 3e3c 0be3 e93c b650 893c
00000090: 9b63 8b3c 7ec5 adbd 6f1b 823d d142 5a3d
000000a0: ac07 2abd de0f eebc 2540 663b cd91 533c
000000b0: 8162 e7bb aaf3 a03d 2c3e edbc 2d48 75bd
000000c0: ab65 eebc b47c 5b3d ffb4 d93c c98d 603d
000000d0: 3db4 973d c776 12bd 38b8 31bd ea91 95bd
000000e0: 5a5e 59bd c47b 953c c350 9abd 3841 19bd
000000f0: 1b1c c53c 2f23 293d 8629 bcbd 9d2c ebbc
00000100: da12 f73c 9cfc 3539 da3a acbc c1ac b6bd
00000110: 45bf 25bd e07e 9b3c d0eb d4bd 057f b4bb
00000120: 18cd 0bbc 7c00 653d da80 b23d 1805 14bd
00000130: 5daa 063e cd8e a33b b454 d8b9 1dc1 9a3d
00000140: d29a ae3d b29a 94bd 2ca6 b93c 64d3 0c3d
00000150: eb48 44bc 00ec af3d f4cd 2bba 8560 983d
00000160: 3af0 bd3d 1a65 a33c 46e9 0b3b 235b c3bd
00000170: 20fd 8b3c 529b 573d 1ed4 c6bd 4060 8dbc
00000180: b671 4abd 0561 35bc 7158 cfbd 14cd 623d
00000190: 75a2 9ebd ae32 593d 4183 11bd b2c6 b03c
000001a0: 1ad6 1abd 844e 19bd a92d 9dbc f5bd 40bc
000001b0: 2fd4 713d ace3 69bc 1734 983b eb09 163c
000001c0: 3530 043d a29e 44bd 3b67 233d 68f7 57bd
000001d0: 876a 1c3d aa08 c23c 9269 c03a 731c 193d
000001e0: 9dd0 47bd 0734 a8bc 52ed 163d 265a dd3c
000001f0: e114 383d f3cb 90bb 1b0b 653d ec07 1c3d
00000200: 20f9 093c f587 a03c 62e3 143e 9f79 2c3c
00000210: 3d21 63bd 5147 0e3c aa8f b83d af13 373d
00000220: 0e41 733d 6ff6 5839 95c3 02bd 830a a13b
00000230: 0764 6c3d 064c 673d 31b5 7b3d 08aa 59bd
00000240: 6c96 793d 2eeb 2e3d 9da2 c93d 9c2b ac3b
00000250: 7313 ee3d 9986 dbbc e5c4 10bc b1c7 af3d
00000260: d744 153d e54c 433d a421 87bd c373 b8bd
00000270: aa9a cabd 2b2c 65bd 4c53 aebd 7828 b6bd
00000280: 52c6 fbbc c8ea 3cbd 0098 5fbd e3f7 ad3c
00000290: 5158 72bd 674c 383d a9be 04bc 2c00 083c
000002a0: d375 8abd aa72 b8bd 6304 2ebd 673e 533d
000002b0: d8db ea3b 83a6 443d 92b4 033c fc8d 143d
000002c0: 2cda 4ebd 1072 1ebd 64d8 a7bb a29e 87bc
000002d0: 91a2 45bc bb03 023d b199 48bd 6d77 c4bc
000002e0: dbad 413d fbd8 c3bd 078b 39bc 3562 203b
000002f0: 5fb6 0e3d b303 80bd 5f30 47bd 53ba b53d
00000300: 7cc6 8a3d 55de a83d 5015 0dbd c1d8 35bd
00000310: 7ca5 7f3b 8de8 b93d fb8d 483d d243 0d3d
00000320: 3dbe 15bc 9ed9 7c3d c17a e2bc b45f c1bd
00000330: e704 23bd b4f9 9ebd a509 7d3d 276b cebd
00000340: 7742 db3c 8524 f83b 4a67 30bc 318c 54bd
00000350: a2cb 91bd 4781 39bd 2822 1bbd e536 3b3d
00000360: 69f7 9bbc f99d d03b eb9e f2bc 2092 b03c
00000370: fdff c83d 915d 9cbc 7fd3 a43d f01a 7d3c
00000380: f53f 38bd 18d3 063d 1faf 653d 5b0a 41bd
00000390: 19ca 143b 4428 a23c d155 793c 3d88 8bbc
000003a0: 4ce6 9b3d c14c aa3d a124 2fbc b76e 0fbe
000003b0: eecb ccbc 28ad 1a3c 1b4a 893c 126b a4bd
000003c0: ee9c 46bc 875f 17bd 0846 2d3d fd55 9e3d
000003d0: 4fab 933d 57b2 203c 6251 293d 69ad df3d
000003e0: ca87 323d 6fee 60bd 3d63 823d f709 79bd
000003f0: a836 4dbd 0553 0d3a ab61 38bb 22b8 d8bb

decoder.2.bias f4 [16]
0.064936765 0.041663684 0.00046202823 -0.08475798 -0.02159027 0.049883213 0.0114383 0.009503084
0.073844016 0.051412884 -0.057490803 0.045559358 0.00023052415 -0.06675906 0.014969563 0.02326936
00000000: 91fd 843d 8aa7 2a3d 613c f239 9895 adbd
00000010: 14de b0bc 5752 4c3d b567 3b3c d3b2 1b3c
00000020: 883b 973d 5196 523d 7a7b 6bbd 739c 3a3d
00000030: dbb8 7139 f9b8 88bd e642 753c 639f be3c

decoder.4.weight f4 [16, 3, 3, 3]
-0.17004482 -0.23039418 0.02125167 -0.12391952 -0.2511425 -0.11877603 0.08660312 0.084125794
-0.17511813 0.13120313 -0.18398058 0.06448129 -0.13528483 -0.14927432 0.048514616 -0.049015492
0.012137712 0.08675037 -0.20148197 -0.17939948 -0.1305081 0.15196808 -0.096039765 -0.086571686
-0.12081077 -0.21021788 0.07805048 0.031388354 0.11469772 -0.038183104 -0.032153107 0.16852196
0.09012707 0.007461289 0.034225266 0.13463019 0.035872564 0.080345444 0.15179734 -0.08883028
0.005640398 0.05449391 -0.12617132 0.0037751514 -0.0005240103 0.027270054 0.16419008 0.18330982
-0.069149174 0.24217093 0.17343654 0.06812868 0.085542716 -0.066437215 0.070479155 0.13859726
-0.1478578 0.16221024 -0.101138964 0.095125094 -0.07790975 -0.113215156 0.161975 -0.001102462
0.14888905 0.07819374 -0.12626798 0.025434654 -0.14082867 0.14542726 0.07254718 0.07570221
-0.17618783 -0.069739334 0.07090076 -0.07610436 -0.085675366 0.13318051 -0.06417064 -0.08076148
-0.05770897 0.032264885 -0.1820122 -0.1265819 0.050460637 -0.07266431 0.097586215 0.18078618
0.079563655 -0.071533315 0.118747614 -0.09720465 0.03370487 0.011123419 -0.16078234 0.15950209
-0.13277782 0.056590807 -0.090276524 -0.024248548 0.20275164 0.17511567 0.08200752 0.16016297
-0.08900598 0.060075093 0.115967475 0.101797566 -0.1475217 0.14684142 -0.15595464 0.036450762
0.02317491 -0.004344214 -0.19399752 0.06095103 -0.18747349 0.13594426 0.11918525 -0.13431634
-0.046533074 -0.16040446 -0.012532402 0.0853803 -0.09883864 -0.011920281 -0.18393432 0.08072774
0.099408746 0.06889273 -0.1566688 -0.035848007 -0.014687318 0.082388215 -0.041568104 0.050413426
-0.13523063 -0.027967326 -0.120830275 -0.19033065 0.04319581 0.11089748 -0.23389639 -0.1410974
-0.060743198 -0.08599152 0.03802459 -0.057173055 -0.032366987 0.12313805 0.077059045 -0.18078202
0.026133662 -0.18202461 -0.08122961 0.1354244 0.0031048371 -0.04582152 0.029297473 -0.15538299
0.03824249 0.020010406 0.15247342 0.009119309 0.08698403 -0.19630444 0.08890504 0.12886216
0.16172308 0.090139896 0.046627518 -0.057408396 0.07951562 -0.15156266 -0.012420614 -0.060015053
-0.11661552 -0.18589304 0.016744597 -0.1884208 -0.18766382 0.102301486 -0.15607081 0.008604128
-0.094609804 -0.02051643 0.1482387 0.17417598 0.07749165 0.107122496 0.095253095 -0.111391336
0.13433434 -0.068783626 0.08277003 -0.19162807 0.038901463 -0.13809748 0.12910378 0.043862507
-0.012815788 0.17644832 0.19535331 -0.07063596 -0.020361252 -0.0490209 -0.08845415 -0.073615015
-0.14828573 -0.16825373 0.08834146 -0.10485452 -0.063544855 0.07837638 0.045235995 -0.05359042
0.009849259 0.034206387 -0.11062622 -0.22804941 -0.20122406 0.12784557 -0.044519268 0.08225862
-0.15529045 -0.22317585 -0.07374372 0.12506099 -0.15609896 0.08267861 0.062350456 0.042111885
-0.0013323793 -0.16423008 -0.08576945 0.16273433 -0.059417486 -0.20501208 -0.007922621 -0.10315802
-0.04260855 -0.10348746 0.12964985 -0.1695603 -0.20824917 0.047130626 0.09629248 -0.039454564
-0.035897154 -0.20394021 0.041018818 0.06979124 -0.15348072 0.10317115 0.012835409 -0.08873299
00000000: 3b20 2ebe 74ec 6bbe fb17 ae3c 84c9 fdbd
00000010: c095 80be d940 f3bd fa5c b13d 254a ac3d
00000020: 2b52 33be 1d5a 063e 6865 3cbe c40e 843d
00000030: 1b88 0abe 5edb 18be 43b7 463d 78c4 48bd
00000040: 41dd 463c 2eaa b13d 4a51 4ebe 7fb4 37be
00000050: eaa3 05be 859d 1b3e 7fb0 c4bd 7f4c b1bd
00000060: a36b f7bd 5b43 57be eed8 9f3d 1391 003d
00000070: a3e6 ea3d e365 1cbd fab2 03bd 0591 2c3e
00000080: 8b94 b83d d47d f43b cb2f 0c3d 7fdc 093e
00000090: 1cef 123d 278c a43d c370 1b3e a6ec b5bd
000000a0: 16d3 b83b 0235 5f3d 0e33 01be 8868 773b
000000b0: bc5d 09ba 7365 df3c 7221 283e 92b5 3b3e
000000c0: 159e 8dbd a8fb 773e 5999 313e 0d87 8b3d
000000d0: 0531 af3d 3c10 88bd 6057 903d 71ec 0d3e
000000e0: 0968 17be 711a 263e f221 cfbd f2d0 c23d
000000f0: 268f 9fbd 59dd e7bd c6dc 253e 7c80 90ba
00000100: 5f76 183e 0a24 a03d 654c 01be 565c d03c
00000110: 6435 10be e2ea 143e 9e93 943d c309 9b3d
00000120: 956a 34be 7fd3 8ebd 6b34 913d 9adc 9bbd
00000130: 9176 afbd 7960 083e e66b 83bd 4666 a5bd
00000140: 3e60 6cbd 2f28 043d 6861 3abe b09e 01be
00000150: d0af 4e3d 07d1 94bd 48db c73d 0320 393e
00000160: 45f2 a23d 0f80 92bd f331 f33d 3b13 c7bd
00000170: 1e0e 0a3d 003f 363c 20a4 24be 8454 233e
00000180: e9f6 07be c3cb 673d e6e2 b8bd e4a4 c6bc
00000190: 209e 4f3e 8651 333e 8ff3 a73d c301 243e
000001a0: c448 b6bd 4d11 763d 5b80 ed3d 3e7b d03d
000001b0: ee0f 17be 995d 163e 93b2 1fbe 654d 153d
000001c0: 4fd9 bd3c e959 8ebb 49a7 46be caa7 793d
000001d0: 0df9 3fbe f934 0b3e 6517 f43d 398a 09be
000001e0: 7799 3ebd 1141 24be b454 4dbc dedb ae3d
000001f0: ea6b cabd 484d 43bc 4759 3cbe 9654 a53d
00000200: d096 cb3d a217 8d3d c96d 20be 5cd5 12bd
00000210: 14a3 70bc 27bb a83d 5143 2abd 4f7e 4e3d
00000220: e679 0abe bc1b e5bc dd75 f7bd 0ae6 42be
00000230: 17ee 303d 381e e33d 8982 6fbe d67b 10be
00000240: dccd 78bd 521c b0bd acbf 1b3d 4b2e 6abd
00000250: 3f93 04bd cd2f fc3d 22d1 9d3d ec1e 39be
00000260: 4316 d63c a964 3abe b65b a6bd b2ac 0a3e
00000270: 867a 4b3b 59af 3bbd 4101 f03c b81c 1fbe
00000280: 28a4 1c3d ddec a33c fe21 1c3e 2769 153c
00000290: af24 b23d 0804 49be d813 b63d 71f4 033e
000002a0: bc9a 253e 449b b83d 7ffc 3e3d 1125 6bbd
000002b0: 16d9 a23d 3e33 1bbe d57f 4bbc 58d2 75bd
000002c0: 1ed4 eebd bf5a 3ebe f72b 893c 62f1 40be
000002d0: f22a 40be 7183 d13d 07d1 1fbe 54f8 0c3c
000002e0: c9c2 c1bd 1212 a8bc e3cb 173e 305b 323e
000002f0: f1b3 9e3d 0a63 db3d 0e14 c33d 2421 e4bd
00000300: f18e 093e 6ede 8cbd 5583 a93d 263a 44be
00000310: 2457 1f3d 6d69 0dbe c833 043e 2ca9 333d
00000320: 50f9 51bc deae 343e b30a 483e 96a9 90bd
00000330: a4cc a6bc 24ca 48bd 7327 b5bd 78c3 96bd
00000340: 37d8 17be b54a 2cbe 5eec b43d f7bd d6bd
00000350: ce23 82bd cc83 a03d 6149 393d a181 5bbd
00000360: c95e 213c ff1b 0c3d 0090 e2bd c985 69be
00000370: ae0d 4ebe f3e9 023e d659 36bd 3577 a83d
00000380: 7604 1fbe 3688 64be f306 97bd fd0f 003e
00000390: 68d8 1fbe 6753 a93d 3163 7f3d 837d 2c3d
000003a0: 3ba3 aeba ee2b 28be e5a7 afbd d4a3 263e
000003b0: c05f 73bd b0ee 51be e2cd 01bc 8344 d3bd
000003c0: 4e86 2ebd 3cf1 d3bd eec2 043e 37a1 2dbe
000003d0: 453f 55be 0b0c 413d fe34 c53d 1c9b 21bd
000003e0: e508 13bd b4d5 50be 5903 283d b6ee 8e3d
000003f0: 0d2a 1dbe 654b d33d 9b4b 523c a4b9 b5bd

decoder.4.bias f4 [3]
-0.13324419 0.016282594 -0.13985203
00000000: 2a71 08be 1363 853c 5f35 0fbe
