pcb4_autoencoder.pth (torch, 193090 bytes, 12 tensors)

encoder.0.weight f4 [16, 3, 3, 3]
-0.11257378 -0.17646393 -0.12605311 0.13301072 0.059861746 0.054352015 0.00853273 -0.1129952
-0.16563764 -0.10639552 -0.10304344 0.18885106 0.18863814 0.03407898 -0.07070198 0.0046552275
0.18984033 0.14597538 0.15153772 0.13368881 0.12167035 -0.07061123 0.109845296 -0.08965959
-0.006133272 0.088447735 -0.07697389 0.05411659 0.20975198 0.21711446 0.016100613 0.054412547
-0.17008711 -0.017474283 -0.09513338 -0.0043124533 0.17595805 0.092134826 0.15020621 -0.0022233124
0.0047675697 -0.07428239 -0.123432994 -0.07811248 -0.09626643 0.095949896 -0.07617074 0.019853175
-0.027756756 0.075299844 0.019472484 -0.07101636 0.088412024 -0.12815174 -0.06294216 0.17355943
-0.05898368 -0.034305908 0.023879519 -0.05477789 -0.08611658 0.014862473 -0.02747899 -0.10445033
-0.003434166 -0.022332078 -0.115963936 0.14996596 0.17292683 0.16370118 -0.018243998 0.081780754
0.073560394 -0.15975362 -0.08155963 0.014171065 -0.12334463 0.05751642 0.19323893 -0.087984696
0.1359144 0.113543846 -0.14053372 0.17147917 -0.057349447 0.18885687 0.031160189 -0.05609575
-0.14075932 -0.0576854 0.09300421 0.12513115 -0.018771563 -0.037469275 0.043971825 0.07423956
-0.05072293 -0.12510066 0.023137435 -0.118119754 -0.068687856 0.032530844 -0.14025536 0.1347784
0.09796535 0.103314266 0.12648124 -0.10188179 -0.07972412 -0.0459004 0.1897587 -0.014014213
-0.11405951 -0.02319024 0.09060586 -0.15535176 0.07175272 -0.14057674 -0.1079115 -0.100999825
0.06572035 -0.113451734 0.032518726 -0.11892872 -0.041914735 0.046754684 0.07491518 0.19638804
-0.07071726 0.14178386 0.15992121 0.124176234 -0.12132837 0.08882591 -0.091969244 0.22811566
0.14412457 -0.052328337 -0.0056571583 0.12350634 -0.043640018 0.106766656 0.08166047 -0.14908104
-0.08800138 0.017460696 0.17565797 -0.084401265 0.20042935 -0.047250398 0.13741452 -0.11523401
0.10725201 0.07317884 -0.11140801 0.12623474 0.1091392 0.064984225 -0.0029754213 0.014225927
0.21776198 0.02063309 0.028680755 0.119632564 0.110675484 0.07855672 0.085237086 0.12171081
-0.12410178 -0.18417221 -0.11427491 0.0026578382 -0.09280376 0.12305472 -0.071914524 0.17999658
0.035626706 -0.1478805 0.18530697 -0.112200126 -0.03494684 -0.1268738 -0.078258745 -0.023582844
0.09651611 0.16403523 0.14512493 -0.11779069 -0.05767501 0.048974402 0.12071817 0.009390143
0.042355932 0.17965089 0.058645476 -0.039819054 0.13128254 -0.047098663 0.03161153 -0.0974596
-0.05541553 0.12504578 0.019168971 -0.0593507 0.14557575 0.03715236 0.13746968 0.14204164
-0.14728813 0.0983235 -0.15345865 -0.16655873 -0.16935268 -0.13137011 0.13967107 -0.02197052
0.046203744 -0.11627888 0.16287582 0.17352986 0.22394465 -0.03749511 0.1529459 0.0027407156
0.15061122 0.059172325 0.1807184 0.1845514 0.1791976 0.206112 -0.036889356 0.20632648
0.06273775 -0.15187569 0.0049977847 0.21072985 0.025304632 0.12094645 0.107572034 0.035527527
0.04193142 -0.03309838 -0.13472857 -0.054273468 -0.021590373 -0.13449349 0.12929209 -0.028014172
-0.078261904 0.13517863 -0.019441746 -0.14438453 0.01587668 0.061755292 0.0070765014 -0.025687585
00000000: 158d e6bd f6b2 34be 1114 01be f633 083e
00000010: 9731 753d 38a0 5e3d ddcc 0b3c 076a e7bd
00000020: ea9c 29be e5e5 d9bd 7008 d3bd 2c62 413e
00000030: 5b2a 413e 6796 0b3d 33cc 90bd e18a 983b
00000040: 8165 423e 927a 153e b42c 1b3e b8e5 083e
00000050: 4e2e f93d 9f9c 90bd 92f6 e03d 729f b7bd
00000060: 9df9 c8bb 1624 b53d 7da4 9dbd 5ca9 5d3d
00000070: 39c9 563e 4153 5e3e 6fe5 833c b1df 5e3d
00000080: 512b 2ebe 3a26 8fbc 4ad5 c2bd 7b4f 8dbb
00000090: 592e 343e 2fb1 bc3d a8cf 193e feb4 11bb
000000a0: 4639 9c3b 5e21 98bd 70ca fcbd 70f9 9fbd
000000b0: 5627 c5bd 6181 c43d 68ff 9bbd 20a3 a23c
000000c0: 2362 e3bc ce36 9a3d c284 9f3c 0671 91bd
000000d0: 5d11 b53d 363a 03be d2e7 80bd 90b9 313e
000000e0: df98 71bd 5a84 0cbd fb9e c33c c85e 60bd
000000f0: e45d b0bd bb81 733c 9e1b e1bc 0eea d5bd
00000100: bf0f 61bb c3f1 b6bc 807e edbd ad90 193e
00000110: bb13 313e 48a1 273e 7074 95bc ab7c a73d
00000120: d5a6 963d 7496 23be bc08 a7bd c12d 683c
00000130: 1c9c fcbd 5696 6b3d 6de0 453e 5231 b4bd
00000140: 252d 0b3e ad89 e83d 12e8 0fbe 3c98 2f3e
00000150: 41e7 6abd b263 413e a743 ff3c a8c4 65bd
00000160: 3623 10be 8747 6cbd fe78 be3d 6122 003e
00000170: d2c6 99bc 6279 19bd cd1b 343d e90a 983d
00000180: d9c2 4fbd 631a 00be b88a bd3c c5e8 f1bd
00000190: 38ac 8cbd 103f 053d 1a9f 0fbe 5903 0a3e
000001a0: 0fa2 c83d 6e96 d33d 4c84 013e 66a7 d0bd
000001b0: 6646 a3bd 0f02 3cbd 1b50 423e df9b 65bc
000001c0: 0898 e9bd 75f9 bdbc 918f b93d 8814 1fbe
000001d0: 17f3 923d 59f3 0fbe b400 ddbd ffd8 cebd
000001e0: 6498 863d 6259 e8bd 5b32 053d e790 f3bd
000001f0: c9ae 2bbd d781 3f3d 216d 993d f219 493e
00000200: 36d4 90bd ca2f 113e 63c2 233e 1c50 fe3d
00000210: 027b f8bd 5cea b53d 5f5a bcbd 2797 693e
00000220: 6495 133e 3d56 56bd af5f b9bb e4f0 fc3d
00000230: e0bf 32bd 7aa8 da3d 9b3d a73d b3a8 18be
00000240: 113a b4bd bc09 8f3c afdf 333e 92da acbd
00000250: 5a3d 4d3e a289 41bd 64b6 0c3e cfff ebbd
00000260: f1a6 db3d cade 953d e229 e4bd ae43 013e
00000270: 5f84 df3d 7316 853d 49ff 42bb dd13 693c
00000280: fffc 5e3e ba06 a93c e7f3 ea3c eb01 f53d
00000290: d4a9 e23d 58e2 a03d c890 ae3d 8443 f93d
000002a0: 1329 febd a497 3cbe f708 eabd 202f 2e3b
000002b0: e60f bebd 1d04 fc3d ec47 93bd 0651 383e
000002c0: 4fed 113d fc6d 17be 1cc1 3d3e 2ec9 e5bd
000002d0: 6b24 0fbd 35eb 01be 1f46 a0bd cf30 c1bc
000002e0: 3daa c53d daf8 273e a19b 143e 3f3c f1bd
000002f0: a23c 6cbd 6299 483d 173b f73d 1dd9 193c
00000300: 6a7d 2d3d 67f6 373e 3d36 703d 4e19 23bd
00000310: ee6e 063e 87ea 40bd 177b 013d e698 c7bd
00000320: 65fb 62bd 000c 003e 3f08 9d3c b819 73bd
00000330: cf11 153e 132d 183d dac4 0c3e 5d73 113e
00000340: b3d2 16be d55d c93d 4424 1dbe 5f8e 2abe
00000350: ca6a 2dbe e385 06be ef05 0f3e 85fb b3bc
00000360: 2340 3d3d 9f23 eebd ebc8 263e d0b1 313e
00000370: bf51 653e 7994 19bd da9d 1c3e 949d 333b
00000380: d439 1a3e ae5e 723d 3f0e 393e 0bfb 3c3e
00000390: 937f 373e 060f 533e 4b19 17bd 4047 533e
000003a0: a67c 803d 4d85 1bbe 75c4 a33b 91c9 573e
000003b0: a94b cf3c c6b2 f73d ba4e dc3d 5085 113d
000003c0: 48c0 2b3d 2b92 07bd 49f6 09be db4d 5ebd
000003d0: 4bde b0bc a9b8 09be 2565 043e fa7d e5bc
000003e0: c747 a0bd 446c 0a3e 4c44 9fbc 8ad9 13be
000003f0: d00f 823c 1ef3 7c3d ffe1 e73b c56e d2bc

encoder.0.bias f4 [16]
0.17787965 -0.020590508 0.023622261 0.18528678 0.08485656 -0.14623769 0.05131068 0.21988314
-0.15542272 -0.0848024 0.0420629 -0.10930988 -0.17679977 -0.09606268 -0.112103194 0.15569103
00000000: 1526 363e 6dad a8bc 7983 c13c d1bb 3d3e
00000010: 47c9 ad3d 55bf 15be 262b 523d 0c29 613e
00000020: 2227 1fbe e1ac adbd 264a 2c3d dcdd dfbd
00000030: 000b 35be 83bc c4bd 5c96 e5bd 786d 1f3e

encoder.2.weight f4 [32, 16, 3, 3]
0.027029574 -0.028529065 -0.014224827 0.014012843 0.09810345 0.09609865 0.080901206 -0.048324235
0.070219055 0.004839832 0.00012277893 0.027961196 0.116348095 0.08225337 -0.007899971 -0.09081716
-0.07758033 -0.0974331 -0.024635116 -0.023750415 0.042257775 0.052772153 0.0008785524 0.035783626
0.0035163625 0.07456419 -0.061482705 0.09114598 0.09299031 0.052588247 -0.026070587 0.0035510792
0.10474163 0.044890255 -0.011185655 0.09365018 -0.006658583 0.10933555 0.057141043 -0.008954888
0.06372369 0.0534248 -0.003588225 0.05974824 -0.047490943 0.05577647 -0.009831838 0.022281043
0.03631327 0.0005065852 -0.09355145 -0.031568527 -0.050052613 -0.07253908 -0.07104878 0.03750291
-0.060877334 0.01758203 -0.050908785 0.059179813 0.0027665747 0.072521076 -0.040499143 0.09307569
-0.0028915065 -0.028397556 0.10608118 0.03399351 0.110704914 0.11367603 -0.014680538 -0.039946258
-0.01478402 0.002743232 -0.032289997 -0.02899791 -0.056748785 0.013253192 -0.035032284 -0.078986116
-0.047565598 0.039270207 -0.07844691 0.074060634 -0.014337138 -0.05157968 -0.004045409 -0.047262326
0.03833755 -0.027369272 -0.038988885 -0.010488393 0.07091795 -0.046201307 0.0191362 0.046240177
-0.064253815 0.082614444 -0.0026793955 -0.04616153 0.04915848 -0.08552036 0.016994558 0.042659283
-0.059273582 0.077192344 0.05995086 0.019251388 -0.047201067 -0.07801529 -0.08010661 0.042222895
-0.052301124 0.008190974 0.002760534 -0.08518616 0.018010475 0.029113602 0.025104014 0.021222044
-0.04575003 -0.078663215 0.06484356 -0.019848306 -0.03753398 0.039922744 0.06336428 0.0023748805
-0.042631432 -0.0026561255 -0.030140515 0.0059682564 -0.00794194 -0.04759745 -0.036132816 -0.0494176
-0.04516334 0.0023793532 0.09654657 0.022926025 0.051608115 -0.038442224 0.017638909 -0.044932842
-0.06347467 0.03888448 0.04715271 0.051010106 -0.0041870466 -0.08280231 0.036929253 -0.02399262
-0.033334598 0.039445505 -0.045651563 0.070610374 0.009892039 0.01711664 -0.0020938383 0.04720488
-0.06703083 -0.06291817 0.0418924 -0.07184922 0.004871986 0.036914714 -0.02674737 -0.00016573192
0.07324574 0.06813396 0.06938228 0.048571926 -0.0827042 0.015353747 -0.062344234 -0.03436439
0.022791382 -0.012123175 -0.0076968498 -0.08723144 0.0099472795 -0.008021366 0.0695493 -0.05683311
-0.022023326 -0.033716198 0.07785981 -0.022423621 0.013153562 0.077264145 -0.021451714 -0.068272755
-0.077967666 0.049846765 0.07706567 -0.0068504578 0.077160485 -0.019671531 -0.013645016 -0.061077263
0.06502838 0.0064212657 0.07893078 -0.055639718 -0.064994164 0.003822945 0.005512504 0.037940286
0.06104321 0.033148866 -0.07411855 -0.07429827 0.057832222 -0.054369483 0.0012376073 -0.0064594056
0.065411285 -0.024004366 0.04812925 0.031221518 -0.030578729 -0.067856856 0.0651965 -0.08077223
0.069987684 -0.034082275 -0.04570093 0.06226597 -0.052521985 0.005545713 -0.07301297 -0.011176668
-0.04944703 0.049451463 -0.015178348 -0.023294438 -0.062410675 0.016110217 0.027324341 0.022576783
0.06725788 0.0030929667 -0.033426587 -0.039998285 0.033395104 -0.026166825 0.048764296 -0.014430634
-0.013422761 -0.06544881 -0.0586257 -0.02650139 -0.06477043 -0.028601274 -0.080803566 -0.009947143
00000000: 206d dd3c c9b5 e9bc 400f 69bc 2096 653c
00000010: 76ea c83d 5ecf c43d 88af a53d a2ef 45bd
00000020: 02cf 8f3d 7497 9e3b 38be 0039 e10e e53c
00000030: e947 ee3d 7474 a83d e16e 01bc 59fe b9bd
00000040: 70e2 9ebd 018b c7bd 95cf c9bc 3b90 c2bc
00000050: 7d16 2d3d 9d27 583d a74e 663a da91 123d
00000060: c672 663b 1cb5 983d 4ad5 7bbd beaa ba3d
00000070: b471 be3d c666 573d fc91 d5bc 39b9 683b
00000080: c882 d63d d8de 373d 0a44 37bc aacb bf3d
00000090: 3e30 dabb 51eb df3d ba0c 6a3d 86b7 12bc
000000a0: 9181 823d f7d3 5a3d 6d28 6bbb 92ba 743d
000000b0: dd85 42bd de75 643d b815 21bc bc86 b63c
000000c0: 39bd 143d 5bcc 043a e797 bfbd 004e 01bd
000000d0: f803 4dbd 5f8f 94bd 0682 91bd a79c 193d
000000e0: 835a 79bd 3008 903c bb85 50bd 8866 723d
000000f0: 6c4f 353b ee85 943d 6ee2 25bd 789e be3d
00000100: 6e7f 3dbb fea1 e8bc 1741 d93d c73c 0b3d
00000110: 42b9 e23d face e83d a486 70bc b09e 23bd
00000120: ad38 72bc ccc7 333b 8442 04bd 068d edbc
00000130: 6a71 68bd eb23 593c 037e 0fbd 79c3 a1bd
00000140: 25d4 42bd ccd9 203d c6a8 a0bd 1aad 973d
00000150: 51e6 6abc 3745 53bd 5a8f 84bb 2496 41bd
00000160: d607 1d3d 8635 e0bc cfb2 1fbd 82d7 2bbc
00000170: 6e3d 913d 953d 3dbd 85c3 9c3c 5766 3d3d
00000180: 8197 83bd c331 a93d cc98 2fbb df13 3dbd
00000190: 675a 493d 4c25 afbd 2c38 8b3c 80bb 2e3d
000001a0: dbc8 72bd 0517 9e3d 088f 753d 16b5 9d3c
000001b0: e855 41bd 7bc6 9fbd ef0e a4bd eaf1 2c3d
000001c0: b439 56bd 6f33 063c 13ea 343b 1576 aebd
000001d0: b48a 933c a67f ee3c efa6 cd3c dad9 ad3c
000001e0: 6264 3bbd 2e1a a1bd b3cc 843d ea98 a2bc
000001f0: 3bbd 19bd 0886 233d 22c5 813d e2a3 1b3b
00000200: 4c9e 2ebd 6412 2ebb 3ee9 f6bc 5d91 c33b
00000210: e91e 02bc 8bf5 42bd 0100 14bd 1c6a 4abd
00000220: 32fd 38bd ecee 1b3b 35ba c53d 5ccf bb3c
00000230: 0863 533d 9875 1dbd 797f 903c 800b 38bd
00000240: 02ff 81bd 5545 1f3d 3323 413d f9ef 503d
00000250: 7e33 89bb 4294 a9bd 2143 173d 2c8c c4bc
00000260: dc89 08bd 9c91 213d 22fd 3abd 2c9c 903d
00000270: 3812 223c 3238 8c3c c738 09bb e759 413d
00000280: 7647 89bd 3edb 80bd 5d97 2b3d af25 93bd
00000290: 2ea5 9f3b e233 173d 4d1d dbbc 53c8 2db9
000002a0: dd01 963d d189 8b3d 4c18 8e3d 5bf3 463d
000002b0: d260 a9bd 488e 7b3c ab5c 7fbd adc1 0cbd
000002c0: feb4 ba3c 48a0 46bc db35 fcbb 66a6 b2bd
000002d0: eaf9 223c 0c6c 03bc dd6f 8e3d d6c9 68bd
000002e0: 436a b4bc ff19 0abd f774 9f3d beb1 b7bc
000002f0: 0a82 573c aa3c 9e3d 81bb afbc 96d2 8bbd
00000300: 83ad 9fbd 1f2c 4c3d 9bd4 9d3d ce79 e0bb
00000310: 5106 9e3d 3126 a1bc 588f 5fbc 272c 7abd
00000320: 992d 853d 7b69 d23b 76a6 a13d 79e6 63bd
00000330: a91b 85bd 608a 7a3b 3ca2 b43b 4667 1b3d
00000340: 7208 7a3d 1bc7 073d 77cb 97bd b129 98bd
00000350: 7be1 6c3d 89b2 5ebd 3637 a23a 6ca9 d3bb
00000360: 5af6 853d cea4 c4bc 2d23 453d 45c4 ff3c
00000370: 3e80 fabc 89f8 8abd be85 853d e96b a5bd
00000380: b455 8f3d db99 0bbd e630 3bbd 9a0a 7f3d
00000390: 4b21 57bd d0b8 b53b d387 95bd 581e 37bc
000003a0: f888 4abd 9e8d 4a3d 9bae 78bc fad3 bebc
000003b0: 56a2 7fbd 93f9 833c 4cd7 df3c f2f2 b83c
000003c0: 80be 893d 5fb3 4a3b 51ea 08bd 3ed5 23bd
000003d0: 4ec9 083d cf5b d6bc 12bd 473d 776e 6cbc
000003e0: 24eb 5bbc 070a 86bd 8121 70bd 7119 d9bc
000003f0: 5ca6 84bd 384d eabc 577c a5bd 57f9 22bc

encoder.2.bias f4 [32]
0.0706305 -0.0698667 -0.030552182 0.1010465 0.10103769 0.086406045 0.07326008 0.08802153
0.04194329 -0.05921976 0.08291366 0.0939143 0.09517527 0.09230536 0.049798697 0.04678595
-0.019038258 -0.08299984 0.05232157 0.020972384 0.037068997 0.10904184 0.009457128 0.021039188
0.022017596 -0.041709363 -0.013867043 0.038964007 0.08788636 -0.005017469 0.10523776 -0.035218306
00000000: b9a6 903d 4616 8fbd 9248 fabc 78f1 ce3d
00000010: d9ec ce3d a7f5 b03d 6109 963d a244 b43d
00000020: bacc 2b3d 6b90 72bd a3ce a93d 2456 c03d
00000030: 41eb c23d 980a bd3d b8f9 4b3d a0a2 3f3d
00000040: 1ff6 9bbc d2fb a9bd 254f 563d 47ce ab3c
00000050: a9d5 173d 5451 df3d 12f2 1a3c 605a ac3c
00000060: 3f5e b43c 70d7 2abd 9832 63bc b998 1f3d
00000070: c4fd b33d 9569 a4bb e586 d73d 1241 10bd

encoder.4.weight f4 [64, 32, 3, 3]
-0.025967387 -0.021671304 -0.00037341812 0.033153296 0.0907076 0.055780664 0.062211357 0.027079081
0.041544545 0.029798403 0.019493701 -0.029234594 0.0002600556 0.034950726 0.012159752 -0.0030011216
-0.039736338 -0.022761228 -0.019582504 -0.008713518 0.028373463 0.059574302 -0.0026343842 0.095072545
0.056009784 -0.03014953 0.059460074 0.013888892 0.030730968 0.011209076 -0.018994387 0.099241
0.069257736 -0.0063350885 0.0019134223 0.083657056 0.010954491 -0.014216588 0.037414312 0.04550073
0.046541613 0.053151425 -0.027416186 -0.0039087823 0.049460348 -0.020213716 0.08086285 -0.0046321647
-0.009602586 -0.0010970209 0.008033918 -0.03232291 0.049084105 0.0070489184 -0.024614409 -0.027587222
-0.025729852 0.016203452 0.026276512 0.08202285 0.053996526 0.02028868 0.08437819 0.04634419
-0.02523151 0.027463516 -0.041865956 -0.0069062137 0.0005097963 0.059237443 0.036061455 -0.005358146
-0.014646854 0.021022735 -0.005933029 0.006759445 0.075965084 0.025095379 0.007968718 0.07872584
0.09372458 -0.012941863 -0.025486868 -0.05649247 0.032208856 0.006476786 -0.038371235 -0.011509646
0.01565623 0.010251317 0.0059044417 -0.034019724 0.018709995 -0.013595281 0.030706188 0.03323041
0.033396065 0.047003027 0.07372954 0.022344396 -0.016594365 0.035656475 0.027622426 0.00078614143
0.017378455 0.06588128 0.062111493 0.09157311 -0.039547518 0.046447493 0.08206285 0.04888499
0.009127269 0.06734178 -0.004836632 0.010489728 0.071298465 0.049426958 0.06317434 -0.014494268
0.012734382 0.014725347 0.06293175 0.0361802 -0.011389884 0.032870222 0.01118905 -0.006448567
0.08914318 0.02194401 0.017619858 0.0680512 -0.022754358 0.015960773 0.10348008 0.03736282
-0.008487555 0.0511897 0.0021977534 0.09222017 -0.0021780066 0.045291282 0.035196174 0.04290511
-0.038862888 0.004001686 0.042657945 -0.037825096 -0.018351998 -0.026412841 0.060565066 -0.034836803
0.05945352 0.04404002 -0.04751889 -0.01810367 0.029674355 -0.07081494 -0.03649355 -0.013329624
-0.05378208 0.018130574 -0.010735389 0.034896445 0.02108268 0.040617123 -0.013721492 0.026315445
0.045624092 -0.0054539363 -0.01407706 0.0033241096 0.009638952 0.040742557 -0.004619389 0.0038250447
-0.0039415527 -0.046397895 0.016465025 0.008363771 0.009922671 0.037345737 0.08267558 0.0019428656
0.05260834 0.017497608 0.06903958 0.0828027 -0.013287953 0.03862726 0.0048416713 -0.02958702
0.062207136 0.06320861 0.016799405 -0.035219967 0.08548139 0.08396099 -0.025653388 -0.0175769
0.04328138 -0.021199033 0.024201704 0.07078031 0.044109806 -0.011630075 0.0820265 -0.05509625
0.035800718 -0.010627196 0.032490492 0.045277577 0.06778808 0.045605786 0.049434423 0.067958
0.011657707 0.063857675 0.06035214 0.037679277 0.051654696 0.035455473 -0.03153376 -0.0031770368
0.06876435 -0.035954777 -0.057258066 0.04645628 0.019704051 0.016635962 -0.04212374 0.052164897
0.03275858 -0.062839285 0.026576059 -0.049632497 -0.0561432 0.0077591767 0.0070707663 0.029137447
-0.03417212 -0.026179882 0.02273668 0.046050794 0.03773454 0.07003321 -0.016526626 0.065213874
0.03050644 0.016333569 0.0035113296 0.086733885 0.047761697 0.033115335 0.04449005 -0.025990998
00000000: 8fb9 d4bc 0588 b1bc 55c7 c3b9 c0cb 073d
00000010: e8c4 b93d 447a 643d 56d1 7e3d f3d4 dd3c
00000020: 9d2a 2a3d c81b f43c 41b1 9f3c 637d efbc
00000030: 1258 8839 7e28 0f3d b239 473c 77ae 44bb
00000040: 92c2 22bd c175 babc 7d6b a0bc 25c3 0ebc
00000050: 776f e83c 2f04 743d a2a5 2cbb 65b5 c23d
00000060: 846a 653d 26fc f6bc 688c 733d 3c8e 633c
00000070: 83bf fb3c 46a6 373c 1e9a 9bbc de3e cb3d
00000080: 00d7 8d3d 9396 cfbb cccb fa3a 6454 ab3d
00000090: 777a 333c b1ec 68bc c03f 193d f95e 3a3d
000000a0: 6ba2 3e3d 4fb5 593d e997 e0bc 3e15 80bb
000000b0: ef96 4a3d 3c97 a5bc 6c9b a53d 6ac9 97bb
000000c0: 2a54 1dbc eac9 8fba b2a0 033c 0765 04bd
000000d0: 6a0c 493d 9dfa e63b 28a4 c9bc 99fe e1bc
000000e0: 69c7 d2bc 1abd 843c d741 d73c 99fb a73d
000000f0: 762b 5d3d 7234 a63c 79ce ac3d 68d3 3d3d
00000100: 50b2 cebc 2bfb e03c a37b 2bbd 854d e2bb
00000110: daa3 053a f6a2 723d 2db5 133d 6393 afbb
00000120: 5cf9 6fbc df37 ac3c db69 c2bb 567e dd3b
00000130: 9593 9b3d d394 cd3c 3a8f 023c 033b a13d
00000140: acf2 bf3d 1c0a 54bc d6c9 d0bc a664 67bd
00000150: 6fed 033d 383b d43b 282b 1dbd f492 3cbc
00000160: 7e41 803c 24f5 273c 0c7a c13b 4458 0bbd
00000170: b445 993c bebe 5ebc 8b8b fb3c 9c1c 083d
00000180: 50ca 083d 3f86 403d 83ff 963d 980b b73c
00000190: e8f0 87bc 860c 123d 6d48 e23c 0f15 4e3a
000001a0: 435d 8e3c c4ec 863d 9f68 7e3d af8a bb3d
000001b0: 94fc 21bd ba3f 3e3d 9110 a83d a13b 483d
000001c0: 8a8a 153c 7dea 893d 9c7c 9ebb 1cdd 2b3c
000001d0: ee04 923d ec73 4a3d 8c61 813d 5e79 6dbc
000001e0: dfa3 503c 9542 713c 5de2 803d b031 143d
000001f0: a39c 3abc eda2 063d 4752 373c 804e d3bb
00000200: b390 b63d edc3 b33c 8557 903c 6d5e 8b3d
00000210: 5967 babc 2bc0 823c 5ded d33d c209 193d
00000220: 630f 0bbc 4aac 513d 2f08 103b eedd bc3d
00000230: e3bc 0ebb 5a83 393d dd29 103d 45bd 2f3d
00000240: b12e 1fbd 9320 833b 19ba 2e3d 7dee 1abd
00000250: ee56 96bc be5f d8bc 1313 783d 09b1 0ebd
00000260: 8985 733d 4f63 343d 2ba3 42bd 264e 94bc
00000270: a217 f33c 6c07 91bd 437a 15bd 7f64 5abc
00000280: 994a 5cbd 9286 943c 7ce3 2fbc 93ef 0e3d
00000290: 96b5 ac3c 245e 263d 1cd0 60bc 7d93 d73c
000002a0: 54e0 3a3d efb6 b2bb 78a3 66bc 4ed9 593b
000002b0: b2ec 1d3c abe1 263d 3e5e 97bb 9aad 7a3b
000002c0: 2428 81bb b80b 3ebd a9e1 863c 3308 093c
000002d0: b392 223c d8f7 183d d151 a93d c0a7 fe3a
000002e0: d87b 573d 2557 8f3c a064 8d3d 7694 a93d
000002f0: b7b5 59bc 9e37 1e3d e2a6 9e3b 7a60 f2bc
00000300: e9cc 7e3d 8473 813d e89e 893c d042 10bd
00000310: de10 af3d bdf3 ab3d 0e27 d2bc 6efd 8fbc
00000320: d147 313d 98a9 adbc a742 c63c 44f5 903d
00000330: 7cac 343d 128c 3ebc 82fd a73d 9bac 61bd
00000340: c6a3 123d b11d 2ebc c014 053d fb74 393d
00000350: 7ad4 8a3d 22cd 3a3d c07b 4a3d 902d 8b3d
00000360: f8ff 3e3c d0c7 823d ce33 773d 9655 1a3d
00000370: e093 533d c239 113d 8b29 01bd d535 50bb
00000380: 53d4 8c3d 5145 13bd 6f87 6abd f148 3e3d
00000390: 646a a13c 2448 883c f189 2cbd dcaa 553d
000003a0: dc2d 063d e2b1 80bd 09b6 d93c 724b 4bbd
000003b0: 69f6 65bd b140 fe3b e3b1 e73b a8b1 ee3c
000003c0: 11f8 0bbd 3177 d6bc 4642 ba3c c29f 3c3d
000003d0: 888f 1a3d 926d 8f3d d962 87bc da8e 853d
000003e0: a4e8 f93c facd 853c 561e 663b 89a1 b13d
000003f0: c5a1 433d f2a3 073d 333b 363d 13eb d4bc

encoder.4.bias f4 [64]
0.091553725 0.00927756 -0.06642168 -0.013763738 0.10284427 0.066838786 0.056321107 0.0017383723
-0.008787231 -0.016818153 0.08006631 -0.010045349 0.009789106 -0.043515187 0.018294802 0.0066108536
0.086371966 0.033194352 0.09941873 0.08239575 0.023050241 0.07531251 0.0062503023 -0.09190768
-0.013314361 0.076816775 0.008635756 0.012372078 0.09051359 0.062462136 0.013119617 0.081600234
0.08200488 -0.0886317 0.052323677 0.0034459021 0.00019974193 0.046324138 0.022741059 0.048552923
0.08950255 0.009081897 0.056765404 -0.013587614 0.06235224 0.030945426 0.04631696 0.13735807
0.066675246 -0.0112965265 0.09702081 0.02926478 -0.0013086842 0.031172791 -0.0018054361 -0.012053706
0.009262102 0.103933185 0.0660154 0.08623905 -0.023125634 0.041549858 0.017185414 0.035664663
00000000: 8580 bb3d e800 183c 1708 88bd 4d81 61bc
00000010: 04a0 d23d c6e2 883d f6b0 663d 18da e33a
00000020: 51f8 0fbc 39c6 89bc cef9 a33d 3f95 24bc
00000030: 7d62 203c fb3c 32bd fbde 953c dc9f d83b
00000040: c9e3 b03d cdf6 073d 0c9c cb3d 1abf a83d
00000050: dcd3 bc3c 723d 9a3d 56cf cc3b 183a bcbd
00000060: 7a24 5abc 1d52 9d3d fc7c 0d3c 42b4 4a3c
00000070: 305f b93d 4cd8 7f3d a9f3 563c 061e a73d
00000080: 2df2 a73d 8984 b5bd 5a51 563d a5d4 613b
00000090: d171 5139 61be 3d3d 754b ba3c 6edf 463d
000000a0: 1d4d b73d 3dcc 143c d782 683d 959e 5ebc
000000b0: 1065 7f3d 4381 fd3c dab6 3d3d 98a7 0c3e
000000c0: 088d 883d 1115 39bc d9b2 c63d b1bc ef3c
000000d0: 2888 abba 155e ff3c 62a4 ecba e87c 45bc
000000e0: 12c0 173c ecda d43d 1533 873d 199e b03d
000000f0: f871 bdbc 2f30 2a3d 6dc8 8c3c 1c15 123d

decoder.0.weight f4 [64, 32, 3, 3]
-0.028228587 0.048382446 0.06082721 -0.014797563 0.07032599 0.086439826 0.035292666 0.08515499
0.011763699 0.017056072 0.038361076 -0.035490684 -0.019950558 0.04043712 -0.013280169 -0.016081687
-0.017130496 -0.011656318 0.044138297 0.035076547 -0.06372854 0.011512295 0.069749504 0.054864507
-0.022971444 0.024377102 0.046050437 0.04041869 0.06698695 0.03645176 -0.037544936 0.04068926
0.08623909 0.037813593 0.035051137 0.059759714 0.04357649 -0.04978444 -0.029285805 0.013726672
0.045673445 0.005011456 0.017535925 -0.032897558 -0.027419485 -0.04447777 0.022618283 -0.017420521
0.034017403 -0.054042663 0.06549755 -0.0056404388 0.07083809 0.014048972 0.023477698 -0.021270523
0.009700639 0.017150467 0.047333 0.02038014 -0.0478282 0.080860935 0.03127106 0.039213922
0.030116789 -0.012624576 -0.0081143305 0.07381599 -0.0015811883 -0.032194402 -0.038380787 0.012814408
-0.008900205 -0.052709505 0.006815016 -0.06629353 -0.04853571 -0.013453584 0.0026226041 0.039965622
0.002905388 -0.019479327 -0.029151885 0.020831566 -0.023448093 0.053322203 0.021029921 0.025437174
0.052225653 -0.058447808 0.0020372332 -0.09342321 0.042499952 0.011456966 -0.033082116 0.027229222
-0.01159903 -0.071936406 -0.0031265903 0.05626425 -0.021902151 -0.010681598 0.0072771693 0.048690327
0.0069585326 0.041586094 -0.00739882 0.067056015 0.010982682 0.038716298 0.067008264 -0.023398096
0.065699905 0.017133728 -0.040473685 0.05130215 0.087665394 -0.010115652 0.037226044 -0.0760355
0.024870668 0.0048408243 0.0019902864 -0.060544655 0.0060588573 -0.018511482 -0.06366943 0.112785
-0.014088161 -0.06623397 -0.015375398 0.048744645 -0.047922265 0.04012581 -0.027263528 -0.016169924
0.034514423 -0.010258371 0.0035878872 -0.016215153 -0.058947597 0.039280754 0.04237113 -0.0685369
0.05636673 -0.011004924 0.03420992 0.03608809 0.09736531 -0.020457685 0.026937492 0.02958249
0.05585092 -0.03966808 0.038447667 0.054916658 -0.024462901 0.038328946 0.022440067 -0.03966118
-0.008728029 -0.016353142 0.017031677 0.014531092 -0.041817598 -0.004396351 0.0285818 -0.022118771
-0.04107427 -0.040436827 -0.039286003 -0.005949936 0.061809096 0.0683474 0.040486332 0.023701617
0.05899121 0.056718532 0.032417376 0.026630064 0.034468044 -0.03553029 0.014162856 -0.015782164
-0.0373346 0.07093263 0.02536718 0.07779308 0.045773853 -0.058814168 -0.007162016 -0.03002476
0.03406864 -0.032129057 0.048772585 0.04692632 -0.036196627 0.022667324 -0.045622934 0.026062064
0.05104578 -0.022870306 -0.02401043 0.007969786 -0.0035738954 0.070883974 0.056316562 0.037351083
-0.07285575 -0.029672964 -0.03461987 -0.030248856 0.08704938 -0.026665246 0.023801295 0.0766643
-0.041762583 -0.032455552 -0.016914655 -0.033559512 0.031338565 0.030753607 0.0003117251 0.055840153
0.057412613 0.048592474 -0.054731693 -0.016971651 0.042049006 -0.0009293109 0.09017704 -0.037970174
-0.05739999 0.03851185 -0.04822316 -0.049622618 0.04511469 0.005228515 0.040733155 -0.069638096
0.061791882 -0.0015357309 -0.014727914 0.031401087 0.03302775 -0.0062213656 0.018155087 0.032824308
0.004500086 -0.028888602 -0.0008320228 -0.015633764 -0.06745432 -0.06984825 0.037371892 -0.026168238
00000000: a33f e7bc ac2c 463d f425 793d 7a71 72bc
00000010: 1307 903d 5d07 b13d 0b8f 103d bd65 ae3d
00000020: 88bc 403c 2db9 8b3c 8120 1d3d ae5e 11bd
00000030: 5a6f a3bc 65a1 253d 1195 59bc bebd 83bc
00000040: 4155 8cbc 24fa 3ebc 5cca 343d 6dac 0f3d
00000050: 1c84 82bd 119e 3c3c d4d8 8e3d 9bb9 603d
00000060: 9c2e bcbc 7db2 c73c 629f 3c3d 118e 253d
00000070: 7430 893d 714e 153d b8c8 19bd c8a9 263d
00000080: 1f9e b03d 6de2 1a3d c891 0f3d 9ac6 743d
00000090: 437d 323d c5ea 4bbd c9e8 efbc d6e5 603c
000000a0: 1414 3b3d 2437 a43b 80a7 8f3c 97bf 06bd
000000b0: d49e e0bc 522e 36bd fa49 b93c 7bb5 8ebc
000000c0: d555 0b3d d75b 5dbd 9423 863d 6ed3 b8bb
000000d0: 8f13 913d a92d 663c 4d54 c03c 853f aebc
000000e0: 6eef 1e3c 237f 8c3c 3fe0 413d 40f4 a63c
000000f0: 81e7 43bd 6b9a a53d 1516 003d c79e 203d
00000100: 7cb7 f63c 4fd7 4ebc f8f1 04bc d62c 973d
00000110: e03f cfba 47de 03bd 2c35 1dbd 86f3 513c
00000120: 2ad2 11bc ece5 57bd 7f50 df3b e7c4 87bd
00000130: 61cd 46bd 6c6c 5cbc ffdf 2b3b feb2 233d
00000140: 5268 3e3b 1c93 9fbc efcf eebc f6a6 aa3c
00000150: 3716 c0bc 6268 5a3d f146 ac3c 9f61 d03c
00000160: 91ea 553d f866 6fbd 1a83 053b ab54 bfbd
00000170: 6e14 2e3d 00b6 3b3c 1d81 07bd d10f df3c
00000180: dc09 3ebc 6553 93bd 7be7 4cbb 5875 663d
00000190: 246c b3bc df01 2fbc 5275 ee3b 826f 473d
000001a0: 6704 e43b 2e56 2a3d cd71 f2bb aa54 893d
000001b0: b5f0 333c fb94 1e3d a13b 893d 5dad bfbc
000001c0: ac8d 863d 085c 8c3c bcc7 25bd 3422 523d
000001d0: ea89 b33d 1fbc 25bc 567a 183d 80b8 9bbd
000001e0: 92bd cb3c c79f 9e3b 776f 023b acfd 77bd
000001f0: 6189 c63b 64a5 97bc 1e65 82bd d2fb e63d
00000200: 08d2 66bc ada5 87bd 18e9 7bbc 77a8 473d
00000210: 234a 44bd f65a 243d c357 dfbc ca76 84bc
00000220: ff5e 0d3d ba12 28bc c222 6b3b a4d5 84bc
00000230: 0973 71bd dbe4 203d 5a8d 2d3d 135d 8cbd
00000240: cde0 663d ff4d 34bc b31f 0c3d 1bd1 133d
00000250: 7767 c73d e096 a7bc 04ac dc3c fa56 f23c
00000260: efc3 643d ff7a 22bd 4d7b 1d3d 4af0 603d
00000270: 6c66 c8bc d0fe 1c3d 3bd4 b73c c373 22bd
00000280: 0200 0fbc 06f7 85bc 0486 8b3c d113 6e3c
00000290: ee48 2bbd 440f 90bb 6124 ea3c 6d32 b5bc
000002a0: 7e3d 28bd 16a1 25bd 5cea 20bd aef7 c2bb
000002b0: 892b 7d3d b9f9 8b3d ffd4 253d e529 c23c
000002c0: c4a0 713d b151 683d 15c8 043d 4b27 da3c
000002d0: 5d2e 0d3d 3688 11bd 530b 683c 9949 81bc
000002e0: 2aec 18bd 2045 913d d5ce cf3c fa51 9f3d
000002f0: 5d7d 3b3d 20e7 70bd 58af eabb 7cf6 f5bc
00000300: 8f8b 0b3d c299 03bd c3c5 473d d035 403d
00000310: ea42 14bd d3b0 b93c 1ddf 3abd 1c80 d53c
00000320: 6115 513d 825a bbbc 85b1 c4bc b593 023c
00000330: 0438 6abb 9e2b 913d 32ac 663d 73fd 183d
00000340: 6535 95bd b714 f3bc 91cd 0dbd 73cc f7bc
00000350: f246 b23d 1371 dabc effa c23c 2c02 9d3d
00000360: 3e0f 2bbd 1df0 04bd 9a90 8abc b375 09bd
00000370: de5c 003d fdee fb3c 096f a339 a5b8 643d
00000380: 7d29 6b3d e708 473d 572e 60bd 2208 8bbc
00000390: 943b 2c3d 009d 73ba bdae b83d 9d86 1bbd
000003a0: 401c 6bbd 9abe 1d3d a685 45bd 1641 4bbd
000003b0: 2eca 383d f653 ab3b cfd7 263d 6b9e 8ebd
000003c0: 7c19 7d3d 944a c9ba 594d 71bc 6d9e 003d
000003d0: 1b48 073d 99dc cbbb fab9 943c c872 063d
000003e0: 7575 933b caa7 ecbc 1b1c 5aba 6112 80bc
000003f0: 7e25 8abd 990c 8fbd 4513 193d c65e d6bc

decoder.0.bias f4 [32]
0.042935822 0.09019294 0.07171785 0.07074513 0.038069263 0.04595052 0.034056544 -0.0067241276
0.034715906 -0.04334646 0.00021574201 -0.06402491 0.06063737 0.011406438 0.011738596 -0.051106222
0.044404678 0.08894975 -0.012211309 0.06053847 0.028291782 0.02173534 -0.038785115 0.0063266004
0.031800646 0.023506276 -0.015848877 0.0783605 0.026082277 0.042153865 0.06820782 0.052635618
00000000: 79dd 2f3d 13b7 b83d cfe0 923d d3e2 903d
00000010: 84ee 1b3d 9d36 3c3d e07e 0b3d 1256 dcbb
00000020: 4432 0e3d 0f8c 31bd ce38 6239 7e1f 83bd
00000030: e45e 783d 12e2 3a3c 3d53 403c c254 51bd
00000040: aee1 353d 492b b63d f111 48bc 30f7 773d
00000050: 2bc4 e73c 500e b23c 24dd 1ebd 5f4f cf3b
00000060: 6541 023d 3c90 c03c 81d5 81bc 787b a03d
00000070: 80aa d53c 88a9 2c3d 8bb0 8b3d 7298 573d

decoder.2.weight f4 [32, 16, 3, 3]
-0.028924882 -0.022748038 0.0928924 0.095524795 0.09903102 0.015782898 0.051303253 0.06409336
0.013775358 0.05799672 -0.007240723 0.061604403 0.011842441 0.00043616415 0.048586022 -0.008434983
0.084598474 -0.0029633478 0.018473638 -0.00071133854 -0.09595473 -0.07186064 -0.040934402 -0.015277594
-0.010919463 0.0130317025 -0.0065870043 -0.082826346 0.05386329 -0.07979668 -0.082302965 -0.01379292
-0.020460993 0.03162037 -0.038539357 -0.05768338 0.021838075 0.07796048 -0.05412192 0.05783607
-0.06070859 0.0013698395 -0.06436686 -0.07412545 0.034881663 -0.0727788 -0.06400639 0.041063312
0.018545875 0.027167803 0.02698236 0.05511266 0.10429826 -0.06171646 0.050050262 0.055055015
-0.05296846 -0.027489418 -0.021601599 0.0049815094 -0.04809174 0.06465553 -0.010026531 0.037657313
-0.022084212 0.06280769 -0.05261182 -0.017199375 -0.08736963 0.050780337 -0.04724311 -0.078078106
0.07217187 0.063058935 -0.00017471645 0.06526225 0.02933534 0.053041417 0.025756326 -0.056488283
0.01646108 -0.01887097 -0.036823828 -0.071065195 -0.005431187 -0.007696502 -0.017904544 -0.07611757
0.084847026 -0.043180447 -0.019051509 0.025617614 -0.0253651 0.07611571 0.024015097 0.097774036
-0.035486214 -0.0061676404 0.048239425 -0.013834179 0.108592324 -0.016362082 0.08002383 0.11668427
0.04577003 -0.0026241292 0.06119348 0.07347898 0.05591137 -0.009707154 -0.029145265 0.093401566
-0.02179851 -0.022080444 0.033957563 0.032068837 -0.052674193 0.045705084 0.08197502 0.040418465
0.02680458 0.04830276 -0.015345831 -0.007002792 -0.028055366 0.05329553 -0.041743692 0.0103120385
0.09192989 -0.041586254 -0.022640562 0.07281978 -0.06859407 0.044431668 0.010729915 0.0021238227
-0.05289115 0.00483243 -0.026280954 -0.0917205 0.0897846 0.0758989 0.05946849 0.064008385
0.09355918 0.06824063 0.0035704337 0.08163298 -0.0012674923 0.09169037 0.042364635 0.096706286
0.03143644 -0.034742847 0.07897023 0.05640862 -0.022986772 0.07208834 0.10622955 -0.058514383
0.06218631 0.024087736 -0.0015714982 -0.045697153 0.007757048 -0.094791 -0.079125546 -0.042143673
0.051516745 0.08856808 0.07749978 0.053633574 -0.03972585 0.037841696 -0.07337085 -0.0949879
0.05708859 -0.03275473 0.021836527 -0.010916668 -0.01913924 0.024288945 0.015767124 -0.0044165817
0.025652334 -0.01150584 0.01173765 -0.070047125 -0.013882921 -0.105048105 0.07249557 -0.023990465
0.00506252 0.031888813 0.050602414 -0.013387518 0.08215686 0.015384246 0.05467883 -0.076075405
0.058090176 0.051194903 -0.017891632 0.044649996 -0.07392114 -0.034803722 0.0022807156 -0.08588218
-0.0964566 0.029092003 -0.058647115 0.02560133 -0.09151864 -0.0437018 -0.08603847 -0.03942712
-0.047250804 0.12025246 0.026373776 -0.03352712 -0.04411671 -0.026163744 0.08766176 0.030729549
0.06748128 -0.07957859 -0.024849258 0.015417857 0.0020543267 -0.045705985 0.04667424 -0.010228522
0.021242151 -0.023413083 0.053596277 -0.026612211 -0.060243137 -0.013486891 0.00868195 -0.05530508
-0.014594351 0.00905567 -0.0003515395 0.0813937 0.037193965 0.0013875414 0.10010375 0.11939238
0.0898599 -0.04539081 0.07190019 -0.013760726 0.08869426 -0.03170515 0.01764073 0.037413295
00000000: e0f3 ecbc 185a babc 5f3e be3d 81a2 c33d
00000010: c7d0 ca3d 234b 813c 5c23 523d 6143 833d
00000020: 0ab2 613c f88d 6d3d 9643 edbb e654 7c3d
00000030: cc06 423c f6ac e439 2302 473d e232 0abc
00000040: f741 ad3d ba34 42bb 0756 973c 1f79 3aba
00000050: ea83 c4bd ac2b 93bd d5aa 27bd e04e 7abc
00000060: 8ce7 32bc ec82 553c ccd7 d7bb dca0 a9bd
00000070: c19f 5c3d 716c a3bd 758e a8bd b3fb 61bc
00000080: d09d a7bc 5c84 013d 72db 1dbd 6845 6cbd
00000090: c3e5 b23c bea9 9f3d f2ae 5dbd 84e5 6c3d
000000a0: 92a9 78bd 308c b33a c6d2 83bd 15cf 97bd
000000b0: 13e0 0e3d 0d0d 95bd c815 83bd 0132 283d
000000c0: 85ed 973c 038f de3c 1c0a dd3c d0bd 613d
000000d0: 539a d53d 66ca 7cbd 8101 4d3d 5e81 613d
000000e0: 75f5 58bd 7d31 e1bc d6f5 b0bc ee3b a33b
000000f0: d8fb 44bd 1e6a 843d 5246 24bc 8e3e 1a3d
00000100: f3e9 b4bc 51a1 803d 7e7f 57bd b4e5 8cbc
00000110: d9ee b2bd 0bff 4f3d fe81 41bd 6ae7 9fbd
00000120: d8ce 933d 0b25 813d 1734 37b9 37a8 853d
00000130: ab50 f03c f541 593d eefe d23c 4260 67bd
00000140: 63d9 863c 4b97 9abc 95d4 16bd a18a 91bd
00000150: 19f8 b1bb f032 fcbb 8dac 92bc 87e3 9bbd
00000160: 47c4 ad3d fbdd 30bd e911 9cbc 08dc d13c
00000170: 78ca cfbc 8ee2 9b3d 4fbb c43c c13d c83d
00000180: fe59 11bd eb19 cabb b496 453d c1a8 62bc
00000190: a765 de3d c609 86bc 89e3 a33d 2af8 ee3d
000001a0: 5b79 3b3d 95f9 2bbb 04a6 7a3d 267c 963d
000001b0: 5203 653d c10a 1fbc 0dc2 eebc 5249 bf3d
000001c0: ca92 b2bc 0ce2 b4bc 1617 0b3d 9d5a 033d
000001d0: e5c0 57bd 4135 3b3d 85e2 a73d d58d 253d
000001e0: 4795 db3c 1dd9 453d 156d 7bbc ad77 e5bb
000001f0: 5ed4 e5bc 6a4c 5a3d 6ffb 2abd d3f3 283c
00000200: bd45 bc3d 5956 2abd b378 b9bc 8922 953d
00000210: 0c7b 8cbd fbfd 353d 87cc 2f3c d52f 0b3b
00000220: 64a4 58bd 5c59 9e3b 284b d7bc f5d7 bbbd
00000230: fde0 b73d e270 9b3d 3b95 733d d416 833d
00000240: f59b bf3d bec1 8b3d f0fd 693b 312f a73d
00000250: fc21 a6ba 29c8 bb3d 8a86 2d3d f20d c63d
00000260: 7fc3 003d 844e 0ebd 25bb a13d ba0c 673d
00000270: c14e bcbc 0da3 933d e18e d93d c7ac 6fbd
00000280: 12b7 7e3d a553 c53c bbfa cdba f02c 3bbd
00000290: d62e fe3b c921 c2bd 930c a2bd d89e 2cbd
000002a0: 3903 533d 2e63 b53d 34b8 9e3d e1ae 5b3d
000002b0: 93b7 22bd e5ff 1a3d 7543 96bd 0489 c2bd
000002c0: bad5 693d d329 06bd 84e2 b23c d3db 32bc
000002d0: e5c9 9cbc 9cf9 c63c 0e2a 813c f9b8 90bb
000002e0: d824 d23c fe82 3cbc 464f 403c de74 8fbd
000002f0: 3175 63bc 7623 d7bd 8f78 943d a787 c4bc
00000300: 7fe3 a53b d89d 023d 7a44 4f3d 5257 5bbc
00000310: db41 a83d 340e 7c3c e9f6 5f3d 6ccd 9bbd
00000320: f7ef 6d3d bfb1 513d 7991 92bc eae2 363d
00000330: f763 97bd 598e 0ebd 0f78 153b ffe2 afbd
00000340: 0a8b c5bd 5a52 ee3c f537 70bd e1b9 d13c
00000350: 206e bbbd a900 33bd f034 b0bd 557e 21bd
00000360: 0f8a 41bd ec46 f63d d10d d83c bc53 09bd
00000370: b9b3 34bd 5955 d6bc 0288 b33d 89bc fb3c
00000380: a033 8a3d 1afa a2bd ac90 cbbc 2e9b 7c3c
00000390: e2a1 063b 3336 3bbd 7d2d 3f3d 8895 27bc
000003a0: 0504 ae3c cbcc bfbc c587 5b3d da01 dabc
000003b0: 82c1 76bd 1ff8 5cbc bd3e 0e3c 9487 62bd
000003c0: 251d 6fbc 3c5e 143c d54e b8b9 bdb1 a63d
000003d0: b358 183d 2ade b53a 3203 cd3d fe83 f43d
000003e0: 7808 b83d b7eb 39bd 6840 933d ab74 61bc
000003f0: 56a5 b53d 42dd 01bd 4b83 903c af3e 193d

decoder.2.bias f4 [16]
0.065186955 0.118861206 -0.009040142 0.04112503 -0.088669926 -0.089578725 0.03992061 -0.05323995
0.10619076 0.0003026314 -0.0008800423 0.06549813 0.054277193 0.07091312 0.027390916 0.013559029
00000000: bd80 853d 816d f33d 1b1d 14bc b872 283d
00000010: 9498 b5bd 0d75 b7bd cb83 233d 2212 5abd
00000020: 8b7a d93d 80aa 9e39 a4b2 66ba e223 863d
00000030: c351 5e3d e63a 913d ea62 e03c b126 5e3c

decoder.4.weight f4 [16, 3, 3, 3]
0.15759416 -0.14055695 0.03985054 -0.017787272 0.09089222 -0.23945469 -0.19184543 0.05916284
-0.18268041 0.13516949 0.11589357 0.058656797 -0.029997183 -0.1455051 -0.01448835 0.14793178
-0.14313053 -0.008624107 -0.011399658 0.08168182 -0.00302075 -0.047567576 -0.20202798 -0.22549637
-0.10175385 -0.22438411 -0.13525084 0.09893185 0.13287298 -0.039076116 -0.23672967 -0.19094607
-0.18082032 -0.12466812 -0.1864485 0.0142000895 0.040756743 -0.15028392 -0.0055703255 0.08877379
-0.21597007 -0.1661631 -0.22084425 -0.17337926 0.11494302 -0.116997436 -0.16192392 0.12588118
-0.08228124 0.06578857 0.110736 -0.09952871 -0.124603465 0.14917077 -0.0033172178 -0.3122299
-0.15939495 -0.13045879 -0.28537568 -0.18141782 0.014173788 -0.31395024 -0.3046411 -0.024856742
-0.13907148 -0.023302455 -0.22659986 -0.0611892 -0.047744416 -0.02377041 -0.18644792 -0.045022387
-0.014305779 0.0055703423 -0.092806585 -0.07012911 -0.019920433 -0.1085055 -0.047164813 -0.0024125408
-0.13267909 -0.007590181 0.16397381 -0.099027716 -0.19136325 -0.023000127 -0.20090517 0.08216264
0.10268659 0.12965766 -0.062443167 0.07036903 0.09998525 0.08354429 0.11505007 0.12665068
-0.026119782 0.085509695 0.020063302 -0.09066129 -0.12802404 -0.08367809 -0.04661782 -0.12919325
-0.028677827 -0.16746362 -0.14917952 0.06484573 -0.1254127 0.010380045 -0.17912583 0.13368404
0.11053767 -0.2087949 0.17410396 -0.07304261 -0.16629156 0.13217637 0.0775605 -0.20074408
-0.17239262 0.110848 0.1628495 0.12687671 0.070698075 -0.03348292 0.2045242 0.13697001
0.14889227 0.09941445 -0.13925482 -0.023913193 -0.16357167 -0.0002393045 -0.07754267 0.042952757
0.06855667 0.08977686 0.11563392 0.09498289 0.12385791 0.108504936 0.035159554 0.03404663
-0.035821382 0.05938375 0.018876512 -0.09669009 -0.17496821 0.042450085 0.12566364 -0.16290185
-0.15143417 0.21534485 -0.04506653 0.2299066 -0.017765772 -0.06915638 -0.10155986 -0.015809566
-0.064615995 -0.08866022 0.01341703 -0.16485389 -0.07917994 0.06975218 -0.0907011 -0.21796483
-0.011005108 -0.15836862 -0.15567215 0.1373184 -0.15267798 0.037919868 0.04872741 -0.085236356
-0.06280675 0.11949527 0.03530069 -0.1877168 0.012003552 0.1121278 -0.1670625 0.06055919
-0.02839697 -0.026364997 0.037543695 0.018199729 -0.13752103 -0.11668305 0.027136702 0.083956264
-0.03907304 0.07585966 0.16081521 -0.12921387 -0.15377337 0.071803726 0.04840861 -0.19762588
0.08830994 0.010127849 -0.08085966 0.13148676 0.16622514 -0.003999342 -0.028375132 -0.15931202
-0.13253658 0.08584853 0.09188984 -0.10178719 -0.09995205 0.07088468 0.07702698 -0.13567431
-0.016379269 -0.051200792 -0.13248181 -0.10378788 -0.008057818 0.01934784 -0.09223687 -0.1070045
-0.12176015 -0.1980275 0.026386434 -0.13475579 0.038392555 0.057730876 0.053470608 -0.12292414
0.08539016 -0.08993564 0.041799095 0.043975357 0.05324686 0.02271807 -0.052043155 -0.10454378
-0.008360506 0.09699408 -0.12885858 0.01282734 -0.06735615 -0.1531626 -0.10854476 -0.09460047
-0.19452515 0.06205614 0.025248034 0.1409547 0.0077436203 0.09471837 0.089815766 0.08126138
00000000: 5d60 213e 29ee 0fbe 523a 233d 9db6 91bc
00000010: b325 ba3d 9c33 75be 2173 44be bc54 723d
00000020: 9310 3bbe df69 0a3e 9c59 ed3d 1c42 703d
00000030: a7bc f5bc 4aff 14be 8b60 6dbc 6e7b 173e
00000040: cf90 12be 204c 0dbc a2c5 3abc cc48 a73d
00000050: c6f7 45bb 38d6 42bd 6ce0 4ebe 85e8 66be
00000060: 5364 d0bd f3c4 65be 327f 0abe c89c ca3d
00000070: db0f 083e 470e 20bd 4369 72be 5e87 43be
00000080: f628 39be 0052 ffbd 5bec 3ebe 7ea7 683c
00000090: 8bf0 263d 07e4 19be 4787 b6bb 08cf b53d
000000a0: 4227 5dbe a926 2abe ff24 62be 558a 31be
000000b0: 3f67 eb3d 5a9c efbd 62cf 25be ffe6 003e
000000c0: 1183 a8bd 28bc 863d 8ec9 e23d b5d5 cbbd
000000d0: 1a30 ffbd 39c0 183e ae65 59bb 99dc 9fbe
000000e0: 6e38 23be fd96 05be c31c 92be 98c5 39be
000000f0: 2d39 683c 16be a0be ebf9 9bbe 5ea0 cbbc
00000100: c168 0ebe cae4 bebc cb09 68be 87a1 7abd
00000110: a68f 43bd 2aba c2bc 34ec 3ebe 6569 38bd
00000120: c962 6abc 6b87 b63b 6111 bebd da9f 8fbd
00000130: 2d30 a3bc 2238 debd e42f 41bd b81b 1ebb
00000140: 07dd 07be 0eb7 f8bb c0e8 273e 0bcf cabd
00000150: baf4 43be c36a bcbc 16ba 4dbe e344 a83d
00000160: 594d d23d fac4 043e 68c4 7fbd a31d 903d
00000170: 11c5 cc3d 4519 ab3d 5f9f eb3d b7b0 013e
00000180: 27f9 d5bc b51f af3d cb5b a43c a0ac b9bd
00000190: bc18 03be 6b5f abbd 54f2 3ebd 3c4b 04be
000001a0: c3ed eabc 957b 2bbe 84c2 18be d7cd 843d
000001b0: 306c 00be 1011 2a3c c36c 37be 78e4 083e
000001c0: 9361 e23d 55ce 55be 4f48 323e 5d97 95bd
000001d0: 5648 2abe 3e59 073e 0ad8 9e3d db8f 4dbe
000001e0: b187 30be 4704 e33d 05c2 263e f8eb 013e
000001f0: 27ca 903d 6325 09bd cb6e 513e de41 0c3e
00000200: 3777 183e ce99 cb3d d198 0ebe 9ae5 c3bc
00000210: 557f 27be d0ed 7ab9 b1ce 9ebd 3bef 2f3d
00000220: 7067 8c3d eedc b73d 7ad1 ec3d 6486 c23d
00000230: 37a9 fd3d d637 de3d 7703 103d 7b74 0b3d
00000240: 71b9 12bd 603c 733d eaa2 9a3c 7405 c6bd
00000250: de2a 33be 24e0 2d3d f8ad 003e becf 26be
00000260: 8f11 1bbe 5c83 5c3e af97 38bd a36c 6b3e
00000270: 8689 91bc dca1 8dbd 9efe cfbd 1083 81bc
00000280: 6455 84bd 7d93 b5bd 1ad3 5b3c 75cf 28be
00000290: 1829 a2bd 3bda 8e3d 80c1 b9bd 2c32 5fbe
000002a0: c54e 34bc 622b 22be 8568 1fbe 329d 0c3e
000002b0: 9e57 1cbe dd51 1b3d 6596 473d 6690 aebd
000002c0: d3a0 80bd f0b9 f43d 7597 103d d538 40be
000002d0: 8caa 443c 43a3 e53d 6f12 2bbe ea0c 783d
000002e0: c3a0 e8bc 68fb d7bc 6bc7 193d 9917 953c
000002f0: 50d2 0cbe 86f7 eebd ca4d de3c 43f1 ab3d
00000300: 0d0b 20bd 4f5c 9b3d beac 243e a450 04be
00000310: c476 1dbe d50d 933d 1b48 463d 705e 4abe
00000320: d8db b43d 47ef 253c c099 a5bd 77a4 063e
00000330: ec36 2a3e ea0c 83bb f772 e8bc b122 23be
00000340: abb7 07be 5bd1 af3d be30 bc3d cd75 d0bd
00000350: a9b3 ccbd fd2b 913d 52c0 9d3d 35ee 0abe
00000360: d12d 86bc ecb7 51bd 50a9 07be bd8e d4bd
00000370: f004 04bc 5d7f 9e3c afe6 bcbd 2d25 dbbd
00000380: 635d f9bd b9c7 4abe 5d28 d83c 6cfd 09be
00000390: 8341 1d3d 3677 6c3d ff03 5b3d a7bf fbbd
000003a0: 09e1 ae3d 2d30 b8bd 8735 2b3d 811f 343d
000003b0: 6119 5a3d 3f1b ba3c 342b 55bd 0d1b d6bd
000003c0: 81fa 08bc d5a4 c63d 81f3 03be c329 523c
000003d0: 05f2 89bd a8d6 1cbe b74c debd e4bd c1bd
000003e0: 9a31 47be 942e 7e3d f7d4 ce3c 6e56 103e
000003f0: 32be fd3b b4fb c13d 54f1 b73d 5e6c a63d

decoder.4.bias f4 [3]
-0.14792891 0.13337956 -0.12828408
00000000: ad7a 17be a794 083e e75c 03be
