pipe_fryum_autoencoder.pth (torch, 193250 bytes, 12 tensors)

encoder.0.weight f4 [16, 3, 3, 3]
-0.0016499633 0.007421208 0.12345462 0.035463132 0.059269074 0.05237433 0.024303254 0.14149742
-0.14375666 0.11785059 -0.12759231 0.049560174 0.17880754 -0.07086103 -0.078774355 0.20010382
-0.14824049 0.1368811 0.04836484 -0.08328359 0.015798094 0.21323241 0.16734044 0.06987401
0.05796799 -0.11223834 -0.016392095 -0.050317466 -0.18335678 -0.10963884 -0.09539343 -0.10508723
-0.11288415 -0.055218413 -0.18849155 -0.111817285 0.009864733 0.002591595 0.17903762 0.16605686
0.15628903 0.06507261 0.10675235 0.15845062 -0.1557791 -0.060414255 0.164793 -0.113700785
-0.10971762 0.11891265 0.011869833 0.08231132 0.09896056 0.15477024 -0.008422492 0.1529759
0.19649035 0.073299885 0.021695057 0.18172945 0.09817038 -0.017319439 -0.10238925 0.16735585
0.024209745 0.08093288 -0.022898614 -0.03485647 0.18703131 -0.09517484 0.022478908 0.017937912
-0.14398448 -0.04458996 0.011833645 0.18476987 -0.12719119 -0.019165982 -0.044316135 0.204689
0.09885722 0.21466488 0.025045162 -0.032567594 -0.14452492 -0.11802516 0.0947488 0.10731203
-0.09842816 -0.0028940288 -0.08997399 0.22022404 0.08135203 0.018291013 -0.043301452 0.18073174
0.117875345 -0.14248748 -0.050917633 0.19859241 0.2203966 -0.00026503365 -0.031754054 -0.0037333702
-0.0724134 0.08937868 0.07547919 0.037741423 0.14376067 0.10166354 -0.03725702 0.069828875
-0.12416689 -0.08183115 0.15366381 0.059358936 0.17843515 -0.020691408 0.04913477 -0.1432058
0.14368725 0.046073813 0.15219322 0.2022527 -0.04055688 0.15886512 -0.052128766 0.13676919
0.23238494 0.10397869 0.07462112 -0.114163056 0.17175663 0.036045417 -0.14939319 0.12694624
-0.07545092 0.09867514 0.2040555 0.113134116 -0.122424826 -0.018370498 0.016097674 0.08522149
-0.014981488 -0.014268846 -0.097636215 0.099842064 -0.13343774 0.17081903 0.08271703 0.023433045
0.058692113 -0.059851818 0.004276966 -0.08038157 -0.028671144 -0.058955546 0.22815706 0.21874772
0.13893019 0.23191908 -0.15986732 -0.03231728 0.062339768 -0.117957115 -0.16379179 -0.18906876
0.029288784 -0.021376878 -0.05908297 0.015201494 -0.018988684 -0.098723225 0.14542966 -0.1094108
-0.06879115 0.053650483 0.09245746 -0.070295006 -0.17266917 -0.113332175 -0.02005741 0.15197466
0.035926282 -0.08174466 -0.04107745 -0.12806544 -0.027310863 -0.050198004 -0.07393671 -0.054181386
-0.049989644 -0.080817215 0.054706935 0.021950185 -0.13300061 -0.051632375 0.14518863 0.18958342
-0.13544522 -0.14382507 0.09434179 -0.016642261 0.06918527 0.17299378 0.014758819 0.026537705
0.05821078 0.12921555 0.10553954 -0.13613868 -0.060764145 0.12161263 0.051215604 0.106341064
0.0096033765 0.15451203 -0.11804918 0.1618987 -0.035646364 -0.066398434 0.06671934 0.17770192
-0.12848993 -0.029934984 -0.09110337 -0.08341395 0.21160729 0.043190874 0.1899439 -0.005667617
-0.08075815 -0.016546233 0.15683831 0.14730717 0.17674232 -0.019898267 0.15576176 0.20582175
0.13950089 -0.075234644 -0.13393791 0.05771682 -0.081428476 -0.018669158 -0.06274074 -0.11282902
0.19227757 -0.14008452 0.19134933 0.07510453 -0.0019336126 0.15369332 -0.11922595 -0.07422984
00000000: 9543 d8ba 9b2d f33b c7d5 fc3d ca41 113d
00000010: 21c4 723d 7786 563d 9e17 c73c b3e4 103e
00000020: f234 13be a65b f13d 8fa7 02be 9cff 4a3d
00000030: 5319 373e 961f 91bd 7354 a1bd 04e8 4c3e
00000040: 5bcc 17be 8f2a 0c3e 361a 463d 9690 aabd
00000050: 016b 813c 9959 5a3e 4b5b 2b3e 1b1a 8f3d
00000060: d86f 6d3d 37dd e5bd b748 86bc b019 4ebd
00000070: e1c1 3bbe 548a e0bd a15d c3bd f937 d7bd
00000080: ce2f e7bd b42c 62bd ee03 41be 7600 e5bd
00000090: b09f 213c c0d7 293b a355 373e cf0a 2a3e
000000a0: 3b0a 203e ca44 853d faa0 da3d e140 223e
000000b0: 8e84 1fbe f074 77bd 7fbf 283e f5db e8bd
000000c0: a2b3 e0bd 7a88 f33d b079 423c d692 a83d
000000d0: d6ab ca3d 177c 1e3e 7efe 09bc b7a5 1c3e
000000e0: c434 493e 401e 963d d5b9 b13c 4917 3a3e
000000f0: 8d0d c93d 7fe1 8dbc 75b1 d1bd 555f 2b3e
00000100: 8453 c63c 23c0 a53d e095 bbbc a8c5 0ebd
00000110: 2385 3f3e 07eb c2bd b025 b83c 87f2 923c
00000120: ab70 13be f6a3 36bd e8e1 413c 5034 3d3e
00000130: 683e 02be fa01 9dbc d684 35bd fe99 513e
00000140: a775 ca3d 1cd1 5b3e 832b cd3c 9965 05bd
00000150: 57fe 13be 2db7 f1bd a90b c23d 69c6 db3d
00000160: b494 c9bd bfa9 3dbb 4944 b8bd 6982 613e
00000170: e59b a63d 09d7 953c dd5c 31bd be11 393e
00000180: a168 f13d 3de8 11be 028f 50bd cf5b 4b3e
00000190: a5af 613e 37f4 8ab9 8a10 02bd 8fab 74bb
000001a0: 7a4d 94bd 2b0c b73d d594 9a3d c096 1a3d
000001b0: ff35 133e f934 d03d d19a 18bd 7102 8f3d
000001c0: 364b febd 1797 a7bd 0c5a 1d3e 5b22 733d
000001d0: b4b7 363e 0781 a9bc 8a41 493d 8ba4 12be
000001e0: c022 133e e5b7 3c3d 8ad8 1b3e 551b 4f3e
000001f0: f91e 26bd 8aad 223e f984 55bd 390d 0c3e
00000200: 51f6 6d3e c8f2 d43d f5d2 983d 52ce e9bd
00000210: f8e0 2f3e 5ca4 133d 87fa 18be 32fe 013e
00000220: 0386 9abd 3116 ca3d edf3 503e dcb2 e73d
00000230: deb9 fabd ba7d 96bc 45df 833c 9b88 ae3d
00000240: ea74 75bc e1c7 69bc 7ff5 c7bd ff79 cc3d
00000250: e7a3 08be 2feb 2e3e 8c67 a93d a8f6 bf3c
00000260: 2467 703d 2e27 75bd cb25 8c3b 189f a4bd
00000270: bfdf eabc 5f7b 71bd 01a2 693e 67ff 5f3e
00000280: b743 0e3e 327c 6d3e 42b4 23be 205f 04bd
00000290: fc57 7f3d 8093 f1bd 09b9 27be 3e9b 41be
000002a0: 08ef ef3c 901e afbc fc00 72bd b00f 793c
000002b0: 288e 9bbc 672f cabd 83eb 143e c512 e0bd
000002c0: 60e2 8cbd 9cc0 5b3d 565a bd3d d4f6 8fbd
000002d0: 30d0 30be b31a e8bd 704f a4bc 3f9f 1b3e
000002e0: 7027 133d bf69 a7bd d440 28bd 9623 03be
000002f0: 08bb dfbc 6c9c 4dbd 216c 97bd 4ded 5dbd
00000300: f1c1 4cbd 7f83 a5bd 6114 603d e0d0 b33c
00000310: 5031 08be 787c 53bd 54ac 143e 2822 423e
00000320: 27b2 0abe e146 13be 4536 c13d 5a55 88bc
00000330: 02b1 8d3d 4825 313e f9ce 713c 9a65 d93c
00000340: 6d6e 6e3d 1551 043e 1d25 d83d f067 0bbe
00000350: d3e3 78bd 0b10 f93d 74c7 513d 58c9 d93d
00000360: 7b57 1d3c 6738 1e3e c5c3 f1bd c6c8 253e
00000370: ec01 12bd e7fb 87bd 26a4 883d 7ef7 353e
00000380: dd92 03be 363a f5bc 6794 babd efd4 aabd
00000390: 95af 583e eae8 303d a780 423e 6bb7 b9bb
000003a0: 8764 a5bd f78b 87bc 399a 203e b1d7 163e
000003b0: f0fb 343e b101 a3bc 0380 1f3e f0c2 523e
000003c0: 52d9 0e3e 9f14 9abd 0527 09be 7968 6c3d
000003d0: f9c3 a6bd 10f0 98bc 387e 80bd e712 e7bd
000003e0: 69e4 443e 5172 0fbe 14f1 433e 67d0 993d
000003f0: 4671 fdba c861 1d3e bc2c f4bd d005 98bd

encoder.0.bias f4 [16]
0.07512185 -0.13883528 0.22261523 0.022298722 0.07462044 0.0815847 -0.021626994 0.141438
0.09123692 0.1322985 -0.02937101 0.07807794 0.20392513 -0.1599825 -0.07902702 0.09913
00000000: 7cd9 993d d62a 0ebe 3ff5 633e cfab b63c
00000010: 9ad2 983d e115 a73d 182b b1bc 20d5 103e
00000020: 6cda ba3d 4279 073e 799b f0bc 54e7 9f3d
00000030: c0d1 503e 74d2 23be ebd8 a1bd ab04 cb3d

encoder.2.weight f4 [32, 16, 3, 3]
-0.040747374 0.08481592 0.018461308 0.12325518 -0.0024348048 0.036640458 0.053303674 0.0987539
0.006772172 0.049275957 -0.06869727 0.03240323 0.062405057 -0.07323153 -0.034861475 0.06314341
-0.02041357 -0.071907006 0.0076904376 0.08222063 0.024387537 -0.015173552 0.055427384 -0.015282377
0.071934976 0.080576204 0.11310148 0.11466149 0.093866415 -0.02323745 -0.0063650133 0.011735285
0.062478736 0.11749376 0.04401477 0.09926322 0.014382662 -0.009578792 0.034217946 0.09817039
0.0056564757 0.11304361 0.07013561 0.06606343 -0.014709811 0.08969293 0.060000617 -0.0059646927
0.056197394 0.115769826 0.12180162 0.060601525 -0.0055660396 0.076886564 -0.013680212 -0.07161119
-0.06734245 0.08122719 -0.05740425 0.065482564 -0.047248833 0.030639537 -0.050957948 -0.0008610844
0.088681564 0.030775104 0.12006277 0.013142974 0.035802267 0.09917782 0.03278485 0.11678777
0.10879264 0.09383048 -0.037597585 0.112413645 0.095485255 -0.039302602 -0.002380549 0.12362255
-0.012732935 0.08795495 0.004575787 0.103877336 0.115893394 0.03198985 0.084921755 -0.020638268
0.08586632 0.11008414 -0.064867385 0.066152975 -0.046421364 -0.0039683557 -0.028714119 0.078240216
0.049587417 0.042102534 -0.056840282 0.05077971 0.02511849 -0.0062180897 -0.01928625 0.046419486
0.04328308 0.027374925 0.043262567 0.12127889 0.0011995342 -0.009060105 -0.018758742 0.06220515
0.038984276 0.04214779 0.02438495 -0.021711407 -0.014832096 -0.007231742 0.07650458 -0.019283108
-0.003929399 -0.067242175 -0.013786882 -0.02989497 -0.031883817 0.06904823 0.023754574 0.07596401
0.05191613 -0.030168496 0.000470303 -0.011570789 0.061461456 -0.04840955 0.06298163 -0.032504052
0.092508584 -0.01770717 -0.0070218937 -0.041336767 0.115639515 0.031800527 0.11374347 0.10917417
0.12028024 -0.00029736353 0.038406648 0.037560295 -0.013028081 0.117409855 0.11391046 0.02117698
0.0138962045 -0.050721966 -0.01661694 -0.003082484 0.055972435 -0.08156457 0.033763915 0.0765833
-0.013369136 0.060133673 0.023237968 0.09862658 0.08738223 0.1167551 0.018645536 0.02914733
0.034959417 0.11300072 0.10399852 0.09748905 0.08287768 0.007946391 0.03413898 -0.026855415
0.12021342 0.116974816 0.08004132 0.03715362 -0.030874599 0.10496641 0.08393974 0.08200812
0.10639871 0.028527752 -0.042579953 -0.02547355 -0.008934004 0.08674584 0.04092193 0.109508686
-0.0134840775 0.04228811 0.06817466 0.0031783313 0.043421056 -0.014961602 -0.02301104 0.0504309
-0.070447855 -0.015412204 -0.023073643 -0.03466646 -0.073685855 -0.036542498 0.078729965 0.04029704
0.026390156 -0.033294093 0.06599001 0.010353287 0.11947166 0.09424575 -0.0054112417 -0.038253456
-0.0317624 -0.001689178 -0.033373553 0.10336965 0.094784215 0.02473153 0.12116404 -0.008455192
0.10630019 -0.030770449 -0.035488605 0.0400764 0.046622425 0.04657804 0.07716417 0.100556955
0.035832524 0.023620503 0.048591368 0.007287849 0.042759273 -0.0629574 0.07478163 -0.070569806
-0.06481997 0.00072668993 0.016462263 0.06607226 0.050386544 -0.018866394 -0.021725109 -0.0027856363
0.06269505 0.109631844 -0.04174216 0.019766629 0.0543701 0.119559444 0.116699256 0.11944946
00000000: b8e6 26bd f8b3 ad3d 2b3c 973c 366d fc3d
00000010: 3f91 1fbb 4e14 163d f454 5a3d 7c3f ca3d
00000020: 19e9 dd3b 96d5 493d 27b1 8cbd 40b9 043d
00000030: 729c 7f3d 6afa 95bd e8ca 0ebd 5551 813d
00000040: 5c3a a7bc fb43 93bd 1100 fc3b 4a63 a83d
00000050: 5fc8 c73c 7d9a 78bc d307 633d ef62 7abc
00000060: a552 933d 2305 a53d c0a1 e73d a5d3 ea3d
00000070: 093d c03d 775c bebc 9a91 d0bb 5a45 403c
00000080: b4e9 7f3d 92a0 f03d d548 343d 844a cb3d
00000090: 42a5 6b3c 5ef0 1cbc 1e28 0c3d 8f0d c93d
000000a0: f559 b93b 6883 e73d 42a3 8f3d 434c 873d
000000b0: 6b01 71bc edb0 b73d 35c3 753d 7873 c3bb
000000c0: 3d2f 663d bb18 ed3d 2173 f93d 4e39 783d
000000d0: 5363 b6bb b476 9d3d f822 60bc e3a8 92bd
000000e0: d7ea 89bd 715a a63d b820 6bbd b91b 863d
000000f0: fe87 41bd c4ff fa3c 48b9 50bd 65ba 61ba
00000100: ae9e b53d 121c fc3c 78e3 f53d a155 573c
00000110: 66a5 123d be1d cb3d 6849 063d 6d2e ef3d
00000120: adce de3d 322a c03d edff 19bd 2039 e63d
00000130: c68d c33d c4fb 20bd fc02 1cbb d22d fd3d
00000140: cd9d 50bc ba21 b43d 7cf0 953b a4bd d43d
00000150: 8459 ed3d ca07 033d 75eb ad3d 9611 a9bc
00000160: aeda af3d cb73 e13d 31d9 84bd 367b 873d
00000170: 5424 3ebd fb08 82bb df39 ebbc 683c a03d
00000180: 2d1c 4b3d b573 2c3d 5bd1 68bd 63fe 4f3d
00000190: 4bc5 cd3c 1ec1 cbbb 33fe 9dbc 5c22 3e3d
000001a0: 9949 313d 6141 e03c 1734 313d 1161 f83d
000001b0: b039 9d3a d670 14bc efab 99bc d4ca 7e3d
000001c0: faad 1f3d 29a3 2c3d f2c2 c73c 1fdc b1bc
000001d0: 5202 73bc 40f8 ecbb 6fae 9c3d 9cf7 9dbc
000001e0: 30c2 80bb 44b6 89bd 60e2 61bc 4ce6 f4bc
000001f0: 9b98 02bd 2969 8d3d f498 c23c 0593 9b3d
00000200: 02a6 543d ec23 f7bc 0093 f639 6893 3dbc
00000210: 02bf 7b3d 1849 46bd 83fc 803d f822 05bd
00000220: 2475 bd3d a10e 91bc ea17 e6bb be50 29bd
00000230: 69d4 ec3d 4541 023d 56f2 e83d b596 df3d
00000240: 7d55 f63d 75e7 9bb9 4a50 1d3d d3d8 193d
00000250: bb73 55bc 9474 f03d e349 e93d 597b ad3c
00000260: e8ac 633c d6c1 4fbd 4020 88bc 8003 4abb
00000270: 5a43 653d 530b a7bd 084c 0a3d b5d7 9c3d
00000280: 380a 5bbc ba4e 763d 8d5d be3c bbfc c93d
00000290: 74f5 b23d 4c1d ef3d 86be 983c 62c6 ee3c
000002a0: 9b31 0f3d ec6c e73d 2dfd d43d 57a8 c73d
000002b0: c6bb a93d 9431 023c 51d5 0b3d e3ff dbbc
000002c0: 7432 f63d 7e90 ef3d b4ec a33d 652e 183d
000002d0: baec fcbc a1f8 d63d 99e8 ab3d e0f3 a73d
000002e0: 91e7 d93d 08b3 e93c 5168 2ebd e8ad d0bc
000002f0: ee5f 12bc cea7 b13d c19d 273d 1746 e03d
00000300: 52ec 5cbc 4c36 2d3d 289f 8b3d 8d4b 503b
00000310: 47da 313d 8221 75bc a681 bcbc a290 4e3d
00000320: f746 90bd 7883 7cbc f004 bdbc 6bfe 0dbd
00000330: 9ce8 96bd 96ad 15bd 2d3d a13d 820e 253d
00000340: 2b30 d83c 635f 08bd c525 873d d5a0 293c
00000350: 8fad f43d ea03 c13d c950 b1bb a8af 1cbd
00000360: 4a19 02bd 6967 ddba b5b2 08bd 78b3 d33d
00000370: 3a1e c23d c799 ca3c da24 f83d a587 0abc
00000380: eab3 d93d 4f12 fcbc 805c 11bd 2727 243d
00000390: 28f7 3e3d 9dc8 3e3d 4008 9e3d cef0 cd3d
000003a0: 20c5 123d c97f c13c be07 473d e9ce ee3b
000003b0: 5924 2f3d cfef 80bd 1c27 993d e786 90bd
000003c0: 55c0 84bd 567f 3e3a dedb 863c e550 873d
000003d0: 1f62 4e3d b28d 9abc dbf8 b1bc 398f 36bb
000003e0: 4366 803d a986 e03d d4f9 2abd a0ed a13c
000003f0: 2fb3 5e3d 95db f43d 0500 ef3d eba1 f43d

encoder.2.bias f4 [32]
0.081694044 -0.032865107 0.11272058 -0.017901493 0.08399971 0.1120516 0.10138486 0.0563209
0.11313134 -0.033003457 0.10947268 -0.002685514 -0.0025978854 -0.037906557 -0.061272837 -0.013399749
0.019289166 -0.07949193 -0.083172426 -0.056059085 0.07683042 0.10611746 0.07741162 0.009489158
0.044823956 0.058065515 -0.021678073 0.12083688 -0.038193353 -0.036815558 0.04055383 0.07247364
00000000: 354f a73d 909d 06bd 0cda e63d 27a6 92bc
00000010: 0a08 ac3d 4f7b e53d dea2 cf3d beb0 663d
00000020: 67b1 e73d a22e 07bd 3633 e03d 73ff 2fbb
00000030: 4941 2abb e843 1bbd 3af9 7abd 9f8a 5bbc
00000040: 5004 9e3c aacc a2bd 4e56 aabd 369e 65bd
00000050: 4459 9d3d 1c54 d93d fc89 9e3d 6a78 1b3c
00000060: 5399 373d 1bd6 6d3d 3796 b1bc 5379 f73d
00000070: a270 1cbd e9cb 16bd c61b 263d 0f6d 943d

encoder.4.weight f4 [64, 32, 3, 3]
-0.028529638 0.0138358455 -0.06391561 -0.06316678 0.014963522 0.027628347 0.009303979 -0.01756987
-0.05543335 0.016002443 0.03872996 0.0415884 0.022951651 -0.0023415824 -0.044442806 -0.007647485
-0.0005863748 -0.0454712 0.0070673926 -0.045296784 0.009680919 -0.009962376 0.0554699 -0.019857707
-0.03949906 0.05560708 -0.032573696 0.008365829 0.016680438 -0.039696857 0.034313705 -0.02781019
-0.0010502842 -0.009702396 -0.031454094 0.023164082 -0.042459704 0.037302114 0.05010978 0.03687553
0.03686543 -0.03918068 0.014403526 -0.020719815 -0.029239183 0.025025584 -0.03959409 0.03939634
-0.03717615 -0.0013400861 -0.017653253 -0.0093130525 0.052999694 0.044986714 0.014913899 -0.020433202
-0.015623177 0.059475664 0.023817366 0.035430428 0.017164556 0.043782037 0.025714321 -0.04802897
0.02711348 -0.051290486 0.010280954 -0.06001096 -0.054450598 -0.023543267 0.053338487 -0.049913105
0.026810162 -0.013124958 -0.0393062 -0.011938425 -0.014836357 -0.019238507 0.01870822 -0.021038285
-0.028663594 -0.019007228 0.029685095 -0.0059476774 -0.0011187269 -0.021566814 -0.024766536 -0.008277062
0.012576783 0.00069069606 0.05134699 0.026855074 0.007461866 0.0068422323 -0.03139059 -0.034886483
0.044959992 -0.05326481 -0.06004647 -0.024046574 -0.05755784 -0.010246447 0.039542302 -0.0413421
-0.056343533 0.044621564 0.04003315 0.004982731 -0.0031036555 0.03078428 0.048515167 -0.06409567
0.0022795575 -0.029631298 0.039744236 0.036059063 0.013678572 -0.05047614 -0.050944142 0.041075725
-0.008917366 -0.04006615 0.03294414 -0.015427901 0.039472576 0.043731745 -0.056089755 0.0069893044
0.04038591 -0.010222459 0.05597775 -0.0140673295 0.057310276 0.032698475 0.010280192 0.030483063
0.012280815 0.0064749876 -0.04524314 0.034463074 -0.037866544 0.01844026 0.04640336 0.0038900275
0.0057287673 0.013720162 -0.044444628 -0.018181818 0.023421222 0.05251834 0.020588715 0.049429767
-0.048522193 0.05368037 0.0077440324 0.017025786 -0.042891797 -0.0027268867 0.020606546 -0.021766618
0.022000628 0.046009004 -0.04429942 0.056479976 -0.022679621 0.037013054 0.05385084 -0.04519119
0.053229894 -0.0077660005 -0.05624372 -0.04099512 0.02803174 0.045685347 0.0008723065 0.008109193
0.033178423 0.043211248 -0.0001450628 0.030195836 0.015389984 -0.058699667 -0.024257107 -0.049964704
0.054686718 0.022374893 -0.011083096 -0.017744852 -0.005992947 -0.013827131 0.003235337 -0.01101995
0.0062658004 -0.050782997 0.017752018 -0.05919474 -0.020823626 0.0010058077 -0.031301126 0.03591064
0.023389412 0.053088702 -0.017602626 -0.033778302 0.05015567 0.01867921 -0.056503166 0.026026238
0.020684168 0.018935824 0.0352072 0.027347336 -0.01836996 -0.034937687 0.05883033 0.037587818
-0.019617675 -0.055462793 -0.035444736 -0.025244813 -0.000554653 -0.0069616456 0.053211767 0.008259085
-0.063181356 -0.052571557 0.03317001 0.004033099 0.03032964 -0.02905715 -0.022103868 0.019831033
-0.03988192 -0.034204736 0.049080472 -0.051461745 0.051401995 -8.405348e-05 0.0393579 0.016522305
0.026359614 -0.024303855 -7.915255e-05 0.015495862 -0.053220082 -0.02490457 -0.025881818 -0.022555096
0.021598216 0.027445521 -0.03255451 -0.00076570804 0.031395916 0.03864656 0.026699767 -0.047780134
00000000: fdb6 e9bc beaf 623c 30e6 82bd 965d 81bd
00000010: 8f29 753c d854 e23c b76f 183c b0ee 8fbc
00000020: 150e 63bd 8e17 833c 4ea3 1e3d 9958 2a3d
00000030: 1a05 bc3c 3c75 19bb a909 36bd c197 fabb
00000040: f2b6 19ba 0240 3abd 9695 e73b 1f89 39bd
00000050: b89c 1e3c 3c39 23bc 6834 633d a1ac a2bc
00000060: c4c9 21bd 40c4 633d ff6b 05bd d410 093c
00000070: 6aa5 883c 2c99 22bd 878c 0c3d 32d2 e3bc
00000080: b1a9 89ba ccf6 1ebc 02d6 00bd 9ac2 bd3c
00000090: 3aea 2dbd 1aca 183d ea3f 4d3d cc0a 173d
000000a0: 3500 173d ec7b 20bd c4fc 6b3c 9abc a9bc
000000b0: 0387 efbc 7402 cd3c 6a2d 22bd 0e5e 213d
000000c0: 0546 18bd d4a5 afba 8e9d 90bc c695 18bc
000000d0: 3516 593d fd43 383d 6d59 743c 8863 a7bc
000000e0: 5bf8 7fbc c19c 733d a31c c33c 7f1f 113d
000000f0: af9c 8c3c cb54 333d d7a6 d23c 06ba 44bd
00000100: 171d de3c f915 52bd 7271 283c 0dce 75bd
00000110: 9707 5fbd cfdd c0bc 7579 5a3d af71 4cbd
00000120: fca0 db3c 100a 57bc 8aff 20bd 6299 43bc
00000130: 3114 73bc 139a 9dbc fb41 993c 7b58 acbc
00000140: eacf eabc 0cb5 9bbc 282e f33c bce4 c2bb
00000150: 3fa2 92ba e3ac b0bc 31e3 cabc 849c 07bc
00000160: da0e 4e3c d40f 353a 3951 523d 2cff db3c
00000170: ab82 f43b ce34 e03b 6b93 00bd 21e5 0ebd
00000180: f827 383d 342c 5abd 4af3 75bd 52fd c4bc
00000190: c5c1 6bbd b7e0 27bc 1cf7 213d 5556 29bd
000001a0: 7ac8 66bd 1ac5 363d cdf9 233d 2d46 a33b
000001b0: b366 4bbb 502f fc3c d7b7 463d 9744 83bd
000001c0: a164 153b 56bd f2bc daca 223d abb2 133d
000001d0: 171c 603c 12c0 4ebd ceaa 50bd 053f 283d
000001e0: 251a 12bc 671c 24bd 6ff0 063d 4fc5 7cbc
000001f0: ffad 213d 0f20 333d 5fbe 65bd 8906 e53b
00000200: b26b 253d 1a7c 27bc ed48 653d a87a 66bc
00000210: 2ebe 6a3d d6ee 053d 406e 283c 9eb7 f93c
00000220: 7935 493c 222c d43b df50 39bd 2729 0d3d
00000230: f319 1bbd 0710 973c 7311 3e3d d5ef 7e3b
00000240: 62b8 bb3b 88ca 603c 920b 36bd 09f2 94bc
00000250: dddd bf3c 791d 573d aaa9 a83c de76 4a3d
00000260: 35bf 46bd f3df 5b3d a7c1 fd3b a979 8b3c
00000270: 4faf 2fbd 91b5 32bb 0fcf a83c e84f b2bc
00000280: a93a b43c f073 3c3d 4f73 35bd 8c57 673d
00000290: 9dca b9bc 009b 173d b392 5c3d 661a 39bd
000002a0: 9707 5a3d ef79 febb d15f 66bd 80ea 27bd
000002b0: d2a2 e53c 8f20 3b3d 80ab 643a 6cdc 043c
000002c0: 19e6 073d 47fe 303d 001c 18b9 425d f73c
000002d0: 4526 7c3c 106f 70bd d7b6 c6bc caa7 4cbd
000002e0: 2eff 5f3d 8d4b b73c e095 35bc a75d 91bc
000002f0: 7c60 c4bb 318b 62bc f307 543b 058d 34bc
00000300: 5851 cd3b d501 50bd ae6c 913c 2f76 72bd
00000310: 4f96 aabc 4ed5 833a 9c35 00bd 0917 133d
00000320: 279b bf3c 8a73 593d 6233 90bc 1e5b 0abd
00000330: 0870 4d3d 2505 993c dd6f 67bd fa34 d53c
00000340: d871 a93c 4d1f 9b3c 6d35 103d 8507 e03c
00000350: 997c 96bc d21a 0fbd 12f8 703d aff5 193d
00000360: 3fb5 a0bc f42c 63bd 802e 11bd 36ce cebc
00000370: 2266 11ba 841e e4bb 95f4 593d 1d51 073c
00000380: 3a65 81bd 4655 57bd 47dd 073d 1628 843b
00000390: dd75 f83c 4309 eebc 2c13 b5bc b174 a23c
000003a0: 395b 23bd 441a 0cbd 9b08 493d 8dc9 52bd
000003b0: e68a 523d de45 b0b8 c035 213d c959 873c
000003c0: 1ef0 d73c e118 c7bc b4fe a5b8 5be2 7d3c
000003d0: 4dfd 59bd ab04 ccbc 1b06 d4bc 77c5 b8bc
000003e0: beee b03c 6ed5 e03c e157 05bd ccb9 48ba
000003f0: 0199 003d db4b 1e3d 78b9 da3c 1ab5 43bd

encoder.4.bias f4 [64]
0.004341015 0.04543154 -0.0044423663 -0.014085889 0.080784336 0.04304104 0.09556293 -0.054760706
0.048790682 0.032588206 -0.009810709 0.067448944 0.092859134 0.039437726 0.05083041 0.05555907
0.016193802 0.011057469 -0.00958521 0.08585592 0.015163275 0.09515344 0.007728449 -0.044442635
0.06392561 0.035670694 0.07522934 0.053126276 0.017799012 0.015033426 0.00516673 -0.032845914
0.05564256 -0.050350457 0.029841928 0.040776026 0.029512882 0.074827336 0.05133331 0.010792504
0.06186277 -0.04147057 -0.04438141 0.09548763 0.06382891 0.07457629 0.044120498 0.0046010744
-0.03540851 -0.058865312 0.045586158 0.095317684 -0.034237135 0.023212917 -0.035908215 0.00040280446
-0.023062285 0.030351307 0.03705695 0.02072425 -0.06621667 0.07841096 0.0796672 -0.01606876
00000000: 133f 8e3b 6c16 3a3d 4591 91bb 80c8 66bc
00000010: 4272 a53d cd4b 303d 7fb6 c33d c34c 60bd
00000020: bdd8 473d 367b 053d 19bd 20bc ac22 8a3d
00000030: ee2c be3d 7489 213d 8c33 503d e891 633d
00000040: dda8 843c 632a 353c 490b 1dbc 3bd5 af3d
00000050: 636f 783c cfdf c23d ee3e fd3b 7b09 36bd
00000060: 6eeb 823d 6f1b 123d d711 9a3d f09a 593d
00000070: 3ccf 913c c24e 763c ac4d a93b 7089 06bd
00000080: 74e9 633d 483c 4ebd 0f77 f43c c304 273d
00000090: 00c5 f13c 133f 993d e042 523d 0bd3 303c
000000a0: d163 7d3d 0bdd 29bd 48c9 35bd 058f c33d
000000b0: bbb8 823d 74bb 983d b2b7 343d 9cc4 963b
000000c0: 8408 11bd c11c 71bd 8db8 3a3d eb35 c33d
000000d0: 3d3c 0cbd 0429 be3c 7e14 13bd 802f d339
000000e0: 1eed bcbc 4ea3 f83c 07c9 173d e7c5 a93c
000000f0: 9b9c 87bd ed95 a03d 8f28 a33d a2a2 83bc

decoder.0.weight f4 [64, 32, 3, 3]
-0.032155056 0.03513386 0.050316658 -0.03067565 -0.03615685 0.017942991 0.02256013 0.052052036
0.006982286 -0.02737185 -0.055943042 0.038593438 0.02419502 -0.008882772 0.031500984 0.018568274
0.04010611 -0.01922822 0.058332987 -0.044448894 -0.020126365 -0.017572273 0.054172013 -0.023329884
-0.0548897 -0.03343246 -0.054297093 0.03685153 0.03635707 -0.0018754378 -0.015569199 -0.033064917
-0.005395267 -0.0086453445 0.03923773 -0.0063938946 0.015645126 0.02527164 -0.027676553 0.05320623
-0.014858424 0.018023035 0.009276174 0.0042802095 -0.020839853 0.054772053 -0.033942826 -0.0023098215
0.00764763 0.039982203 0.037733313 0.02264836 -0.05505767 0.023637783 0.02716154 0.02821469
-0.011250958 -0.05655648 -0.04992312 -0.015121128 0.058609057 -0.040764976 0.043284684 0.022417406
0.022961454 -0.040304698 -0.008152705 -0.012734159 0.05395836 -0.016205234 0.057976536 0.03249757
-0.04264377 -0.023252444 0.05439824 0.016693134 -0.019419452 0.005053564 0.049476277 -0.045417212
-0.038970083 0.007901901 -0.0036203011 -0.05475634 0.041905515 0.011841647 -0.036130376 -0.000112127884
0.020571055 -0.015668023 -0.044178445 0.020014986 0.011138721 -0.020650372 0.035288773 -0.028538551
0.014057669 0.0010483542 0.007534976 0.017899513 0.0068660267 -0.009369714 0.036998592 -0.023457045
0.0549833 -0.00798132 -0.051909737 0.034773935 -0.010920979 0.0123488195 -0.050921828 0.057887826
0.04379713 -0.047439832 -0.009503629 -0.0312864 -0.020287856 0.042073626 0.012144653 -0.019513465
-0.020737104 -0.046292026 -0.034536194 -0.023379497 -0.0016783308 0.02256583 -0.06189392 0.019092968
0.023808248 -0.052425865 -0.030197635 0.02152751 -0.027038831 0.0026071498 -0.00075157016 0.022883609
-0.04544233 -0.049063135 -0.014674785 -0.03534162 0.053774264 -0.043446325 -0.019836748 -0.007332739
0.010889701 0.057321317 0.051029135 -0.050866667 0.038674094 0.0021530665 0.018259484 0.0023980755
0.013115665 -0.02663361 -0.004381202 -0.035055038 0.00603845 -0.0028957617 0.019106949 0.013839308
-0.009197786 0.042607836 0.00540931 -0.01293954 0.03742881 -0.030475447 -0.001231357 0.0053121676
0.007029512 -0.018628059 -0.014341986 -0.040626936 0.03153799 0.034203805 0.019161593 0.058320597
-0.051796354 0.05764651 0.0003007166 -0.05865637 -0.02874191 0.015338253 0.009322221 0.013907228
0.024186287 0.032798994 0.015159713 -0.020270504 0.043540537 0.047251206 -0.04440248 0.04511173
0.051471695 -0.03971776 -0.002454352 0.026450526 0.015541473 -0.05121479 -0.042621866 -0.029647866
0.052430537 -0.05899866 0.03495601 0.008844357 -0.014825357 -0.03889088 0.014187735 -0.05308556
-0.0139141865 -0.04247868 -0.04371967 0.019666616 -0.026214357 -0.045412913 0.030000292 -0.04603085
-0.031071851 0.0041060783 -0.02667354 -0.05586688 0.005549822 0.019393433 0.017093282 -0.004446458
0.023899633 -0.0009143924 -0.0022422904 0.042055078 -0.015543814 0.043769203 -0.04217895 -0.026594656
0.050716355 -0.008910915 0.046517104 0.01032594 0.035924703 0.028128289 -0.05036101 -0.0059823645
-0.0032867861 0.0014664697 0.01573642 0.045868777 -0.023790242 0.030420834 0.015844876 -0.05370618
0.03238848 -0.014287015 -0.047441524 0.029422397 0.03302776 0.009964168 0.00639337 0.011370582
00000000: 05b5 03bd 86e8 0f3d d718 4e3d 804b fbbc
00000010: 3519 14bd 2efd 923c 06d0 b83c 8434 553d
00000020: a9cb e43b ee3a e0bc 8824 65bd 2714 1e3d
00000030: a234 c63c 0c89 11bc 2d07 013d 7e1c 983c
00000040: 4e46 243d 8084 9dbc 92ee 6e3d 0b10 36bd
00000050: 0ce0 a4bc baf3 8fbc 79e3 5d3d 501e bfbc
00000060: 06d4 60bd 7af0 08bd a166 5ebd a1f1 163d
00000070: 27eb 143d 40d1 f5ba f415 7fbc 146f 07bd
00000080: c8ca b0bb 34a5 0dbc beb7 203d e083 d1bb
00000090: 352a 803c 7806 cf3c f0b9 e2bc c7ee 593d
000000a0: bf70 73bc 0ba5 933c 18fb 173c 0041 8c3b
000000b0: 57b8 aabc a958 603d a207 0bbd 6060 17bb
000000c0: f898 fa3b 61c4 233d 3f8e 1a3d 0e89 b93c
000000d0: 2784 61bd 06a4 c13c e181 de3c 7e22 e73c
000000e0: f055 38bc c4a7 67bd 2f7c 4cbd 9cbe 77bc
000000f0: 0d10 703d 2df9 26bd 484b 313d b5a4 b73c
00000100: a919 bc3c 8a16 25bd ec92 05bc efa2 50bc
00000110: 7103 5d3d d7c0 84bc ce78 6d3d 2c1c 053d
00000120: 3cab 2ebd e97b bebc b0d0 5e3d 0ac0 883c
00000130: 8b15 9fbc 5e98 a53b a3a7 4a3d 6607 3abd
00000140: 189f 1fbd fa76 013c 9342 6dbb 2f48 60bd
00000150: 1ea5 2b3d 7803 423c 72fd 13bd 3326 ebb8
00000160: a184 a83c 3a5a 80bc 75f4 34bd 78f6 a33c
00000170: 2f7f 363c f82a a9bc f68a 103d aec9 e9bc
00000180: 2352 663c ee68 893a f6e7 f63b 00a2 923c
00000190: 68fc e03b 6e83 19bc d68b 173d fd28 c0bc
000001a0: 2b36 613d 15c4 02bc 4e9f 54bd 1d6f 0e3d
000001b0: e8ed 32bc b452 4a3c 6893 50bd c91b 6d3d
000001c0: 9f64 333d 4550 42bd 1cb5 1bbc 2b26 00bd
000001d0: b832 a6bc 6555 2c3d 5efa 463c b4da 9fbc
000001e0: dce0 a9bc b59c 3dbd d375 0dbd 5c86 bfbc
000001f0: 70fb dbba fadb b83c 7b84 7dbd db68 9c3c
00000200: 8409 c33c 81bc 56bd 0861 f7bc 765a b03c
00000210: 8a80 ddbc b7dc 2a3b 0505 45ba 6876 bb3c
00000220: bd21 3abd 6df6 48bd 826e 70bc 60c2 10bd
00000230: 6742 5c3d c6f4 31bd ad80 a2bc 7947 f0bb
00000240: b76a 323c c2c9 6a3d ed03 513d 9159 50bd
00000250: ba68 1e3d 761a 0d3b ea94 953c 0829 1d3b
00000260: 16e3 563c ba2e dabc 3090 8fbb df95 0fbd
00000270: 31de c53b d2c6 3dbb 2d86 9c3c 44be 623c
00000280: 50b2 16bc 8e85 2e3d 9540 b13b 5d00 54bc
00000290: f44e 193d a5a7 f9bc 7c65 a1ba b111 ae3b
000002a0: d257 e63b df99 98bc a6fa 6abc 6e68 26bd
000002b0: fb2d 013d 4a19 0c3d c6f8 9c3c 94e1 6e3d
000002c0: 6a28 54bd bf1e 6c3d 80a9 9d39 a941 70bd
000002d0: 2774 ebbc 4c4d 7b3c 3bbc 183c 24db 633c
000002e0: 5222 c63c 3d58 063d 7260 783c 540e a6bc
000002f0: 9057 323d 7b8a 413d 60df 35bd 14c7 383d
00000300: fcd3 523d 17af 22bd 32d9 20bb c6ae d83c
00000310: aaa1 7e3c 9ac6 51bd 4494 2ebd 15e0 f2bc
00000320: 67c1 563d 94a8 71bd 082e 0f3d ece7 103c
00000330: 0ee6 72bc 0b4c 1fbd ac73 683c 3f70 59bd
00000340: 54f8 63bc 20fe 2dbd 6613 33bd e21b a13c
00000350: 7ebf d6bc e402 3abd 2cc3 f53c d88a 3cbd
00000360: 658a febc 488c 863b 7882 dabc abd4 64bd
00000370: 48db b53b fade 9e3c 3607 8c3c 98b3 91bb
00000380: 2ac9 c33c d6b3 6fba 64f3 12bb f241 2c3d
00000390: 7bab 7ebc 5647 333d d6c3 2cbd 09dd d9bc
000003a0: f4bb 4f3d 16ff 11bc b888 3e3d 222e 293c
000003b0: c825 133d 4c6d e63c 5947 4ebd b607 c4bb
000003c0: 1f67 57bb 8f36 c03a aae9 803c e6e0 3b3d
000003d0: c1e3 c2bc 1d35 f93c 1dcd 813c 03fb 5bbd
000003e0: c8a9 043d 1614 6abc 0b52 42bd 3d07 f13c
000003f0: 1e48 073d c040 233c 7a7f d13b ad4b 3a3c

decoder.0.bias f4 [32]
0.08019812 0.0109587945 -0.030089466 0.009036703 0.04108609 -0.025257591 0.0245092 0.08380876
0.030768635 0.048915464 0.06886821 0.032936346 -0.06883649 0.005844824 0.06483272 0.03326849
0.07243088 0.011790724 0.015721848 -0.023184052 -0.017531611 0.0638197 0.075381495 -0.011706344
-0.025289867 0.05907961 0.0829597 0.072231874 0.089031525 0.08763875 0.046727 -0.07688247
00000000: e93e a43d 848c 333c 2f7e f6bc ae0e 143c
00000010: e349 283d 02e9 cebc 85c7 c83c eda3 ab3d
00000020: 810e fc3c 955b 483d c70a 8d3d 43e8 063d
00000030: 25fa 8cbd f085 bf3b 04c7 843d 8a44 083d
00000040: a456 943d e12d 413c 1bcb 803c 7bec bdbc
00000050: 749e 8fbc e7b3 823d 9d61 9a3d f7cb 3fbc
00000060: b22c cfbc 76fd 713d c6e6 a93d 4eee 933d
00000070: 2956 b63d f27b b33d d064 3f3d 8e74 9dbd

decoder.2.weight f4 [32, 16, 3, 3]
-0.031817526 -0.04749545 -0.05902597 0.0010068117 0.08329975 0.05488078 -0.038650878 -0.007795103
0.025179315 0.019916257 -0.06343549 0.014621528 0.022341616 0.019720197 0.01328809 -0.09337462
0.053792693 0.065426566 0.10374648 -0.06472253 0.047238722 0.0025349308 0.06871358 -0.017077697
-0.042459175 -0.05652521 0.044161692 0.006263106 -0.015827535 -0.09269272 -0.073860586 -0.04644093
0.030711742 0.034482323 0.014278924 -0.042465925 0.10272286 0.08372747 0.024591206 0.024148272
0.053620335 0.09254797 -0.0564917 0.086272925 0.077818684 0.058561463 0.014289574 -0.024739195
0.110747114 -0.002602882 0.0092018405 -0.016975768 0.05972328 0.095154345 0.019514555 0.072285235
-0.027099675 0.07859677 0.124572486 0.010966365 0.030834105 0.0015452015 0.064563185 0.015610078
-0.04152609 0.04841139 -0.040943816 -0.050947636 -0.0050147586 0.07585538 0.06673572 0.025410628
-0.004218534 -0.012644685 0.00825585 0.015106995 0.026454547 -0.046450686 0.08699581 -0.007019095
-0.00875977 0.05328289 -0.030322509 -0.014016678 0.016734554 -0.035446454 -0.075559944 -0.04889497
0.032473993 -0.01926812 -0.071907945 -0.00827593 0.064714365 -0.06938223 -0.04105855 -0.027495565
-0.041020222 0.1012638 -0.0032402477 -0.066513 -0.019360108 -0.05786148 -0.04865936 0.09453583
0.020774717 -0.00495557 0.101771936 0.01721228 -0.0069390424 -0.006718807 -0.09541296 -0.013645111
-0.056389 -0.072781056 0.010816199 -0.008772431 -0.012051642 0.10442574 0.049408685 0.003344252
0.066647306 0.059959102 0.04039626 0.10605476 0.07084754 -0.024035847 0.062430397 -0.07718673
0.024916226 -0.028986579 -0.09680352 -0.058022056 0.018654896 0.07140813 -0.054252364 0.006021838
0.011691985 -0.0702157 -0.0067035183 0.066124365 -0.039411746 -0.068626404 0.068022795 -0.0018769524
-0.02623176 -0.04732006 -0.033824068 0.07437285 0.05411347 0.0801851 0.025681185 0.013463747
0.012782782 0.021402232 -0.029848568 -0.028907543 0.048699714 0.022671692 -0.021266846 0.07571446
0.00012230128 -0.055459652 -0.022803906 0.07206751 0.042039543 0.017437492 0.05651324 0.028951688
0.054585338 0.040913574 -0.015368909 0.02977981 0.053189628 -0.032887377 0.010795739 0.054611605
0.0038390202 -0.07058518 -0.079252094 -0.07390799 0.10905032 0.062434323 -0.06931544 -0.070594914
0.06773554 0.07484875 0.049837224 0.01824237 -0.020820329 0.06502355 -0.06420782 -0.0027963596
0.06966281 0.029609933 0.099546894 0.050548483 0.0504139 0.0024515595 -0.002743184 0.072225064
0.09318049 -0.025778832 0.003979385 0.10982982 -0.034000043 -0.017964927 0.09059553 -0.038626295
0.06774326 0.018632283 0.05267799 0.033496775 0.039800286 0.08144429 0.102139615 0.016062336
-0.050044585 0.04830939 0.11035233 0.003379703 -0.033662383 -0.014881537 0.07040449 0.031275466
0.115903735 -0.08766187 0.013967779 -0.025491845 0.05286324 0.028815217 -0.05422082 0.047428478
-0.017293492 0.03819139 0.022580272 -0.037791636 0.04974984 0.024407467 -0.028745392 0.07574862
-0.015413347 0.118266866 0.021486696 0.062262192 0.02938886 -0.06502662 0.09267178 0.09012048
-0.01856174 -0.0141214635 0.023312684 0.07882233 0.052306794 -0.04659812 0.029547248 0.065048315
00000000: 1853 02bd 978a 42bd 37c5 71bd fff6 833a
00000010: 0f99 aa3d abca 603d 6250 1ebd 106e ffbb
00000020: da44 ce3c 6b27 a33c 77ea 81bd 228f 6f3c
00000030: c405 b73c 408c a13c 4ab6 593c 313b bfbd
00000040: ba55 5c3d 5dfe 853d 0979 d43d 3f8d 84bd
00000050: 647d 413d 1521 263b b5b9 8c3d 87e6 8bbc
00000060: ace9 2dbd fb86 67bd e4e2 343d be3a cd3b
00000070: bfa8 81bc aed5 bdbd 3844 97bd d838 3ebd
00000080: 3197 fb3c 563d 0d3d 26f2 693c c0f0 2dbd
00000090: 5d60 d23d 4f79 ab3d 7f73 c93c 99d2 c53c
000000a0: ffa0 5b3d ca89 bd3d d763 67bd dcaf b03d
000000b0: 675f 9f3d 25de 6f3d d11e 6a3c daa9 cabc
000000c0: 62cf e23d 1d95 2abb 51c3 163c c410 8bbc
000000d0: 66a0 743d 48e0 c23d fddc 9f3c 480a 943d
000000e0: 2300 debc 58f7 a03d dc1f ff3d 45ac 333c
000000f0: ce97 fc3c 5c88 ca3a b439 843d 6ac1 7f3c
00000100: 4317 2abd 064b 463d b4b4 27bd 78ae 50bd
00000110: d852 a4bb 115a 9b3d bdac 883d f329 d03c
00000120: a13b 8abb a72b 4fbc 8b43 073c 5483 773c
00000130: 35b7 d83c 1343 3ebd dc2a b23d 7000 e6bb
00000140: 2385 0fbc 293f 5a3d e966 f8bc 35a6 65bc
00000150: e716 893c 4d30 11bd 2cbf 9abd 1846 48bd
00000160: 7303 053d 2dd8 9dbc 7944 93bd c497 07bc
00000170: f788 843d 4518 8ebd 032d 28bd 613e e1bc
00000180: d204 28bd 6563 cf3d 565a 54bb f837 88bd
00000190: 1799 9ebc 2900 6dbd 094f 47bd 009c c13d
000001a0: bd2f aa3c 5662 a2bb ce6d d03d c400 8d3c
000001b0: e860 e3bb 7029 dcbb df67 c3bd be8f 5fbc
000001c0: 27f8 66bd 3c0e 95bd 6d36 313c 3eba 0fbc
000001d0: 4074 45bc 2add d53d c360 4a3d 3d2b 5b3b
000001e0: 627e 883d ad97 753d 8c76 253d 3d33 d93d
000001f0: 8418 913d d3e6 c4bc 04b7 7f3d 1414 9ebd
00000200: 1d1d cc3c 4375 edbc ed40 c6bd 89a8 6dbd
00000210: 27d2 983c 6d3e 923d ba37 5ebd d752 c53b
00000220: bd8f 3f3c 40cd 8fbd 30a9 dbbb 366c 873d
00000230: 366e 21bd 008c 8cbd 894f 8b3d 1204 f6ba
00000240: fde3 d6bc aed2 41bd 1b8b 0abd cb50 983d
00000250: 16a6 5d3d 1638 a43d 5961 d23c 0c97 5c3c
00000260: e06e 513c bc53 af3c fc84 f4bc 83cf ecbc
00000270: 5a79 473d fcb9 b93c cf37 aebc 2f10 9b3d
00000280: 003e 0039 a929 63bd 42cf babc 2198 933d
00000290: a831 2c3d 12d9 8e3c 6d7a 673d 172c ed3c
000002a0: e094 5f3d fe94 273d e0cd 7bbc caf4 f33c
000002b0: 5edd 593d eab4 06bd 9ce0 303c 6bb0 5f3d
000002c0: 1298 7b3b f68e 90bd ec4e a2bd 125d 97bd
000002d0: c655 df3d 22bb 7f3d 41f5 8dbd 1194 90bd
000002e0: eeb8 8a3d 4d4a 993d 1e22 4c3d 0671 953c
000002f0: 658f aabc 112b 853d 647f 83bd 2143 37bb
00000300: 60ab 8e3d 8890 f23c 3edf cb3d ed0b 4f3d
00000310: ce7e 4e3d 58aa 203b fec6 33bb bcea 933d
00000320: 6ad5 be3d 212e d3bc 8065 823b 75ee e03d
00000330: a143 0bbd 2f2b 93bc 268a b93d 9b36 1ebd
00000340: fabc 8a3d bba2 983c e0c4 573d ea33 093d
00000350: a005 233d 44cc a63d 932e d13d 2995 833c
00000360: 8dfb 4cbd 11e0 453d 6700 e23d 027e 5d3b
00000370: 91e1 09bd b1d1 73bc 3b30 903d b41a 003d
00000380: f05e ed3d 1188 b3bd 1dd9 643c 46d4 d0bc
00000390: 2087 583d e40d ec3c a716 5ebd 5d44 423d
000003a0: 15ab 8dbc 936e 1c3d 43fa b83c 67cb 1abd
000003b0: 7dc6 4b3d 2bf2 c73c 757b ebbc 1822 9b3d
000003c0: 4388 7cbc e635 f23d de04 b03c a406 7f3d
000003d0: e8c0 f03c ad2c 85bd b4ca bd3d 1691 b83d
000003e0: ca0e 98bc b65d 67bc 3efa be3c 9a6d a13d
000003f0: a63f 563d acdd 3ebd 120d f23c 0d38 853d

decoder.2.bias f4 [16]
-0.009403233 -0.06799973 0.03609635 0.058281325 0.05984474 0.02725913 0.09046941 0.03160931
-0.0020634357 0.021049496 0.077658705 0.039401084 0.0053350586 0.027136013 -0.09477541 0.040943343
00000000: 0510 1abc 7143 8bbd c4d9 133d 66b8 6e3d
00000010: c21f 753d 8a4e df3c 0748 b93d c478 013d
00000020: b53a 07bb fe6f ac3c 870b 9f3d 0863 213d
00000030: b7d1 ae3b 584c de3c 9c19 c2bd 35b4 273d

decoder.4.weight f4 [16, 3, 3, 3]
-0.10634345 0.13112609 0.039842132 -0.115172386 0.10476771 0.06724498 -0.2196465 -0.015984459
-0.026041107 -0.10085399 0.10616022 0.009342663 -0.1859177 -0.060168087 0.04022927 -0.03501827
-0.012160709 0.049960323 0.08823817 -0.2118258 -0.032777302 0.14502001 -0.24246049 0.0017999109
0.13241403 -0.038689215 -0.18782806 -0.13254614 -0.15094423 0.1846356 0.069766276 -0.027559185
-0.018217055 -0.0799322 0.07569354 0.12038611 0.1033097 -0.124849066 0.041318472 -0.05370486
-0.0028102135 0.12304549 -0.013096854 -0.12053733 -0.10436357 -0.18906088 0.106581956 0.11389634
0.0408943 0.016583951 0.022331648 0.16356121 0.07184589 0.07857227 0.017569285 -0.1363774
-0.14692867 0.11069858 -0.22940005 0.051363096 0.14525186 0.057811894 -0.09410989 -0.07854784
0.114541054 -0.055467952 0.035427067 -0.19279881 -0.11920987 -0.120077975 -0.048417456 -0.16437325
-0.19001348 -0.10403202 -0.20468235 0.09067975 0.1409336 0.03456817 -0.12117707 -0.09467118
0.09551166 0.046485323 0.09988264 -0.114351176 0.06595022 0.0019017037 -0.17589806 0.10344337
0.12354605 -0.13993144 0.006634307 0.096766636 -0.1808746 0.076583154 -0.15214835 0.06461388
-0.105427966 0.09591581 -0.061066207 0.05992362 0.024614807 0.03263208 -0.05646777 -0.038255107
0.17255701 -0.014026056 -0.002809285 -0.0860898 -0.10727641 -0.2185844 0.009119293 -0.21383707
0.039893635 -0.011749802 -0.15087134 -0.12809089 -0.124759 -0.13534339 -0.16465731 0.05159104
-0.040078834 0.12121287 -0.058582935 -0.20644991 -0.12184128 -0.0060057845 0.1455153 0.037212726
0.023216326 0.1173874 -0.21605563 -0.17601968 -0.009724475 -0.22022998 -0.06701905 0.10232658
0.119831085 0.122576416 -0.07747653 -0.049873196 0.06662599 -0.20881875 -0.0260348 -0.09337469
0.025699412 -0.07153605 0.010720422 -0.20018284 0.08361872 -0.18618363 0.027772037 -0.18577957
-0.014716125 0.106283575 -0.079403274 -0.20995496 -0.0795093 0.102405 -0.12940243 0.082197875
-0.21315026 -0.105559945 0.07395023 -0.07585884 0.108910896 -0.13257594 -0.092613466 -0.12088045
0.059849743 -0.16306642 -0.068685286 -0.17437436 0.12442636 0.12604076 0.08321779 0.12401201
-0.09229602 -0.103533074 0.020201406 -0.09354098 -0.08027238 -0.07167943 -0.027182398 -0.1982204
-0.22988133 -0.09796477 0.06360186 0.11440125 -0.120608404 0.010539622 -0.12657535 -0.18261723
-0.2231886 -0.06221855 -0.048570197 -0.17301057 0.050799735 0.1455636 0.087497376 -0.10251959
0.07935845 -0.088394254 -0.21672602 -0.04932003 0.14962251 -0.13849193 -0.08305682 -0.060679827
-0.043473814 -0.018134926 0.13012272 -0.11797901 -0.1547662 0.13783446 0.12350317 -0.014475575
-0.013441388 -0.09545977 -0.09938188 0.09929378 0.1039742 -0.19290136 -0.0031013414 -0.014279588
-0.0018797324 -0.04498814 -0.09888312 0.13713479 -0.20708667 -0.21778658 -0.1022346 -0.15717806
-0.15000935 -0.18123323 -0.14622372 0.09756558 0.055844225 -0.043318104 0.03932642 -0.13553862
0.08388971 -0.015572186 -0.16169769 0.055744007 -0.120893456 -0.19182698 -0.1838749 0.04712796
0.16420124 -0.122788236 -0.11708745 -0.17807572 -0.14178 -0.06681427 0.03477233 0.0790215
00000000: 98ca d9bd eb45 063e 8131 233d 80df ebbd
00000010: 7490 d63d bcb7 893d 03eb 60be d7f1 82bc
00000020: 2954 d5bc 898c cebd 886a d93d f811 193c
00000030: 3661 3ebe d072 76bd 72c7 243d 516f 0fbd
00000040: b63d 47bc 32a3 4c3d 37b6 b43d dde8 58be
00000050: 7e41 06bd 2080 143e 9047 78be fdea eb3a
00000060: 8b97 073e 9578 1ebd 0056 40be 2dba 07be
00000070: 2091 1abe 1d11 3d3e 9fe1 8e3d cdc3 e1bc
00000080: ef3b 95bc 7eb3 a3bd 3705 9b3d fe8c f63d
00000090: 0994 d33d deb0 ffbd 8f3d 293d a1f9 5bbd
000000a0: 8f2b 38bb 46ff fb3d 3094 56bc 47dc f6bd
000000b0: 91bc d5bd 2d99 41be a447 da3d 7c42 e93d
000000c0: c880 273d 11db 873c dcf0 b63c 977c 273e
000000d0: f023 933d 80ea a03d 76ed 8f3c 84a6 0bbe
000000e0: 7874 16be f0b5 e23d d9e7 6abe 1c62 523d
000000f0: e7bc 143e 2acc 6c3d b0bc c0bd b1dd a0bd
00000100: 8094 ea3d 5d32 63bd f91b 113d 0d6d 45be
00000110: 4e24 f4bd 71eb f5bd 6251 46bd 7651 28be
00000120: e592 42be bd0e d5bd 4098 51be 4eb6 b93d
00000130: e650 103e 5a97 0d3d af2b f8bd f7e2 c1bd
00000140: 9e9b c33d 6567 3e3d 458f cc3d f330 eabd
00000150: e910 873d 9642 f93a 9f1e 34be 1eda d33d
00000160: b605 fd3d 304a 0fbe 9a64 d93b 962d c63d
00000170: 3137 39be a1d7 9c3d c7cc 1bbe 4854 843d
00000180: 9eea d7bd 826f c43d 8f20 7abd 7872 753d
00000190: fea4 c93c 37a9 053d c04a 67bd 63b1 1cbd
000001a0: c9b2 303e 8bcd 65bc fb1b 38bb d94f b0bd
000001b0: bcb3 dbbd 97d4 5fbe 1669 153c 1bf8 5abe
000001c0: 8267 233d 3e82 40bc 047e 1abe 422a 03be
000001d0: a681 ffbd 7597 0abe ed9b 28be 2051 533d
000001e0: b429 24bd 743e f83d a9f4 6fbd 9b67 53be
000001f0: ec87 f9bd 2ccc c4bb f601 153e 5f6c 183d
00000200: 2a30 be3c ce68 f03d b03d 5dbe 813e 34be
00000210: 6853 1fbc f883 61be 4941 89bd 9990 d13d
00000220: 006a f53d 5809 fb3d 04ac 9ebd d647 4cbd
00000230: 3573 883d 95d4 55be ef46 d5bc 3b3b bfbd
00000240: 9387 d23c 7e81 92bd b5a4 2f3c bbfc 4cbe
00000250: 4b40 ab3d eca6 3ebe 2f82 e33c 003d 3ebe
00000260: e71b 71bc 34ab d93d 2f9e a2bd 6ffe 56be
00000270: c6d5 a2bd b6b9 d13d 1282 04be 5c57 a83d
00000280: 1044 5abe d02f d8bd 3873 973d e15b 9bbd
00000290: ad0c df3d fdc1 07be 21ac bdbd 2b90 f7bd
000002a0: 0125 753d e2fa 26be dfaa 8cbd 318f 32be
000002b0: 3fd3 fe3d d410 013e 176e aa3d 02fa fd3d
000002c0: b205 bdbd 2609 d4bd 6b7d a53c 6a92 bfbd
000002d0: d865 a4bd aacc 92bd 9fad debc 4afa 4abe
000002e0: 0366 6bbe c1a1 c8bd b141 823d 344b ea3d
000002f0: 8a01 f7bd 61ae 2c3c f89c 01be 0300 3bbe
00000300: 8d8b 64be e1d8 7ebd 8bf1 46bd af29 31be
00000310: 6213 503d a00e 153e d331 b33d caf5 d1bd
00000320: af86 a23d 0c08 b5bd 6ded 5dbe cd03 4abd
00000330: a536 193e d4d0 0dbe b219 aabd 698b 78bd
00000340: 9911 32bd b28f 94bc e43e 053e fb9e f1bd
00000350: 087b 1ebe 7a24 0d3e 3bef fc3d f62a 6dbc
00000360: 4439 5cbc 6980 c3bd ba88 cbbd 8a5a cb3d
00000370: 6df0 d43d ef87 45be e03f 4bbb eff4 69bc
00000380: 5a61 f6ba 7c45 38bd 3c83 cabd 106d 0c3e
00000390: 870e 54be 7203 5fbe 6060 d1bd 49f3 20be
000003a0: 0d9c 19be 3495 39be acbb 15be 76d0 c73d
000003b0: eabc 643d 536e 31bd bd14 213d a3ca 0abe
000003c0: 5ece ab3d 7b22 7fbc 1494 25be d453 643d
000003d0: fd96 f7bd 4b6e 44be b449 3cbe 3f09 413d
000003e0: 5f24 283e 6678 fbbd 8ccb efbd 7b59 36be
000003f0: c72e 11be ecd5 88bd 6e6d 0e3d 06d6 a13d

decoder.4.bias f4 [3]
-0.088645585 -0.10482173 0.14930038
00000000: d18b b5bd c6ac d6bd 33e2 183e
