Donnees PCB4/autoencoder.pth (torch, 193010 bytes, 12 tensors)

encoder.0.weight f4 [16, 3, 3, 3]
0	0xbd833c0f	-0.0640794
1	0xbe145e43	-0.14489083
2	0x3db203cf	0.08692133
3	0x3cffcfb6	0.031226974
4	0x3bfae970	0.0076572224
5	0x3cd33fdc	0.025787286
6	0x3e23bafc	0.15989298
7	0xbd2046b5	-0.03912993
8	0xbe07a084	-0.13244826
9	0x3d2daf98	0.042403787
10	0x3c8a6231	0.016892524
11	0x3d1a3424	0.03764738
12	0x3ce396b2	0.027781818
13	0x3dea0e37	0.114284925
14	0x3e04ea28	0.12979949
15	0xbd6b3162	-0.057420142
16	0xbe18a6f4	-0.14907438
17	0xbc682b98	-0.01417055
18	0x3cab3469	0.020899015
19	0x3d9b5013	0.07583632
20	0xbe208215	-0.15674622
21	0x3d07df1c	0.033171758
22	0x3e3b9bcc	0.1832115
23	0xbd1a5986	-0.037683032
24	0xbe34e802	-0.17666629
25	0x3d34d5b6	0.044149123
26	0xbe2ceb59	-0.16886653
27	0x3e11f58f	0.1425383
28	0x3cbb7061	0.022880735
29	0xbda42e1b	-0.080166064
30	0xbe063d7d	-0.13109393
31	0x3e337356	0.17524466
32	0xbe440a1e	-0.19144484
33	0xbe3f0133	-0.18652801
34	0x3dd2f4db	0.10300609
35	0x3d0bb536	0.034108363
36	0xbe14fd88	-0.1454984
37	0x3bab3b28	0.005225558
38	0xbe4a4eef	-0.19756673
39	0xbd8aaf28	-0.0677169
40	0xbd881a6b	-0.06645664
41	0xbdf6c867	-0.120499425
42	0x3dea4d86	0.11440568
43	0x3bd563bc	0.0065121334
44	0xbe46c394	-0.19410545
45	0x3d54a2a7	0.05191293
46	0xbe186473	-0.14882068
47	0x3ce15a8f	0.027509002
48	0xbd232d21	-0.03983796
49	0xbd9b8acb	-0.07594832
50	0x3dadc452	0.08484711
51	0x3d8c268d	0.068432905
52	0x3c113ded	0.008864862
53	0x3e077bfd	0.13230892
54	0x3e2912a4	0.16511017
55	0x3d86bd1c	0.065790385
56	0xbcd88fee	-0.026435819
57	0x3de07909	0.109605856
58	0xbdf0e2d0	-0.11762011
59	0xbdd755f4	-0.10514441
60	0xbe0f72f1	-0.1400869
61	0xbe10af26	-0.14129314
62	0x3d063277	0.03276297
63	0xbd80cd0d	-0.0628911
64	0x3d4cfca1	0.050045613
65	0x3e31f478	0.17378414
66	0xbd4f035d	-0.050540317
67	0xbc3ccc6a	-0.0115233455
68	0x3e2f59b6	0.17124066
69	0x3e37af80	0.17938042
70	0xbccfbcb1	-0.02535853
71	0xbc4d7856	-0.012540897
72	0x3ce2b8e2	0.02767605
73	0xbd4d865a	-0.050176956
74	0xbd39c4f6	-0.045353852
75	0xbdf88299	-0.121342845
76	0xbd9084c9	-0.07056577
77	0xbe09fa3d	-0.13474365
78	0xbd999ab8	-0.075002134
79	0xbcac1696	-0.021006864
80	0x3c318c80	0.0108367205
81	0x3d4eada9	0.050458584
82	0x3e287816	0.16452059
83	0xbe00276e	-0.12515041
84	0xbe2203ba	-0.15821734
85	0x3d8395e3	0.06425073
86	0x3dc9a2e3	0.09845521
87	0x3dfbcdfe	0.12295149
88	0x3d90a34d	0.07062397
89	0xbdb4fee3	-0.08837678
90	0x3d8257c1	0.06364394
91	0xbd48f2c6	-0.04905965
92	0x3db4ccf6	0.08828156
93	0xbe05b11e	-0.13055846
94	0xbe2031ac	-0.15643948
95	0x3e1346a4	0.14382416
96	0x3dc2eed6	0.095182106
97	0x3cf4f55a	0.029902149
98	0x3c04d83f	0.008108198
99	0xbdd1afcf	-0.10238611
100	0xbdf736e3	-0.12071016
101	0xbe0fec70	-0.14055037
102	0xbceb5af0	-0.028729886
103	0xbdcb329f	-0.099217646
104	0xbe22d6d9	-0.1590227
105	0x3e13fb8a	0.14451423
106	0x3e48bf05	0.19604118
107	0xbccc0ceb	-0.024908504
108	0xbe4a22d5	-0.1973985
109	0xbde62ef2	-0.11239423
110	0xbe47bd1c	-0.19505733
111	0xbe225333	-0.1585205
112	0xbdb387d5	-0.08766142
113	0xbdc4b379	-0.09604544
114	0xbdfbf4ea	-0.12302573
115	0x3d2c213b	0.04202388
116	0xbe270eb1	-0.16314198
117	0xbe35ee62	-0.17766717
118	0x3e14cf66	0.14532241
119	0xbd65ed86	-0.056134723
120	0xbddac1f4	-0.10681525
121	0xbd2d5b81	-0.042323593
122	0xbd57222e	-0.05252283
123	0x3e298408	0.16554272
124	0xbdbdea3c	-0.09273192
125	0x3d6d6c46	0.057964586
126	0x3df5028a	0.11963375
127	0x3da82869	0.082108326
128	0xbd36e1fb	-0.044649106
129	0x3e09345d	0.13398881
130	0x3dee44c2	0.11634208
131	0x3ceda822	0.029010836
132	0xbe0439df	-0.12912701
133	0x3da8b02d	0.08236728
134	0x3d970e9c	0.073758334
135	0x3da935e8	0.08262235
136	0xbe02799a	-0.127417
137	0x3ca7fdb2	0.020506714
138	0x3dd88ab2	0.10573329
139	0xbe1414fb	-0.14461128
140	0x3e213696	0.15743479
141	0x3de291d4	0.11062971
142	0xbd8deb70	-0.06929672
143	0xbd57d187	-0.052690055
144	0xbbaf48ff	-0.005349278
145	0xbde9df77	-0.11419576
146	0x3e20950e	0.1568186
147	0x3e2359af	0.1595218
148	0xbca797b8	-0.020458087
149	0xbce03935	-0.027371028
150	0xbc48f62a	-0.012265721
151	0xbe253ceb	-0.1613652
152	0x3e140c91	0.14457919
153	0x3e1c1117	0.15240894
154	0xbccfca3c	-0.025364988
155	0xbe1f2cf9	-0.155445
156	0x3e425b86	0.18980226
157	0xbe071a8a	-0.13193718
158	0x3d44008a	0.047852077
159	0x3d661f4c	0.05618219
160	0xbd79517d	-0.06086873
161	0xbe34bcb1	-0.17650105
162	0xbaa44f73	-0.0012535885
163	0x3d99c87c	0.075089425
164	0x3d0688b0	0.0328452
165	0xbdef207c	-0.11676118
166	0x3e265539	0.16243447
167	0x3dbfa9ea	0.093585804
168	0x3e07dbe9	0.13267483
169	0x3ddd70dd	0.108125426
170	0x3dee3876	0.11631863
171	0x3d4c5350	0.04988414
172	0xbd8e1ca0	-0.069390535
173	0x3e08c100	0.13354874
174	0x3e217763	0.15768199
175	0x3caaa2a1	0.0208295
176	0x3e1ba156	0.15198264
177	0x3dafaf27	0.085783295
178	0x3dbbccbb	0.091699086
179	0xbe1f0d1b	-0.15532343
180	0x3e0961de	0.1341624
181	0xbe330b80	-0.17484856
182	0xbde65a0b	-0.11247643
183	0xbd4d77e4	-0.050163165
184	0x3e0f4d4a	0.13994327
185	0xbe157c14	-0.14598113
186	0x3d20280b	0.039100688
187	0xbe33cc38	-0.17558372
188	0x3e2e6808	0.17031872
189	0xbe2a59e1	-0.16635849
190	0xbd6636fa	-0.056204773
191	0xbe58d8ef	-0.21176504
192	0xbd8ac845	-0.0677648
193	0xbba42310	-0.0050090626
194	0x3e174d23	0.14775519
195	0x3c736511	0.014855639
196	0xbe18ffd1	-0.14941336
197	0xbe4e3d13	-0.20140485
198	0x3e02242f	0.12709115
199	0x3de9bb05	0.11412624
200	0x3e1ce8dc	0.15323204
201	0x3d43f19c	0.04783784
202	0xbe53bf35	-0.20678408
203	0xbd5cecd9	-0.053936813
204	0xbcfe762a	-0.031062204
205	0xbc0d6f02	-0.008632423
206	0x3db0d048	0.086334765
207	0x3e132f73	0.14373569
208	0x3e236d17	0.15959583
209	0xbe016a33	-0.12638168
210	0xbcaf5b1f	-0.021405755
211	0xbdd3ffcb	-0.10351523
212	0xbe2f946f	-0.17146467
213	0x3d919e46	0.071102664
214	0x3dc24b3d	0.09487007
215	0xbd16869a	-0.03674946
216	0x3d11c598	0.03558883
217	0x3cbc67cd	0.022998715
218	0x3da9910c	0.082796186
219	0x3e154f39	0.14581002
220	0x3e074c38	0.13212669
221	0x3da2d7d8	0.07951325
222	0x3e24f6a9	0.16109718
223	0xbdbf6564	-0.093455106
224	0x3d263367	0.040576365
225	0xbe297c89	-0.16551413
226	0xbdce0604	-0.10059741
227	0x3d5701a4	0.0524918
228	0xbe2c7169	-0.16840138
229	0xbe1b2b18	-0.15153158
230	0x3d2a1716	0.041525923
231	0xbe1b94ce	-0.15193483
232	0xbcbd4c14	-0.023107566
233	0x3c11e707	0.008905179
234	0xbdd87f60	-0.1057117
235	0xbe41f64c	-0.18941611
236	0xbc49945b	-0.012303437
237	0xbe2d8c5b	-0.16948073
238	0xbc6d9c6b	-0.014502625
239	0x3e20525f	0.15656422
240	0xbe14e20b	-0.14539354
241	0xbc8d35fc	-0.017237656
242	0xbd7061d6	-0.058687054
243	0xbe120cf7	-0.14262758
244	0x3d8d037e	0.06885432
245	0x3db4a414	0.08820358
246	0x3d10d6ea	0.035361208
247	0xbd573fdf	-0.052551147
248	0xbd830839	-0.06398053
249	0xbd136ab2	-0.035990424
250	0x3e051955	0.12997945
251	0x3db01de3	0.085994504
252	0xbdce95e3	-0.100871824
253	0x3dd3273b	0.10310217
254	0xbe21ab49	-0.15787996
255	0x3e2162e8	0.15760386

encoder.0.bias f4 [16]
0	0x3e308455	0.1723798
1	0x3e6b4a6c	0.22977608
2	0x3e3d7c2c	0.18504399
3	0xbcd5e07c	-0.026108019
4	0xbd4d1ecb	-0.050078195
5	0xbdb77d25	-0.08959416
6	0x3d2531a9	0.040330563
7	0x3e41130d	0.18854924
8	0x3e42bacf	0.19016574
9	0x3e0e8aff	0.1392021
10	0x3d62e4d8	0.055394024
11	0x3da964ac	0.08271155
12	0xbe0d7576	-0.13814339
13	0x3e291d31	0.16515042
14	0xbd263c95	-0.04058512
15	0x3e6ab6fb	0.22921364

encoder.2.weight f4 [32, 16, 3, 3]
0	0x3ca35a2e	0.019940462
1	0x3d8c14b0	0.06839883
2	0x3dabd3d0	0.083900094
3	0x394f4f2a	0.00019770549
4	0x3dd31862	0.10307385
5	0x3e095c2e	0.1341407
6	0x3d4cb19b	0.049974065
7	0xbca3a7e6	-0.019977521
8	0x3d1340b5	0.03595038
9	0xbcd030b8	-0.025413856
10	0xbd1f9e5e	-0.03896939
11	0x3d92ddc5	0.071712054
12	0x3d9b5498	0.07584494
13	0x3de6b695	0.112652935
14	0x3cad84fc	0.021181576
15	0x3d850e73	0.064968966
16	0x3d1efe68	0.03881684
17	0xbc701c44	-0.014655177
18	0xbb4bfdd0	-0.0031126626
19	0x3dc17685	0.09446434
20	0x3d8cb972	0.068713084
21	0x3dbc6ded	0.09200654
22	0xba111759	-0.000553479
23	0x3dbab2ec	0.09116158
24	0x3de68f38	0.112577856
25	0x3d888f26	0.066679284
26	0x3d598d4c	0.053113267
27	0x3d492fd1	0.049117867
28	0x3c535915	0.012899657
29	0x3cdb1889	0.026745098
30	0xbcfd66f8	-0.030932888
31	0xbcf125b4	-0.029436924
32	0xbd929095	-0.07156483
33	0xbda1eb33	-0.07906189
34	0xbb94d099	-0.0045414683
35	0x3cf27deb	0.029601058
36	0x3baf8f41	0.0053576534
37	0xbdc01c2d	-0.09380374
38	0x3c3b1178	0.011417739
39	0xbd1d77ea	-0.038444437
40	0xbc160199	-0.009155654
41	0x3d3550a4	0.044266358
42	0xbdc231a6	-0.09482126
43	0xbcbe2a93	-0.02321366
44	0xbd5f0b2f	-0.054454025
45	0x3d2e3c8d	0.042538214
46	0xbd762b5e	-0.060099952
47	0x3c67e9c4	0.014154855
48	0xbc61f3ec	-0.013791066
49	0x3d162c81	0.036663536
50	0x3c2023d3	0.009774166
51	0xbcd1ba71	-0.025601598
52	0xbc110e74	-0.008853544
53	0xbdacaa35	-0.08430902
54	0xbc4fa22b	-0.012672941
55	0xbd4b5882	-0.049644955
56	0x39fd22f2	0.00048281957
57	0xbd5d4c1c	-0.05402766
58	0x3aa27dc1	0.0012397097
59	0xbd9a9638	-0.07548183
60	0x3d152944	0.036416307
61	0x3cb472eb	0.022027453
62	0xbd5f877d	-0.05457257
63	0x3d00aa6a	0.03141252
64	0xbd00a76e	-0.031409673
65	0x3ce3f761	0.02782792
66	0x3cde07f2	0.027103398
67	0xbc49ccda	-0.012316907
68	0xbd0802d0	-0.033205807
69	0xbd3cce51	-0.046095196
70	0xbb8ff495	-0.00439317
71	0x3d81acc5	0.06331781
72	0xbc92b54c	-0.017908715
73	0x3d3572f7	0.044299092
74	0x3d90e69b	0.070752345
75	0xbcaac243	-0.020844584
76	0x3d72c870	0.059273183
77	0xbca2e9ce	-0.019886877
78	0x3e08b4fc	0.1335029
79	0x3dd9fbc3	0.10643723
80	0x3dab4f2d	0.08364711
81	0x3d0d842a	0.03454987
82	0x3dddb170	0.10824859
83	0x3dbd544f	0.09244596
84	0x3df03c64	0.117302686
85	0x3dea7944	0.11448911
86	0x3db9ff13	0.09081855
87	0x3dc32052	0.09527649
88	0x3d884e7f	0.06655597
89	0x3d82ff20	0.063963175
90	0x3c6365a9	0.013879218
91	0x3c9dd94c	0.019268654
92	0xbd0eb0b5	-0.03483649
93	0xbbeeed12	-0.0072914446
94	0xbcbd8ade	-0.023137506
95	0x3d5706a7	0.05249658
96	0x3d6a956e	0.057271414
97	0x3c7a1a3a	0.015265042
98	0xbd3a3d2b	-0.04546849
99	0xbd31668e	-0.043310694
100	0xbcd2b752	-0.02572218
101	0xbbf8a71f	-0.0075882818
102	0xbba46a5c	-0.005017562
103	0x3d5fd7bb	0.054649096
104	0xbd743de2	-0.05962933
105	0xbabb535f	-0.0014291814
106	0xbdb7e0af	-0.08978402
107	0x3c838e67	0.016059114
108	0xbdbd9267	-0.0925644
109	0xbdb05455	-0.08609835
110	0xbc1dfd20	-0.009642869
111	0xbd358360	-0.044314742
112	0x3cde74b7	0.027155263
113	0x3c3f0a2d	0.011660141
114	0x3c35530b	0.011067162
115	0xbd95dc77	-0.07317441
116	0xbcc7a9a1	-0.024372878
117	0x3d00fc0e	0.031490378
118	0x3d96bc84	0.07360175
119	0xbc385b9e	-0.011252312
120	0x3da49904	0.08036998
121	0x3c9ee80e	0.019397762
122	0xbca3632e	-0.019944753
123	0x3db315f0	0.087444186
124	0x3d76e2ca	0.060274877
125	0x3df97c5a	0.12181921
126	0xbd894f42	-0.0670457
127	0x3d9025b1	0.07038439
128	0x3d8ad7ed	0.06779466
129	0xbbf8d947	-0.007594261
130	0xbca9621a	-0.020676661
131	0xbd0e0938	-0.03467676
132	0xbd2d5606	-0.042318366
133	0xbcdcc8f3	-0.026951289
134	0x3d41689c	0.047218904
135	0x3db263f6	0.08710472
136	0x3da36b6a	0.07979472
137	0x3da12732	0.07868804
138	0x3db29d70	0.08721435
139	0xbd5bb083	-0.05363513
140	0x3d66ca2c	0.05634515
141	0x3d5e734c	0.054309174
142	0x3d5b8820	0.053596616
143	0x3d960c45	0.07326559
144	0x3cb9b656	0.022669952
145	0x3d6bd949	0.057580266
146	0xbd812f57	-0.063078575
147	0x3d8b0db7	0.06789725
148	0x3d9ba3c8	0.07599598
149	0xbcd9c28d	-0.026582027
150	0x3d4a028f	0.049318846
151	0xbd834d32	-0.06411208
152	0xbb8c4944	-0.004281195
153	0xbd55c426	-0.052189015
154	0x3d84a57e	0.06476878
155	0x3d6fa2f4	0.058505014
156	0x3d7b71bd	0.061387766
157	0xbd3740a7	-0.04473939
158	0x3b15b66f	0.0022844335
159	0x3d7d8cc3	0.06190182
160	0xbca0f93b	-0.019650092
161	0x3c6b3911	0.014356867
162	0xbcc713ee	-0.024301495
163	0xbda9b798	-0.08286971
164	0x3beee656	0.007290642
165	0xbb2e781d	-0.0026621886
166	0xbd916d1b	-0.07100888
167	0x3c37a62d	0.011209053
168	0x3cac9d1b	0.021071007
169	0x3cdea683	0.027179008
170	0xbd2d742b	-0.042347115
171	0xbcb86438	-0.022508726
172	0xbd0cfce3	-0.03442086
173	0xbd1fb66b	-0.038992327
174	0x3c656826	0.014001882
175	0xbd07ac8e	-0.033123545
176	0xbc7e2708	-0.015512235
177	0xbac19313	-0.0014768563
178	0xbd4dfba5	-0.050288815
179	0x3d648ec7	0.055800226
180	0xbceb4b16	-0.028722327
181	0x3c6d80fc	0.014496084
182	0x3d058977	0.0326018
183	0x3d471322	0.04860223
184	0x3d935462	0.07193829
185	0x3d0fe86d	0.035133768
186	0xbcc9af9b	-0.024619868
187	0x3b3c670c	0.0028747944
188	0xbd459467	-0.04823723
189	0xbcb60aec	-0.022222005
190	0x3ce4e107	0.027939333
191	0x3d8ed802	0.06974794
192	0xbd946898	-0.07246512
193	0x3d3da156	0.04629644
194	0x3d9f3410	0.07773602
195	0xbc97ea02	-0.0185442
196	0x3d2300a6	0.03979554
197	0x3cefd930	0.029278368
198	0x3d519633	0.05116863
199	0x3d6cda2a	0.057825245
200	0x3cb3aa81	0.021931889
201	0xbcaa0bba	-0.020757545
202	0xbd8fa2f0	-0.070135
203	0xbc4eb186	-0.012615567
204	0x3d15fbf7	0.036617246
205	0xbd6c9e30	-0.057768047
206	0x3d840d31	0.064478286
207	0xbda11ad5	-0.07866446
208	0xbd972da5	-0.07381753
209	0xbd9586c5	-0.07301096
210	0xbb9cfabb	-0.0047906316
211	0xbc23dd8b	-0.01000155
212	0xbda25586	-0.079264686
213	0xbc6c9b8d	-0.014441383
214	0x3d3fde92	0.04684312
215	0x3d1e3699	0.038626287
216	0x3d12b87d	0.035820473
217	0xbd821194	-0.06351009
218	0xbd842a90	-0.06453431
219	0x3d748633	0.059698295
220	0xb9e34d67	-0.00043354483
221	0xbcf5e658	-0.030017063
222	0x3d5d89e3	0.054086577
223	0x3c8e849c	0.017397217
224	0x3d8da1a4	0.06915596
225	0x3cd27b4a	0.025693554
226	0xbcb45b7e	-0.022016283
227	0xbd011bbd	-0.031520594
228	0x3ca496fb	0.020091524
229	0x3d01e561	0.031712893
230	0xbc17054d	-0.009217572
231	0xbcad453d	-0.02115118
232	0xbd83f082	-0.064423576
233	0x3da5d066	0.080963895
234	0xbcf037f8	-0.029323563
235	0x3c3251f7	0.0108838
236	0xbc911aec	-0.017713033
237	0x3c1307c3	0.0089740185
238	0xbd275512	-0.040852614
239	0xbda42450	-0.080147386
240	0xbd46e35b	-0.048556667
241	0x3b96b9e9	0.004599799
242	0x3d428285	0.047487754
243	0x3bbb97ee	0.0057248985
244	0xbc88b831	-0.016689392
245	0x3bc0d359	0.0058845696
246	0x3d3d8217	0.04626664
247	0x3c481b94	0.012213606
248	0xbd23961b	-0.039938074
249	0xbd57f6f0	-0.052725732
250	0x3c2da498	0.010598324
251	0xbd5794d9	-0.052632187
252	0xbd05b2c8	-0.032641202
253	0x3c28be77	0.010299317
254	0xbc860b1b	-0.016362717
255	0x3c8d35d4	0.017237581

encoder.2.bias f4 [32]
0	0xbd0ba5bb	-0.0340936
1	0xbd2a325d	-0.041551936
2	0x3da2e684	0.079541236
3	0x3d9d491c	0.0767996
4	0x3dacb54c	0.08433017
5	0xbd9fe498	-0.07807273
6	0xbd2f142a	-0.04274384
7	0xbd483b5d	-0.04888474
8	0x3db3ff8e	0.087889776
9	0x3cb40c45	0.021978507
10	0x3d4d5b0d	0.05013566
11	0x3d08b55b	0.03337608
12	0x3d93c2b6	0.072148725
13	0x3dd48be2	0.10378243
14	0xbbb2d6bf	-0.0054577286
15	0x3d01cba0	0.031688333
16	0x3d004940	0.031319857
17	0x3d678239	0.056520674
18	0x3daee9db	0.08540698
19	0x3d0d4311	0.034487788
20	0x3d7fdbb2	0.062465377
21	0x3d51798a	0.0511413
22	0x3de5b1c6	0.11215548
23	0x3e043309	0.12910093
24	0x3cdb2674	0.026751734
25	0x3c35d743	0.011098686
26	0x3d689f40	0.056792498
27	0x3cc7f5ce	0.024409201
28	0xbd2a4cba	-0.04157708
29	0xbd9520c0	-0.07281637
30	0x3de818c4	0.11332849
31	0xbda9a733	-0.08283844

encoder.4.weight f4 [64, 32, 3, 3]
0	0x3a98a041	0.0011644439
1	0x3acf4dc1	0.0015816019
2	0x3d72970f	0.059226092
3	0x3d791347	0.0608094
4	0xbbcef152	-0.0063153887
5	0x3d1e460a	0.038641013
6	0x3d4eb78f	0.050468024
7	0x3d867cba	0.065667585
8	0x3c974805	0.018466959
9	0x3c60895e	0.013704626
10	0x3ca50fdc	0.020149164
11	0xbc6eb6bd	-0.014569935
12	0xbd280a99	-0.04102573
13	0x3c984cb7	0.018591268
14	0x3c7d95d6	0.015477618
15	0x3d1b8a70	0.03797382
16	0xbc901ed0	-0.017592818
17	0x3a7cf4f2	0.0009649537
18	0x3d88dae2	0.066823736
19	0xbc1a9832	-0.0094357
20	0xbc2a5a37	-0.010397485
21	0xbbfd558d	-0.0077311457
22	0x3d99adb9	0.07503838
23	0xbc2bba05	-0.010481362
24	0xbc33f585	-0.010983829
25	0xbd02fb89	-0.031978164
26	0xba98872f	-0.0011636968
27	0xbd0bba54	-0.034113243
28	0x3cab1029	0.02088173
29	0xbd867403	-0.06565096
30	0x3cc210ba	0.023689616
31	0x3cd2a1f0	0.025711983
32	0x3d5909de	0.052987926
33	0x3cdbc3ac	0.026826702
34	0x3c0064d1	0.0078365365
35	0xbce21bd7	-0.027601166
36	0x3d52aec8	0.051436216
37	0x3dd5bfb7	0.10436957
38	0x3ac6fa01	0.0015180708
39	0xbc206bfa	-0.009791369
40	0x3d97f8b2	0.07420482
41	0x3db47845	0.08812002
42	0x3c2f9fe3	0.010719272
43	0x3c9230cc	0.017845534
44	0x3d364f60	0.04450929
45	0xbd641d17	-0.055691805
46	0x3d75095b	0.059823375
47	0xbd6aa851	-0.057289425
48	0xbd383d8e	-0.044980578
49	0x3d2e5283	0.042559158
50	0x3cb839ed	0.022488559
51	0x3d0b7a68	0.034052283
52	0x3d44c8ed	0.04804318
53	0x3d17725c	0.036974296
54	0x3d6021a4	0.054719582
55	0xbc48db2b	-0.012259285
56	0x3cfc94f7	0.03083275
57	0xbc9dd4c6	-0.019266497
58	0x3cc160f4	0.023605801
59	0xbd0c963d	-0.034322966
60	0x3b007fc0	0.0019607395
61	0xbd1d4cd6	-0.038403355
62	0xbda75409	-0.08170325
63	0xbd3b7bea	-0.04577247
64	0x3b52c7d6	0.0032162569
65	0x3d28e1f2	0.041231103
66	0xbc8761e3	-0.016526168
67	0x3b6e99f8	0.003640769
68	0x3b157016	0.0022802404
69	0xbd8100ad	-0.06298957
70	0x3d21b08b	0.039475005
71	0xbc365b17	-0.011130116
72	0x3d6cf82e	0.05785387
73	0x3da5bb3c	0.08092353
74	0x3dbc5cda	0.091973975
75	0x3c14a8bb	0.009073432
76	0x3c834e7a	0.016028631
77	0x3d0f090d	0.03492074
78	0x3d01ee3c	0.03172134
79	0xbc8680cc	-0.016418837
80	0x3d7795d1	0.06044561
81	0xbd611d92	-0.05495984
82	0xbc142ced	-0.009043914
83	0x3c70fcd9	0.014708721
84	0xbd017528	-0.03160587
85	0x3d71ab35	0.059001166
86	0x3d4dcc2f	0.050243553
87	0x3be892bb	0.0070975698
88	0xbc875185	-0.016518364
89	0x3db90d7d	0.09035776
90	0x3d86afba	0.06576486
91	0x3c665bd1	0.014059977
92	0x3d436543	0.047703993
93	0x3da1548c	0.07877454
94	0x3dc8e57f	0.09809398
95	0x3d53f632	0.051748462
96	0x3a7e5282	0.00097016257
97	0x3dc6317b	0.096774064
98	0xbb5dd4c8	-0.0033848751
99	0xbcb1800b	-0.021667501
100	0xbcec2814	-0.028827704
101	0xbbb9d730	-0.0056714043
102	0xbcb07d9b	-0.021544268
103	0xbd25f389	-0.040515456
104	0x3d4d3789	0.05010179
105	0xbc6d0bce	-0.0144681465
106	0x3c5fb421	0.013653786
107	0x3cf3d594	0.029764928
108	0xbd538c1e	-0.051647298
109	0xbd4b17cd	-0.049583245
110	0x3d1ad073	0.03779645
111	0x3cfc7f6c	0.030822478
112	0xbd1f16ed	-0.038840223
113	0x3b98b8d9	0.0046607074
114	0xbbfdc29e	-0.0077441474
115	0x3c75fb37	0.015013508
116	0xbb3a9db3	-0.0028475344
117	0x3c816d68	0.01579924
118	0xbd4a0c75	-0.049328286
119	0x3b4e4f27	0.0031480284
120	0xbcfa07ac	-0.030521236
121	0xbbddfd39	-0.0067745713
122	0xbc4083ee	-0.0117502045
123	0xbc90b404	-0.017663963
124	0xbd0a9240	-0.03383088
125	0x3d8348e8	0.0641039
126	0xbd7e6b58	-0.06211409
127	0xbd489bb0	-0.0489766
128	0xbb582e30	-0.0032986514
129	0x3c0c5d66	0.00856719
130	0xbc90a27e	-0.017655607
131	0x3d359a0f	0.044336375
132	0xbd2b3efa	-0.041808106
133	0xbcff775f	-0.03118485
134	0xbcb74fb9	-0.022376882
135	0x3d477c43	0.04870249
136	0x3d6ae878	0.057350606
137	0xbc9cb5ca	-0.019129653
138	0x3d9ad8a7	0.075608544
139	0x3cad6bc1	0.021169545
140	0x3dda269d	0.10651896
141	0x3c911ecc	0.01771488
142	0xbafcdd5e	-0.0019292047
143	0x3d0d567b	0.034506302
144	0x3caf0f3c	0.021369569
145	0xbd72ed3c	-0.059308276
146	0x3c5f7693	0.01363911
147	0xbbf3a584	-0.0074355025
148	0xbcadbb57	-0.021207495
149	0x3d2de3f6	0.04245373
150	0x3ca17182	0.019707445
151	0xbd36991a	-0.044579603
152	0xbc08bdd3	-0.008346039
153	0x3d392b92	0.045207568
154	0x3d8cc311	0.068731435
155	0x3cea4f66	0.028602313
156	0x3c966545	0.018358836
157	0x3d32f3dc	0.043689594
158	0x3d68dc9f	0.056851026
159	0x3d39b45e	0.045338027
160	0xbb7a2bc7	-0.0038173066
161	0x3dba278f	0.090895765
162	0x3d7bb7a8	0.061454445
163	0x3d98a3bd	0.074531056
164	0x3b121c72	0.0022294787
165	0x3d782da8	0.060590416
166	0x3b8eb019	0.0043544886
167	0x3cabc40a	0.020967502
168	0x3dae3327	0.0850585
169	0x3dd1518b	0.10220631
170	0x3dd43729	0.103620835
171	0x3ca3ac67	0.019979669
172	0xbb7e9097	-0.0038843506
173	0xbc985969	-0.018597322
174	0x3ca9541e	0.020669993
175	0x3d9affbf	0.07568311
176	0x3dd68705	0.10474972
177	0xbc25cc5d	-0.010119525
178	0x3c4bc894	0.012437958
179	0x3d74bd04	0.05975057
180	0x3b0f679c	0.0021881824
181	0x3d925fbd	0.07147167
182	0x3d41a017	0.047271814
183	0x3d65f89d	0.0561453
184	0xbc6151fa	-0.013752455
185	0x3d4145e6	0.0471858
186	0x3cb5cfb3	0.022193765
187	0x3d96b498	0.07358664
188	0x3cb0463d	0.021517867
189	0xbd04925e	-0.03236615
190	0x3b80ffd4	0.003936747
191	0xbd2a3153	-0.041550945
192	0x3b40916f	0.002938356
193	0xbbdf3183	-0.006811322
194	0x3cebb510	0.02877286
195	0x3c22598f	0.009909048
196	0x3cb10192	0.021607194
197	0xbd2ab809	-0.041679416
198	0xbd01e4c4	-0.03171231
199	0xbc8b08e3	-0.016972011
200	0x3bd04afa	0.006356594
201	0x3d356fdf	0.04429614
202	0x3bb7c1a5	0.005607801
203	0x3bf62f21	0.0075129424
204	0x3d433adb	0.04766355
205	0x3dddba26	0.108265206
206	0x3dbe83ba	0.093024686
207	0x3cdc513f	0.02689421
208	0x3cd8d19c	0.026467137
209	0x3da58660	0.080822706
210	0xbc4e3e48	-0.012588091
211	0x3c4bb523	0.012433323
212	0x3d431031	0.047622863
213	0x3d80a530	0.06281507
214	0x3da5f533	0.08103409
215	0x3d55d649	0.05220631
216	0xb8534b57	-5.0376486e-05
217	0x3d85f760	0.06541324
218	0xbbc219fb	-0.0059235073
219	0xbccd120f	-0.025033025
220	0x3d024d5e	0.031812064
221	0xbc3a8022	-0.011383088
222	0xbd49d9dc	-0.049280033
223	0xbc3be8e6	-0.0114691015
224	0xbbffc800	-0.0078058243
225	0x3cc4397a	0.023953188
226	0xbccd517b	-0.025063267
227	0xbd186e69	-0.03721467
228	0x3d0320b5	0.032013614
229	0xbd2ac8ce	-0.04169541
230	0xbd16de99	-0.03683338
231	0x3d1a1059	0.037613247
232	0x3a206522	0.00061185856
233	0x3d9a63f8	0.07538599
234	0xbd36b4a6	-0.044605874
235	0x3caf6ddd	0.021414692
236	0xbd119e78	-0.03555152
237	0x3bbede60	0.005824849
238	0x3c651378	0.0139816925
239	0x3c98b2d5	0.018639961
240	0x3d82e6a3	0.06391647
241	0x3d5775e5	0.052602667
242	0x3ca76988	0.020436063
243	0xbc20ea92	-0.009821551
244	0x3d0f6dc8	0.035016805
245	0x3ceaf428	0.028680876
246	0x3d732c80	0.05936861
247	0x3b8f5e99	0.0043752906
248	0x3dc6079c	0.0966942
249	0x3d1f5090	0.03889519
250	0x3d3d29a9	0.04618231
251	0x3d78062e	0.06055277
252	0xbd4d9ae3	-0.05019654
253	0x3d53ebc6	0.051738523
254	0xbd7b3aae	-0.06133526
255	0xbd322dce	-0.043500714

encoder.4.bias f4 [64]
0	0x3d8d8d52	0.0691172
1	0x3dc0019e	0.093753085
2	0xbcd84462	-0.026399795
3	0x3ced9790	0.029002935
4	0x3cc7d835	0.024395088
5	0xbc6e417a	-0.014541978
6	0x3dbff907	0.0937367
7	0xbc0dd2b9	-0.008656197
8	0x3d85b6d8	0.06529015
9	0x3d8fa762	0.070143476
10	0x3cee1726	0.029063772
11	0xbd4b6233	-0.049654197
12	0x3c37d82d	0.011220974
13	0xbd4936d4	-0.049124554
14	0x3cfa011a	0.030518103
15	0x3db724ac	0.089425415
16	0x3d9a6a9e	0.07539867
17	0x3d08d42c	0.033405468
18	0xbaec5a7a	-0.0018032335
19	0xbc7c6d63	-0.015406939
20	0x3d7cb656	0.061697327
21	0x3d67d000	0.05659485
22	0x3d1668ad	0.03672092
23	0x3d2bec64	0.041973487
24	0xbcf7ca44	-0.030247815
25	0x3b26ef68	0.0025472287
26	0xbb3c4f1c	-0.0028733676
27	0x3d96386c	0.0733498
28	0x3d794177	0.060853448
29	0xbcb3bb8a	-0.021940012
30	0x3d7ccbed	0.061717916
31	0x3d823ab9	0.06358857
32	0x3d705641	0.058676008
33	0x3d94bdcf	0.072627656
34	0x3d82359f	0.06357884
35	0xbd06c2c3	-0.032900583
36	0x3bd5a662	0.0065200785
37	0x3d7bcb69	0.061473284
38	0xbd3d964e	-0.04628592
39	0x3daa03aa	0.0830148
40	0xbc9114bb	-0.01771008
41	0xbb2b287c	-0.002611666
42	0xbd223a3b	-0.039606314
43	0xbc0dd4fc	-0.008656736
44	0x3da0613f	0.07831048
45	0xbd8237cd	-0.063582994
46	0xbcbb6bae	-0.022878494
47	0x3caac2a5	0.020844767
48	0x3d8cf934	0.06883469
49	0x3d271973	0.040795755
50	0x3d7cb8b7	0.061699595
51	0xbcccc506	-0.024996292
52	0x3c0cb0de	0.00858709
53	0x3d2b6275	0.041841943
54	0x3d904e46	0.070461795
55	0xbc95dba8	-0.018293217
56	0x3db5cf63	0.088774465
57	0x3d49b316	0.049243055
58	0x3d858488	0.06519419
59	0xbc4244f9	-0.011857265
60	0x3b4cf54e	0.0031274143
61	0x3c2fdf2f	0.010734363
62	0x3d6a7af1	0.057246152
63	0x3cf51cfe	0.029921051

decoder.0.weight f4 [64, 32, 3, 3]
0	0xbc964103	-0.018341547
1	0x3cf5ab7b	0.029988995
2	0x3d26bbbd	0.040706385
3	0x3be66bb8	0.007031884
4	0x3d34b114	0.044114187
5	0x3a9baf68	0.0011877837
6	0x3d6a9b4b	0.057277005
7	0xbc1c6269	-0.009544947
8	0xbd15be93	-0.0365587
9	0x3cc35602	0.023844723
10	0x3ccb8935	0.024845699
11	0x3bca63fd	0.0061764703
12	0x3cba56bd	0.022746438
13	0xbbe7c0c6	-0.007072541
14	0x3c9a1886	0.018810522
15	0x3d059da4	0.03262104
16	0x3d64c19f	0.055848714
17	0xbcda7d9d	-0.026671225
18	0x3d2f0b29	0.042735253
19	0xbcbedf96	-0.023299973
20	0xbcf039d4	-0.02932445
21	0xbd268fbf	-0.04066443
22	0xbd10573a	-0.035239436
23	0xbcb15322	-0.021646086
24	0x3c80d211	0.015725167
25	0x3d71071c	0.05884467
26	0x3d3b016b	0.04565565
27	0xbd5890b0	-0.05287236
28	0x3d4cc787	0.04999497
29	0x3d7a4c39	0.061107848
30	0x3d106bd9	0.0352591
31	0x3d92aee0	0.07162261
32	0x3caa2876	0.020771246
33	0xbd2c7e4f	-0.042112645
34	0xbc72bba2	-0.014815243
35	0x3d3fccd9	0.046826217
36	0x3d441cf9	0.047879193
37	0x3c87ba63	0.016568368
38	0x3d30f273	0.043199968
39	0x3d20221b	0.039095026
40	0x3d5eb1ec	0.0543689
41	0x3cccaf4f	0.024985937
42	0xbc12899f	-0.008943944
43	0x3d416261	0.047212962
44	0xbc685999	-0.014181518
45	0xbd789651	-0.060690228
46	0xbd39a1cc	-0.045320317
47	0x3bde124a	0.0067770826
48	0xbd595bae	-0.05306595
49	0x3d6aa8ac	0.057289764
50	0x3d83b2f5	0.06430618
51	0xbc8ed7c5	-0.017436871
52	0xbb354c4d	-0.0027663887
53	0xbd017bd5	-0.031612236
54	0x3d5fce2b	0.054639976
55	0xbd04cbaf	-0.03242081
56	0x3d0d70b6	0.034531318
57	0x3d2c253d	0.0420277
58	0x3d68ca45	0.056833524
59	0x3cb209d5	0.021733204
60	0x3d04b751	0.032401387
61	0x3b91a083	0.0044441833
62	0xbd7eb327	-0.06218257
63	0xbd87c7dd	-0.06629918
64	0x3cfcd807	0.030864729
65	0xbc0c1d56	-0.008551916
66	0xbd4ffc36	-0.050777636
67	0xbc8ff0f1	-0.017570945
68	0xbd8e7aa0	-0.069569826
69	0xbc25b7b1	-0.010114596
70	0xbd5c57bf	-0.05379462
71	0x3ca831e4	0.020531602
72	0xbd0252cb	-0.03181724
73	0x3d180d2e	0.037121944
74	0xbc8e1d93	-0.017348086
75	0x3aea29ad	0.0017865204
76	0xbc6f0089	-0.01458753
77	0x3d9a8ee6	0.07546787
78	0x3c24def7	0.010062925
79	0x3d6eb762	0.058280356
80	0xbd11a45f	-0.035557147
81	0xbd5d804e	-0.05407744
82	0xbc2953e1	-0.01033494
83	0xbab2eebb	-0.001365147
84	0xbc588c31	-0.013217018
85	0x3d05402b	0.0325319
86	0xbd1aa929	-0.03775898
87	0xbbdcd4c8	-0.0067392327
88	0xbc390ac4	-0.011294071
89	0xbcd1ac14	-0.025594749
90	0x3b5025ee	0.003176089
91	0x3c97e493	0.01854161
92	0x3c3b3562	0.011426302
93	0x3be14534	0.0068747047
94	0x3d3bca8f	0.04584747
95	0x3d07a66b	0.033117693
96	0xbcfb45eb	-0.030672988
97	0x3d1815d8	0.037130207
98	0xbd64ca8d	-0.05585723
99	0xbcd986fe	-0.026553627
100	0xbd1fdcbd	-0.03902887
101	0xbcf1f65e	-0.029536422
102	0xbd2071de	-0.039171092
103	0x3d90c8e6	0.07069568
104	0xbd3e95d0	-0.04652959
105	0x3bdd576b	0.006754806
106	0xbd25ccde	-0.04047858
107	0x3b6e5618	0.0036367234
108	0xbd09cca6	-0.033642434
109	0x3d384871	0.04499096
110	0xbc813dc5	-0.015776524
111	0x3c844fbf	0.016151307
112	0x3d9e66cf	0.07734453
113	0x3d764142	0.06012083
114	0x3d625c24	0.055263653
115	0x3d99a819	0.07502765
116	0x3cceab6e	0.025228228
117	0xbad8d265	-0.0016542195
118	0x3d819182	0.063265815
119	0x3cea5936	0.028606992
120	0xb9b7cd1c	-0.00035057298
121	0xbd59e13c	-0.053193316
122	0xbd56059d	-0.052251447
123	0xbcbb36bc	-0.022853248
124	0x3c45b9a7	0.012068189
125	0xbbbc3a8e	-0.005744285
126	0xbce32e8b	-0.027732154
127	0xbbbac0c3	-0.0056992485
128	0x3d17c8d0	0.037056744
129	0xbcb6631f	-0.022264061
130	0x3bee992e	0.007281444
131	0xbb830d13	-0.0039993613
132	0x3d113e80	0.035459995
133	0x3d2ee035	0.04269429
134	0x3ce74324	0.028230257
135	0xbd039173	-0.032121133
136	0xbca2b768	-0.019862846
137	0x3d4506c3	0.04810215
138	0x3d414960	0.047189116
139	0xbd82eeb3	-0.063931845
140	0xb992a1af	-0.00027967754
141	0x3d22bfdd	0.039733756
142	0xbd143b40	-0.036189318
143	0x3d444fcd	0.047927666
144	0x3c0fc5fe	0.008775232
145	0xbcb4ccc6	-0.0220703
146	0x3c544078	0.012954824
147	0x3d3b6411	0.045749728
148	0x3dd3b0ca	0.10336454
149	0x3b36456a	0.002781237
150	0x3c330144	0.010925595
151	0x3dc69375	0.09696094
152	0x3da3f480	0.08005619
153	0xbc5f5f27	-0.013633526
154	0x3c001a30	0.007818744
155	0x3d4d4bf0	0.050121248
156	0xbc9d251d	-0.019182736
157	0x3dd15f42	0.10223247
158	0xbcdae578	-0.026720747
159	0xbc2a6706	-0.010400539
160	0xbbf52a91	-0.007481881
161	0xbd17c57b	-0.037053566
162	0x3d14d6a8	0.036337525
163	0x3d06fd5c	0.032956466
164	0x3d1df4f1	0.038563672
165	0xbcc4fcab	-0.024046263
166	0xbd280043	-0.041015875
167	0x3d5f8b23	0.05457605
168	0xbcb5ad17	-0.022177262
169	0x3bc03125	0.0058652335
170	0x3c988464	0.018617816
171	0x3c7a26c6	0.015268033
172	0x3c576980	0.013147712
173	0x3c26b973	0.0101760505
174	0x3d812589	0.063059874
175	0xbd13693a	-0.035989024
176	0xbd67a5be	-0.05655455
177	0x3c3088ff	0.01077485
178	0xbc75e573	-0.015008318
179	0x3cd1a8df	0.02559322
180	0xbd0819fa	-0.0332279
181	0x3c8f95bb	0.017527452
182	0x3c4b2dd1	0.01240106
183	0x3cb8cdf6	0.022559147
184	0xbd3b8533	-0.045781326
185	0xbb1bc710	-0.0023769774
186	0x3d4293fa	0.047504403
187	0x3d007494	0.031361178
188	0xbc2bf312	-0.010494964
189	0xbd3ac9d2	-0.045602627
190	0xbd5e9790	-0.05434376
191	0xbb2ec4c8	-0.0026667584
192	0xbb945fc5	-0.004528018
193	0x3bde7527	0.006788868
194	0x3c88b282	0.016686682
195	0x3cd42a8a	0.02589919
196	0xba4838b0	-0.00076378416
197	0x3cc1a854	0.023639835
198	0x3d194bf7	0.03742596
199	0xbd712df2	-0.058881707
200	0x3ce53c2c	0.027982794
201	0x3d51324b	0.051073354
202	0x3da63d89	0.08117206
203	0x3d01bea9	0.03167597
204	0x3c32af5a	0.010906065
205	0x3cfcae02	0.030844692
206	0x3bf5afdd	0.007497771
207	0xbd360fa0	-0.044448495
208	0x3d682172	0.05667252
209	0x3b90a3a0	0.004414037
210	0x3d7332a2	0.05937446
211	0x3cf332e4	0.029687352
212	0x3da22714	0.0791761
213	0x3d179060	0.03700292
214	0x3cdfb94c	0.027310036
215	0x3d98a233	0.07452812
216	0x3b510900	0.0031896234
217	0xbcf3a165	-0.029740045
218	0x3d1c349b	0.038136106
219	0x3ce95282	0.028481726
220	0x3cd700af	0.026245443
221	0xbd661160	-0.056168914
222	0x3c2cff24	0.010558877
223	0x3ccb336a	0.02480479
224	0x3d2b6929	0.041848335
225	0x3d260f0c	0.040541694
226	0x3d13e017	0.03610238
227	0x3d92e0f8	0.07171816
228	0x3c577fd9	0.01315304
229	0xbcdfa9fb	-0.027302733
230	0x3d929313	0.071569584
231	0x3d10465e	0.035223357
232	0xbc568a4d	-0.013094497
233	0xbc7c42ac	-0.015396755
234	0xbd0d809b	-0.034546476
235	0x3cbc310d	0.022972608
236	0xbc39ee30	-0.011348292
237	0x3ce56298	0.028001115
238	0x3c843dce	0.016142752
239	0x3bf51765	0.0074795955
240	0xbb8d106a	-0.004304935
241	0x3ca4d45c	0.020120792
242	0x3d534662	0.051580794
243	0x3d31d2de	0.04341399
244	0xbb543dd0	-0.0032385476
245	0x3c9653cb	0.018350502
246	0x3da64090	0.08117783
247	0x3d5a7746	0.053336404
248	0x3d5ef0da	0.054428913
249	0x3d9d79d3	0.07689252
250	0x3cf14b1e	0.029454764
251	0xbc6608d1	-0.014040188
252	0xbd2e4621	-0.04254735
253	0x3cc6ea4b	0.024281641
254	0x3bf081ce	0.0073396927
255	0x3d46dfb7	0.048553195

decoder.0.bias f4 [32]
0	0x3d80013c	0.062502354
1	0x3be3f281	0.006956399
2	0x3d9730d0	0.07382357
3	0x3d9ff995	0.07811276
4	0x3d5075bb	0.050893527
5	0x3c9fb03e	0.019493219
6	0x3c9ac38b	0.01889207
7	0x3d3f999f	0.046777364
8	0x3d2f1f92	0.042754717
9	0x3bc75c52	0.0060840035
10	0xbd0e74bd	-0.0347793
11	0x3c87bc50	0.016569287
12	0x3d2f2510	0.042759955
13	0x3ba16aee	0.004926077
14	0x3d1eb39a	0.0387455
15	0x3b5a3246	0.0033294125
16	0x3db6fc08	0.0893479
17	0x3d86c19a	0.06579895
18	0xbbaf6d33	-0.0053535937
19	0x3d592420	0.053012967
20	0xbd2e2b2f	-0.04252165
21	0x3cb7efcc	0.022453211
22	0xbcb95ccc	-0.022627257
23	0x3d5df80d	0.054191638
24	0xbd855ec7	-0.06512218
25	0x3d00b745	0.03142478
26	0xbcfdea4f	-0.030995516
27	0x3d93d107	0.07217603
28	0xbc0cb7cc	-0.008588742
29	0x3d7a3893	0.06108911
30	0x3d172843	0.03690363
31	0xbb2f9bbb	-0.0026795703

decoder.2.weight f4 [32, 16, 3, 3]
0	0x3cdf45bb	0.02725493
1	0x3c9d36c9	0.019191163
2	0x3cc3274a	0.023822445
3	0x3bef71ce	0.0073072677
4	0x3d80dc37	0.06292003
5	0x3d64f43a	0.055896975
6	0xbd2a3ed2	-0.041563816
7	0x3d05914f	0.03260928
8	0x3d63f4d1	0.055653397
9	0xbd72489f	-0.059151288
10	0xbd6ea561	-0.058263186
11	0x3d8fbccc	0.07018432
12	0x3ae84f2f	0.0017723794
13	0x3d1a3ef6	0.0376577
14	0x3ce7d9f6	0.028302174
15	0xbc22a9af	-0.009928151
16	0x3d1390a7	0.036026623
17	0x3ce07242	0.027398232
18	0xbc8d5123	-0.017250603
19	0x3c788c32	0.015170144
20	0xbd089df8	-0.033353776
21	0x3c825ba0	0.01591283
22	0xbcabdaf6	-0.020978432
23	0x3dd82488	0.10553843
24	0x3da2c8ce	0.07948457
25	0x3d27fb4c	0.04101114
26	0x3dbb8860	0.09156871
27	0x3cdc9b34	0.026929475
28	0xbb904884	-0.004403176
29	0xbc3a9893	-0.011388916
30	0x3b7823ac	0.003786306
31	0x3ddff380	0.10935116
32	0x3d864d59	0.06557722
33	0x3cd103dc	0.025514536
34	0xbc0dfcf7	-0.008666269
35	0x3da3734d	0.07980976
36	0x3d798433	0.06091709
37	0x3ce3d5da	0.027811933
38	0x3da0e99f	0.0785706
39	0x3d999505	0.07499126
40	0xbcd5ae3c	-0.026084058
41	0x3dca705d	0.09884713
42	0x3cc1165f	0.023570238
43	0x3dd0364b	0.101666056
44	0x3d17425d	0.036928523
45	0xbda6c58d	-0.081431486
46	0xbda97bc0	-0.082755566
47	0xbd923318	-0.071386516
48	0xbd5e491a	-0.054268934
49	0xbd496900	-0.0491724
50	0xbd8448b1	-0.06459177
51	0x3d3ce14a	0.04611329
52	0xbdb7cae6	-0.08974247
53	0x3da08a80	0.07838917
54	0xbd95b415	-0.073097385
55	0x3ced77c0	0.028987765
56	0x3d678187	0.05652001
57	0xbd2134de	-0.03935706
58	0xbc8fc976	-0.017552119
59	0xbd05b53f	-0.032643553
60	0x3c1ac690	0.009446755
61	0x3d8dc7c7	0.0692287
62	0xbd879ae3	-0.06621339
63	0xbcdcaefc	-0.026938908
64	0xbd0ea2cf	-0.034823235
65	0x3ce31dd0	0.027724177
66	0xbc63c722	-0.013902457
67	0x3ca7a958	0.020466492
68	0xbd65b575	-0.056081254
69	0xbd2abf66	-0.041686438
70	0x3d1c8d7b	0.038220864
71	0x3c5fba4f	0.013655259
72	0xbcf2f948	-0.029659882
73	0x3d4144c5	0.047184724
74	0xbd949905	-0.07255749
75	0x3d8d8b04	0.06911281
76	0xbc96b47c	-0.018396609
77	0xbc2e15c6	-0.010625308
78	0x3d327e6a	0.04357759
79	0x3d0f3ffb	0.034973126
80	0x3d2ec4cf	0.04266816
81	0x3d349a75	0.044092614
82	0xbc9c2618	-0.019061133
83	0x3d7fa246	0.062410615
84	0xbd385c23	-0.045009743
85	0x3c53f727	0.012937344
86	0x3cedea45	0.029042372
87	0x3ccf34dc	0.02529376
88	0x3c93693c	0.017994516
89	0xbd46c7ea	-0.048530497
90	0xbd55710d	-0.052109767
91	0xbdbdc408	-0.092659056
92	0xbca40875	-0.020023564
93	0x3d83c987	0.06434923
94	0x3d92bc15	0.0716478
95	0x3dc652b5	0.09683744
96	0x3db0cc7b	0.086327516
97	0x3d8cd74b	0.068770014
98	0x3d4c5f4c	0.04989557
99	0x3d066433	0.0328104
100	0x3cb059f9	0.021527277
101	0x3d845a5d	0.06462548
102	0xbb28f7c7	-0.0025782452
103	0xbd09584b	-0.03353147
104	0xbc61b390	-0.013775721
105	0xbd51d369	-0.051227007
106	0x3cb83f31	0.02249107
107	0x3dd6fa65	0.10496978
108	0xbd975ff9	-0.07391352
109	0x3c0964db	0.008385862
110	0xbd87bf03	-0.066282295
111	0xbce493ba	-0.027902473
112	0x3bd48f6e	0.0064868247
113	0x3c9af64b	0.01891627
114	0xbc76a5b7	-0.015054158
115	0xbd59c7a2	-0.0531689
116	0x3d1c30c9	0.038132463
117	0xbd203940	-0.039117098
118	0xbd66f8cc	-0.056389615
119	0xbc5108bc	-0.01275843
120	0xbd2b2ad9	-0.04178891
121	0x3dede063	0.11615064
122	0x3d28f880	0.041252613
123	0xbc5c0b9e	-0.013430504
124	0x3bf40312	0.007446655
125	0x3b88d4b6	0.0041757477
126	0xbdd09544	-0.1018472
127	0x3c1c5886	0.00954259
128	0x3ddb0b51	0.10695518
129	0xbd1558e2	-0.03646172
130	0xbd909861	-0.07060314
131	0x3d185a25	0.037195344
132	0xbdd7d6f3	-0.10539045
133	0xbbd30b15	-0.00644053
134	0x3d4e610b	0.050385516
135	0xbd9333ea	-0.07187636
136	0x3d1a4525	0.037663598
137	0x3dab620c	0.0836831
138	0x3beb0cd7	0.0071731615
139	0x3dc87a25	0.09788922
140	0x3d317663	0.043325793
141	0x3d9b97b6	0.07597296
142	0x3d56b2bc	0.052416548
143	0x3d90e6cd	0.07075272
144	0x3c65d505	0.014027839
145	0xbd5a3499	-0.053272817
146	0x3d939a20	0.072071314
147	0x3d8a6ddb	0.067592345
148	0x3bf6cc10	0.0075316504
149	0xbbac940d	-0.0052666725
150	0xbc80f05d	-0.015739614
151	0x3de316b5	0.110883154
152	0x3c8a81cc	0.016907595
153	0xbd121903	-0.035668384
154	0x3d1a7b73	0.037715387
155	0xbcc5c37b	-0.024141064
156	0xbd05afcd	-0.03263836
157	0xbd4bcedd	-0.049757827
158	0xbcc850a4	-0.024452515
159	0xbd39aedd	-0.04533278
160	0x3cc45125	0.023964474
161	0xbbbaa4f9	-0.005695936
162	0x3da104f7	0.07862275
163	0x3c223b66	0.009901857
164	0x3c5e4622	0.013566526
165	0x3d5cf22b	0.053941887
166	0xbca607a1	-0.02026731
167	0xbd29f5ea	-0.041494288
168	0x3d9c5d79	0.07635016
169	0x3dab6c9e	0.083703265
170	0x3c2c9f38	0.010536008
171	0xbcb0c974	-0.021580435
172	0x3cfb061b	0.03064256
173	0x3d61b43b	0.05510352
174	0x3db676e5	0.08909396
175	0x3d1024c7	0.035191324
176	0xbd83d673	-0.06437387
177	0xbd38485e	-0.04499089
178	0x3dae6eee	0.08517252
179	0xbc352d6d	-0.011058194
180	0x3d6ffee6	0.0585927
181	0x3baa7851	0.005202331
182	0xbd050146	-0.032471918
183	0xbd4c5b5c	-0.049891815
184	0x3d99f9b4	0.0751833
185	0x3de65527	0.1124671
186	0x3d08fbbc	0.033443198
187	0x3d73c54d	0.059514333
188	0x3dbc8a94	0.09206119
189	0x3abd3f18	0.0014438359
190	0x3d04afde	0.032394283
191	0x3dae7db1	0.085200675
192	0xbc3433dc	-0.010998692
193	0x3d30200a	0.042999305
194	0xbbe8be7c	-0.0071027856
195	0x3ca46630	0.020068258
196	0x3c84d0f1	0.016212912
197	0x3dc42792	0.0957786
198	0x3c086892	0.008325713
199	0x3c399f9f	0.011329561
200	0xbcbff81d	-0.02343374
201	0x3ae4e553	0.0017463363
202	0x3d56a6c2	0.052405126
203	0x3c42395a	0.011854494
204	0x3daa09b0	0.08302629
205	0xbd7403a3	-0.05957378
206	0x3b895ac0	0.0041917264
207	0xbd9f116c	-0.07766995
208	0x3d0af984	0.033929363
209	0x3d24a447	0.04019573
210	0xb9ea3eb0	-0.00044678664
211	0xbc5ceded	-0.01348446
212	0x3d093bfb	0.033504467
213	0x3d588ee1	0.052870635
214	0xbc99a6c1	-0.018756272
215	0x3cc7fdb5	0.02441297
216	0x3d44aa9e	0.048014276
217	0xbd91b2a6	-0.071141526
218	0x3d8bf1c2	0.06833221
219	0x3c12496e	0.00892864
220	0x3d1fddd2	0.039029904
221	0xbda26bcd	-0.079307176
222	0xbd0853be	-0.033282988
223	0x3d76f354	0.06029065
224	0x3d957ea8	0.072995484
225	0xbda01b95	-0.07817761
226	0x3d26ccfe	0.04072284
227	0x3d294e38	0.04133436
228	0xbd1e7d4e	-0.03869372
229	0x3cc24352	0.023713741
230	0x3ca58b7b	0.020208111
231	0xbd612e5a	-0.054975845
232	0xbd2b7d9c	-0.041867837
233	0x3c1c0574	0.0095227845
234	0xbd8013be	-0.062537655
235	0x3c68a5e0	0.014199704
236	0x3b37ad43	0.0028026856
237	0x3d84465c	0.064587325
238	0x3d263d92	0.04058606
239	0xbd2136e1	-0.039358977
240	0x3d769d49	0.060208593
241	0xbc892f61	-0.016746225
242	0x3d837afc	0.06419942
243	0x39e36d79	0.00043378377
244	0x3d5eb4bd	0.054371584
245	0x3d0b6321	0.034030084
246	0xbca7a5f1	-0.02046487
247	0xbb901951	-0.004397549
248	0x3bae222d	0.0053141327
249	0x3d0a4a14	0.033762053
250	0x3d963d9b	0.07335969
251	0xbc9290c2	-0.017891292
252	0xbd8959a6	-0.06706552
253	0xbdac4274	-0.084111124
254	0x3d9de3c6	0.0770946
255	0x3c959d79	0.018263565

decoder.2.bias f4 [16]
0	0xbd590efc	-0.052992806
1	0xba141ebd	-0.00056503323
2	0xbcfe8c5b	-0.031072786
3	0xbd1afd22	-0.037839063
4	0x3d39d5d7	0.04536995
5	0x3c81cb55	0.015844027
6	0x3d1a7178	0.03770587
7	0xbd851f08	-0.06500059
8	0x3c711f76	0.0147169735
9	0x3b4f6aa6	0.003164926
10	0x3c95806f	0.018249718
11	0x3d7761ab	0.060395878
12	0x3c24f901	0.010069133
13	0xbcffd233	-0.03122816
14	0xbcb3f015	-0.021965066
15	0x3d05a5b9	0.03262875

decoder.4.weight f4 [16, 3, 3, 3]
0	0xbd867ea0	-0.065671206
1	0x3da52010	0.08062756
2	0x3dda2104	0.106508285
3	0x3e2a4c72	0.16630724
4	0xbdc74794	-0.09730449
5	0x3e28718c	0.16449565
6	0xbc87ffca	-0.016601462
7	0xbcac9e26	-0.021071505
8	0x3e068990	0.13138413
9	0xbd1f9d4e	-0.038968377
10	0x3d223fdc	0.039611682
11	0x3d225af0	0.039637506
12	0x3db36691	0.08759797
13	0xbdf948c1	-0.1217208
14	0xbe0ad8e4	-0.135593
15	0x3e303e50	0.1721127
16	0xbe2e68ec	-0.17032212
17	0xbe34eba7	-0.17668019
18	0x3e5058c8	0.20346367
19	0x3e1287bc	0.14309591
20	0x3dae6265	0.08514861
21	0xbd7af270	-0.061266363
22	0xbe11a7da	-0.14224187
23	0x3d1d3123	0.03837694
24	0x3c916b80	0.017751455
25	0xbe28b21f	-0.16474198
26	0xbda0d69f	-0.07853436
27	0xbe084794	-0.13308555
28	0x3a853c9d	0.0010165159
29	0xbe0bd014	-0.13653594
30	0xbd794431	-0.060856048
31	0xbd49b644	-0.049246088
32	0xbdbaa5ea	-0.09113677
33	0x3da4f828	0.080551445
34	0x3bd5b378	0.0065216385
35	0xbdd67ba1	-0.10472799
36	0x3d6e1d58	0.058133453
37	0xbe4529d5	-0.19254239
38	0x3dff0fd6	0.12454192
39	0xbdda9364	-0.10672644
40	0xbe679a5a	-0.22617474
41	0xbe55b27f	-0.20868872
42	0xbd99859f	-0.07496189
43	0x3dff3085	0.12460426
44	0xbe09425a	-0.13404217
45	0xbdf2d131	-0.11856306
46	0xbd47906b	-0.048721712
47	0x3e1fd132	0.15607145
48	0xbd3a5400	-0.045490265
49	0x3dae2271	0.08502663
50	0xbe161e22	-0.14659932
51	0xbbc8e5d3	-0.006130913
52	0xbe375d43	-0.1790667
53	0xbe1728d9	-0.14761676
54	0x3e07270d	0.1319849
55	0x3d3a3b68	0.04546681
56	0xbe2b7f16	-0.16747698
57	0xbdc6590a	-0.096849516
58	0xbbd95a01	-0.0066330438
59	0xbe3c129d	-0.18366475
60	0x3d9a2170	0.07525909
61	0x3d7d5d41	0.061856512
62	0x3cbce257	0.023057146
63	0xbe2bdfc8	-0.16784585
64	0xbdd0078e	-0.10157691
65	0xbe6a5349	-0.22883333
66	0xbe2120c0	-0.1573515
67	0xbddb4243	-0.10705998
68	0xbe1aa0ae	-0.15100357
69	0x3d243434	0.040088847
70	0xbc3595c3	-0.011083069
71	0x3e048210	0.1294024
72	0xbe30a946	-0.17252073
73	0x3d4a28ec	0.049355432
74	0x3dfbcf70	0.12295425
75	0xbe0a9f58	-0.13537347
76	0xbe50bb7a	-0.20384017
77	0x3ce10066	0.02746601
78	0xbd8623b0	-0.065497756
79	0x3e03c148	0.128667
80	0xbe435b43	-0.19077782
81	0x3e1e2e50	0.15447354
82	0xbe510445	-0.20411785
83	0x3df030d6	0.11728065
84	0x3d0d1f27	0.034453537
85	0xbe104105	-0.14087303
86	0x3c2bebb7	0.0104932105
87	0xbe151fa0	-0.14562845
88	0x3de27a8d	0.11058531
89	0xbd38d6b3	-0.045126628
90	0x3de807b1	0.11329592
91	0xbe05c365	-0.13062818
92	0xbd9b4e22	-0.07583262
93	0xbdd93f03	-0.10607722
94	0x3dd6b68d	0.104840375
95	0xbdc9be53	-0.098507546
96	0x3d482967	0.04886761
97	0x3c7baaf4	0.015360583
98	0x3d550633	0.052007865
99	0xbe130373	-0.14356785
100	0xbd778e0e	-0.06043821
101	0xbe222cbd	-0.15837379
102	0xbbb226c8	-0.005436752
103	0xbd0b4762	-0.034003623
104	0xbcbbe6f8	-0.022937283
105	0xbdd02c28	-0.10164672
106	0x3d8ac1ef	0.06775271
107	0xbdd02af0	-0.1016444
108	0xbd87afeb	-0.066253506
109	0xbd3c5f07	-0.045989063
110	0x3dfede9c	0.12444803
111	0xbdb035ec	-0.08604035
112	0xbe74e983	-0.23917203
113	0xbbb224e1	-0.005436525
114	0xbda8e762	-0.08247258
115	0x3db9ff03	0.09081843
116	0x3d1819e7	0.037134077
117	0xbe3bea23	-0.18351035
118	0xbcf8bebe	-0.03036439
119	0xbd3a395f	-0.04546487
120	0xbdcf212d	-0.1011375
121	0xbe564267	-0.20923768
122	0x3d2644ea	0.040593065
123	0xbe336fd8	-0.17523134
124	0x3d944851	0.07240356
125	0x3dcee8e5	0.10103015
126	0x3db9dc18	0.09075183
127	0xbe142aa2	-0.14469388
128	0x3d8ff04d	0.070282556
129	0xbbb50624	-0.0055244137
130	0x3d766952	0.060159035
131	0x3c1a2148	0.009407349
132	0x3e1faf90	0.15594316
133	0x3e0eccc1	0.13945295
134	0xbda57991	-0.080798276
135	0x3e1e48aa	0.15457407
136	0x3debf975	0.115221895
137	0xbbaf3cec	-0.0053478386
138	0x3d97a8ec	0.07405266
139	0xbe03123e	-0.12799928
140	0x3d4e87db	0.05042253
141	0x3dfe29e2	0.12410332
142	0xbe07aeec	-0.13250321
143	0xbd6d28e5	-0.05790033
144	0xbe3233bf	-0.17402552
145	0xbce5e9dc	-0.028065614
146	0x3d80ac44	0.06282857
147	0xbd881cdb	-0.06646129
148	0x3e301296	0.1719459
149	0xbdd85e2f	-0.10564839
150	0x3dbf5bff	0.09343719
151	0xbe62319f	-0.22089241
152	0xbe3027fd	-0.17202754
153	0x3d62ac56	0.055340134
154	0xbdafc466	-0.08582382
155	0x3d3e2b48	0.046427995
156	0x3c956be2	0.01823992
157	0x3d0c79b2	0.034295745
158	0xbbebea4a	-0.0071995603
159	0x3d31985d	0.043358196
160	0xbe610ce4	-0.21977574
161	0xbe17b37d	-0.14814563
162	0x3df29f18	0.11846751
163	0x3c555466	0.01302061
164	0xbd609f3a	-0.05483935
165	0xbda7557e	-0.08170603
166	0xbe563100	-0.2091713
167	0x3ddb0f1d	0.10696242
168	0xbd155727	-0.036460068
169	0xbd394705	-0.045233745
170	0xbe4c338c	-0.19941539
171	0x3dd28b57	0.10280483
172	0x3e133b93	0.14378195
173	0xbda7e791	-0.08198465
174	0x3de20eaa	0.11037953
175	0x3cb57b10	0.022153407
176	0x3dcf6632	0.10126914
177	0xbe1b91ac	-0.15192288
178	0x3df3962f	0.118938796
179	0x3ccfe983	0.025379902
180	0x3dfd341d	0.123634554
181	0x3e0c8470	0.13722396
182	0xbe0c9fb8	-0.13732803
183	0x3def4f14	0.11685005
184	0x3e12e807	0.14346324
185	0x3d17e18f	0.037080344
186	0xbe1c0e43	-0.15239815
187	0xbe1ddba0	-0.15415812
188	0x3e0ac260	0.1355071
189	0xbda567fd	-0.08076475
190	0xbe2d4769	-0.16921772
191	0x3df90c23	0.12160518
192	0x3c41806b	0.011810402
193	0x3db0d8d3	0.08635106
194	0xbd87c0da	-0.066285804
195	0xbe3d2dbe	-0.1847448
196	0x3cf8c556	0.030367535
197	0x3e361cf3	0.17784481
198	0xbda66c39	-0.081261106
199	0x3dd7c136	0.10534899
200	0xbd7e2513	-0.062047075
201	0xbe3f1739	-0.18661202
202	0xbd924042	-0.071411625
203	0xbe0ddb42	-0.13853171
204	0xbdbb8865	-0.091568746
205	0xbce91783	-0.028453594
206	0xbc88d90c	-0.016705059
207	0x3c46a244	0.012123648
208	0x3dca5ac1	0.09880591
209	0xbd1a0249	-0.037599836
210	0x3dff05d9	0.12452287
211	0xbd74ab2e	-0.059733562
212	0xbd98bc40	-0.07457781
213	0xbd7deafe	-0.061991684
214	0x3b02a342	0.0019933735
215	0x3da0059b	0.07813569
216	0x3e22dfc0	0.15905666
217	0x3df59b68	0.11992532
218	0x3e1ceeac	0.15325421
219	0xbde1093b	-0.10988089
220	0x3e0e5397	0.13899074
221	0x3b35ea2a	0.002775798
222	0x3dd3c9f1	0.10341252
223	0xbe35980e	-0.17733786
224	0x3bd518cb	0.0065031997
225	0xbe1df5da	-0.15425816
226	0x3dc605e5	0.09669093
227	0xbcbdff22	-0.023192946
228	0x3c5d16fb	0.0134942485
229	0x3e2f1fb7	0.17101942
230	0x3d47a082	0.048737057
231	0x3e2d868c	0.16945857
232	0x3dc10f1f	0.09426712
233	0xbb90eaf0	-0.004422538
234	0x3e05490d	0.13016148
235	0xbd6fea88	-0.058573276
236	0xbda60e0e	-0.081081495
237	0x3e16658b	0.14687173
238	0x3df65886	0.12028603
239	0x3e0d5357	0.13801323
240	0x3da5b608	0.0809136
241	0xbe365a6b	-0.17807929
242	0xbc7d545e	-0.015462009
243	0xbd9f507a	-0.077790216
244	0xbe269ba2	-0.16270307
245	0xbe34205a	-0.17590466
246	0xbdb3abcc	-0.08773002
247	0xbd9975a0	-0.07493138
248	0xbde7daf7	-0.11321061
249	0x3d1c9a6e	0.038233213
250	0xbe081f68	-0.1329323
251	0xbc170f8a	-0.009220013
252	0xbdef4513	-0.11683097
253	0xbc1cd2cc	-0.009571742
254	0x3e154959	0.14578761
255	0x3dd6fbbb	0.104972325

decoder.4.bias f4 [3]
0	0xbe0eec3d	-0.13957305
1	0xbdefcb1d	-0.11708663
2	0xbe5329ea	-0.20621458
